MountCar/checkpoints/checkpoint_episode_350.pt (torch, 286266 bytes, 24 tensors)

net.0.weight f4 [128, 2]
0.020734647 0.65558934 0.39897296 2.0335553 -0.08054263 -0.20724331 -0.60595614 -0.12391574
0.43534172 0.090745285 -0.5561597 -0.22652592 -0.252431 -6.485143 0.45437017 -0.64303464
0.097213894 -0.12627254 -0.14675996 -0.49112037 0.0020588734 0.65660787 -0.6029374 -0.7901751
0.0815984 -0.69585186 0.58171725 0.6056385 0.03319056 0.43477085 0.33229244 -0.051077183
0.060031693 -0.4715718 -0.4729367 -0.7763178 -0.16115336 -0.42480963 0.0034447461 0.6679148
0.27976042 -0.34170675 -0.5785878 -1.0359964 -0.19515811 -0.51881206 0.19974336 -1.1930697
0.23814088 1.0028055 -0.5979328 -0.21523242 -0.6618175 -1.8130463 0.22186972 -0.10943978
-0.6581523 3.5820844 -0.63105917 -1.0640002 -0.5963708 -1.9871907 -0.06573493 5.861176
0.37250108 -0.5830652 -0.62906826 -1.131915 0.3692144 0.1961425 -0.39879128 -0.34482184
-0.12307042 -0.7584794 0.29515916 -0.46829712 -0.44192198 -1.5963688 0.07754651 -6.917078
-0.7519828 -1.7907674 -0.5825764 -1.3717213 -0.29874253 5.277098 0.19261932 0.20060594
0.09494353 -0.5045787 0.6517587 -0.7657837 0.54926574 -0.33066887 0.6298469 -0.03640864
0.31542584 -0.6089569 0.30502203 -2.314252 -0.288882 -0.1307176 -0.6550468 -1.062422
-0.5031218 -0.8853635 -0.40913168 -0.68046445 0.24808031 0.2653671 -0.1834273 -0.10061181
0.7063387 -0.41396093 -0.1987486 -0.08103642 0.120629504 -0.20158939 -0.39127943 -1.0448835
0.043973267 -0.56191766 0.090845086 0.015891554 0.5130829 -0.2971445 0.12465411 -0.08608258
0.5671108 0.14206834 0.49270153 -0.61776364 -0.11801708 0.54974407 -0.2539817 0.21407564
0.39129072 7.8786964 0.3612377 0.033428974 -0.15600643 -0.94193435 -0.020350775 0.45951325
0.2897117 0.5749735 -0.061539203 -0.24030548 0.5771509 -0.18244359 0.48916012 0.22665463
0.3732708 -1.009062 0.36176217 -0.06683394 -0.63665116 -2.0919254 -0.5972552 -0.1111586
0.5602681 -0.106146075 1.0130334 -0.5618397 0.7018994 8.462744 0.3175744 0.70388186
0.27078602 -1.0458624 0.54070836 -0.17299466 -0.306285 -3.1601903 0.35656577 0.00068295456
-0.2237998 -0.69427294 0.2942156 -0.16788295 0.14229645 -1.477436 0.19470124 -0.5515153
-0.29422835 0.20530243 0.5112594 1.6859999 0.43740493 -0.68354523 0.08139898 2.3586016
-0.21114121 0.49529535 0.30515292 -0.43405533 0.10168272 -4.511148 -0.49425074 -5.64643
0.29984146 -0.26689416 0.24943146 0.80999345 0.080859505 -1.1983012 0.06520819 0.27676892
-0.16015095 6.486624 0.23404785 -0.06189998 0.6733949 0.66193944 0.2876552 -0.63359004
-0.53739935 5.2046905 -0.5493383 -1.2265438 -0.53473985 -0.22113752 0.41927364 4.565114
-0.38645524 -0.1589731 0.14758208 0.62113637 0.07127899 8.371491 0.29730457 -0.72889274
0.44403547 0.653776 -0.16746053 -0.86914855 0.16895373 0.14584959 0.35185602 -0.3002857
-0.06718696 -0.5404277 -0.33516467 -1.1448567 -0.58392894 -2.2966216 -0.7413741 -0.96856624
-0.21473819 0.5302859 -0.23532066 -0.9314408 0.37963158 0.60453755 -0.019280944 -0.71297604
00000000: b5db a93c b4d4 273f 2f46 cc3e c525 0240
00000010: 89f3 a4bd 9737 54be f11f 1bbf 89c7 fdbd
00000020: 1ce5 de3e aad8 b93d 7b60 0ebf 69f6 67be
00000030: a33e 81be 4b86 cfc0 35a3 e83e eb9d 24bf
00000040: 1418 c73d 974d 01be 3e48 16be 2174 fbbe
00000050: 2aee 063b 7417 283f 1b5a 1abf ea48 4abf
00000060: 101d a73d 5923 32bf 6ceb 143f 200b 1b3f
00000070: d3f2 073d 499a de3e 3c22 aa3e 4f36 51bd
00000080: cbe3 753d dc71 f1be c224 f2be c3bc 46bf
00000090: 6305 25be a680 d9be 40c1 613b 77fc 2a3f
000000a0: c23c 8f3e 30f4 aebe 541e 14bf 889b 84bf
000000b0: 87d7 47be ded0 04bf 8689 4c3e 82b6 98bf
000000c0: 34db 733e ee5b 803f 2012 19bf e365 5cbe
000000d0: df6c 29bf e711 e8bf d131 633e f721 e0bd
000000e0: ab7c 28bf df40 6540 188d 21bf 2931 88bf
000000f0: c2ab 18bf 445c febf 09a0 86bd c18e bb40
00000100: 76b8 be3e c343 15bf 9e0a 21bf 97e2 90bf
00000110: ab09 bd3e 94d9 483e 5f2e ccbe 7d8c b0be
00000120: 580c fcbd b52b 42bf 1a1f 973e a4c4 efbe
00000130: 9943 e2be d055 ccbf b4d0 9e3d b458 ddc0
00000140: f281 40bf de37 e5bf ba23 15bf 9094 afbf
00000150: c8f4 98be fddd a840 003e 453e a56b 4d3e
00000160: c171 c23d 122c 01bf a8d9 263f 670a 44bf
00000170: ae9c 0c3f 6e4d a9be a53d 213f 3a21 15bd
00000180: 7f7f a13e 99e4 1bbf d92b 9c3e b41c 14c0
00000190: 57e8 93be d6da 05be 26b1 27bf 72fd 87bf
000001a0: 97cc 00bf 2fa7 62bf b579 d1be eb32 2ebf
000001b0: c408 7e3e 32de 873e 5ed4 3bbe 910d cebd
000001c0: 9dd2 343f b0f2 d3be c184 4bbe 6cf6 a5bd
000001d0: 9a0c f73d 736d 4ebe c755 c8be bebe 85bf
000001e0: 501d 343d d6d9 0fbf fd0c ba3d 012f 823c
000001f0: 6759 033f 5323 98be a74a ff3d 104c b0bd
00000200: 2c2e 113f 5d7a 113e 6043 fc3e c225 1ebf
00000210: f0b2 f1bd 07bc 0c3f e409 82be a536 5b3e
00000220: 4257 c83e 481e fc40 26f4 b83e d2ec 083d
00000230: 26c0 1fbe 9c22 71bf abb6 a6bc 5245 eb3e
00000240: 1855 943e 7731 133f 8810 7cbd a412 76be
00000250: 29c0 133f 7ed2 3abe 3273 fa3e 2718 683e
00000260: 5a1d bf3e f228 81bf e438 b93e 3ce0 88bd
00000270: 92fb 22bf 1be2 05c0 b7e5 18bf 1fa7 e3bd
00000280: bb6d 0f3f 1d63 d9bd 14ab 813f bad4 0fbf
00000290: aeaf 333f 6667 0741 1d99 a23e 9a31 343f
000002a0: 77a4 8a3e d2de 85bf dd6b 0a3f 8325 31be
000002b0: 63d1 9cbe 8f40 4ac0 ca8f b63e 4e08 333a
000002c0: c62b 65be dfbb 31bf 6da3 963e 82e9 2bbe
000002d0: 29b6 113e 9f1c bdbf c35f 473e 1b30 0dbf
000002e0: 19a5 96be cd3a 523e e5e1 023f d8ce d73f
000002f0: 8af3 df3e d2fc 2ebf 82b4 a63d 54f3 1640
00000300: 6735 58be 5a97 fd3e 013d 9c3e 803c debe
00000310: 083f d03d 535b 90c0 6f0e fdbe 8eaf b4c0
00000320: d284 993e 5aa6 88be f66a 7f3e bb5b 4f3f
00000330: ab99 a53d ef61 99bf df8b 853d a8b4 8d3e
00000340: 9cfe 23be 6c92 cf40 3daa 6f3e d58a 7dbd
00000350: 9c63 2c3f dd74 293f 8b47 933e f532 22bf
00000360: 0193 09bf d38c a640 6fa1 0cbf 63ff 9cbf
00000370: b6e4 08bf e071 62be 09ab d63e 6a15 9240
00000380: 76dd c5be d8c9 22be c21f 173e cb02 1f3f
00000390: b8fa 913d a1f1 0541 4e38 983e b798 3abf
000003a0: 9e58 e33e dd5d 273f c67a 2bbe 8580 5ebf
000003b0: 3502 2d3e 9859 153e 7926 b43e 0cbf 99be
000003c0: 5199 89bd 7859 0abf b49a abbe aa8a 92bf
000003d0: 5e7c 15bf d9fb 12c0 b1ca 3dbf f5f3 77bf
000003e0: 54e4 5bbe d1c0 073f e6f7 70be e772 6ebf
000003f0: 125f c23e f9c2 1a3f 12f3 9dbc 9985 36bf

net.0.bias f4 [128]
-0.4462771 0.1695631 -0.17841788 0.3041671 -0.51668876 0.43660504 -0.15540446 -0.2511282
-0.590685 -0.2109277 -0.38065127 0.3152083 -0.688404 -0.35570717 -0.19238813 0.59343064
-0.2729498 0.30619773 -0.5020516 -0.6126065 0.43018565 0.71257675 0.41591892 0.45941648
0.3357793 0.33039233 -0.40534696 0.4731064 -0.47777006 0.33461067 0.3354268 -0.21207187
0.61057514 0.33535615 0.44982514 -0.5557109 0.41610894 0.7075622 0.33729148 0.029665427
0.10080784 0.46435714 -0.30329028 0.6951157 -0.1487729 0.6482969 0.72610134 -0.36677057
0.2639583 0.20268646 -0.45782393 0.6655082 0.26744774 0.34990463 -0.1371279 0.3068155
-0.5016746 -0.5150816 -0.5479874 0.215286 0.31914082 -0.332512 0.51947373 -0.53888464
0.79277986 -0.53024536 -0.20243907 0.751855 -0.17026061 0.4228128 0.09589566 -0.68326604
-0.1877229 -0.23986293 0.7488831 0.6020207 0.33534622 -0.6473808 -0.5333896 0.73032695
-0.6054474 0.6180263 -0.19040704 0.41669568 0.5121869 0.6754797 -0.57787764 0.5421118
-0.34624562 -0.5465714 0.49100137 -0.5767261 0.7003525 0.23479444 0.40187716 0.022902759
-0.5937468 0.32932466 -0.0007442426 -0.28781196 0.21743146 0.33929563 0.5095433 0.4386371
-0.26781362 0.32748163 -0.68900925 0.28412768 -0.40537095 0.38227102 0.326333 0.32801688
0.7054162 -0.26721558 -0.24941048 0.61634153 0.56314343 0.42467394 -0.3643642 0.54556215
0.3797478 0.56709856 -0.5225109 0.5402806 -0.66219467 0.40238118 -0.54696524 0.71835977
00000000: 6f7e e4be f3a1 2d3e 2db3 36be cabb 9b3e
00000010: b745 04bf b28a df3e 5922 1fbe e093 80be
00000020: 2237 17bf 6efd 57be b9e4 c2be fb62 a13e
00000030: 3f3b 30bf 401f b6be 6501 45be 12eb 173f
00000040: 14c0 8bbe f3c5 9c3e 7486 00bf c8d3 1cbf
00000050: 4b41 dc3e 6e6b 363f 53f3 d43e a338 eb3e
00000060: 44eb ab3e 2f29 a93e a389 cfbe 013b f23e
00000070: 479e f4be 1752 ab3e 10bd ab3e 5e29 59be
00000080: a74e 1c3f cdb3 ab3e 7b4f e63e 1243 0ebf
00000090: 3b0c d53e cc22 353f 78b1 ac3e e904 f33c
000000a0: 5774 ce3d 38c0 ed3e dd48 9bbe 1af3 313f
000000b0: ec57 18be c9f6 253f c7e1 393f 5ac9 bbbe
000000c0: 8b25 873e 0a8d 4f3e e667 eabe bf5e 2a3f
000000d0: e9ee 883e b326 b33e 426b 0cbe ec16 9d3e
000000e0: bf6d 00bf 63dc 03bf e748 0cbf ef73 5c3e
000000f0: 6d66 a33e 033f aabe 3bfc 043f 58f4 09bf
00000100: 9ff3 4a3f 29be 07bf 304c 4fbe 9279 403f
00000110: cc58 2ebe eb7a d83e f264 c43d 86ea 2ebf
00000120: 6f3a 40be a19e 75be ceb6 3f3f 071e 1a3f
00000130: 80b2 ab3e c0ba 25bf 398c 08bf b5f6 3a3f
00000140: 9afe 1abf f936 1e3f 10fa 42be 2359 d53e
00000150: ae1e 033f 3dec 2c3f caef 13bf d7c7 0a3f
00000160: 1b47 b1be 1aec 0bbf 8864 fb3e 52a4 13bf
00000170: 4d4a 333f f46d 703e d8c2 cd3e 919e bb3c
00000180: caff 17bf 3e9d a83e 4719 43ba 175c 93be
00000190: 5aa6 5e3e 28b8 ad3e 6e71 023f 0b95 e03e
000001a0: de1e 89be acab a73e e962 30bf 2f79 913e
000001b0: c88c cfbe 07b9 c33e 1e15 a73e d4f1 a73e
000001c0: 2896 343f 7bd0 88be 7665 7fbe 8fc8 1d3f
000001d0: 2b2a 103f dd6e d93e f28d babe f6a9 0b3f
000001e0: 4e6e c23e 5f2d 113f 46c3 05bf d44f 0a3f
000001f0: 9785 29bf e804 ce3e ea05 0cbf 6de6 373f

net.2.weight f4 [128, 128]
0.039066736 0.06116633 0.027196623 0.025174133 0.009851004 0.07216392 0.022421038 -0.04577586
-0.034030125 -0.0031779355 -0.039572455 0.06238921 0.0048169317 -0.067891136 -0.009742655 -0.08294581
0.08635288 -0.027318712 -0.0034582647 -0.053344104 -0.031137364 0.03499726 -0.059638757 0.06589696
-0.013135244 0.0790922 -0.019990556 0.06648679 0.0715077 0.068641365 -0.0560718 0.003741386
0.07815609 0.050711215 -0.012792264 0.00023738158 0.06699268 -0.07841219 0.0054546874 -0.0015032516
-0.020441916 -0.070206925 -0.001531901 -0.021480214 -0.08233486 0.0034379922 -0.07073757 0.020883342
0.0052472297 0.042750917 -0.042209372 -0.0679492 -0.043531813 -0.042283636 -0.011464764 -0.06603372
-0.07773146 0.025963016 0.026683917 -0.061738633 0.021645842 0.064646415 0.057796996 -0.06494625
0.014690958 0.08436499 0.037529904 -0.088277 -0.0051063225 0.01526974 0.014402158 0.0695396
0.015999882 -0.022731913 0.04383406 -0.014812436 -0.060219385 0.013516294 0.00901343 0.054543804
-0.08721843 -0.013399136 -0.036149014 -0.031197887 -0.05087526 -0.023035707 -0.085664846 0.07331594
-0.05049282 -0.067769125 0.01463524 0.04125484 -0.057900853 0.05721147 0.016995726 -0.08304485
-0.016423563 0.04162981 -0.027535789 0.02623654 -0.045516793 0.011608896 -0.013046736 0.017654851
0.0038464584 -0.00026928674 0.043549832 0.057972737 -0.028130092 -0.041110437 0.02008979 -0.060674127
0.03139587 0.0663188 -0.024240602 0.017214375 0.014601038 -0.059961814 0.049683988 -0.020003706
0.06698942 0.036881085 0.021936065 0.031198645 0.03329053 -0.02126008 0.026485395 -0.049355224
-0.038104195 0.034514192 0.024930324 0.024076968 -0.053937186 -0.11495991 -0.09402212 -0.033673942
0.046520974 0.0044726552 0.03345563 0.04769307 -0.045227468 0.0126566775 -0.06329043 -0.068637
0.056014508 -0.10058466 0.068804465 0.05996816 0.046650685 0.01264433 0.046402033 -0.098359734
-0.03751866 -0.01672741 -0.081615284 -0.09256336 -0.074214645 0.01772308 -0.027290365 -0.08721897
-0.092170246 0.05366547 -0.10452665 -0.039241508 -0.091164365 -0.04570904 -0.046607085 -0.04217752
0.0055225254 -0.061153747 -0.07136281 0.03388943 0.033306766 0.011677175 -0.060617123 0.05925598
0.008896778 -0.06831734 -0.04082387 -0.08418539 0.03865672 -0.119945504 0.060359903 -0.08031314
-0.0025191065 -0.065215334 0.029569522 0.048793823 0.041603 -0.028021406 -0.07175085 -0.032671984
0.022149278 0.012019481 0.08361984 -0.043882683 -0.053604446 -0.08627757 0.046227627 0.051800173
0.056442596 0.013197147 -0.014932703 0.020357912 -0.07289367 -0.007889458 -0.09481561 -0.096655644
0.050598353 0.029000748 -0.011886307 0.07027206 -0.047083106 -0.02777731 -0.0380695 0.049449652
0.0875777 0.029870883 -0.10824348 0.07972879 0.054855235 0.06882835 -0.08940364 -0.023788914
-0.03734176 -0.00025956772 -0.06392485 0.056633547 0.02970498 0.074857526 -0.08226587 0.050868895
0.056978114 -0.10367555 0.060803182 0.047577843 0.068102196 -0.07665116 0.04254617 0.066424124
-0.09698342 -0.059311192 -0.079013646 0.021495022 -0.08556136 -0.04858393 -0.08260598 -0.1166248
-0.04824178 0.039168093 -0.0678298 0.0013041145 -0.0460758 -0.040577732 -0.00027970754 -0.08070045
00000000: 7104 203d 8c89 7a3d 74cb de3c fc39 ce3c
00000010: 1b66 213c adca 933d 53ac b73c 787f 3bbd
00000020: 2c63 0bbd e944 50bb ba16 22bd d48b 7f3d
00000030: 5ad7 9d3b 820a 8bbd a89f 1fbc 7edf a9bd
00000040: c7d9 b03d 7ecb dfbc 0ea4 62bb 597f 5abd
00000050: c913 ffbc 4959 0f3d c547 74bd fcf4 863d
00000060: 3535 57bc 17fb a13d 3cc3 a3bc 3a2a 883d
00000070: a172 923d d893 8c3d 8bab 65bd 0b32 753b
00000080: 4d10 a03d 90b6 4f3d a596 51bc a2e9 7839
00000090: 7533 893d 9296 a0bd 3cbd b23b c108 c5ba
000000a0: ce75 a7bc a6c8 8fbd 11ca c8ba 46f7 afbc
000000b0: 2e9f a8bd f04f 613b dcde 90bd 8b13 ab3c
000000c0: f4f0 ab3b 961b 2f3d bce3 2cbd f328 8bbd
000000d0: 6a4e 32bd 9b31 2dbd b5d6 3bbc b03c 87bd
000000e0: ac31 9fbd 64b0 d43c 3b98 da3c a6e1 7cbd
000000f0: 9f52 b13c 5765 843d 8bbc 6c3d 8a02 85bd
00000100: 58b2 703c 8dc7 ac3d f5b8 193d 92ca b4bd
00000110: f052 a7bb ee2d 7a3c 07f7 6b3c c76a 8e3d
00000120: 2f12 833c 4738 babc 588b 333d dcaf 72bc
00000130: 9aa8 76bd 7273 5d3c 11ad 133c 5369 5f3d
00000140: 949f b2bd 0d88 5bbc fd10 14bd b692 ffbc
00000150: 9462 50bd 61b5 bcbc 0d71 afbd ab26 963d
00000160: 8fd1 4ebd 8aca 8abd a5c8 6f3c d6fa 283d
00000170: 7229 6dbd 9356 6a3d 9f3a 8b3c 6b13 aabd
00000180: b58a 86bc 0584 2a3d bc92 e1bc 03ee d63c
00000190: d16f 3abd 3d33 3e3c fac1 55bc e8a0 903c
000001a0: dd14 7c3b 0e2f 8db9 4f61 323d d274 6d3d
000001b0: 1471 e6bc 6b63 28bd 5893 a43c 6f85 78bd
000001c0: f598 003d 27d2 873d 3a94 c6bc 2905 8d3c
000001d0: 3139 6f3c 859a 75bd 7081 4b3d d0de a3bc
000001e0: c031 893d 9f10 173d 43b3 b33c 4d94 ff3c
000001f0: a75b 083d 9f29 aebc e6f7 d83c b428 4abd
00000200: 2513 1cbd c15e 0d3d ae3a cc3c 103d c53c
00000210: 3ded 5cbd 1a70 ebbd ab8e c0bd b0ed 09bd
00000220: c78c 3e3d 5a8f 923b c508 093d cf59 433d
00000230: 7040 39bd f45d 4f3c 6a9e 81bd 8e91 8cbd
00000240: 786f 653d 55ff cdbd 5be9 8c3d 2ca1 753d
00000250: ca14 3f3d 2a2a 4f3c 0f10 3e3d d470 c9bd
00000260: 2bad 19bd ec07 89bc ea25 a7bd dc91 bdbd
00000270: d9fd 97bd fe2f 913c 0b90 dfbc dc9f b2bd
00000280: c1c3 bcbd 53d0 5b3d 1112 d6bd b4bb 20bd
00000290: 62b4 babd 6739 3bbd 12e7 3ebd 56c2 2cbd
000002a0: 4df6 b43b 5a7c 7abd aa26 92bd a5cf 0a3d
000002b0: ad6c 083d 9f51 3f3c a949 78bd 66b6 723d
000002c0: cbc3 113c f6e9 8bbd ee36 27bd 6469 acbd
000002d0: 8256 1e3d fda5 f5bd f23b 773d 377b a4bd
000002e0: 9817 25bb 9e8f 85bd c83b f23c 08dc 473d
000002f0: e867 2a3d 268d e5bc 1cf2 92bd 0fd3 05bd
00000300: 6772 b53c 5bed 443c e140 ab3d 54be 33bd
00000310: 5690 5bbd 4bb2 b0bd 2e59 3d3d 6b2c 543d
00000320: 5a30 673d d938 583c 4ca8 74bc a3c5 a63c
00000330: 4749 95bd c942 01bc b02e c2bd 65f3 c5bd
00000340: 3840 4f3d fa92 ed3c c9be 42bc ccea 8f3d
00000350: 37da 40bd 3e8d e3bc c4ee 1bbd b88b 4a3d
00000360: f05b b33d c8b3 f43c c2ae ddbd d948 a33d
00000370: e2af 603d e1f5 8c3d 4119 b7bd f8e0 c2bc
00000380: acf3 18bd 9716 88b9 08eb 82bd 94f8 673d
00000390: dc57 f33c e74e 993d 027b a8bd e75b 503d
000003a0: e261 693d d953 d4bd c20c 793d fce0 423d
000003b0: 2a79 8b3d 49fb 9cbd e544 2e3d 5f09 883d
000003c0: 3e9f c6bd 4bf0 72bd e8d1 a1bd 5416 b03c
000003d0: cb3a afbd f1ff 46bd 532d a9bd fcd8 eebd
000003e0: 2c99 45bd b96e 203d 5aea 8abd d2ee aa3a
000003f0: fab9 3cbd d634 26bd b6a5 92b9 4746 a5bd

net.2.bias f4 [128]
-0.02672655 -0.06381665 0.08334081 -0.065635614 -0.06305698 0.043424826 -0.05348968 0.14089926
0.014562958 -0.019199736 -0.072909504 -0.08803178 0.18306981 0.009320378 0.057283405 0.0008855932
0.060989227 -0.050826713 0.12456227 0.08232767 0.045640536 0.34185773 0.0695743 -0.08783324
-0.05106092 -0.052264813 0.15032822 0.103475295 0.0028255521 0.17740153 -0.028709313 0.035338867
0.15494698 -0.032924432 -0.022085058 0.030326761 0.045996424 0.3183187 0.08377335 0.08180441
0.058483608 0.017037991 0.0013423156 0.07650671 -0.06607896 0.04942662 -0.04368819 0.21875103
0.27558964 0.34974456 0.0052337535 0.09693033 0.18222356 -0.08415369 -0.00063602754 0.1499636
0.096779935 0.062195785 -0.08639709 -0.104327664 0.014818072 0.024678381 0.024611963 0.0062979767
0.1118731 -0.028352775 0.0270079 0.26200652 0.021239102 -0.07041181 0.14763808 0.029981932
-0.03261521 0.14757165 0.03612026 -0.019942928 -0.10426828 -0.062580176 0.023667308 0.056183025
0.19069226 -0.04753063 -0.06912577 -0.00961807 0.054582372 0.021301262 0.017634008 -0.025657699
0.049599633 0.15839547 -0.080318645 0.14686316 0.27323303 0.1935327 0.02444064 0.17904674
0.013056704 0.10217258 -0.08591674 0.15448561 0.04006926 0.053886853 0.03463624 -0.092115045
-0.0004935396 -0.02099089 0.07560068 0.17506607 -0.0048712185 0.012552492 -0.0022914477 -0.03294375
0.0027406474 -0.05807392 -0.08790734 -0.004594106 0.06718679 0.058943395 -0.08127615 -0.06715703
0.045967363 -0.014727309 -0.054086197 -0.022032982 0.059335798 0.06318747 -0.011365182 0.012758388
00000000: a3f1 dabc 4eb2 82bd 96ae aa3d f76b 86bd
00000010: 0524 81bd 3bde 313d ff17 5bbd e547 103e
00000020: 7999 6e3c c448 9dbc 9451 95bd 024a b4bd
00000030: a776 3b3e 80b4 183c 01a2 6a3d 2727 683a
00000040: d7cf 793d ac2f 50bd 811a ff3d 699b a83d
00000050: 92f1 3a3d fa07 af3e f87c 8e3d eae1 b3bd
00000060: 4125 51bd a113 56bd a4ef 193e dbea d33d
00000070: e62c 393b bfa8 353e cb2f ebbc 7dbf 103d
00000080: 6caa 1e3e c5db 06bd b9eb b4bc d46f f83c
00000090: bf66 3c3d abfa a23e 5d91 ab3d 1289 a73d
000000a0: 828c 6f3d 4293 8b3c a3f0 af3a 8daf 9c3d
000000b0: 6854 87bd 9173 4a3d 63f2 32bd 4500 603e
000000c0: 161a 8d3e b811 b33e e87f ab3b 6983 c63d
000000d0: d098 3a3e c558 acbd 16bb 26ba 0f90 193e
000000e0: 8f34 c63d 02c1 7e3d f5f0 b0bd bea9 d5bd
000000f0: 80c7 723c 512a ca3c 079f c93c 425f ce3b
00000100: b91d e53d 1444 e8bc ac3f dd3c b825 863e
00000110: a0fd ad3c 1134 90bd 702e 173e ab9c f53c
00000120: 8797 05bd 061d 173e d6f2 133d 5a5f a3bc
00000130: 9c8a d5bd 092a 80bd f1e1 c13c 2c20 663d
00000140: d544 433e 7aaf 42bd d091 8dbd 1c95 1dbc
00000150: c491 5f3d fc7f ae3c 3275 903c 1830 d2bc
00000160: fc28 4b3d 6c32 223e 1a7e a4bd 4c63 163e
00000170: 33e5 8b3e 702d 463e bd37 c83c 0758 373e
00000180: c9eb 553c dc3f d13d 1ef5 afbd 7a31 1e3e
00000190: aa1f 243d 76b8 5c3d bbde 0d3d d0a6 bcbd
000001a0: e260 01ba 16f5 abbc 88d4 9a3d 8544 333e
000001b0: be9e 9fbb f8a8 4d3c 1d2c 16bb 07f0 06bd
000001c0: 6f9c 333b ebde 6dbd c308 b4bd 288a 96bb
000001d0: 3a99 893d a16e 713d 1c74 a6bd a089 89bd
000001e0: 4648 3c3d d04a 71bc 7d89 5dbd 837e b4bc
000001f0: 180a 733d 6f68 813d 0735 3abc 8f08 513c

net.4.weight f4 [3, 128]
0.046167627 0.05905233 -0.7011993 0.08235674 -0.017181395 -0.05456529 -0.04342132 -0.6819257
-0.53772175 0.021773815 0.009799683 -0.015501716 -0.6355135 0.045083497 -0.07438233 0.07347993
-1.6759329 -0.016729144 -0.5136095 -0.63936114 0.0116428835 -0.5337721 0.07306023 -0.03084151
0.058835223 -0.04018759 -0.5646326 -0.47348407 0.015066084 -0.53927547 -0.04367085 0.016718443
-0.7512408 0.0063787675 0.045005295 -0.3494888 0.0645435 -0.45648727 0.084701754 -0.016037783
-0.0073745605 -0.008332551 0.047588345 -1.4770402 0.03079828 0.026869131 -0.0032562627 -0.39473742
-0.47127825 -0.4273524 -0.08792505 -0.76868284 -1.0751873 -0.007087457 -0.007339568 -0.5003799
-1.1763889 0.0766336 0.025311602 0.01502984 -0.048688814 0.05945597 -0.014885205 -0.052084245
-0.8068916 -0.0510987 -0.052855708 -0.31513274 -1.2682153 -0.027817257 -0.55669993 -1.312485
0.038315404 -1.5203042 -0.8410573 -0.031735856 0.08206011 0.03560043 0.067000076 -0.5128249
-1.1342994 0.012572502 -0.003294992 -1.6677926 -1.3455063 -0.6734524 -0.03625414 0.027177747
0.047103032 -0.8143375 -0.0014097306 -0.52419364 -0.5157083 -0.6394453 0.043008182 -0.93350965
0.028456813 -0.6436704 0.060150325 1.1921232 -0.0080745565 -0.013689688 -0.51912946 0.081796475
-0.010852455 -0.06947984 -0.6852181 -0.46871713 -0.03386173 -0.01716979 -0.6285647 -0.0050460906
-0.033947133 0.039387535 -0.063366145 -0.023166427 -0.02130854 0.058441147 0.060998317 0.06359474
0.06387944 -0.05610424 -0.05583977 0.07865764 0.03088021 0.02289912 -0.033362687 0.02895071
0.06753277 -0.066473 -0.7820401 -0.021106467 0.051980823 0.05720006 -0.038884558 -0.7983188
-0.58503807 0.044770848 -0.069465354 0.039022133 -0.68322265 0.037353348 -0.067266256 -0.07231432
-1.0789946 0.04362696 -0.6336377 -0.997723 0.048874874 -0.42358688 0.023126997 0.041424934
0.042055886 0.015241891 -0.6092832 -0.7721468 -0.022227457 -0.70069253 0.019275581 0.060354635
-0.7088515 0.01048328 0.07581882 -0.634551 0.024085818 -0.4309458 0.06303513 -0.05525359
0.016461274 0.056379862 -0.008161222 -1.3975216 0.0512256 -0.08512868 0.075214155 -0.4114148
-0.47133294 -0.34166873 0.024563182 -0.72512364 -0.9553623 -0.060373366 -0.08084886 -0.7260894
-1.0001789 0.019265514 -0.010488527 -0.009002383 0.070708916 -0.04722427 -9.26988e-05 0.040514387
-0.84899944 0.028676989 -0.064892925 -0.42892265 -1.1396737 -0.07089282 -0.7499785 -0.9943112
-0.03633683 -1.2911488 -0.89223576 0.04587038 0.04382027 -0.004035097 0.017032836 -0.6709531
-1.036153 0.08061306 -0.050579317 -1.4825238 -1.1507366 -0.8247807 0.052674774 -0.06918846
0.066135645 -0.87485087 0.062989295 -0.77184314 -0.4254294 -0.4501363 -0.017757151 -0.9321781
0.05403662 -0.7876075 0.023135323 1.1343206 -0.06786595 -0.045712397 -0.6187609 0.055632047
-0.029147811 -0.06280415 -0.76961017 -0.49758312 0.037669457 -0.03492605 -0.64105994 0.05204941
0.064694464 0.06371557 -0.07907171 0.054068822 0.08019636 0.047285974 -0.031864375 -0.0048499377
-0.021730013 0.07264881 0.036679346 -0.030810336 0.015266661 0.049237885 0.085636154 0.01916689
00000000: 441a 3d3d dbe0 713d cc81 33bf a7aa a83d
00000010: ffbf 8cbc db7f 5fbd 8eda 31bd af92 2ebf
00000020: 22a8 09bf 005f b23c d98e 203c e9fa 7dbc
00000030: 03b1 22bf 79a9 383d c355 98bd a57c 963d
00000040: f884 d6bf 8f0b 89bc ea7b 03bf 2cad 23bf
00000050: cbc1 3e3c 4aa5 08bf 9aa0 953d 56a7 fcbc
00000060: 34fd 703d be9b 24bd c38b 10bf 816c f2be
00000070: bdd7 763c f50d 0abf 35e0 32bd 1ef5 883c
00000080: 5151 40bf fb04 d13b 7957 383d 32f0 b2be
00000090: 622f 843d b3b8 e9be 1d78 ad3d ab61 83bc
000000a0: 4ca6 f1bb 4185 08bc ffeb 423d a70f bdbf
000000b0: ad4c fc3c a71c dc3c 0667 55bb 061b cabe
000000c0: 624b f1be efcd dabe 0c12 b4bd 66c8 44bf
000000d0: bd9f 89bf e63d e8bb c280 f0bb e618 00bf
000000e0: e993 96bf 14f2 9c3d 475a cf3c b83f 763c
000000f0: ec6d 47bd 1a88 733d 13e1 73bc 4a56 55bd
00000100: 7390 4ebf df4c 51bd 3a7f 58bd 1459 a1be
00000110: e154 a2bf 04e1 e3bc e383 0ebf 82ff a7bf
00000120: 9df0 1c3d 5499 c2bf 884f 57bf 75fd 01bd
00000130: 220f a83d c2d1 113d 5637 893d 7e48 03bf
00000140: b930 91bf e5fc 4d3c cbf0 57bb 3a7a d5bf
00000150: 8d39 acbf 6067 2cbf 397f 14bd dea3 de3c
00000160: 1cef 403d 6c78 50bf b6c6 b8ba 8e31 06bf
00000170: 7605 04bf b0b2 23bf 5929 303d 7dfa 6ebf
00000180: 431e e93c 95c7 24bf 3060 763d 7e97 983f
00000190: 254b 04bc b74a 60bc abe5 04bf e984 a73d
000001a0: 7fce 31bc 724b 8ebd 746a 2fbf b1fb efbe
000001b0: 99b2 0abd a9a7 8cbc 9ee9 20bf ad59 a5bb
000001c0: 260c 0bbd d354 213d 1cc6 81bd 85c7 bdbc
000001d0: 3f8f aebc fc5f 6f3d 5fd9 793d f63d 823d
000001e0: 39d3 823d 8fcd 65bd 3eb8 64bd 4217 a13d
000001f0: 7ff8 fc3c ef96 bb3c 50a7 08bd 0a2a ed3c
00000200: 9f4e 8a3d ff22 88bd c833 48bf 78e7 acbc
00000210: d8e9 543d 9c4a 6a3d 6a45 1fbd 9f5e 4cbf
00000220: 0ec5 15bf a361 373d da43 8ebd acd5 1f3d
00000230: aee7 2ebf d3ff 183d e4c2 89bd 8819 94bd
00000240: 7f1c 8abf 2fb2 323d 1536 22bf c66a 7fbf
00000250: 0531 483d 61e0 d8be d474 bd3c 31ad 293d
00000260: cb42 2c3d 20b9 793c fcf9 1bbf 6aab 45bf
00000270: 5b16 b6bc 9660 33bf d3e7 9d3c 6c36 773d
00000280: 4b77 35bf 10c2 2b3c e646 9b3d ef71 22bf
00000290: 9f4f c53c eea4 dcbe 9018 813d 9751 62bd
000002a0: cbd9 863c 92ee 663d a5b6 05bc fde1 b2bf
000002b0: efd1 513d f257 aebd e109 9a3d f6a4 d2be
000002c0: 8d52 f1be 34ef aebe ba38 c93c b4a1 39bf
000002d0: a092 74bf 104a 77bd 1694 a5bd ffe0 39bf
000002e0: dd05 80bf b6d2 9d3c 12d8 2bbc bb7e 13bc
000002f0: d6cf 903d 3c6e 41bd 4a67 c2b8 6af2 253d
00000300: 0758 59bf 01ec ea3c 95e6 84bd c09b dbbe
00000310: d4e0 91bf 4130 91bd 97fe 3fbf 2e8b 7ebf
00000320: eed5 14bd 5d44 a5bf 9069 64bf 94e2 3b3d
00000330: e27c 333d d938 84bb 7288 8b3c 95c3 2bbf
00000340: a9a0 84bf 7618 a53d 422c 4fbd 57c3 bdbf
00000350: 564b 93bf d424 53bf 81c1 573d aeb2 8dbd
00000360: 2072 873d 3af6 5fbf 8800 813d 8397 45bf
00000370: e2d1 d9be 4478 e6be 7277 91bc 39a3 6ebf
00000380: 8155 5d3d a5a0 49bf 4a86 bd3c 6b31 913f
00000390: 4efd 8abd ec3c 3bbd 1d67 1ebf 6ede 633d
000003a0: 64c7 eebc 769f 80bd 2c05 45bf 37c3 febe
000003b0: 4a4b 1a3d 9e0e 0fbd 811c 24bf c331 553d
000003c0: 887e 843d 4f7d 823d 59f0 a1bd 4577 5d3d
000003d0: fd3d a43d f0ae 413d 3884 02bd 3aec 9ebb
000003e0: 2403 b2bc e6c8 943d 153d 163d f565 fcbc
000003f0: 0421 7a3c aaad 493d 0262 af3d e203 9d3c

net.4.bias f4 [3]
-0.42487013 -0.14674331 -0.24714068
00000000: 9488 d9be e143 16be 7212 7dbe

net.0.weight f4 [128, 2]
0.020734647 0.65558934 0.3993598 2.0336273 -0.08054263 -0.20724331 -0.6059039 -0.1244802
0.43534172 0.090745285 -0.5560592 -0.22703107 -0.25230554 -6.4849086 0.45437017 -0.64303464
0.097213894 -0.12627254 -0.14675996 -0.49112037 0.0020588734 0.65660787 -0.6028355 -0.7906485
0.0815984 -0.69585186 0.58171725 0.6056385 0.03319056 0.43477085 0.33243597 -0.051524274
0.060031693 -0.4715718 -0.4728194 -0.7767924 -0.16115336 -0.42480963 0.0034447461 0.6679148
0.27992067 -0.34213716 -0.57850325 -1.0364789 -0.19504912 -0.519287 0.19989505 -1.1934625
0.23829792 1.0023952 -0.597851 -0.2157214 -0.66146547 -1.8122219 0.22201924 -0.1098732
-0.6578816 3.5833287 -0.63092405 -1.0644513 -0.5962046 -1.9875978 -0.06645074 5.862141
0.372697 -0.5834529 -0.62896836 -1.1323898 0.36942977 0.19574003 -0.39879128 -0.34482184
-0.12298008 -0.75895405 0.29530838 -0.4686985 -0.44184443 -1.5968591 0.077345304 -6.917014
-0.7521238 -1.7900667 -0.5824686 -1.3721812 -0.298862 5.2778625 0.1927341 0.20014068
0.09494353 -0.5045787 0.65197706 -0.76615703 0.5494476 -0.33107817 0.6298469 -0.03640864
0.31547442 -0.6093799 0.30421856 -2.314618 -0.288882 -0.1307176 -0.65496755 -1.0629231
-0.50304437 -0.8858891 -0.4090612 -0.6809599 0.24808031 0.2653671 -0.18329577 -0.101079434
0.7063387 -0.41396093 -0.1987486 -0.08103642 0.120629504 -0.20158939 -0.39117947 -1.0453764
0.04406743 -0.5623766 0.090845086 0.015891554 0.51329345 -0.2975447 0.12465411 -0.08608258
0.56728804 0.14166461 0.49270153 -0.61776364 -0.11801708 0.54974407 -0.25385225 0.21360454
0.39037672 7.878472 0.36147967 0.033056475 -0.15599075 -0.9424536 -0.020350775 0.45951325
0.2897117 0.5749735 -0.061539203 -0.24030548 0.5773332 -0.18284342 0.48937306 0.22626752
0.3734508 -1.0094073 0.36176217 -0.06683394 -0.63713396 -2.0920644 -0.5971464 -0.11163102
0.5602681 -0.106146075 1.0121433 -0.5626153 0.7017874 8.46156 0.31772524 0.70346814
0.2709114 -1.046292 0.54091763 -0.1733685 -0.306285 -3.1601903 0.35674837 0.00028838322
-0.2237998 -0.69427294 0.2942156 -0.16788295 0.14240807 -1.4778625 0.19470124 -0.5515153
-0.29409438 0.20483272 0.51166016 1.6860541 0.4376663 -0.6839041 0.08294674 2.3582573
-0.21114121 0.49529535 0.30538863 -0.43443906 0.10118253 -4.5113807 -0.4941683 -5.6462665
0.2999295 -0.26701328 0.24959862 0.80960166 0.08096415 -1.1987584 0.06532235 0.27628872
-0.16037722 6.4873695 0.23427002 -0.06229159 0.6733949 0.66193944 0.28783813 -0.63392615
-0.5372721 5.2053127 -0.54924136 -1.227027 -0.53463477 -0.22163814 0.41888964 4.5650916
-0.38635358 -0.15946251 0.14758208 0.62113637 0.07050295 8.372205 0.2974296 -0.72933507
0.44420487 0.65337104 -0.16736023 -0.8696287 0.16895373 0.14584959 0.35203326 -0.30069566
-0.067093976 -0.54091704 -0.3350687 -1.145328 -0.5845882 -2.296829 -0.7412852 -0.96907914
-0.21473819 0.5302859 -0.23523201 -0.93192226 0.37963158 0.60453755 -0.01919102 -0.71343154
00000000: b5db a93c b4d4 273f e378 cc3e f326 0240
00000010: 89f3 a4bd 9737 54be 851c 1bbf 7aef febd
00000020: 1ce5 de3e aad8 b93d e559 0ebf d57a 68be
00000030: 312e 81be 5f84 cfc0 35a3 e83e eb9d 24bf
00000040: 1418 c73d 974d 01be 3e48 16be 2174 fbbe
00000050: 2aee 063b 7417 283f 6d53 1abf f167 4abf
00000060: 101d a73d 5923 32bf 6ceb 143f 200b 1b3f
00000070: d3f2 073d 499a de3e 0c35 aa3e 1e0b 53bd
00000080: cbe3 753d dc71 f1be 6215 f2be dedb 46bf
00000090: 6305 25be a680 d9be 40c1 613b 77fc 2a3f
000000a0: c351 8f3e 9a2c afbe ca18 14bf 57ab 84bf
000000b0: f5ba 47be feef 04bf 4ab1 4c3e 61c3 98bf
000000c0: 5f04 743e 7c4e 803f c30c 19bf 12e6 5cbe
000000d0: cd55 29bf e3f6 e7bf 0359 633e 3305 e1bd
000000e0: ee6a 28bf 4255 6540 3d84 21bf f13f 88bf
000000f0: dda0 18bf 9b69 febf 5317 88bd a996 bb40
00000100: 24d2 be3e 2b5d 15bf 1204 21bf 26f2 90bf
00000110: e625 bd3e 1370 483e 5f2e ccbe 7d8c b0be
00000120: fbdc fbbd d04a 42bf a932 973e 40f9 efbe
00000130: 6f39 e2be e165 ccbf 3767 9e3d 2e58 ddc0
00000140: 2f8b 40bf e820 e5bf aa1c 15bf a2a3 afbf
00000150: 7104 99be 40e4 a840 175c 453e aef1 4c3e
00000160: c171 c23d 122c 01bf f8e7 263f de22 44bf
00000170: 99a8 0c3f 1483 a9be a53d 213f 3a21 15bd
00000180: dd85 a13e 5200 1cbf 89c2 9b3e b422 14c0
00000190: 57e8 93be d6da 05be f4ab 27bf dd0d 88bf
000001a0: 84c7 00bf a1c9 62bf 7870 d1be 6353 2ebf
000001b0: c408 7e3e 32de 873e e3b1 3bbe bc02 cfbd
000001c0: 9dd2 343f b0f2 d3be c184 4bbe 6cf6 a5bd
000001d0: 9a0c f73d 736d 4ebe ad48 c8be e5ce 85bf
000001e0: 0d80 343d eaf7 0fbf fd0c ba3d 012f 823c
000001f0: 3367 033f c757 98be a74a ff3d 104c b0bd
00000200: ca39 113f 8710 113e 6043 fc3e c225 1ebf
00000210: f0b2 f1bd 07bc 0c3f ecf8 81be 26bb 5a3e
00000220: 75df c73e 711c fc40 dd13 b93e 3a66 073d
00000230: 0abc 1fbe a444 71bf abb6 a6bc 5245 eb3e
00000240: 1855 943e 7731 133f 8810 7cbd a412 76be
00000250: 1ccc 133f 4e3b 3bbe 1b8f fa3e acb2 673e
00000260: f134 bf3e 4234 81bf e438 b93e 3ce0 88bd
00000270: 361b 23bf 62e4 05c0 96de 18bf ce9e e4bd
00000280: bb6d 0f3f 1d63 d9bd e98d 813f 8e07 10bf
00000290: 57a8 333f 8d62 0741 e2ac a23e 7d16 343f
000002a0: e6b4 8a3e e5ec 85bf 9479 0a3f 8387 31be
000002b0: 63d1 9cbe 8f40 4ac0 b9a7 b63e 2432 9739
000002c0: c62b 65be dfbb 31bf 6da3 963e 82e9 2bbe
000002d0: 6cd3 113e 992a bdbf c35f 473e 1b30 0dbf
000002e0: 8a93 96be abbf 513e 29fc 023f 9fd0 d73f
000002f0: cc15 e03e 5714 2fbf fbdf a93d b0ed 1640
00000300: 6735 58be 5a97 fd3e e65b 9c3e cc6e debe
00000310: c938 cf3d 3b5d 90c0 a103 fdbe 37ae b4c0
00000320: 5c90 993e f7b5 88be c896 7f3e 0e42 4f3f
00000330: 88d0 a53d ea70 99bf b9c7 853d b775 8d3e
00000340: ed39 24be 8898 cf40 7be4 6f3e 7725 7fbd
00000350: 9c63 2c3f dd74 293f 855f 933e fc48 22bf
00000360: aa8a 09bf ec91 a640 159b 0cbf 390f 9dbf
00000370: d3dd 08bf 1cf5 62be b478 d63e 3b15 9240
00000380: 23d0 c5be 244a 23be c21f 173e cb02 1f3f
00000390: da63 903d 8df4 0541 b148 983e b4b5 3abf
000003a0: d26e e33e 5343 273f 7b60 2bbe fd9f 5ebf
000003b0: 3502 2d3e 9859 153e b43d b43e c8f4 99be
000003c0: 9168 89bd 8a79 0abf 208e abbe 1c9a 92bf
000003d0: 93a7 15bf 3fff 12c0 dec4 3dbf 9215 78bf
000003e0: 54e4 5bbe d1c0 073f a9e0 70be 7592 6ebf
000003f0: 125f c23e f9c2 1a3f 7c36 9dbc 73a3 36bf

net.0.bias f4 [128]
-0.4462771 0.16982524 -0.17841788 0.30417433 -0.51668876 0.43659142 -0.15551944 -0.2511282
-0.590685 -0.2109277 -0.38065127 0.31519338 -0.688404 -0.35570717 -0.19238813 0.59346306
-0.2729498 0.30618358 -0.5020516 -0.6126065 0.43022102 0.7125786 0.4159075 0.45943606
0.33576795 0.33037135 -0.4056513 0.47313163 -0.47786242 0.33457926 0.33540294 -0.21115828
0.6105804 0.33534417 0.4498607 -0.5557109 0.41613796 0.7075786 0.3373074 0.029811442
0.10094666 0.46436203 -0.3028564 0.6951334 -0.1487729 0.6483261 0.7261204 -0.36677057
0.26412693 0.20349818 -0.45782393 0.6655161 0.267446 0.34991956 -0.1371279 0.306801
-0.5016746 -0.5150816 -0.5479874 0.21526945 0.3191764 -0.332512 0.519468 -0.53888464
0.7928046 -0.53024536 -0.20243907 0.7518565 -0.17063598 0.42285168 0.09594746 -0.68326604
-0.1877229 -0.23986293 0.74889714 0.6020403 0.33544597 -0.6473808 -0.5328928 0.7303214
-0.6054474 0.6183247 -0.1911407 0.41669038 0.5122363 0.6755009 -0.57787764 0.542135
-0.34624562 -0.5465714 0.49103987 -0.5767261 0.700335 0.23503031 0.40193576 0.022695426
-0.5937468 0.3293474 -0.0008322087 -0.28781796 0.21761554 0.33928877 0.5095696 0.43866226
-0.26723358 0.32750103 -0.68900925 0.28422013 -0.40535322 0.38226703 0.32631758 0.32814604
0.70541686 -0.26721558 -0.24882111 0.61637217 0.5631434 0.42467126 -0.3643642 0.5455924
0.37976366 0.5671134 -0.5218204 0.5402747 -0.66219467 0.40239614 -0.54696524 0.71839225
00000000: 6f7e e4be abe6 2d3e 2db3 36be bdbc 9b3e
00000010: b745 04bf e988 df3e 7d40 1fbe e093 80be
00000020: 2237 17bf 6efd 57be b9e4 c2be 0761 a13e
00000030: 3f3b 30bf 401f b6be 6501 45be 32ed 173f
00000040: 14c0 8bbe 18c4 9c3e 7486 00bf c8d3 1cbf
00000050: ee45 dc3e 8d6b 363f d4f1 d43e 343b eb3e
00000060: c7e9 ab3e 6f26 a93e 87b1 cfbe 4f3e f23e
00000070: 62aa f4be f94d ab3e efb9 ab3e e039 58be
00000080: ff4e 1c3f 3bb2 ab3e 2454 e63e 1243 0ebf
00000090: 0910 d53e df23 353f 8eb3 ac3e 2037 f43c
000000a0: 1fbd ce3d dcc0 ed3e fe0f 9bbe 43f4 313f
000000b0: ec57 18be b3f8 253f 07e3 393f 5ac9 bbbe
000000c0: a53b 873e d461 503e e667 eabe 435f 2a3f
000000d0: afee 883e a828 b33e 426b 0cbe 0515 9d3e
000000e0: bf6d 00bf 63dc 03bf e748 0cbf 986f 5c3e
000000f0: 176b a33e 033f aabe dbfb 043f 58f4 09bf
00000100: 3ef5 4a3f 29be 07bf 304c 4fbe ab79 403f
00000110: 33bb 2ebe 0480 d83e 1a80 c43d 86ea 2ebf
00000120: 6f3a 40be a19e 75be b9b7 3f3f 501f 1a3f
00000130: 93bf ab3e c0ba 25bf aa6b 08bf 58f6 3a3f
00000140: 9afe 1abf 874a 1e3f 63ba 43be 7158 d53e
00000150: eb21 033f a1ed 2c3f caef 13bf 5cc9 0a3f
00000160: 1b47 b1be 1aec 0bbf 9469 fb3e 52a4 13bf
00000170: 2849 333f c9ab 703e 86ca cd3e c2eb b93c
00000180: caff 17bf 39a0 a83e 9528 5aba e05c 93be
00000190: 9cd6 5e3e 42b7 ad3e 2773 023f 5798 e03e
000001a0: d7d2 88be 37ae a73e e962 30bf 4d85 913e
000001b0: 758a cfbe 81b8 c33e 1913 a73e c202 a83e
000001c0: 3396 343f 7bd0 88be f6ca 7ebe 91ca 1d3f
000001d0: 2a2a 103f 836e d93e f28d babe f2ab 0b3f
000001e0: 6270 c23e 582e 113f 0696 05bf 714f 0a3f
000001f0: 9785 29bf de06 ce3e ea05 0cbf 8ee8 373f

net.2.weight f4 [128, 128]
0.039066736 0.06116633 0.027196623 0.025174133 0.009851004 0.07216392 0.022421038 -0.04577586
-0.034030125 -0.0031779355 -0.039572455 0.06238921 0.0048169317 -0.067891136 -0.009742655 -0.08294581
0.08635288 -0.027318712 -0.0034582647 -0.053344104 -0.031137364 0.03499726 -0.059638757 0.06589696
-0.013135244 0.0790922 -0.019990556 0.06648679 0.0715077 0.068641365 -0.0560718 0.003741386
0.07815609 0.050711215 -0.012792264 0.00023738158 0.06699268 -0.07841219 0.0054546874 -0.0015032516
-0.020441916 -0.070206925 -0.001531901 -0.021480214 -0.08233486 0.0034379922 -0.07073757 0.020883342
0.0052472297 0.042750917 -0.042209372 -0.0679492 -0.043531813 -0.042283636 -0.011464764 -0.06603372
-0.07773146 0.025963016 0.026683917 -0.061738633 0.021645842 0.064646415 0.057796996 -0.06494625
0.014690958 0.08436499 0.037529904 -0.088277 -0.0051063225 0.01526974 0.014402158 0.0695396
0.015999882 -0.022731913 0.04383406 -0.014812436 -0.060219385 0.013516294 0.00901343 0.054543804
-0.08721843 -0.013399136 -0.036149014 -0.031197887 -0.05087526 -0.023035707 -0.085664846 0.07331594
-0.05049282 -0.067769125 0.01463524 0.04125484 -0.057900853 0.05721147 0.016995726 -0.08304485
-0.016423563 0.04162981 -0.027535789 0.02623654 -0.045516793 0.011608896 -0.013046736 0.017654851
0.0038464584 -0.00026928674 0.043549832 0.057972737 -0.028130092 -0.041110437 0.02008979 -0.060674127
0.03139587 0.0663188 -0.024240602 0.017214375 0.014601038 -0.059961814 0.049683988 -0.020003706
0.06698942 0.036881085 0.021936065 0.031198645 0.03329053 -0.02126008 0.026485395 -0.049355224
-0.038104195 0.034514192 0.024930324 0.024076968 -0.053937186 -0.11495991 -0.09402212 -0.033673942
0.046520974 0.0044726552 0.03345563 0.04769307 -0.045227468 0.0126566775 -0.06329043 -0.068637
0.056014508 -0.10058466 0.068804465 0.05996816 0.046650685 0.01264433 0.046402033 -0.098359734
-0.03751866 -0.01672741 -0.081615284 -0.09256336 -0.074214645 0.01772308 -0.027290365 -0.08721897
-0.092170246 0.05366547 -0.10452665 -0.039241508 -0.091164365 -0.04570904 -0.046607085 -0.04217752
0.0055225254 -0.061153747 -0.07136281 0.03388943 0.033306766 0.011677175 -0.060617123 0.05925598
0.008896778 -0.06831734 -0.04082387 -0.08418539 0.03865672 -0.119945504 0.060359903 -0.08031314
-0.0025191065 -0.065215334 0.029569522 0.048793823 0.041603 -0.028021406 -0.07175085 -0.032671984
0.022149278 0.012019481 0.08361984 -0.043882683 -0.053604446 -0.08627757 0.046227627 0.051800173
0.056442596 0.013197147 -0.014932703 0.020357912 -0.07289367 -0.007889458 -0.09481561 -0.096655644
0.050598353 0.029000748 -0.011886307 0.07027206 -0.047083106 -0.02777731 -0.0380695 0.049449652
0.0875777 0.029870883 -0.10824348 0.07972879 0.054855235 0.06882835 -0.08940364 -0.023788914
-0.03734176 -0.00025956772 -0.06392485 0.056633547 0.02970498 0.074857526 -0.08226587 0.050868895
0.056978114 -0.10367555 0.060803182 0.047577843 0.068102196 -0.07665116 0.04254617 0.066424124
-0.09698342 -0.059311192 -0.079013646 0.021495022 -0.08556136 -0.04858393 -0.08260598 -0.1166248
-0.04824178 0.039168093 -0.0678298 0.0013041145 -0.0460758 -0.040577732 -0.00027970754 -0.08070045
00000000: 7104 203d 8c89 7a3d 74cb de3c fc39 ce3c
00000010: 1b66 213c adca 933d 53ac b73c 787f 3bbd
00000020: 2c63 0bbd e944 50bb ba16 22bd d48b 7f3d
00000030: 5ad7 9d3b 820a 8bbd a89f 1fbc 7edf a9bd
00000040: c7d9 b03d 7ecb dfbc 0ea4 62bb 597f 5abd
00000050: c913 ffbc 4959 0f3d c547 74bd fcf4 863d
00000060: 3535 57bc 17fb a13d 3cc3 a3bc 3a2a 883d
00000070: a172 923d d893 8c3d 8bab 65bd 0b32 753b
00000080: 4d10 a03d 90b6 4f3d a596 51bc a2e9 7839
00000090: 7533 893d 9296 a0bd 3cbd b23b c108 c5ba
000000a0: ce75 a7bc a6c8 8fbd 11ca c8ba 46f7 afbc
000000b0: 2e9f a8bd f04f 613b dcde 90bd 8b13 ab3c
000000c0: f4f0 ab3b 961b 2f3d bce3 2cbd f328 8bbd
000000d0: 6a4e 32bd 9b31 2dbd b5d6 3bbc b03c 87bd
000000e0: ac31 9fbd 64b0 d43c 3b98 da3c a6e1 7cbd
000000f0: 9f52 b13c 5765 843d 8bbc 6c3d 8a02 85bd
00000100: 58b2 703c 8dc7 ac3d f5b8 193d 92ca b4bd
00000110: f052 a7bb ee2d 7a3c 07f7 6b3c c76a 8e3d
00000120: 2f12 833c 4738 babc 588b 333d dcaf 72bc
00000130: 9aa8 76bd 7273 5d3c 11ad 133c 5369 5f3d
00000140: 949f b2bd 0d88 5bbc fd10 14bd b692 ffbc
00000150: 9462 50bd 61b5 bcbc 0d71 afbd ab26 963d
00000160: 8fd1 4ebd 8aca 8abd a5c8 6f3c d6fa 283d
00000170: 7229 6dbd 9356 6a3d 9f3a 8b3c 6b13 aabd
00000180: b58a 86bc 0584 2a3d bc92 e1bc 03ee d63c
00000190: d16f 3abd 3d33 3e3c fac1 55bc e8a0 903c
000001a0: dd14 7c3b 0e2f 8db9 4f61 323d d274 6d3d
000001b0: 1471 e6bc 6b63 28bd 5893 a43c 6f85 78bd
000001c0: f598 003d 27d2 873d 3a94 c6bc 2905 8d3c
000001d0: 3139 6f3c 859a 75bd 7081 4b3d d0de a3bc
000001e0: c031 893d 9f10 173d 43b3 b33c 4d94 ff3c
000001f0: a75b 083d 9f29 aebc e6f7 d83c b428 4abd
00000200: 2513 1cbd c15e 0d3d ae3a cc3c 103d c53c
00000210: 3ded 5cbd 1a70 ebbd ab8e c0bd b0ed 09bd
00000220: c78c 3e3d 5a8f 923b c508 093d cf59 433d
00000230: 7040 39bd f45d 4f3c 6a9e 81bd 8e91 8cbd
00000240: 786f 653d 55ff cdbd 5be9 8c3d 2ca1 753d
00000250: ca14 3f3d 2a2a 4f3c 0f10 3e3d d470 c9bd
00000260: 2bad 19bd ec07 89bc ea25 a7bd dc91 bdbd
00000270: d9fd 97bd fe2f 913c 0b90 dfbc dc9f b2bd
00000280: c1c3 bcbd 53d0 5b3d 1112 d6bd b4bb 20bd
00000290: 62b4 babd 6739 3bbd 12e7 3ebd 56c2 2cbd
000002a0: 4df6 b43b 5a7c 7abd aa26 92bd a5cf 0a3d
000002b0: ad6c 083d 9f51 3f3c a949 78bd 66b6 723d
000002c0: cbc3 113c f6e9 8bbd ee36 27bd 6469 acbd
000002d0: 8256 1e3d fda5 f5bd f23b 773d 377b a4bd
000002e0: 9817 25bb 9e8f 85bd c83b f23c 08dc 473d
000002f0: e867 2a3d 268d e5bc 1cf2 92bd 0fd3 05bd
00000300: 6772 b53c 5bed 443c e140 ab3d 54be 33bd
00000310: 5690 5bbd 4bb2 b0bd 2e59 3d3d 6b2c 543d
00000320: 5a30 673d d938 583c 4ca8 74bc a3c5 a63c
00000330: 4749 95bd c942 01bc b02e c2bd 65f3 c5bd
00000340: 3840 4f3d fa92 ed3c c9be 42bc ccea 8f3d
00000350: 37da 40bd 3e8d e3bc c4ee 1bbd b88b 4a3d
00000360: f05b b33d c8b3 f43c c2ae ddbd d948 a33d
00000370: e2af 603d e1f5 8c3d 4119 b7bd f8e0 c2bc
00000380: acf3 18bd 9716 88b9 08eb 82bd 94f8 673d
00000390: dc57 f33c e74e 993d 027b a8bd e75b 503d
000003a0: e261 693d d953 d4bd c20c 793d fce0 423d
000003b0: 2a79 8b3d 49fb 9cbd e544 2e3d 5f09 883d
000003c0: 3e9f c6bd 4bf0 72bd e8d1 a1bd 5416 b03c
000003d0: cb3a afbd f1ff 46bd 532d a9bd fcd8 eebd
000003e0: 2c99 45bd b96e 203d 5aea 8abd d2ee aa3a
000003f0: fab9 3cbd d634 26bd b6a5 92b9 4746 a5bd

net.2.bias f4 [128]
-0.02672655 -0.06381665 0.08334518 -0.065635614 -0.06305698 0.043424826 -0.05348968 0.14086387
0.014613943 -0.019199736 -0.072909504 -0.08803178 0.18313192 0.009320378 0.057283405 0.0008855932
0.060864802 -0.050826713 0.12454262 0.08266026 0.045640536 0.34196892 0.0695743 -0.08783324
-0.05106092 -0.052264813 0.15032381 0.103577055 0.0028255521 0.17742132 -0.028709313 0.035338867
0.15493567 -0.032924432 -0.022085058 0.030279705 0.045996424 0.31832483 0.08377335 0.08180441
0.058483608 0.017037991 0.0013423156 0.076653294 -0.06607896 0.04942662 -0.04368819 0.21874227
0.2756946 0.34972242 0.0052337535 0.09685568 0.18205123 -0.08415369 -0.00063602754 0.15007809
0.096676074 0.062195785 -0.08639709 -0.104327664 0.014818072 0.024678381 0.024611963 0.0062979767
0.111862384 -0.028352775 0.0270079 0.2619926 0.021312794 -0.07041181 0.14779928 0.029810078
-0.03261521 0.14733846 0.0359995 -0.019942928 -0.10426828 -0.062580176 0.023667308 0.056235235
0.19050977 -0.04753063 -0.06912577 -0.0097704185 0.054368764 0.021250308 0.017634008 -0.025657699
0.049599633 0.15825917 -0.080318645 0.14693117 0.27330112 0.19368249 0.02444064 0.17892717
0.013056704 0.10223032 -0.08591674 0.15459429 0.04006926 0.053886853 0.03471642 -0.092115045
-0.0004935396 -0.02099089 0.07562727 0.17516573 -0.0048712185 0.012552492 -0.0022251885 -0.03294375
0.0027406474 -0.05807392 -0.08790734 -0.004594106 0.06718679 0.058943395 -0.08127615 -0.06715703
0.045967363 -0.014727309 -0.054086197 -0.022032982 0.059335798 0.06318747 -0.011365182 0.012758388
00000000: a3f1 dabc 4eb2 82bd e1b0 aa3d f76b 86bd
00000010: 0524 81bd 3bde 313d ff17 5bbd 9e3e 103e
00000020: 526f 6f3c c448 9dbc 9451 95bd 024a b4bd
00000030: ef86 3b3e 80b4 183c 01a2 6a3d 2727 683a
00000040: 5f4d 793d ac2f 50bd 3310 ff3d c849 a93d
00000050: 92f1 3a3d 8d16 af3e f87c 8e3d eae1 b3bd
00000060: 4125 51bd a113 56bd 7cee 193e 3520 d43d
00000070: e62c 393b efad 353e cb2f ebbc 7dbf 103d
00000080: 75a7 1e3e c5db 06bd b9eb b4bc 250d f83c
00000090: bf66 3c3d 79fb a23e 5d91 ab3d 1289 a73d
000000a0: 828c 6f3d 4293 8b3c a3f0 af3a 67fc 9c3d
000000b0: 6854 87bd 9173 4a3d 63f2 32bd f9fd 5f3e
000000c0: d827 8d3e d10e b33e e87f ab3b 455c c63d
000000d0: a36b 3a3e c558 acbd 16bb 26ba 12ae 193e
000000e0: 1bfe c53d 02c1 7e3d f5f0 b0bd bea9 d5bd
000000f0: 80c7 723c 512a ca3c 079f c93c 425f ce3b
00000100: 1b18 e53d 1444 e8bc ac3f dd3c e523 863e
00000110: 2b98 ae3c 1134 90bd b258 173e 4434 f43c
00000120: 8797 05bd e5df 163e 3674 133d 5a5f a3bc
00000130: 9c8a d5bd 092a 80bd f1e1 c13c eb56 663d
00000140: fe14 433e 7aaf 42bd d091 8dbd 1b14 20bc
00000150: c8b1 5e3d 2015 ae3c 3275 903c 1830 d2bc
00000160: fc28 4b3d b10e 223e 1a7e a4bd 2075 163e
00000170: 20ee 8b3e b454 463e bd37 c83c af38 373e
00000180: c9eb 553c 215e d13d 1ef5 afbd f74d 1e3e
00000190: aa1f 243d 76b8 5c3d ce32 0e3d d0a6 bcbd
000001a0: e260 01ba 16f5 abbc 78e2 9a3d a55e 333e
000001b0: be9e 9fbb f8a8 4d3c 78d4 11bb 07f0 06bd
000001c0: 6f9c 333b ebde 6dbd c308 b4bd 288a 96bb
000001d0: 3a99 893d a16e 713d 1c74 a6bd a089 89bd
000001e0: 4648 3c3d d04a 71bc 7d89 5dbd 837e b4bc
000001f0: 180a 733d 6f68 813d 0735 3abc 8f08 513c

net.4.weight f4 [3, 128]
0.046167627 0.05905233 -0.70095634 0.08235674 -0.017181395 -0.05456529 -0.04342132 -0.6816261
-0.53759533 0.021773815 0.009799683 -0.015501716 -0.6354125 0.045083497 -0.07438233 0.07347993
-1.6752635 -0.016729144 -0.51352286 -0.63910925 0.0116428835 -0.53383285 0.07306023 -0.03084151
0.058835223 -0.04018759 -0.56453633 -0.4733457 0.015066084 -0.53895634 -0.04367085 0.016718443
-0.75098246 0.0063787675 0.045005295 -0.34941173 0.0645435 -0.45650786 0.084701754 -0.016037783
-0.0073745605 -0.008332551 0.047588345 -1.4767655 0.03079828 0.026869131 -0.0032562627 -0.39475074
-0.47119817 -0.4273729 -0.08792505 -0.76829356 -1.0747097 -0.007087457 -0.007339568 -0.5002489
-1.176187 0.0766336 0.025311602 0.01502984 -0.048688814 0.05945597 -0.014885205 -0.052084245
-0.80657494 -0.0510987 -0.052855708 -0.31513548 -1.2680023 -0.027817257 -0.5565297 -1.311987
0.038315404 -1.5193492 -0.8406302 -0.031735856 0.08206011 0.03560043 0.067000076 -0.5127087
-1.1337944 0.012572502 -0.003294992 -1.6677058 -1.3453397 -0.67316103 -0.03625414 0.027177747
0.047103032 -0.8139303 -0.0014097306 -0.5240561 -0.51575655 -0.6395321 0.043008182 -0.93306166
0.028456813 -0.64348996 0.060150325 1.1911672 -0.0080745565 -0.013689688 -0.5190288 0.081796475
-0.010852455 -0.06947984 -0.6850171 -0.46863693 -0.03386173 -0.01716979 -0.62835497 -0.0050460906
-0.033947133 0.039387535 -0.063366145 -0.023166427 -0.02130854 0.058441147 0.060998317 0.06359474
0.06387944 -0.05610424 -0.05583977 0.07865764 0.03088021 0.02289912 -0.033362687 0.02895071
0.06753277 -0.066473 -0.7824129 -0.021106467 0.051980823 0.05720006 -0.038884558 -0.79860276
-0.5859746 0.044770848 -0.069465354 0.039022133 -0.6842879 0.037353348 -0.067266256 -0.07231432
-1.079668 0.04362696 -0.634756 -0.99809116 0.048874874 -0.42444488 0.023126997 0.041424934
0.042055886 0.015241891 -0.6103957 -0.7729774 -0.022227457 -0.7011049 0.019275581 0.060354635
-0.7091231 0.01048328 0.07581882 -0.63459784 0.024085818 -0.4320005 0.06303513 -0.05525359
0.016461274 0.056379862 -0.008161222 -1.3980392 0.0512256 -0.08512868 0.075214155 -0.4124972
-0.47230703 -0.3427348 0.024563182 -0.7255285 -0.9557511 -0.060373366 -0.08084886 -0.7268983
-1.0013353 0.019265514 -0.010488527 -0.009002383 0.070708916 -0.04722427 -9.26988e-05 0.040514387
-0.8492572 0.028676989 -0.064892925 -0.43003792 -1.1400974 -0.07089282 -0.75049174 -0.9947802
-0.03633683 -1.2920634 -0.89264625 0.04587038 0.04382027 -0.004035097 0.017032836 -0.67212206
-1.0365995 0.08061306 -0.050579317 -1.4834167 -1.1517131 -0.82515126 0.052674774 -0.06918846
0.066135645 -0.8752677 0.062989295 -0.7726906 -0.42636213 -0.4508438 -0.017757151 -0.93258744
0.05403662 -0.788156 0.023135323 1.134291 -0.06786595 -0.045712397 -0.6197462 0.055632047
-0.029147811 -0.06280415 -0.7700039 -0.49862844 0.037669457 -0.03492605 -0.64143556 0.05204941
0.064694464 0.06371557 -0.07907171 0.054068822 0.08019636 0.047285974 -0.031864375 -0.0048499377
-0.021730013 0.07264881 0.036679346 -0.030810336 0.015266661 0.049237885 0.085636154 0.01916689
00000000: 441a 3d3d dbe0 713d e071 33bf a7aa a83d
00000010: ffbf 8cbc db7f 5fbd 8eda 31bd 0c7f 2ebf
00000020: d99f 09bf 005f b23c d98e 203c e9fa 7dbc
00000030: 65aa 22bf 79a9 383d c355 98bd a57c 963d
00000040: 096f d6bf 8f0b 89bc 3c76 03bf aa9c 23bf
00000050: cbc1 3e3c 45a9 08bf 9aa0 953d 56a7 fcbc
00000060: 34fd 703d be9b 24bd 7485 10bf 5e5a f2be
00000070: bdd7 763c 0bf9 09bf 35e0 32bd 1ef5 883c
00000080: 6340 40bf fb04 d13b 7957 383d 18e6 b2be
00000090: 622f 843d 66bb e9be 1d78 ad3d ab61 83bc
000000a0: 4ca6 f1bb 4185 08bc ffeb 423d a706 bdbf
000000b0: ad4c fc3c a71c dc3c 0667 55bb c51c cabe
000000c0: e340 f1be 9fd0 dabe 0c12 b4bd e3ae 44bf
000000d0: 1690 89bf e63d e8bb c280 f0bb 5010 00bf
000000e0: 4c8d 96bf 14f2 9c3d 475a cf3c b83f 763c
000000f0: ec6d 47bd 1a88 733d 13e1 73bc 4a56 55bd
00000100: b27b 4ebf df4c 51bd 3a7f 58bd 7059 a1be
00000110: e64d a2bf 04e1 e3bc bb78 0ebf 31ef a7bf
00000120: 9df0 1c3d 097a c2bf 8a33 57bf 75fd 01bd
00000130: 220f a83d c2d1 113d 5637 893d e140 03bf
00000140: 2d20 91bf e5fc 4d3c cbf0 57bb 6277 d5bf
00000150: 1734 acbf 4854 2cbf 397f 14bd dea3 de3c
00000160: 1cef 403d bc5d 50bf b6c6 b8ba 8a28 06bf
00000170: 9f08 04bf 60b8 23bf 5929 303d 21dd 6ebf
00000180: 431e e93c c2bb 24bf 3060 763d 2b78 983f
00000190: 254b 04bc b74a 60bc 12df 04bf e984 a73d
000001a0: 7fce 31bc 724b 8ebd 485d 2fbf 2ef1 efbe
000001b0: 99b2 0abd a9a7 8cbc dfdb 20bf ad59 a5bb
000001c0: 260c 0bbd d354 213d 1cc6 81bd 85c7 bdbc
000001d0: 3f8f aebc fc5f 6f3d 5fd9 793d f63d 823d
000001e0: 39d3 823d 8fcd 65bd 3eb8 64bd 4217 a13d
000001f0: 7ff8 fc3c ef96 bb3c 50a7 08bd 0a2a ed3c
00000200: 9f4e 8a3d ff22 88bd 364c 48bf 78e7 acbc
00000210: d8e9 543d 9c4a 6a3d 6a45 1fbd 3b71 4cbf
00000220: 6e02 16bf a361 373d da43 8ebd acd5 1f3d
00000230: 7e2d 2fbf d3ff 183d e4c2 89bd 8819 94bd
00000240: 9032 8abf 2fb2 323d 5f7f 22bf e782 7fbf
00000250: 0531 483d d750 d9be d474 bd3c 31ad 293d
00000260: cb42 2c3d 20b9 793c e542 1cbf d9e1 45bf
00000270: 5b16 b6bc 9c7b 33bf d3e7 9d3c 6c36 773d
00000280: 1789 35bf 10c2 2b3c e646 9b3d 0175 22bf
00000290: 9f4f c53c 2b2f ddbe 9018 813d 9751 62bd
000002a0: cbd9 863c 92ee 663d a5b6 05bc f3f2 b2bf
000002b0: efd1 513d f257 aebd e109 9a3d d532 d3be
000002c0: 3ad2 f1be f07a afbe ba38 c93c 3cbc 39bf
000002d0: 1bac 74bf 104a 77bd 1694 a5bd 0216 3abf
000002e0: c12b 80bf b6d2 9d3c 12d8 2bbc bb7e 13bc
000002f0: d6cf 903d 3c6e 41bd 4a67 c2b8 6af2 253d
00000300: eb68 59bf 01ec ea3c 95e6 84bd ee2d dcbe
00000310: b6ee 91bf 4130 91bd 3a20 40bf eaa9 7ebf
00000320: eed5 14bd 5562 a5bf 7784 64bf 94e2 3b3d
00000330: e27c 333d d938 84bb 7288 8b3c 3110 2cbf
00000340: 4baf 84bf 7618 a53d 422c 4fbd 99e0 bdbf
00000350: 566b 93bf 1d3d 53bf 81c1 573d aeb2 8dbd
00000360: 2072 873d 8b11 60bf 8800 813d 0dcf 45bf
00000370: 234c dabe 00d5 e6be 7277 91bc 0dbe 6ebf
00000380: 8155 5d3d 97c4 49bf 4a86 bd3c 7330 913f
00000390: 4efd 8abd ec3c 3bbd b0a7 1ebf 6ede 633d
000003a0: 64c7 eebc 769f 80bd fa1e 45bf 3a4c ffbe
000003b0: 4a4b 1a3d 9e0e 0fbd 1f35 24bf c331 553d
000003c0: 887e 843d 4f7d 823d 59f0 a1bd 4577 5d3d
000003d0: fd3d a43d f0ae 413d 3884 02bd 3aec 9ebb
000003e0: 2403 b2bc e6c8 943d 153d 163d f565 fcbc
000003f0: 0421 7a3c aaad 493d 0262 af3d e203 9d3c

net.4.bias f4 [3]
-0.42497194 -0.14765911 -0.24687181
00000000: ec95 d9be f333 17be f7cb 7cbe
