MountCar/checkpoints/checkpoint_episode_800.pt (torch, 288314 bytes, 24 tensors)

net.0.weight f4 [128, 4]
0	0xbe9db8bd	-0.30805007
1	0x3efe252a	0.4963773
2	0x3fbc7b7d	1.4725186
3	0x3daba26d	0.0838059
4	0x3f30c300	0.69047546
5	0x3b8dff72	0.00433343
6	0x3f3778da	0.7166878
7	0x3eb7ff11	0.35936788
8	0xbee10ba8	-0.43954206
9	0xbef2e45a	-0.47439843
10	0xc02003f9	-2.5002425
11	0xbf0f661a	-0.5601517
12	0x3e8f4399	0.2798126
13	0x3e93296f	0.2874255
14	0x3f8384f8	1.0274954
15	0x3eec1d5b	0.46116146
16	0xbdee3abe	-0.11632298
17	0x3ec77b39	0.389612
18	0xbf128d54	-0.572469
19	0x3daffb40	0.08592844
20	0x3e270814	0.16311675
21	0x3ee576dd	0.44817248
22	0x3fc965eb	1.5734228
23	0x3f1d1560	0.6136074
24	0x3e9637ec	0.2933954
25	0x3de77e0c	0.113033384
26	0x3eb470c4	0.35242283
27	0x3ecf3a77	0.40474293
28	0x3e86b6e7	0.26311418
29	0xbe4bdd7f	-0.19908713
30	0xbea96304	-0.33083355
31	0x3e71ec77	0.2362536
32	0x3e3eed02	0.18645099
33	0x3d8b0d12	0.06789602
34	0x3fc95310	1.5728474
35	0x3ecca8fa	0.3997267
36	0xbe487994	-0.19577628
37	0xbf143ef3	-0.5790855
38	0xbff725c2	-1.9308398
39	0xbf196fba	-0.59936106
40	0x3e4ad05b	0.19806044
41	0x3e5c370a	0.2150537
42	0xbf0b934d	-0.5452164
43	0xbd611f5f	-0.05496156
44	0x3ddb4146	0.10705809
45	0x3eafac2c	0.34311044
46	0xbf25a858	-0.6471
47	0x3ddcd5ff	0.10783004
48	0xbe2f78e1	-0.17135955
49	0xbef20a6a	-0.4727357
50	0xbf1ac978	-0.60463667
51	0xbe8c434e	-0.273951
52	0xbe87008c	-0.26367605
53	0xbe7e6db2	-0.24846533
54	0xbd00b9e6	-0.031427287
55	0xbd44ebcf	-0.048076447
56	0xbf61032e	-0.87895477
57	0xbf7c4693	-0.9854519
58	0xbf483712	-0.7820903
59	0xbf0ab0c3	-0.54175967
60	0x3ef31c4f	0.47482535
61	0x3e9d4a8b	0.30720934
62	0x3f85f864	1.0466428
63	0x3ed1a72e	0.4094786
64	0x3e81ed24	0.25376236
65	0x3e8f05ae	0.2793402
66	0xbf0cb011	-0.54956156
67	0xbe0705ef	-0.13185857
68	0x3f018042	0.5058633
69	0xbe49cdcd	-0.19707413
70	0xbf2c8436	-0.6738924
71	0x3d485041	0.04890466
72	0x3e752d83	0.23943143
73	0x3e77e1cc	0.24207228
74	0xbe0406cf	-0.12893222
75	0x3da7c9b4	0.08192769
76	0xbcee94b1	-0.029123636
77	0x3cebe3c2	0.028795127
78	0xbde14c1f	-0.11000847
79	0x3e3979c7	0.1811286
80	0xbdfbc54a	-0.12293489
81	0xbd600ffe	-0.05470275
82	0x3e25a2a8	0.1617533
83	0x3ea74344	0.32668507
84	0x3e93f8c7	0.2890074
85	0xbeedc9a8	-0.46442914
86	0x3f917cdd	1.136623
87	0x3ddf76a9	0.109113045
88	0xbf6fdcb4	-0.9369614
89	0xbed1fbb8	-0.4101236
90	0xbec3fd39	-0.3827913
91	0xbe9fc34f	-0.31203696
92	0xbe59981e	-0.21249434
93	0x3e2ecbaf	0.17069887
94	0x3dba2756	0.09089534
95	0x3e50b72b	0.20382373
96	0x3e313b73	0.17307834
97	0x3d2af2e5	0.04173555
98	0xbec60fe2	-0.38683993
99	0x3eea0452	0.4570642
100	0xbdfea036	-0.124329016
101	0x3e33d165	0.17560346
102	0x3fdc51bf	1.7212447
103	0x3ef7d47e	0.48404306
104	0x3f262578	0.6490092
105	0x3d12e4de	0.035862796
106	0x3f6f4e8f	0.93479246
107	0x3ed33f8f	0.4125943
108	0xbe2c12ce	-0.16804048
109	0xbebffb75	-0.37496534
110	0xbff8dc0f	-1.9442157
111	0xbf26c17b	-0.6513898
112	0xbdff0414	-0.1245195
113	0xbe8ab6a8	-0.2709248
114	0xbf5dedb7	-0.8669085
115	0xbe9947ad	-0.29937497
116	0xbd96b200	-0.073581696
117	0x3edeb36b	0.4349626
118	0xbe80454c	-0.2505287
119	0x3ce0e9b0	0.02745518
120	0xbeb58a2c	-0.3545698
121	0xbed9c723	-0.42534742
122	0xbef7423e	-0.48292726
123	0xbe6515ba	-0.2237157
124	0x3f62abf0	0.88543606
125	0x3f2b1fee	0.66845596
126	0xbc2088cd	-0.009798241
127	0xbeddfed5	-0.43358484
128	0xbcf45681	-0.029826405
129	0x3d580163	0.052735697
130	0xbe3a4434	-0.1819008
131	0xbe424fcc	-0.18975753
132	0xbe54d6c8	-0.20785058
133	0x3dededb3	0.11617603
134	0xbf26454d	-0.64949495
135	0xbdf1c880	-0.118058205
136	0x3f0f0d72	0.5587989
137	0x3f0bb151	0.5456744
138	0xbf45dc5e	-0.7728938
139	0xbed4c0c4	-0.41553319
140	0xbdbcfb2a	-0.09227593
141	0xbf5379da	-0.82607806
142	0xbf8b562f	-1.0885676
143	0xbf6ed133	-0.9328796
144	0x3dd82933	0.10554733
145	0x3e85adf6	0.26109284
146	0x3e8bc4a5	0.27298465
147	0x3eab354f	0.3343911
148	0xbf2da88c	-0.6783531
149	0xbf22a6b8	-0.6353564
150	0xbfb6a798	-1.4269896
151	0xbf15d842	-0.5853311
152	0x3ecff640	0.4061756
153	0x3c37285a	0.011179054
154	0xbeb4d124	-0.35315812
155	0xbe53f5ba	-0.20699206
156	0xbd8a0915	-0.067400135
157	0x3e890eca	0.26769096
158	0x3fb77c9f	1.4334906
159	0x3f1555af	0.5833387
160	0xbeb4b2f1	-0.3529277
161	0xbf057884	-0.5213702
162	0xbf5c4884	-0.8604815
163	0xbf0bbb7b	-0.5458295
164	0xbd9b766a	-0.07590945
165	0x3d0248c8	0.03180769
166	0xbea5ef6b	-0.32409224
167	0xbe6939cd	-0.22775955
168	0x3e11cde8	0.14238703
169	0xbf5ba410	-0.85797215
170	0xbf1dcf11	-0.61644083
171	0xbeccb0d4	-0.3997866
172	0x3f14efdc	0.58178496
173	0xbec3dea4	-0.382558
174	0xbee5ceca	-0.4488433
175	0x3d8d268c	0.06892118
176	0x3ea970b4	0.33093798
177	0x3ec2469f	0.37944505
178	0x3c531d31	0.012885378
179	0x3e868020	0.26269627
180	0x3e7636b1	0.240443
181	0x3e47db72	0.19517305
182	0x3ed9d8de	0.4254827
183	0x3e8e3fc5	0.27783027
184	0x3f193b99	0.59856564
185	0xbeceb289	-0.40370587
186	0xbf31ba3d	-0.694248
187	0x3dc9eb44	0.098593265
188	0xbf63c19e	-0.8896731
189	0x3ea4bca1	0.32175162
190	0x3f0507ad	0.5196484
191	0x3f05b151	0.5222369
192	0xbf346379	-0.70464283
193	0xbeae2180	-0.34009933
194	0xc02c06a7	-2.687906
195	0xbef57b92	-0.4794584
196	0x3f4bd63f	0.7962379
197	0xbe89fbb9	-0.26949862
198	0xbf06d7f7	-0.52673286
199	0xbeaf8fe4	-0.34289467
200	0x3ef941fd	0.48683158
201	0x3e0524db	0.1300234
202	0x3fa6f672	1.3043959
203	0x3f1283f9	0.57232624
204	0x3ed25987	0.4108393
205	0x3b488b45	0.003060059
206	0xbde06909	-0.10957534
207	0x3d6d2cf7	0.05790421
208	0xbe195919	-0.14975394
209	0xbe08ba6e	-0.13352367
210	0x3e51a90b	0.20474641
211	0xbd54a151	-0.051911656
212	0x3ec09694	0.37614882
213	0xbe225a7c	-0.1585483
214	0xbe3ecd1e	-0.18632933
215	0xbd9aa783	-0.075514816
216	0xbe90870a	-0.28228027
217	0x3f21e9d4	0.6324742
218	0x3de7d393	0.113196515
219	0x3ef77163	0.48328695
220	0x3e523022	0.20526174
221	0x3e56f041	0.20990087
222	0xbe3928e3	-0.18082003
223	0x3d91a2a3	0.071110986
224	0x3f3de333	0.74174803
225	0xbef0cfa1	-0.47033408
226	0x3e0963ab	0.13416927
227	0xbea26445	-0.31717125
228	0x3c83cfd1	0.016090306
229	0xbf0b8f57	-0.54515594
230	0xbf14d660	-0.5813961
231	0xbe1b486f	-0.1516435
232	0x3ed87c97	0.42282555
233	0xbd7ded81	-0.06199408
234	0x3eabbc2c	0.33542
235	0x3e3ccf58	0.1843847
236	0x3da3a900	0.079912186
237	0x3ed9e57d	0.42557898
238	0xbdc86697	-0.097851925
239	0xbe427437	-0.18989645
240	0xbdf7c917	-0.12098902
241	0xbf4effe8	-0.8085923
242	0xc0169d75	-2.3533604
243	0xbf3a4bcd	-0.7277191
244	0xbf5f2217	-0.8716139
245	0xbf29ad9f	-0.6628055
246	0xbdb4d167	-0.08829003
247	0xbeb71eda	-0.35765725
248	0xbe5ac7bb	-0.21365254
249	0xbee24e3e	-0.4420032
250	0xbfabb899	-1.341571
251	0xbf3fe924	-0.7496512
252	0x3ebea88e	0.37237972
253	0x3f37adbc	0.7174947
254	0x3ef4acc0	0.47788048
255	0x3f06cbf6	0.5265497

net.0.bias f4 [128]
0	0x3ef75f7d	0.4831504
1	0xbe5c6b90	-0.21525407
2	0x3e1f6b17	0.15568195
3	0xbd960748	-0.073256075
4	0x3f381c3d	0.7191809
5	0xbd280fa8	-0.041030556
6	0x3f6770f5	0.90406734
7	0x3f566280	0.8374405
8	0xbdc58c9d	-0.096459605
9	0x3d4d154a	0.05006913
10	0xbd6f6df5	-0.058454473
11	0x3f5a14b5	0.85187846
12	0x3f09ce3c	0.53830314
13	0x3f0705bd	0.5274313
14	0xbbbae4d4	-0.005703548
15	0xbc9beec4	-0.01903475
16	0x3f708a5f	0.9396114
17	0x3e75236a	0.2393929
18	0x3f41804a	0.7558638
19	0x3f35b68b	0.70981663
20	0x3f7ca468	0.98688364
21	0xbe84ab4a	-0.25911933
22	0x3f82d2c4	1.022057
23	0x3f2ed840	0.6829872
24	0x3f7bde84	0.98386407
25	0xbdbb1d87	-0.09136491
26	0xbe9bbe0f	-0.3041844
27	0x3e55ebd9	0.2089075
28	0x3f62fdb4	0.8866837
29	0x3f55625d	0.83353215
30	0x3f74669b	0.95469064
31	0x3e734569	0.23756947
32	0x3f2975cd	0.66195375
33	0x3f64714b	0.8923537
34	0xbed6a99b	-0.41926274
35	0x3e4a74dc	0.19771141
36	0x3f35cead	0.7101849
37	0xbb2ca5c6	-0.0026343926
38	0x3f5958fa	0.8490139
39	0xbe25f198	-0.16205442
40	0x3edec7ed	0.43511906
41	0x3f403d2d	0.75093347
42	0x3eea8d63	0.45810995
43	0x3f217d58	0.63081884
44	0x3f617cd9	0.8808113
45	0x3f608b72	0.87712777
46	0x3f3c4422	0.7354146
47	0x3f06a8e7	0.52601475
48	0x3e6ad79e	0.22933814
49	0xbe84a738	-0.25908828
50	0x3def5ad2	0.116872445
51	0x3f63ddce	0.8901032
52	0xbeceb1ec	-0.4037012
53	0x3e1c0f87	0.15240298
54	0x3f354935	0.7081483
55	0x3f3c7f60	0.7363186
56	0xbe3e05be	-0.18556878
57	0x3f00b90d	0.50282365
58	0x3f5fcb72	0.8741981
59	0x3f6a461b	0.9151322
60	0x3cf5c95d	0.030003244
61	0xbebe06f9	-0.37114695
62	0xbe08d0f1	-0.13360955
63	0x3f0efeec	0.5585773
64	0x3f3a54b6	0.7278551
65	0x3f5462bc	0.82963157
66	0x3f7756ce	0.9661683
67	0x3f66038f	0.8984918
68	0x3d9072cd	0.070531465
69	0x3f38898f	0.720849
70	0x3ef876b6	0.4852807
71	0x3eab22b4	0.33424914
72	0x3f4ce02c	0.8002956
73	0x3f46bf30	0.7763548
74	0xbee6da56	-0.45088452
75	0xbe3eab94	-0.1862014
76	0x3f6d41c6	0.9267849
77	0x3f617afe	0.88078296
78	0x3f012a83	0.5045549
79	0xbe20e578	-0.15712535
80	0xbecb4ad6	-0.39705533
81	0xbe1983a8	-0.14991629
82	0x3dcb76be	0.09934758
83	0xbdeed47e	-0.116616234
84	0x3e8949a5	0.26814
85	0x3f05ed8f	0.5231561
86	0x3e5f3829	0.21798767
87	0xbd2b3da5	-0.041806836
88	0x3ef168cd	0.4715027
89	0xbc29a650	-0.010354593
90	0x3f54cf18	0.831285
91	0x3f18c272	0.596717
92	0x3f5a2c1e	0.8522357
93	0xbdcf5aa8	-0.10124713
94	0x3f405f7b	0.7514569
95	0x3e82e018	0.25561595
96	0xbe86e5f6	-0.2634732
97	0xbdb0c6f5	-0.08631698
98	0x3f3c0cc3	0.7345697
99	0x3e19f4b3	0.15034752
100	0x3f13f777	0.57799476
101	0x3f5ec951	0.87025934
102	0xbecb7b69	-0.39742592
103	0x3f5f23b5	0.8716386
104	0xbd55ce3e	-0.05219864
105	0xbf2066dd	-0.62656957
106	0x3f55c6f1	0.83506685
107	0xbd9e3230	-0.07724416
108	0xbefdbeb6	-0.49559563
109	0x3f09abc0	0.53777695
110	0x3f5e8519	0.8692184
111	0x3e4a5290	0.19758058
112	0xbe02d223	-0.12775473
113	0xbeee58ee	-0.46552223
114	0x3ef1e857	0.47247574
115	0x3f2dfcd1	0.6796389
116	0xbe77f8e3	-0.24216036
117	0x3eebf17a	0.4608267
118	0x3e6a12dc	0.22858757
119	0x3f54116b	0.8283908
120	0x3f46dd79	0.7768169
121	0xb8ab00bb	-8.1540515e-05
122	0x3f600aa6	0.8751625
123	0x3f2333a0	0.6375065
124	0xbec7046a	-0.38870555
125	0x3e57cb73	0.21073703
126	0x3f3f04d0	0.7461672
127	0x3f1d253a	0.6138493

net.2.weight f4 [128, 128]
0	0x3e9d6f2f	0.3074889
1	0xbe1aba0b	-0.15110032
2	0xbf13e858	-0.57776403
3	0xbe682b55	-0.2267278
4	0x3e6b5922	0.2298322
5	0xbeace52b	-0.3376859
6	0x3db873fd	0.09006498
7	0x3d37ca17	0.044870462
8	0xbeb3eed1	-0.3514314
9	0xbf18aa61	-0.5963498
10	0xbe31f5a3	-0.17378859
11	0x3e95056a	0.29105693
12	0xbd1c48a6	-0.03815522
13	0x3c4571ba	0.01205104
14	0xbf1518b0	-0.58240795
15	0xbe0d4ebf	-0.1379957
16	0x3e0ceb30	0.13761592
17	0x3ee82a32	0.45344692
18	0x3e87f09b	0.26550755
19	0x3e609f6a	0.21935812
20	0x3d4a978a	0.049460925
21	0xbe25caac	-0.16190594
22	0xbeb11396	-0.34585255
23	0x3e21309b	0.15741198
24	0x3df8a6ca	0.121411875
25	0xbf125cdd	-0.5717295
26	0xbddf33a1	-0.10898519
27	0xbf3baf95	-0.7331479
28	0x3e15e662	0.14638665
29	0x3ea1a132	0.31568295
30	0xbd027ba9	-0.031856213
31	0x3def6fbd	0.11691234
32	0x3d911079	0.0708322
33	0x3e7513b9	0.23933305
34	0xbe1ba006	-0.15197763
35	0xbed61d8f	-0.41819426
36	0x3e7df621	0.24800922
37	0xbf04eadf	-0.51920885
38	0x3ea736fd	0.3265914
39	0xbee7c3b6	-0.45266503
40	0xbedbf78f	-0.4296231
41	0x3bbcf575	0.0057665654
42	0x3df2f677	0.11863416
43	0x3ccce332	0.025010679
44	0x3e97cc7a	0.2964819
45	0x3e51fd1f	0.20506714
46	0x3d2ffa98	0.042963594
47	0x3e027429	0.12739624
48	0xbeb040cb	-0.34424433
49	0xbecb2991	-0.3968015
50	0xbdaed4cb	-0.08536681
51	0x3e9464dd	0.28983203
52	0xbe121a28	-0.1426779
53	0xbd1f0fbc	-0.038833365
54	0x3e86ec03	0.26351938
55	0x3e8dd47d	0.27701178
56	0xbe9d8f1e	-0.30773252
57	0xbcae03df	-0.02124208
58	0x3e351aad	0.17685957
59	0x3e5906c8	0.21193993
60	0xbf4a9594	-0.7913449
61	0xbe90c64e	-0.28276294
62	0xbed32111	-0.41236165
63	0x3e01f9c9	0.12692942
64	0x3e943b55	0.28951517
65	0x3e68f3a5	0.22749193
66	0x3e58bc33	0.21165542
67	0xbd0b616a	-0.03402845
68	0xbf11023e	-0.56644046
69	0x3eb48da7	0.35264322
70	0x3d81a7ed	0.063308574
71	0xbdea3f81	-0.11437894
72	0x3eaa5b7d	0.33272925
73	0x3e47c5a6	0.1950899
74	0xbe876dc6	-0.26450938
75	0xbee6f896	-0.4511153
76	0x3df8990e	0.12138568
77	0x3e4e449a	0.20143357
78	0x3e796dc9	0.24358286
79	0xbe928621	-0.28617957
80	0x3d4daf09	0.050215755
81	0xbde361a3	-0.11102607
82	0xbf037259	-0.51346356
83	0xbea39c70	-0.3195529
84	0x3d9c90e9	0.07644827
85	0xbc715c76	-0.014731517
86	0x3d27d32b	0.04097287
87	0xbeff472d	-0.4985899
88	0x3cfe36cb	0.031031987
89	0xbe1c42a1	-0.15259792
90	0x3eb91274	0.3614689
91	0x3e41b472	0.1891649
92	0xbccad7a9	-0.024761038
93	0xbdcab26b	-0.09897312
94	0x3e1b10ad	0.1514308
95	0xbd467f94	-0.04846151
96	0xbe5fb300	-0.21845627
97	0x3e40a057	0.18811165
98	0x3c786572	0.015160905
99	0x3dc40d17	0.09572809
100	0x3e1a4923	0.15066962
101	0xbe202038	-0.1563729
102	0xbd546fc6	-0.051864408
103	0x3d62e62a	0.055395283
104	0xbeb0073c	-0.3438052
105	0xbc3b70e2	-0.011440488
106	0xbc7772b3	-0.01510303
107	0xbeadccb9	-0.33945253
108	0x3d308a30	0.043100536
109	0x3e4c12b7	0.19929014
110	0x3e82f8a7	0.25580332
111	0xbd6d63ae	-0.05795639
112	0xbef9627d	-0.48707953
113	0xbee016ba	-0.4376734
114	0xbce33c9c	-0.027738862
115	0x3e6b8eb7	0.2300366
116	0xbe0d5109	-0.13800444
117	0x3e278bae	0.16361877
118	0xbe928282	-0.28615195
119	0x3cdc43dd	0.026887828
120	0xbe2e9ed3	-0.17052774
121	0x3e356cd1	0.17717291
122	0xbe6ab9ad	-0.22922392
123	0x3e519cd2	0.20469978
124	0xbd83f019	-0.06442279
125	0xbe5dddc7	-0.21666633
126	0x3e1afd7c	0.15135759
127	0x3e44dc3b	0.19224636
128	0x3ea4f021	0.32214454
129	0xbdb078ed	-0.08616815
130	0xbe9f00fc	-0.3105544
131	0xbe3c24d6	-0.18373427
132	0x3ee1326c	0.4398378
133	0xbeb977cb	-0.36224207
134	0x3ec94694	0.3931166
135	0x3f085eda	0.5326973
136	0xbf10ef66	-0.56615293
137	0xbee0f926	-0.43940085
138	0xbe6b67bb	-0.22988789
139	0x3f02dadd	0.5111521
140	0x3eeb0cad	0.45908108
141	0x3eb11257	0.34584305
142	0x3f09634e	0.5366715
143	0xbdb65e7f	-0.089047424
144	0x3e9f48ef	0.3111033
145	0x3e8fcc23	0.2808543
146	0x3ecbec50	0.3982873
147	0x3f012cdf	0.5045909
148	0x3eeebcb5	0.46628347
149	0xbf10ef8d	-0.56615525
150	0xbda8525a	-0.08218832
151	0x3ef04924	0.46930802
152	0x3f0e1225	0.55496436
153	0xbf446b09	-0.7672582
154	0xbd889ad3	-0.066701554
155	0xbf0a0328	-0.53911066
156	0x3ee351b1	0.44398263
157	0x3f103fdf	0.5634746
158	0x3f09e8cc	0.53870845
159	0xbcfcc5c9	-0.03085603
160	0x3ece95f4	0.4034878
161	0x3f1c5607	0.6106877
162	0xbe253186	-0.16132173
163	0xbf0df507	-0.5545201
164	0x3ec8bccc	0.3920654
165	0xbd8aa641	-0.06769992
166	0x3ef9dac6	0.48799723
167	0xbf6d8de1	-0.92794615
168	0xbdbcb3a6	-0.09213953
169	0x3eed1a54	0.4630915
170	0x3ec286dc	0.37993515
171	0x3f0b9baa	0.545344
172	0x3ea5b322	0.3236323
173	0x3ec5b42b	0.3861402
174	0x3ee00437	0.43753216
175	0x3caa6b24	0.020803042
176	0x3c46a7ae	0.012124939
177	0xbebd9dce	-0.37034458
178	0xbe49e5e5	-0.19716604
179	0x3f115c19	0.56781155
180	0xbe9340d9	-0.28760412
181	0x3ec337c6	0.3812849
182	0x3ecdc90a	0.40192443
183	0x3f02af12	0.51048386
184	0xbeb752d9	-0.35805395
185	0x3f0023b3	0.5005447
186	0x3ef6dda3	0.4821597
187	0x3ee0a9ef	0.4387965
188	0xbf1bcf9d	-0.6086367
189	0x39132fbb	0.00014036793
190	0xbebd1b3c	-0.3693484
191	0x3e45d0c5	0.1931792
192	0x3e84e5db	0.25956616
193	0x3ec4d964	0.38447106
194	0x3eb84090	0.35986757
195	0x3ee646b9	0.44975832
196	0xbd8b98af	-0.068162315
197	0x3ef956fd	0.4869918
198	0x3dfdaf39	0.12386937
199	0x3eb94d22	0.3619166
200	0x3ec05fc9	0.37573078
201	0x3f0b2194	0.5434811
202	0xbeda2501	-0.42606357
203	0xbf1be690	-0.60898685
204	0x3f00f5cf	0.50375074
205	0x3eb27ce5	0.34860912
206	0x3f0ddee6	0.5541824
207	0xbf0ee7b0	-0.5582228
208	0x3c2fffea	0.010742167
209	0xbdeb87e1	-0.11500526
210	0x3dd4cf60	0.10391116
211	0x3ddcf7a9	0.10789425
212	0x3c922249	0.017838614
213	0xbbb71533	-0.005587244
214	0x3eb022ef	0.34401652
215	0xbe43e76b	-0.19131248
216	0x3f0255ee	0.5091237
217	0xbdb7bea1	-0.089719065
218	0x3ec569b0	0.38557196
219	0x3e9e2f5c	0.30895507
220	0xba408200	-0.000734359
221	0xbe61efbe	-0.2206411
222	0x3e01516b	0.12628715
223	0x3db82f37	0.089933805
224	0xbe9c4099	-0.30518034
225	0x3ef456b2	0.47722393
226	0x3f0f0d0d	0.5587929
227	0x3e477927	0.1947981
228	0x3ec9e8a5	0.39435306
229	0x3ebbf206	0.36708087
230	0xbd282f84	-0.04106094
231	0x3ee0e06d	0.43921223
232	0xbf5d79e3	-0.8651411
233	0xbe378750	-0.17922711
234	0x3ef64574	0.48099864
235	0xbe44c69d	-0.1921639
236	0x3d217bc5	0.039424676
237	0x3e63fdaf	0.22264741
238	0x3ee4541c	0.4459542
239	0x3bc570f0	0.006025426
240	0xbd107d48	-0.035275728
241	0xbee3509d	-0.4439744
242	0x3f0fccfc	0.56172156
243	0x3ea742e1	0.32668212
244	0xbc51ff33	-0.012817192
245	0x3e9354cc	0.28775632
246	0xbdc4a192	-0.096011296
247	0x3f08adf6	0.53390443
248	0xbd22d7d8	-0.039756626
249	0x3e3c0dd5	0.18364652
250	0xbe32a8e9	-0.17447247
251	0x3efdf273	0.49599037
252	0xbd3c9c47	-0.046047475
253	0xbe117904	-0.1420632
254	0x3ec2ef00	0.38072968
255	0x3f0ae6ab	0.5425822

net.2.bias f4 [128]
0	0x3e378109	0.17920317
1	0x3edd5a46	0.43232936
2	0x3e7cc106	0.24683008
3	0x3e662a7d	0.22477145
4	0x3f0d3fed	0.5517567
5	0x3d6d77a7	0.057975437
6	0x3e051d5a	0.12999478
7	0x3d1007a7	0.035163548
8	0x3d0f08d0	0.034920514
9	0x3e6df7c4	0.23239046
10	0x3db68bf6	0.08913414
11	0x3e067a15	0.13132508
12	0x3ee6a409	0.45047024
13	0x3c4e5a83	0.012594822
14	0xbe5424e3	-0.20717196
15	0x3e2f61f1	0.17127205
16	0x3ed5832c	0.4170164
17	0x3e4e46db	0.20144217
18	0x3f02349a	0.50861514
19	0xbce5054b	-0.027956625
20	0x3e263de1	0.16234542
21	0x3e5136d6	0.20431075
22	0xbda58d29	-0.08083565
23	0x3e946e12	0.28990227
24	0x3e5712cf	0.21003269
25	0x3d1f3230	0.038866222
26	0x3e9259e7	0.28584215
27	0x3e4a05df	0.19728802
28	0xbc58e580	-0.013238311
29	0xbe4bcfcb	-0.19903485
30	0x3d59ee6c	0.053205892
31	0x3d25fafa	0.040522553
32	0x3ee34910	0.4439168
33	0x3e0a1b2b	0.13486926
34	0x3d9351c5	0.07193331
35	0x3c611994	0.013739008
36	0x3e47f702	0.1952782
37	0x3e876566	0.26444548
38	0x3e48d924	0.19614083
39	0x3e007eb9	0.12548341
40	0x3edcd827	0.4313366
41	0x3d8c07d9	0.06837434
42	0x3e891539	0.26774004
43	0x3e26c0b0	0.16284442
44	0x3ee1c15e	0.4409284
45	0x3eabe09c	0.335698
46	0xbd1718ef	-0.036889013
47	0x3db7feab	0.08984121
48	0x3cf4dbc3	0.029889947
49	0x3d7a4d26	0.06110873
50	0x3f0d6232	0.5522796
51	0x3db5b035	0.088714994
52	0x3d5c4113	0.053772997
53	0xbda7bfe4	-0.08190897
54	0x3ee2fcc7	0.4433348
55	0x3f0dd7d2	0.5540744
56	0x3efd0f38	0.49425673
57	0x3cf5ccc7	0.030004872
58	0x3e5d732a	0.21625963
59	0x3e351c75	0.17686637
60	0x3ee4db68	0.44698644
61	0x3d883ce1	0.06652237
62	0x3e0754e8	0.13215983
63	0x3df2842b	0.11841615
64	0xbdbe259f	-0.092845194
65	0x3e43f1d0	0.19135213
66	0xbd91f06a	-0.071259335
67	0x3ef2b362	0.47402483
68	0x3efc1eef	0.4924235
69	0x3dd9c4b9	0.10633225
70	0x3e172524	0.14760262
71	0x3eb77e48	0.35838532
72	0x3e32a540	0.1744585
73	0x3e23a0ae	0.15979263
74	0xbd88dc7f	-0.06682681
75	0xbcc8804a	-0.024475235
76	0xbc06e8d4	-0.0082342215
77	0xbd3aa5e5	-0.045568366
78	0xbcb8331e	-0.022485312
79	0x3d85fd1f	0.0654242
80	0x3ee2693a	0.44220906
81	0xbdadcdc8	-0.08486515
82	0x3d0dda21	0.034631852
83	0xbd685805	-0.056724567
84	0xbd094a9a	-0.03351841
85	0xbcff7ec3	-0.031188374
86	0xbdb2b363	-0.087256216
87	0x3f09f4d9	0.5388923
88	0x3ecae29b	0.3962601
89	0x3e896323	0.26833448
90	0xba1beada	-0.00059477764
91	0x3e840b26	0.25789756
92	0xbd4d4d31	-0.050122444
93	0x3c70a202	0.014687063
94	0x3c0e94a4	0.008702431
95	0x3c8e3b6e	0.017362323
96	0x3cd6bf59	0.026214289
97	0x3db60b4c	0.088888735
98	0x3e04763e	0.12935731
99	0x3e037c83	0.12840466
100	0x3d2cdb6f	0.042201456
101	0x3e860992	0.26179177
102	0x3e08fb13	0.13377027
103	0xbd0b9c1c	-0.034084424
104	0x3d6ff341	0.058581594
105	0x3efa0771	0.48833802
106	0x3e896a2d	0.26838818
107	0x3eb202be	0.34767717
108	0x3dafc951	0.0858332
109	0x3f060aa5	0.5235999
110	0x3d4e1abb	0.05031846
111	0x3be5f704	0.007017972
112	0x3d7cef26	0.061751507
113	0x3e941417	0.28921577
114	0x3e02d55e	0.12776706
115	0xbd23b5d7	-0.039968338
116	0x3d088edc	0.033339366
117	0x3da3ac16	0.07991807
118	0xbce6cd26	-0.028173994
119	0xbc0499b9	-0.008093291
120	0x3de1a84c	0.11018428
121	0x3e66d5b8	0.22542465
122	0x3e440cf9	0.19145574
123	0x3e9e888e	0.30963558
124	0x3e2f82cb	0.17139737
125	0x3f05f46a	0.5232607
126	0x3e0b3a8b	0.13596551
127	0x3e48c99b	0.19608156

net.4.weight f4 [2, 128]
0	0x3f04cd21	0.518755
1	0x3f0b913e	0.54518497
2	0x3f838342	1.0274432
3	0x3f757651	0.9588366
4	0x3f07d7ea	0.53063834
5	0x3e112ae0	0.14176512
6	0x3f080edc	0.53147674
7	0xbecaa7b5	-0.39581075
8	0xbf11045f	-0.56647295
9	0x3ef7c03b	0.48388848
10	0x3e20c849	0.15701403
11	0x3ed50a48	0.41609406
12	0x3f134677	0.57529396
13	0xbe7cfdb1	-0.2470615
14	0xbf1225d4	-0.5708897
15	0xbdd78fd7	-0.10525482
16	0x3f34efa3	0.70678157
17	0xbd77e3a3	-0.060519826
18	0x3f16ff41	0.58983237
19	0x3d801c8a	0.062554434
20	0x3eb6f1aa	0.3573125
21	0x3e70ca46	0.23514661
22	0x3c6cc0b6	0.014450243
23	0x3f846ac6	1.0345085
24	0x3f30b556	0.69026697
25	0xbe676a0c	-0.22599047
26	0x3e34aaa4	0.17643219
27	0x3eeacccf	0.45859382
28	0x3e589e5f	0.21154164
29	0xbef7d470	-0.48404264
30	0xbf2240aa	-0.6337992
31	0x3ea7eb3a	0.3279665
32	0x3f0eaebf	0.5573539
33	0x3eb3bbf8	0.35104346
34	0x3e951ecc	0.2912506
35	0xbd945242	-0.07242252
36	0x3e9d8409	0.30764797
37	0x3f3a7bde	0.72845256
38	0x3ef7d7f2	0.4840694
39	0x3f011c37	0.5043368
40	0x3f0031ee	0.50076187
41	0x3eb4e101	0.35327914
42	0x3f41d04a	0.7570845
43	0x3f1968ce	0.59925544
44	0x3f1c17fe	0.6097411
45	0x3f05d383	0.52275866
46	0xbe1770c0	-0.14789104
47	0x3eea68ee	0.4578318
48	0x3ed32312	0.41237694
49	0x3ea9c3da	0.33157235
50	0x3f00359a	0.5008179
51	0xbf2ccb62	-0.6749784
52	0xbf2dd7ef	-0.67907614
53	0x3bdabcd5	0.0066753426
54	0x3f0427fb	0.51623505
55	0x3f0bdecb	0.5463683
56	0x3f0682d5	0.52543384
57	0xbf61f7e9	-0.88268906
58	0x3ef0b98d	0.47016564
59	0x3f163eff	0.58689874
60	0x3f228d5f	0.63496965
61	0xbf08d6f5	-0.53453
62	0x3ea349a7	0.3189213
63	0x3f08f1e2	0.53494084
64	0xbef473ff	-0.47744748
65	0x3f37c7b1	0.7178908
66	0xbf40784e	-0.7518357
67	0x3f18ad17	0.59639114
68	0x3f01bbd2	0.50677216
69	0x3e9ffc04	0.3124696
70	0x3f453044	0.7702677
71	0x3f041b5d	0.51604253
72	0xbed060c6	-0.40698832
73	0xbf2788cf	-0.6544313
74	0xbd5e4115	-0.054261286
75	0xbf253048	-0.64526796
76	0xbcbb9f10	-0.022902995
77	0xbda98445	-0.082771815
78	0x3d27d5fa	0.04097555
79	0xbea4aa4b	-0.32161173
80	0x3efd55a1	0.49479392
81	0xbf4e7b55	-0.8065694
82	0xbf04bedc	-0.5185373
83	0xbf04d5b6	-0.51888597
84	0xbda434d8	-0.08017892
85	0x3c52b8e3	0.012861463
86	0xbf273035	-0.65307933
87	0x3f103a96	0.56339395
88	0x3f20cf7a	0.62816584
89	0x3f333a8f	0.7001123
90	0xbf2d97b9	-0.67809635
91	0x3f61b69b	0.8816926
92	0xbf17ef5f	-0.59349626
93	0xbddda5c8	-0.10822636
94	0x3d61657b	0.05502842
95	0x3eac33c9	0.3363326
96	0xbd864ed8	-0.06558007
97	0xbf064031	-0.524417
98	0x3e978998	0.29597163
99	0x3ed9a47b	0.425083
100	0xbe9d08b1	-0.30670694
101	0x3f04ee73	0.51926345
102	0x3f01824d	0.5058945
103	0xbeef7501	-0.46768954
104	0xbdb3b599	-0.087748714
105	0x3f058ae3	0.5216505
106	0x3f53f0e7	0.8278946
107	0x3f1c4ea8	0.6105752
108	0x3e79e065	0.24402006
109	0x3f0e66ac	0.55625415
110	0xbf141867	-0.57849735
111	0xbf37a860	-0.71741295
112	0xbf336b47	-0.7008557
113	0x3f25560b	0.64584416
114	0x3f64ea64	0.8942015
115	0xbd70800d	-0.05871587
116	0xbf26c1e0	-0.6513958
117	0x3ee59d3d	0.44846526
118	0xbed943f6	-0.42434663
119	0xbd923b29	-0.0714019
120	0xbe3b32c2	-0.18281081
121	0x3e93dd20	0.28879642
122	0x3f68c7c9	0.9092985
123	0x3f0f4628	0.55966425
124	0x3e8338aa	0.2562917
125	0x3ef77ea2	0.483388
126	0x3f37f07c	0.71851325
127	0x3f5b32d7	0.8562445
128	0x3f160651	0.5860339
129	0x3ef5fdcc	0.48045194
130	0x3f79b466	0.9754089
131	0x3f15fb26	0.5858635
132	0x3ef0dc2c	0.47042978
133	0x3f3c0fbe	0.7346152
134	0x3ecd502e	0.40100235
135	0xbe832323	-0.25612745
136	0xbf05de4c	-0.52292323
137	0x3f306292	0.68900406
138	0x3ee71228	0.4513104
139	0x3e917595	0.2841002
140	0x3ee234dd	0.44180956
141	0xbea8d03e	-0.32971376
142	0xbf450a38	-0.7696872
143	0xbee98da5	-0.4561588
144	0x3f0e1964	0.55507493
145	0xbf2aefbe	-0.6677207
146	0x3f0ebdc5	0.55758315
147	0x3d763c83	0.060116302
148	0x3f323254	0.69608045
149	0xbe2cd702	-0.16878894
150	0x3dad01e9	0.0844763
151	0x3f71b5c2	0.94417965
152	0x3f5154ef	0.81770223
153	0xbea85ba6	-0.32882422
154	0xbee6491f	-0.44977662
155	0x3f0738f2	0.52821267
156	0x3e9f1ffb	0.31079087
157	0xbf0bb4e1	-0.54572874
158	0xbe6c3d78	-0.23070323
159	0x3e42af90	0.19012284
160	0x3f07dc1c	0.53070235
161	0x3e84ce86	0.25938815
162	0x3e784bc8	0.24247658
163	0xbdb271d6	-0.08713119
164	0x3f22ce89	0.635964
165	0x3f52d7ce	0.8236054
166	0x3f1736b6	0.5906786
167	0x3f108a9a	0.5646149
168	0x3efb7abd	0.4911708
169	0x3ec84d52	0.3912149
170	0x3f645655	0.8919423
171	0xbe441edf	-0.19152401
172	0x3f0db947	0.55360836
173	0x3f0d5b1e	0.5521716
174	0xbec0ca14	-0.37654173
175	0x3e4c30f1	0.19940545
176	0x3ec11378	0.37710166
177	0x3e9ccc45	0.30624595
178	0x3f0518da	0.51991045
179	0xbf0e71f4	-0.5564263
180	0xbe8a9202	-0.2706452
181	0xbcc87935	-0.024471859
182	0x3f083b25	0.5321525
183	0x3eed086f	0.46295497
184	0x3ef4cc71	0.47812226
185	0xbf56ce7f	-0.8390884
186	0x3ed2c59b	0.41166386
187	0xbe083f7c	-0.13305467
188	0x3f1c3b6f	0.6102819
189	0xbefafafc	-0.4901961
190	0x3e7f376f	0.2492349
191	0x3f165f41	0.58739096
192	0xbf332016	-0.69970834
193	0x3f3e09e6	0.74233854
194	0xbf39ca03	-0.7257387
195	0x3f0db2ea	0.55351126
196	0x3f0a2b02	0.53971875
197	0x3e74b236	0.23896107
198	0x3f3c3399	0.7351623
199	0x3f0ab520	0.54182625
200	0xbec14aee	-0.3775248
201	0xbeda076b	-0.42583784
202	0xbd60c1fd	-0.0548725
203	0xbf078f27	-0.5295281
204	0xbd70877c	-0.058722958
205	0xbd60abf3	-0.054851484
206	0x3d33b97d	0.043878067
207	0xbe69c1ff	-0.2282791
208	0x3f0bd56a	0.5462252
209	0xbf1062b6	-0.5640062
210	0xbec34298	-0.38136744
211	0xbf23801b	-0.6386735
212	0x3a8a6361	0.0010558182
213	0xbdab1e33	-0.083553694
214	0xbed9c8b6	-0.42535943
215	0x3f0a8c88	0.54120684
216	0x3f139a6c	0.57657504
217	0x3f3fe8e7	0.74964756
218	0xbe8defbc	-0.27721965
219	0x3f7251e2	0.94656193
220	0xbf4201b7	-0.75783867
221	0xbe463ce7	-0.1935917
222	0xbd01206f	-0.03152507
223	0x3e83b870	0.25726652
224	0x3ed1da97	0.40987083
225	0xbf0bd5c5	-0.5462306
226	0x3e865fda	0.26245004
227	0x3ee16fe3	0.44030675
228	0xbe80c763	-0.2515212
229	0x3f3992f7	0.72489876
230	0x3f1879bb	0.59560746
231	0xbe7f449e	-0.24928519
232	0xbe1fce41	-0.15606023
233	0x3effe1b5	0.49976888
234	0x3f490526	0.7852348
235	0x3f1bac93	0.608102
236	0x3e9db305	0.30800644
237	0x3ef08947	0.46979734
238	0xbdb3024c	-0.087406725
239	0xbf03a943	-0.5143015
240	0xbf349d8c	-0.705529
241	0x3f26c3ca	0.651425
242	0x3f975726	1.182347
243	0x3cc78c40	0.024358869
244	0xbec95a88	-0.39326882
245	0x3ea07cd8	0.31345248
246	0xbe8e1108	-0.2774737
247	0xbd8ff982	-0.07030012
248	0xbed960fe	-0.42456812
249	0x3e82b0eb	0.25525603
250	0x3f4c0514	0.7969525
251	0x3f0396db	0.5140206
252	0x3f3783ff	0.71685785
253	0x3f04cb64	0.5187285
254	0x3f499f58	0.78758764
255	0x3f633b7c	0.8876264

net.4.bias f4 [2]
0	0x3eb2aa0b	0.34895357
1	0x3e7dfffc	0.24804682

net.0.weight f4 [128, 4]
0	0xbe9d9553	-0.30777988
1	0x3efe420e	0.4965977
2	0x3fbc7630	1.4723568
3	0x3dab4b01	0.08363915
4	0x3f30c3ce	0.69048774
5	0x3b8f6053	0.0043754964
6	0x3f37742a	0.7166163
7	0x3eb7f35d	0.3592786
8	0xbee14113	-0.4399496
9	0xbef30025	-0.47461048
10	0xc0200057	-2.5000207
11	0xbf0f5d3b	-0.56001633
12	0x3e8f46ab	0.27983603
13	0x3e932915	0.2874228
14	0x3f838317	1.027438
15	0x3eec1bd2	0.46114975
16	0xbdedbc66	-0.116082
17	0x3ec79491	0.38980535
18	0xbf129285	-0.5725482
19	0x3dafb383	0.08579161
20	0x3e2704ba	0.16310397
21	0x3ee57070	0.44812346
22	0x3fc9643e	1.5733716
23	0x3f1d18b2	0.6136581
24	0x3e965898	0.29364467
25	0x3de7cefc	0.11318776
26	0x3eb46827	0.35235712
27	0x3ecf2f61	0.40465835
28	0x3e86d87b	0.26337036
29	0xbe4bb5e9	-0.19893612
30	0xbea96b5c	-0.3308972
31	0x3e71d641	0.23616888
32	0x3e3eef68	0.18646014
33	0x3d8af38d	0.06784735
34	0x3fc9518e	1.5728014
35	0x3ecca8b4	0.3997246
36	0xbe48f00e	-0.19622824
37	0xbf144b9a	-0.5792786
38	0xbff71e87	-1.9306191
39	0xbf196931	-0.59926134
40	0x3e4accde	0.19804713
41	0x3e5c06b4	0.21486932
42	0xbf0b85e7	-0.54501194
43	0xbd603dd8	-0.05474648
44	0x3ddbc0ab	0.10730108
45	0x3eafc58b	0.343304
46	0xbf25ad8e	-0.6471795
47	0x3ddc8db4	0.10769215
48	0xbe2f2bdc	-0.17106575
49	0xbef1ee46	-0.472521
50	0xbf1acee8	-0.60471964
51	0xbe8c56a0	-0.2740984
52	0xbe86d49b	-0.2633408
53	0xbe7e2d9f	-0.2482209
54	0xbd016313	-0.031588625
55	0xbd45b112	-0.04826457
56	0xbf60fbf8	-0.87884474
57	0xbf7c4489	-0.98542076
58	0xbf4838b7	-0.7821154
59	0xbf0ab1cc	-0.54177547
60	0x3ef32359	0.47487906
61	0x3e9d4c6c	0.30722368
62	0x3f85f666	1.046582
63	0x3ed1a47c	0.40945804
64	0x3e820ce8	0.25400472
65	0x3e8f1e2b	0.27952704
66	0xbf0cb462	-0.5496274
67	0xbe072779	-0.13198651
68	0x3f018a39	0.50601536
69	0xbe49b0e2	-0.19696382
70	0xbf2c84c2	-0.6739007
71	0x3d481a18	0.04885301
72	0x3e756b49	0.23966707
73	0x3e781215	0.24225648
74	0xbe0418eb	-0.1290013
75	0x3da788c6	0.08180384
76	0xbcec7d23	-0.028868264
77	0x3ced9b94	0.02900485
78	0xbde182d7	-0.11011284
79	0x3e3950cb	0.18097226
80	0xbdfb3faa	-0.12268002
81	0xbd5f6fdb	-0.054550033
82	0x3e258f53	0.16167955
83	0x3ea73795	0.32659593
84	0x3e93f922	0.2890101
85	0xbeedbdd1	-0.4643388
86	0x3f917a90	1.1365528
87	0x3ddf36b2	0.10899104
88	0xbf6feaee	-0.9371785
89	0xbed209ce	-0.41023105
90	0xbec3fb42	-0.38277632
91	0xbe9fbe7f	-0.31200024
92	0xbe59572f	-0.21224664
93	0x3e2f04a2	0.17091611
94	0x3db9e8b9	0.090775914
95	0x3e508abf	0.20365427
96	0x3e317dd7	0.1733316
97	0x3d2b91c9	0.04188708
98	0xbec618a6	-0.3869068
99	0x3ee9f920	0.4569788
100	0xbdff0b9f	-0.124533884
101	0x3e33b7b9	0.17550553
102	0x3fdc509a	1.7212098
103	0x3ef7d8e6	0.48407668
104	0x3f26254f	0.6490068
105	0x3d12ecda	0.03587041
106	0x3f6f4b61	0.93474394
107	0x3ed33a38	0.41255355
108	0xbe2c5a42	-0.16831306
109	0xbec01583	-0.37516412
110	0xbff8d643	-1.9440387
111	0xbf26b69f	-0.6512241
112	0xbdfe77de	-0.124252066
113	0xbe8a9bcf	-0.27071998
114	0xbf5df2b6	-0.8669847
115	0xbe995a6e	-0.29951805
116	0xbd963395	-0.07334057
117	0x3edecd07	0.43515798
118	0xbe805027	-0.2506115
119	0x3cdfc344	0.02731479
120	0xbeb56501	-0.35428622
121	0xbed9a9b2	-0.4251228
122	0xbef75157	-0.48304245
123	0xbe654215	-0.2238849
124	0x3f62acae	0.8854474
125	0x3f2b200a	0.6684576
126	0xbc2072e2	-0.009793015
127	0xbeddff7c	-0.43358982
128	0xbcf23e9b	-0.029570868
129	0x3d58d536	0.05293771
130	0xbe3a5932	-0.18198088
131	0xbe42758a	-0.1899015
132	0xbe5496ff	-0.20760725
133	0x3dee5638	0.11637539
134	0xbf264a58	-0.6495719
135	0xbdf2136b	-0.1182011
136	0x3f0f09ae	0.55874145
137	0x3f0b9fc4	0.5454066
138	0xbf45cd13	-0.77266043
139	0xbed49b65	-0.41524807
140	0xbdbda8f6	-0.09260742
141	0xbf538935	-0.82631236
142	0xbf8b4eed	-1.0883461
143	0xbf6ec634	-0.93271184
144	0x3dd89c6f	0.10576712
145	0x3e85c864	0.26129448
146	0x3e8bb6c3	0.27287874
147	0x3eab20fc	0.33423603
148	0xbf2dc9de	-0.6788615
149	0xbf22b157	-0.6355185
150	0xbfb6a10d	-1.4267899
151	0xbf15d504	-0.5852816
152	0x3ed015f9	0.40641764
153	0x3c3a3300	0.011364698
154	0xbeb4d99f	-0.35322282
155	0xbe541691	-0.20711733
156	0xbd8a0cae	-0.067407
157	0x3e891660	0.26774883
158	0x3fb77b1e	1.4334447
159	0x3f154f7a	0.58324397
160	0xbeb4da7c	-0.3532294
161	0xbf0583a5	-0.52154
162	0xbf5c45dd	-0.860441
163	0xbf0bb5dc	-0.5457437
164	0xbd9aee75	-0.07565013
165	0x3d0318bd	0.032006014
166	0xbea5f8fa	-0.32416517
167	0xbe695ddd	-0.22789712
168	0x3e121de6	0.14269218
169	0xbf5b95b8	-0.8577533
170	0xbf1dd316	-0.61650217
171	0xbeccc2fa	-0.39992505
172	0x3f150130	0.58204937
173	0xbec3cade	-0.38240713
174	0xbee5d5b9	-0.4488962
175	0x3d8cfcff	0.06884193
176	0x3ea98d44	0.3311559
177	0x3ec25e4f	0.37962577
178	0x3c51ddf6	0.012809267
179	0x3e866f5a	0.2625683
180	0x3e767acb	0.2407028
181	0x3e4812f1	0.19538476
182	0x3ed9ccac	0.42538965
183	0x3e8e2c23	0.2776805
184	0x3f194c15	0.59881717
185	0xbecea01c	-0.4035653
186	0xbf31bdb9	-0.6943012
187	0x3dc9c3ec	0.09851822
188	0xbf63ba09	-0.8895574
189	0x3ea4ba06	0.32173175
190	0x3f05062f	0.5196256
191	0x3f05b55f	0.52229875
192	0xbf347d0b	-0.705033
193	0xbeae3b53	-0.34029636
194	0xc02c0314	-2.6876879
195	0xbef56c1a	-0.47934037
196	0x3f4bd4e3	0.79621714
197	0xbe8a142a	-0.2696851
198	0xbf06ccd0	-0.5265627
199	0xbeaf72a7	-0.3426716
200	0x3ef93cf5	0.4867932
201	0x3e05148b	0.12996118
202	0x3fa6f492	1.3043387
203	0x3f1284e7	0.5723404
204	0x3ed27be7	0.41110155
205	0x3b561430	0.0032665841
206	0xbde0931a	-0.109655574
207	0x3d6c97d8	0.057761997
208	0xbe19496d	-0.14969416
209	0xbe08a949	-0.13345827
210	0x3e51ba51	0.2048123
211	0xbd5472d0	-0.051867306
212	0x3ec0ac9e	0.37631696
213	0xbe222dae	-0.15837738
214	0xbe3ee26b	-0.18641059
215	0xbd9af04f	-0.075653665
216	0xbe906777	-0.28203937
217	0x3f21f7df	0.63268846
218	0x3de79068	0.1130684
219	0x3ef75b76	0.48311967
220	0x3e526f3a	0.20550242
221	0x3e57239a	0.21009675
222	0xbe393ed5	-0.18090375
223	0x3d9158b8	0.07097
224	0x3f3de347	0.7417492
225	0xbef0d0fa	-0.47034436
226	0x3e0963cf	0.1341698
227	0xbea2613a	-0.31714803
228	0x3c863e7d	0.016387219
229	0xbf0b80f0	-0.5449362
230	0xbf14dd1a	-0.58149874
231	0xbe1b71d1	-0.15180136
232	0x3ed89e80	0.42308426
233	0xbd7d1241	-0.061784986
234	0x3eabb04d	0.33532944
235	0x3e3ca873	0.18423633
236	0x3da4277d	0.08015344
237	0x3ed9fe67	0.42576906
238	0xbdc88e37	-0.0979275
239	0xbe42974c	-0.19003028
240	0xbdf8a933	-0.12141647
241	0xbf4f0c82	-0.8087846
242	0xc0169a21	-2.3531573
243	0xbf3a4565	-0.7276214
244	0xbf5f2c46	-0.8717693
245	0xbf29b9da	-0.6629921
246	0xbdb46f5a	-0.08810301
247	0xbeb71c36	-0.3576371
248	0xbe5b52a9	-0.21418251
249	0xbee26b82	-0.44222647
250	0xbfabb1bd	-1.3413616
251	0xbf3fdec9	-0.7494932
252	0x3ebebe01	0.37254336
253	0x3f37b60d	0.7176216
254	0x3ef4a4ef	0.47782084
255	0x3f06c666	0.5264648

net.0.bias f4 [128]
0	0x3ef715c6	0.482588
1	0xbe5c7a05	-0.21530922
2	0x3e1fe319	0.15613975
3	0xbd95e7f0	-0.07319629
4	0x3f37ff0c	0.71873546
5	0xbd276f81	-0.040877823
6	0x3f675191	0.90358835
7	0x3f5642d3	0.83695716
8	0xbdc56ed9	-0.09640283
9	0x3d4ece1e	0.050489537
10	0xbd6f505c	-0.058426246
11	0x3f59f7b3	0.85143584
12	0x3f09b243	0.5378763
13	0x3f06e492	0.5269252
14	0xbbb7941b	-0.0056023723
15	0xbc9a67ab	-0.01884826
16	0x3f706e63	0.93918437
17	0x3e74b9d9	0.2389902
18	0x3f41626d	0.7554081
19	0x3f35985a	0.70935595
20	0x3f7c84ad	0.9863995
21	0xbe84b7de	-0.2592153
22	0x3f82dd6b	1.0223821
23	0x3f2ebae5	0.6825393
24	0x3f7bbefa	0.9833828
25	0xbdbad3f6	-0.091224596
26	0xbe9bc3be	-0.30422777
27	0x3e5664e5	0.20936926
28	0x3f62e25e	0.8862666
29	0x3f554504	0.83308434
30	0x3f744895	0.9542325
31	0x3e732231	0.23743512
32	0x3f295990	0.66152287
33	0x3f645561	0.8919278
34	0xbed6c527	-0.4194729
35	0x3e4aecd5	0.19816907
36	0x3f35b021	0.70971876
37	0xbb13a027	-0.0022525878
38	0x3f593d2f	0.84858984
39	0xbe26033a	-0.16212168
40	0x3edefc85	0.43552032
41	0x3f402145	0.75050765
42	0x3eea585d	0.4577054
43	0x3f215eff	0.6303558
44	0x3f615e54	0.8803456
45	0x3f606da9	0.8766733
46	0x3f3c260a	0.73495543
47	0x3f069f46	0.5258678
48	0x3e6b4d1e	0.22978637
49	0xbe84b541	-0.25919536
50	0x3deffe48	0.11718422
51	0x3f63c0ac	0.8896587
52	0xbeceb96f	-0.4037585
53	0x3e1ba7d5	0.15200742
54	0x3f352aa3	0.70768183
55	0x3f3c623b	0.7358739
56	0xbe3dfc15	-0.18553193
57	0x3f009aae	0.5023602
58	0x3f5fadff	0.8737487
59	0x3f6a29a8	0.9146981
60	0x3cf9024b	0.030396601
61	0xbebde84e	-0.37091297
62	0xbe0896e3	-0.13338809
63	0x3f0ede0c	0.55807567
64	0x3f3a3658	0.7273917
65	0x3f544502	0.829178
66	0x3f77399b	0.96572274
67	0x3f65e621	0.89804274
68	0x3d91547f	0.070961945
69	0x3f386bb2	0.7203933
70	0x3ef862aa	0.48512775
71	0x3eaad246	0.3336355
72	0x3f4cc2aa	0.79984534
73	0x3f46a23b	0.77591294
74	0xbee6f15d	-0.4510602
75	0xbe3eb6c8	-0.18624413
76	0x3f6d2388	0.9263234
77	0x3f615dd7	0.88033813
78	0x3f010da5	0.50411445
79	0xbe20aa63	-0.15689997
80	0xbecb4ad6	-0.39705533
81	0xbe194325	-0.1496702
82	0x3dcc69fd	0.09981153
83	0xbdee38ff	-0.11631965
84	0x3e897276	0.2684514
85	0x3f05fcd4	0.5233891
86	0x3e5eb7fb	0.2174987
87	0xbd29bc39	-0.04143927
88	0x3ef126c7	0.47099897
89	0xbc267744	-0.010160271
90	0x3f54b201	0.8308411
91	0x3f18a41d	0.59625417
92	0x3f5a3d5a	0.85249865
93	0xbdcf7071	-0.10128868
94	0x3f404882	0.7511064
95	0x3e82b68a	0.2552989
96	0xbe86e8cd	-0.26349488
97	0xbdb1cb83	-0.08681395
98	0x3f3bee3a	0.7341038
99	0x3e19804f	0.14990352
100	0x3f13da74	0.5775521
101	0x3f5e99db	0.86953515
102	0xbecb8a42	-0.3975392
103	0x3f5f0601	0.87118536
104	0xbd5525a8	-0.052037865
105	0xbf20677d	-0.6265791
106	0x3f55a74c	0.834584
107	0xbd9e1709	-0.07719237
108	0xbefdbeb6	-0.49559563
109	0x3f098c3c	0.53729606
110	0x3f5e67cf	0.8687715
111	0x3e4a4d49	0.19756044
112	0xbe02782e	-0.12741157
113	0xbeee58ee	-0.46552223
114	0x3ef1a7ca	0.47198325
115	0x3f2de0f8	0.679214
116	0xbe7809ce	-0.2422249
117	0x3eebb5d4	0.4603716
118	0x3e6a0459	0.22853221
119	0x3f53f1ea	0.82791007
120	0x3f46f229	0.7771326
121	0xb9977a09	-0.00028891888
122	0x3f60221b	0.8755204
123	0x3f231543	0.6370432
124	0xbec7046a	-0.38870555
125	0x3e582d26	0.21110973
126	0x3f3ee69c	0.7457063
127	0x3f1d085e	0.6134089

net.2.weight f4 [128, 128]
0	0x3e9d371d	0.3070611
1	0xbe1ab770	-0.15109038
2	0xbf1402ca	-0.57816756
3	0xbe6821b5	-0.22669108
4	0x3e6ae48c	0.22938746
5	0xbeace2af	-0.33766696
6	0x3db79bb1	0.08965243
7	0x3d3605b4	0.044439033
8	0xbeb3e90a	-0.35138732
9	0xbf18bdf1	-0.5966483
10	0xbe31e438	-0.17372215
11	0x3e94cd36	0.29062814
12	0xbd1e5c24	-0.03866209
13	0x3c3d4082	0.011551024
14	0xbf153fd4	-0.5830052
15	0xbe0d4f8c	-0.13799876
16	0x3e0c7d71	0.13719727
17	0x3ee80474	0.45315897
18	0x3e87b9ff	0.2650909
19	0x3e602927	0.21890698
20	0x3d48c08f	0.049011763
21	0xbe25c641	-0.16188909
22	0xbeb1523f	-0.3463306
23	0x3e20b896	0.15695414
24	0x3df7c5b4	0.12098256
25	0xbf125ac2	-0.57169735
26	0xbddf2c39	-0.10897107
27	0xbf3bc7ba	-0.73351634
28	0x3e156a5d	0.14591356
29	0x3ea167f5	0.31524625
30	0xbd047954	-0.03234227
31	0x3def30f9	0.11679263
32	0x3d9022c1	0.07037879
33	0x3e749a91	0.23887087
34	0xbe1b8de9	-0.15190853
35	0xbed65229	-0.41859558
36	0x3e7d87c9	0.24758829
37	0xbf050679	-0.51963
38	0x3ea700b6	0.3261773
39	0xbee7bbc9	-0.45260456
40	0xbedc36c0	-0.4301052
41	0x3badf83e	0.005309134
42	0x3df1f615	0.118145145
43	0x3cc9a7e7	0.024616195
44	0x3e97977c	0.2960776
45	0x3e518ffa	0.20465079
46	0x3d2e552f	0.042561706
47	0x3e020245	0.12696178
48	0xbeb07ab0	-0.34468603
49	0xbecb2628	-0.39677548
50	0xbdaf0c56	-0.08547275
51	0x3e942e7a	0.2894171
52	0xbe121a28	-0.1426779
53	0xbd2022dd	-0.03909575
54	0x3e86b2d3	0.26308307
55	0x3e8d9d3f	0.27659032
56	0xbe9d8dcb	-0.30772242
57	0xbcb208c0	-0.021732688
58	0x3e34af00	0.17644882
59	0x3e589800	0.21151733
60	0xbf4aa680	-0.7916031
61	0xbe91356f	-0.2836108
62	0xbed31d37	-0.41233227
63	0x3e01a069	0.12658848
64	0x3e9408ce	0.28912967
65	0x3e688427	0.22706662
66	0x3e584a34	0.21122056
67	0xbd0d5f52	-0.034514733
68	0xbf111dfd	-0.56686383
69	0x3eb4544b	0.3522056
70	0x3d812389	0.06305606
71	0xbdeb51d8	-0.1149022
72	0x3eaa239e	0.332303
73	0x3e474ef8	0.19463718
74	0xbe876dba	-0.26450902
75	0xbee6ec70	-0.45102262
76	0x3df7aa5c	0.1209304
77	0x3e4dd085	0.20099075
78	0x3e78f78b	0.2431318
79	0xbe9281c6	-0.28614634
80	0x3d4daf09	0.050215755
81	0xbde37420	-0.111061335
82	0xbf0387bb	-0.51378983
83	0xbea3d204	-0.31996167
84	0x3d9c34d3	0.07627263
85	0xbc789351	-0.015171842
86	0x3d267342	0.040637262
87	0xbeff7d8d	-0.49900475
88	0x3cfa1af9	0.03053044
89	0xbe1c417e	-0.15259358
90	0x3eb8dc3e	0.3610553
91	0x3e4152a1	0.18879177
92	0xbcce9d16	-0.025221389
93	0xbdca98e0	-0.0989244
94	0x3e1abb4d	0.15110512
95	0xbd473b1c	-0.048640355
96	0xbe5f9a51	-0.21836211
97	0x3e402914	0.1876567
98	0x3c707655	0.01467665
99	0x3dc39a5b	0.09550925
100	0x3e19dbea	0.15025297
101	0xbe209db2	-0.15685156
102	0xbd545a93	-0.05184419
103	0x3d6110ba	0.054947592
104	0xbeb0046a	-0.34378368
105	0xbc3b70e2	-0.011440488
106	0xbc7ebd88	-0.015548117
107	0xbeadce36	-0.3394639
108	0x3d308a30	0.043100536
109	0x3e4bacc8	0.1989013
110	0x3e82c1eb	0.25538573
111	0xbd6dd939	-0.058068488
112	0xbef99704	-0.48748028
113	0xbee016ba	-0.4376734
114	0xbce6fba2	-0.02819616
115	0x3e6b21b6	0.22962078
116	0xbe0d4961	-0.13797523
117	0x3e272879	0.16324033
118	0xbe92a11b	-0.2863854
119	0x3cd854ac	0.026407562
120	0xbe2f18b7	-0.17099272
121	0x3e356289	0.1771337
122	0xbe6b32cc	-0.22968596
123	0x3e512ccd	0.20427246
124	0xbd83f019	-0.06442279
125	0xbe5e56a9	-0.21712746
126	0x3e1a8e75	0.15093406
127	0x3e446564	0.19179302
128	0x3ea4c1da	0.32179147
129	0xbdb07074	-0.08615199
130	0xbe9f0edb	-0.3106602
131	0xbe3c18ab	-0.18368785
132	0x3ee10712	0.43950707
133	0xbeb9741f	-0.36221406
134	0x3ec90eb6	0.39269036
135	0x3f0841ad	0.53225213
136	0xbf10ebdf	-0.5660991
137	0xbee0f833	-0.4393936
138	0xbe6b2ba6	-0.2296587
139	0x3f02c532	0.51082146
140	0x3eead343	0.45864305
141	0x3eb0d29c	0.34535682
142	0x3f094abe	0.5362967
143	0xbdb65b2e	-0.0890411
144	0x3e9f23e9	0.31082085
145	0x3e8fa6bb	0.28056893
146	0x3ecbc0a4	0.3979541
147	0x3f011011	0.5041514
148	0x3eee7f9f	0.46581742
149	0xbf10edb8	-0.5661273
150	0xbda93090	-0.08261216
151	0x3ef00fb8	0.46886992
152	0x3f0df501	0.5545197
153	0xbf446883	-0.7672197
154	0xbd88911e	-0.06668304
155	0xbf0a06f7	-0.5391688
156	0x3ee32169	0.44361427
157	0x3f102b15	0.5631574
158	0x3f09cc48	0.53827333
159	0xbcfc3140	-0.030785203
160	0x3ece6be1	0.4031668
161	0x3f1c3f00	0.6103363
162	0xbe24f6dd	-0.16109796
163	0xbf0dfafd	-0.554611
164	0x3ec8864a	0.39164954
165	0xbd8af022	-0.06784083
166	0x3ef9b481	0.48770526
167	0xbf6d8961	-0.9278775
168	0xbdbd5ad0	-0.09245837
169	0x3eecefba	0.46276647
170	0x3ec249bb	0.37946877
171	0x3f0b814f	0.54494184
172	0x3ea58591	0.32328466
173	0x3ec57fbe	0.38574022
174	0x3edfceb2	0.43712384
175	0x3ca6abc2	0.020345572
176	0x3c43b865	0.011945819
177	0xbebd8a1b	-0.3701943
178	0xbe49fefa	-0.19726172
179	0x3f114458	0.5674491
180	0xbe9335c2	-0.2875195
181	0x3ec31def	0.38108775
182	0x3ecd929e	0.40150923
183	0x3f0298d9	0.51014477
184	0xbeb75101	-0.3580399
185	0x3f0003c4	0.50005746
186	0x3ef6a8b5	0.48175588
187	0x3ee0870f	0.43853042
188	0xbf1bcd14	-0.608598
189	0xb780a9c2	-1.5337839e-05
190	0xbebd041e	-0.36917204
191	0x3e457f94	0.19286948
192	0x3e84b82e	0.25921768
193	0x3ec4a933	0.3841034
194	0x3eb81bf3	0.35958824
195	0x3ee6100f	0.44934127
196	0xbd8bdf65	-0.068297185
197	0x3ef92863	0.48663625
198	0x3dfd61e3	0.12372186
199	0x3eb907fc	0.36138904
200	0x3ec02f06	0.37535876
201	0x3f0b05d0	0.54305744
202	0xbeda1283	-0.42592248
203	0xbf1bd814	-0.60876584
204	0x3f00d7e0	0.503294
205	0x3eb252b8	0.34828734
206	0x3f0dc4da	0.55378497
207	0xbf0edb66	-0.55803525
208	0x3c2fffea	0.010742167
209	0xbdeb320c	-0.11484155
210	0x3dd4c2e8	0.10388738
211	0x3ddc8489	0.107674666
212	0x3c91ee59	0.017813848
213	0xbbc62347	-0.006046686
214	0x3eaff545	0.34366813
215	0xbe440736	-0.19143376
216	0x3f023476	0.508613
217	0xbdb7ba56	-0.08971088
218	0x3ec53dc8	0.38523698
219	0x3e9dffe1	0.30859283
220	0xba9d8c0e	-0.0012019889
221	0xbe61e188	-0.2205869
222	0x3e012af3	0.1261404
223	0x3db84dc2	0.08999206
224	0xbe9c23ca	-0.30496055
225	0x3ef4276b	0.47686324
226	0x3f0eef96	0.5583433
227	0x3e473de7	0.19457208
228	0x3ec9c08e	0.3940472
229	0x3ebbb0c4	0.366583
230	0xbd2788fa	-0.040902115
231	0x3ee0a75c	0.43877685
232	0xbf5d7820	-0.8651142
233	0xbe3777b2	-0.17916754
234	0x3ef6099e	0.48054212
235	0xbe44c179	-0.19214429
236	0x3d217bc5	0.039424676
237	0x3e63ca44	0.22245127
238	0x3ee42410	0.44558764
239	0x3bc7559c	0.0060832035
240	0xbd10d73b	-0.03536151
241	0xbee3509d	-0.4439744
242	0x3f0fafbf	0.5612754
243	0x3ea71988	0.32636666
244	0xbc4f407e	-0.0126496535
245	0x3e9340b4	0.28760302
246	0xbdc51efb	-0.0962505
247	0x3f089055	0.53345233
248	0xbd24a3ff	-0.04019546
249	0x3e3c2f62	0.1837745
250	0xbe33133a	-0.17487803
251	0x3efdc888	0.49567056
252	0xbd3c9c47	-0.046047475
253	0xbe11af66	-0.14227065
254	0x3ec2ba0e	0.38032573
255	0x3f0acc40	0.5421791

net.2.bias f4 [128]
0	0x3e370e17	0.17876469
1	0x3edd277d	0.4319419
2	0x3e7c4c1b	0.24638407
3	0x3e65bf55	0.22436269
4	0x3f0d2681	0.5513688
5	0x3d6bb91c	0.05754958
6	0x3e051d5a	0.12999478
7	0x3d1007a7	0.035163548
8	0x3d0f08d0	0.034920514
9	0x3e6d8de2	0.23198655
10	0x3db5de97	0.08880346
11	0x3e067a15	0.13132508
12	0x3ee671b4	0.45008624
13	0x3c4e8cfa	0.012606854
14	0xbe5424e3	-0.20717196
15	0x3e2fb778	0.17159832
16	0x3ed550ae	0.41663116
17	0x3e4e9e87	0.20177661
18	0x3f021b07	0.5082249
19	0xbce5054b	-0.027956625
20	0x3e25d857	0.16195808
21	0x3e511e73	0.20421772
22	0xbda58d29	-0.08083565
23	0x3e943340	0.2894535
24	0x3e569f79	0.20959271
25	0x3d1f458d	0.03888469
26	0x3e926df1	0.28599504
27	0x3e499292	0.19684818
28	0xbc58e580	-0.013238311
29	0xbe4bcfcb	-0.19903485
30	0x3d5a7f68	0.05334416
31	0x3d25fafa	0.040522553
32	0x3ee31622	0.44352823
33	0x3e0a1b2b	0.13486926
34	0x3d9351c5	0.07193331
35	0x3c611994	0.013739008
36	0x3e479426	0.19490108
37	0x3e872c75	0.26401106
38	0x3e486a22	0.19571736
39	0x3e000eaf	0.12505601
40	0x3edca516	0.430947
41	0x3d8c07d9	0.06837434
42	0x3e88db3c	0.26729763
43	0x3e268ac0	0.16263866
44	0x3ee18e5c	0.44053924
45	0x3eabad18	0.33530498
46	0xbd1718ef	-0.036889013
47	0x3db7feab	0.08984121
48	0x3cf4dbc3	0.029889947
49	0x3d7a4d26	0.06110873
50	0x3f0d489d	0.55188924
51	0x3db5afb7	0.088714056
52	0x3d5cbdef	0.053892072
53	0xbda7bfe4	-0.08190897
54	0x3ee2c9aa	0.44294482
55	0x3f0dbe7b	0.55368775
56	0x3efcdc4b	0.4938682
57	0x3cf5ccc7	0.030004872
58	0x3e5c8a59	0.2153715
59	0x3e34d1d5	0.1765817
60	0x3ee4a85d	0.446597
61	0x3d885fce	0.06658898
62	0x3e0754e8	0.13215983
63	0x3df1acbd	0.11800525
64	0xbdbdea66	-0.092732236
65	0x3e437d49	0.19090761
66	0xbd91f06a	-0.071259335
67	0x3ef2808f	0.47363707
68	0x3efbebbf	0.49203297
69	0x3dd9c4b9	0.10633225
70	0x3e16b2b7	0.14716612
71	0x3eb74ac5	0.35799232
72	0x3e3302f8	0.17481601
73	0x3e23e4c3	0.16005234
74	0xbd88dc7f	-0.06682681
75	0xbcc7dd18	-0.024397418
76	0xbc06e8d4	-0.0082342215
77	0xbd3aa5e5	-0.045568366
78	0xbcb8331e	-0.022485312
79	0x3d863241	0.06552554
80	0x3ee2360f	0.44181868
81	0xbdadcdc8	-0.08486515
82	0x3d0f942a	0.03505341
83	0xbd675f6e	-0.056487493
84	0xbd094a9a	-0.03351841
85	0xbcff7ec3	-0.031188374
86	0xbdb27f67	-0.08715706
87	0x3f09db2b	0.5385005
88	0x3ecaafe2	0.39587313
89	0x3e8929ef	0.26789805
90	0xb9d6b4dd	-0.00040952014
91	0x3e83d4cd	0.25748292
92	0xbd4caaa0	-0.04996741
93	0x3c76bc1c	0.015059497
94	0x3c0e94a4	0.008702431
95	0x3c8e3b6e	0.017362323
96	0x3cd426ec	0.025897466
97	0x3db6f359	0.08933134
98	0x3e04763e	0.12935731
99	0x3e027a56	0.1274198
100	0x3d2cdacf	0.04220086
101	0x3e85d0e5	0.26135936
102	0x3e089209	0.13336958
103	0xbd0b01dc	-0.03393732
104	0x3d71770e	0.05895143
105	0x3ef9d469	0.4879487
106	0x3e893065	0.26794735
107	0x3eb1cf85	0.34728637
108	0x3dafc951	0.0858332
109	0x3f05f151	0.52321345
110	0x3d4e8187	0.050416496
111	0x3be8421a	0.007087958
112	0x3d7dd31f	0.06196892
113	0x3e93da22	0.2887736
114	0x3e026456	0.12733588
115	0xbd23b5d7	-0.039968338
116	0x3d08ea3c	0.03342651
117	0x3da3ac16	0.07991807
118	0xbce52e86	-0.027976286
119	0xbc0499b9	-0.008093291
120	0x3de1f54e	0.11033116
121	0x3e666b8f	0.22501968
122	0x3e439592	0.19100025
123	0x3e9e555f	0.30924508
124	0x3e2f266c	0.171045
125	0x3f05dacb	0.52286977
126	0x3e0ac63e	0.13552186
127	0x3e485767	0.19564591
