MountCar/checkpoints/checkpoint_episode_500.pt (torch, 288314 bytes, 24 tensors)

net.0.weight f4 [128, 4]
-0.26507914 0.7026624 0.9048224 -0.1962249 0.7449835 -0.0065836445 0.48619318 0.3163541
-0.35182497 -0.29359666 -1.6177871 -0.25256798 0.3971821 0.34030607 0.67931634 0.3068472
-0.182988 0.37988272 -0.48864013 0.08070555 0.27407098 0.52821726 1.1969793 0.4558994
0.21594961 0.09992288 0.32615945 0.35686746 0.18770888 -0.2142751 -0.2706179 0.22183079
0.3695304 0.117120005 1.2519984 0.31732413 -0.3552484 -0.6210184 -1.026908 -0.43649766
0.22545272 0.19896527 -0.56107926 -0.0072186957 0.02838093 0.31700608 -0.5735309 0.104822025
-0.038644124 -0.21016365 -0.36559394 -0.22857314 -0.1914784 -0.07769768 0.18897697 0.007053547
-0.9230357 -0.9505087 -0.8474476 -0.65733606 0.58466536 0.3745473 0.6710432 0.27133566
0.1677928 0.23764163 -0.4658449 -0.12993981 0.40667433 -0.25961348 -0.6951309 0.03960375
0.15041909 0.23140591 -0.047705233 0.076378696 -0.09353562 0.027688 -0.060025968 0.15583609
-0.17563231 -0.049898818 0.20476739 0.30334333 0.29369622 -0.32240734 0.974743 -0.025154738
-0.9542031 -0.31679022 -0.5060874 -0.387954 -0.25963908 0.17623572 0.12224145 0.17623655
0.10396557 0.02760206 -0.34380516 0.43478468 -0.1151892 0.2199418 1.1464047 0.4930323
0.67293817 -0.00042187166 0.7605616 0.3847469 -0.18208534 -0.315063 -1.4744503 -0.23068498
-0.09757549 -0.19746341 -0.669034 -0.2789299 -0.14388694 0.42103618 -0.1779551 0.01866212
-0.3024765 -0.3172513 -0.28631333 -0.16373263 0.73899746 0.449795 -0.035838835 -0.40630442
-0.08203167 0.040033814 -0.08687192 -0.18175144 -0.26621205 0.11189822 -0.56245834 -0.123896934
0.48317122 0.32347295 -0.5870146 -0.2588366 -0.10340613 -0.6926246 -0.477328 -0.5862108
0.060725495 0.30581757 0.29806367 0.30323026 -0.92558604 -0.6334531 -0.46654373 -0.42102042
0.31136262 -0.043011237 -0.2631244 -0.19175084 0.1472216 0.30364606 1.0534725 0.46668532
-0.25627366 -0.41784227 -0.66882086 -0.30200884 -0.1270031 0.012059954 -0.21246012 -0.20388667
0.26943618 -0.6134007 -0.29414174 -0.3088219 0.4422063 -0.45292982 -0.40445432 0.060712308
0.26593634 0.40151256 0.08746284 0.25598937 0.1557587 0.17788811 0.45443892 0.24969465
0.4770381 -0.46892565 -0.636787 0.11007697 -0.68995327 0.4328034 -0.020259453 0.2604276
-0.70656955 -0.09968171 -1.8814551 -0.19614194 0.8291786 -0.29759264 -0.47054958 -0.35622913
0.5814725 0.19915466 0.8672845 0.40774646 0.31229967 -0.037996486 -0.06982742 0.03691011
-0.3110854 -0.20659274 0.33589855 -0.12793289 0.25852615 -0.3193973 -0.40301552 -0.11524032
-0.33413818 0.6787685 0.00292266 0.36287966 0.113200106 0.17564842 -0.12852643 0.055018675
0.7775204 -0.48347935 0.10780775 -0.35537866 0.084363416 -0.33612576 -0.38514662 -0.11793763
0.3266523 -0.09547449 0.34430104 0.14917232 0.006422589 0.40215462 -0.021505557 -0.19423476
-0.3100867 -0.81146455 -1.5683955 -0.57633024 -0.92388916 -0.72304916 0.46680078 -0.16289149
-0.4642674 -0.41596755 -0.65994245 -0.54639894 0.2765571 0.606038 0.2340635 0.36697662
00000000: 74b8 87be afe1 333f 71a2 673f 2eef 48be
00000010: 3db7 3e3f 9dbb d7bb 50ee f83e 2af9 a13e
00000020: 6722 b4be 4d52 96be a613 cfbf 9750 81be
00000030: 745b cb3e 993c ae3e ade7 2d3f 141b 9d3e
00000040: 3561 3bbe fd7f c23e 0a2f fabe f448 a53d
00000050: 0853 8c3e 3f39 073f 9e36 993f a56b e93e
00000060: e521 5d3e 5ea4 cc3d 5ffe a63e 55b7 b63e
00000070: c236 403e ef6a 5bbe 6e8e 8abe 9c27 633e
00000080: 1733 bd3e 9ddc ef3d 7c41 a03f 4f78 a23e
00000090: 1ee3 b5be 10fb 1ebf b971 83bf 9f7c dfbe
000000a0: 14dd 663e 8dbd 4b3e e4a2 0fbf cf8a ecbb
000000b0: 207f e83c 9f4e a23e ecd2 12bf eeac d63d
000000c0: 4d49 1ebd 2435 57be 212f bbbe 140f 6abe
000000d0: ea12 44be f61f 9fbd 2e83 413e 7121 e73b
000000e0: 114c 6cbf 8a54 73bf 53f2 58bf 2d47 28bf
000000f0: a1ac 153f aac4 bf3e 7dc9 2b3f 82ec 8a3e
00000100: e0d1 2b3e 5458 733e 3983 eebe f10e 05be
00000110: 9e37 d03e 0fec 84be 19f4 31bf 8b37 223d
00000120: 7607 1a3e acf5 6c3e 9066 43bd 6f6c 9c3d
00000130: 9a8f bfbd f2d1 e23c cadd 75bd 7f93 1f3e
00000140: f5d8 33be b462 4cbd 8bae 513e d14f 9b3e
00000150: 5a5f 963e 9312 a5be c288 793f 4f11 cebc
00000160: a846 74bf 5432 a2be f28e 01bf e8a1 c6be
00000170: 6aef 84be 2377 343e ba59 fa3d 5b77 343e
00000180: e7eb d43d b71d e23c 3b07 b0be 199c de3e
00000190: 51e8 ebbd 6c38 613e 64bd 923f bb6e fc3e
000001a0: ad45 2c3f a82e ddb9 2ab4 423f 8cfd c43e
000001b0: 9474 3abe f04f a1be caba bcbf af38 6cbe
000001c0: a9d5 c7bd d933 4abe d045 2bbf e6cf 8ebe
000001d0: 1957 13be 0e92 d73e dd39 36be 4de1 983c
000001e0: 33de 9abe c36e a2be a997 92be 87a9 27be
000001f0: f02e 3d3f 884b e63e becb 12bd 2207 d0be
00000200: 3800 a8bd 7ffa 233d e8e9 b1bd 0d1d 3abe
00000210: f24c 88be e52a e53d 45fd 0fbf adbd fdbd
00000220: 3862 f73e 3f9e a53e 9746 16bf 3b86 84be
00000230: 98c6 d3bd d94f 31bf 5664 f4be e911 16bf
00000240: 4cbb 783d 1f94 9c3e cd9b 983e ff40 9b3e
00000250: 35f3 6cbf fb29 22bf d2de eebe fd8f d7be
00000260: ec6a 9f3e 8d2c 30bd 3eb8 86be 555a 44be
00000270: 42c1 163e 7f77 9b3e 30d8 863f 61f1 ee3e
00000280: 4d36 83be 6cef d5be d837 2bbf e7a0 9abe
00000290: 1a0d 02be 1d97 453c 258f 59be abc7 50be
000002a0: 8af3 893e d407 1dbf bf99 96be e71d 9ebe
000002b0: dd68 e23e 6be6 e7be a314 cfbe 78ad 783d
000002c0: cf28 883e 0e93 cd3e b81f b33d 0a11 833e
000002d0: 357f 1f3e 4d28 363e 38ac e83e f4af 7f3e
000002e0: 563e f43e 0617 f0be 7904 23bf 0970 e13d
000002f0: c7a0 30bf 6898 dd3e 27f7 a5bc c456 853e
00000300: bee1 34bf ed25 ccbd 85d3 f0bf 6fd9 48be
00000310: 0c45 543f 105e 98be e0eb f0be aa63 b6be
00000320: 62db 143f 33ef 4b3e 5b06 5e3f 25c4 d03e
00000330: bee5 9f3e 34a2 1bbd ae01 8fbd 0e2f 173d
00000340: 9646 9fbe 0c8d 53be e5fa ab3e d700 03be
00000350: 8a5d 843e 0b88 a3be 0d58 cebe 1e03 ecbd
00000360: 2914 abbe c6c3 2d3f 198a 3f3b 5dcb b93e
00000370: 75d5 e73d 2edd 333e 6f9c 03be 435b 613d
00000380: 940b 473f 9b8a f7be 4fca dc3d 31f4 b5be
00000390: bac6 ac3d ad18 acbe f031 c5be 4989 f1bd
000003a0: f83e a73e 2188 c3bd 3a48 b03e a1c0 183e
000003b0: 9574 d23b 36e7 cd3e 6c2c b0bc 7ae5 46be
000003c0: afc3 9ebe 24bc 4fbf 2fc1 c8bf 618a 13bf
000003d0: 0084 6cbf c019 39bf 8300 ef3e 07cd 26be
000003e0: 75b4 edbe b3f9 d4be fdf1 28bf cde0 0bbf
000003f0: e498 8d3e 4e25 1b3f 58ae 6f3e 5ce4 bb3e

net.0.bias f4 [128]
0.3215699 -0.18664268 0.29464254 -0.021256289 0.59329623 0.02234633 0.7777038 0.70577407
-0.064849205 -0.070322976 0.006475676 0.7261066 0.5207573 0.45679095 0.23328857 0.012177893
0.8255779 0.017332718 0.6107669 0.58038753 0.86149055 -0.2725561 0.98220456 0.56086487
0.850026 -0.32973397 -0.31424856 0.35737237 0.8192657 0.70712054 0.87508225 0.14140089
0.5469077 0.7765803 -0.58232224 0.3816661 0.5676466 -0.10709933 0.74140275 -0.2883857
0.49762887 0.6364794 0.4583772 0.53906965 0.7203241 0.75181174 0.6400899 0.39233944
0.559378 -0.1798477 0.1417614 0.7719649 -0.22432995 0.0075618317 0.5558075 0.6174855
-0.024298338 0.45598397 0.75928766 0.79413056 -0.09593083 -0.2497927 -0.1735103 0.40590644
0.54663455 0.69747883 0.8354606 0.81966764 -0.10616219 0.582494 0.3020822 0.09740358
0.6651929 0.65328085 -0.51954275 -0.2666587 0.80315495 0.7304467 0.4748432 -0.3041096
-0.39705533 -0.047511365 0.1975182 -0.10110217 0.2391667 0.48678064 0.07204266 -0.12579916
0.38509625 0.007639282 0.7078991 0.39821482 0.71993995 -0.041214682 0.5770214 0.00030501297
-0.21967353 -0.012247106 0.66515625 0.037986178 0.46256313 0.760899 -0.27176717 0.74535257
-0.017821282 -0.4359824 0.7013363 0.06914956 -0.49559563 0.36100456 0.74900764 0.113915116
-0.1876093 -0.36797994 0.32649526 0.57100713 -0.10543962 0.32194483 0.09577028 0.7553485
0.7502651 -0.03716126 0.7893536 0.5284917 -0.38870555 0.4832646 0.6189267 0.5768957
00000000: cfa4 a43e 421f 3fbe 63db 963e ab21 aebc
00000010: 43e2 173f a70f b73c 9917 473f 9cad 343f
00000020: a9cf 84bd 7e05 90bd e831 d43b 1fe2 393f
00000030: 5a50 053f 81e0 e93e 33e3 6e3e c985 473c
00000040: 1359 533f 58fd 8d3c 385b 1c3f 4794 143f
00000050: a58a 5c3f 798c 8bbe c271 7b3f d794 0f3f
00000060: 4e9b 593f e4d2 a8be 30e5 a0be 83f9 b63e
00000070: 66bb 513f da05 353f 6405 603f 65cb 103e
00000080: 2502 0c3f f7cd 463f 1213 15bf bd69 c33e
00000090: 4a51 113f e556 dbbd 92cc 3d3f 4aa7 93be
000000a0: 36c9 fe3e 50f0 223f 6bb0 ea3e 7800 0a3f
000000b0: 2967 383f bc76 403f efdc 233f b7e0 c83e
000000c0: 6633 0f3f ff29 38be e729 113e 7e9f 453f
000000d0: c0b6 65be 3ec9 f73b 6649 0e3f 8813 1e3f
000000e0: 4f0d c7bc bb76 e93e ad60 423f 244c 4b3f
000000f0: 6277 c4bd a8c9 7fbe afac 31be f8d2 cf3e
00000100: 3ef0 0b3f f98d 323f bfe0 553f bdd5 513f
00000110: 906b d9bd 541e 153f 85aa 9a3e 877b c73d
00000120: 154a 2a3f 6a3d 273f c100 05bf 7d87 88be
00000130: 909b 4d3f 8efe 3a3f a61e f33e 41b4 9bbe
00000140: d64a cbbe 479b 42bd 3642 4a3e a80e cfbd
00000150: 1ee8 743e 503b f93e 1a8b 933d 7fd1 00be
00000160: 562b c53e f152 fa3b e038 353f d0e2 cb3e
00000170: fc4d 383f bad0 28bd adb7 133f 26ea 9f39
00000180: 19f2 60be 16a8 48bc ae47 2a3f 6597 1b3d
00000190: 13d5 ec3e 47ca 423f 1125 8bbe 6dcf 3e3f
000001a0: f0fd 91bc 1639 dfbe c78a 333f 499e 8d3d
000001b0: b6be fdbe 97d5 b83e f7be 3f3f 544c e93d
000001c0: a71c 40be de67 bcbe 632a a73e 862d 123f
000001d0: baf0 d7bd f4d5 a43e 3523 c43d 855e 413f
000001e0: 6011 403f 6836 18bd 1413 4a3f 3b4b 073f
000001f0: 6a04 c7be 756e f73e fb71 1e3f 70af 133f

net.2.weight f4 [128, 128]
0.20230694 -0.19313796 -0.78414047 -0.23557521 0.09101545 -0.35165226 -0.030451026 -0.087096795
-0.33441514 -0.7323725 -0.17845628 0.15706491 -0.21785426 -0.13546944 -0.67614865 -0.17013559
0.0054874304 0.33801493 0.13824832 0.08472354 -0.08156136 -0.15606162 -0.47898307 0.024271188
-0.008637692 -0.5204391 -0.14231718 -0.87044877 -0.011005777 0.18196423 -0.18405524 0.044236038
-0.07118798 0.09133978 -0.13713181 -0.70282066 0.12604976 -0.60424155 0.19612335 -0.41306564
-0.6462703 -0.13958661 -0.1542776 -0.102740906 0.17431852 0.08384712 -0.08800681 0.033769064
-0.5631123 -0.39368016 -0.1146963 0.16294496 -0.1426779 -0.11856395 0.1393127 0.14833005
-0.32683104 -0.17685755 0.055212136 0.081118405 -0.87068796 -0.35948712 -0.44074622 0.023170523
0.17390956 0.103303894 0.079903066 -0.1816623 -0.6835769 0.22661953 -0.026919127 -0.14968424
0.2043658 0.065821126 -0.29023433 -0.39473224 -0.011978865 0.06642466 0.11290623 -0.25435367
0.050215755 -0.1676228 -0.6685877 -0.39650008 -0.008565135 -0.15216811 -0.16246644 -0.5913085
-0.21483268 -0.18976188 0.23205812 0.06865381 -0.16906762 -0.10480368 0.04240626 -0.13377617
-0.16841418 0.20940112 -0.13875046 -0.008793318 0.023143407 -0.2918043 -0.057846986 -0.084144406
-0.36093324 -0.011440488 -0.14556716 -0.38249192 0.043100536 0.07928072 0.12873803 -0.13082033
-0.38237286 -0.43384615 -0.15343983 0.09852639 -0.16164315 0.045759138 -0.28076592 -0.12116215
-0.32213563 0.1168037 -0.38039148 0.0870369 -0.06442279 -0.4325043 0.02815993 0.057046097
0.27549276 -0.18720455 -0.13303982 -0.20160362 0.33484447 -0.340949 0.26613662 0.4131584
-0.5078188 -0.24631359 -0.27832118 0.40357396 0.33077803 0.2250528 0.5574681 -0.15062706
0.21806529 0.1922404 0.29357725 0.38596013 0.34104002 -0.46380734 -0.14992796 0.351
0.4226254 -0.43132147 -0.15662158 -0.4533029 0.3502713 0.46237403 0.42109266 -0.12401635
0.31851512 0.5141695 -0.22277063 -0.46870458 0.26639903 -0.052067943 0.3996538 -0.548717
-0.113452755 0.37817907 0.22449176 0.43486807 0.22093926 0.26751554 0.3255862 -0.10420906
-0.039890934 -0.3920387 -0.22230737 0.46380037 -0.38167655 0.37093824 0.30106056 0.40623748
-0.41224724 0.35907817 0.36947125 0.35034683 -0.39896014 -0.21188688 -0.22496386 0.0879251
0.155984 0.26910022 0.27896982 0.337928 0.0030587993 0.39499405 0.041939612 0.3336088
0.25264016 0.42869803 -0.3563304 -0.45673528 0.38876963 0.26619396 0.41824296 -0.36676767
0.010742167 -0.0030626198 0.3631511 -0.058360342 -0.06678526 -0.025476206 0.3051632 -0.21457215
0.34118566 -0.15790755 0.28612927 0.18503676 -0.08111639 -0.17995806 0.043491986 0.043762017
-0.109161176 0.4087058 0.44138598 0.14170004 0.3067071 0.23460291 -0.11433942 0.33719218
-0.38691485 -0.30889994 0.37766132 -0.29384932 0.039424676 0.1597937 0.33841863 -0.10146881
-0.08719909 -0.5223019 0.4471002 0.22948158 -0.09622208 0.2421269 0.026136793 0.4249264
-0.04255608 0.1427581 -0.1854636 0.42120394 -0.046047475 -0.1460495 0.26910427 0.42247725
00000000: 8d29 4f3e f5c5 45be 6ebd 48bf a13a 71be
00000010: 4f66 ba3d c40b b4be 6e74 f9bc ce5f b2bd
00000020: 7638 abbe c47c 3bbf 3ebd 36be a0d5 203e
00000030: 3015 5fbe 80b8 0abe 1418 2dbf 0638 2ebe
00000040: e7cf b33b 4b10 ad3e f890 0d3e 8983 ad3d
00000050: a409 a7bd 9ece 1fbe 453d f5be 5fd4 c63c
00000060: 1b85 0dbc 7f3b 05bf 98bb 11be bbd5 5ebf
00000070: 9351 34bc d554 3a3e fa78 3cbe d930 353d
00000080: 01cb 91bd 5a10 bb3d 486c 0cbe 0eec 33bf
00000090: 3013 013e 93af 1abf 8fd4 483e 577d d3be
000000a0: f871 25bf cbef 0ebe f2fa 1dbe d369 d2bd
000000b0: 8e80 323e 0ab8 ab3d ea3c b4bd 6e51 0a3d
000000c0: 2128 10bf 7290 c9be e5e5 eabd 0bdb 263e
000000d0: 281a 12be a8d1 f2bd fda7 0e3e d5e3 173e
000000e0: 6656 a7be 251a 35be 1f26 623d 6821 a63d
000000f0: 68e5 5ebf b20e b8be 7da9 e1be 1cd0 bd3c
00000100: 5915 323e fe90 d33d 38a4 a33d af05 3abe
00000110: e5fe 2ebf f30e 683e 8085 dcbc d346 19be
00000120: 4545 513e 3acd 863d 9899 94be 581a cabe
00000130: 0043 44bc a709 883d 623b e73d a53a 82be
00000140: 09af 4d3d 50a5 2bbe 9028 2bbf 0f02 cbbe
00000150: c854 0cbc f5d1 1bbe 9a5d 26be fe5f 17bf
00000160: 19fd 5bbe f050 42be a5a0 6d3e 5e9a 8c3d
00000170: 1020 2dbe 50a3 d6bd 30b2 2d3d 9ffc 08be
00000180: c474 2cbe 3f6d 563e 9a14 0ebe d911 10bc
00000190: 3e97 bd3c 6067 95be f6f0 6cbd e753 acbd
000001a0: 3ecc b8be e270 3bbc 8f0f 15be fbd5 c3be
000001b0: 308a 303d ee5d a23d e7d3 033e c4f5 05be
000001c0: 60c6 c3be 1521 debe 551f 1dbe 34c8 c93d
000001d0: c885 25be ef6d 3b3d 8dc0 8fbe dc23 f8bd
000001e0: f6ee a4be c736 ef3d acc2 c2be 6740 b23d
000001f0: 19f0 83bd 3471 ddbe a7af e63c 2ba9 693d
00000200: 630d 8d3e 8db2 3fbe 973b 08be 2e71 4ebe
00000210: bc70 ab3e de90 aebe 0f43 883e 7f89 d33e
00000220: 6a00 02bf a139 7cbe 1d80 8ebe 3fa1 ce3e
00000230: bd5b a93e 3e74 663e 3bb6 0e3f fb3d 1abe
00000240: 824c 5f3e abda 443e c24f 963e 919c c53e
00000250: cc9c ae3e 2878 edbe b786 19be 46b6 b33e
00000260: 5b62 d83e 2bd6 dcbe 6861 20be 5117 e8be
00000270: c356 b33e 4abc ec3e 7599 d73e 49fc fdbd
00000280: 6a14 a33e 9da0 033f fc1d 64be 0cfa efbe
00000290: 7465 883e 3245 55bd 6c9f cc3e b878 0cbf
000002a0: eb59 e8bd b0a0 c13e 2be1 653e 07a7 de3e
000002b0: e73d 623e ccf7 883e 3cb3 a63e 8f6b d5bd
000002c0: ad64 23bd 4cb9 c8be 8ba4 63be 3e77 ed3e
000002d0: 1c6b c3be 9eeb bd3e 9c24 9a3e 5cfe cf3e
000002e0: 1212 d3be 18d9 b73e 562b bd3e a960 b33e
000002f0: 8144 ccbe e0f8 58be ed5c 66be 1312 b43d
00000300: 45ba 1f3e 81c7 893e 22d5 8e3e e604 ad3e
00000310: 2376 483b a93c ca3e dfc8 2b3d c6ce aa3e
00000320: 0d5a 813e 4f7e db3e f070 b6be 35d9 e9be
00000330: d00c c73e 934a 883e f123 d63e f9c8 bbbe
00000340: eaff 2f3c 3cb6 48bb f1ee b93e 410b 6fbd
00000350: b6c6 88bd 7ab3 d0bc 5a3e 9c3e cdb8 5bbe
00000360: e3af ae3e 84b2 21be 897f 923e 477a 3d3e
00000370: 5a20 a6bd ed46 38be a724 323d cd3f 333d
00000380: e58f dfbd e341 d13e 58fd e13e d119 113e
00000390: b708 9d3e bf3b 703e c92a eabd 74a4 ac3e
000003a0: b419 c6be 2228 9ebe d35c c13e 6b73 96be
000003b0: c57b 213d f6a0 233e 3545 ad3e e1ce cfbd
000003c0: 7095 b2bd 94b5 05bf 51ea e43e 38fd 6a3e
000003d0: 1510 c5bd 1df0 773e d41c d63c f48f d93e
000003e0: 494f 2ebd 2e2f 123e 2cea 3dbe 0ba8 d73e
000003f0: 479c 3cbd 008e 15be 09c8 893e f04e d83e

net.2.bias f4 [128]
0.046527997 0.32433942 0.07402412 0.06807576 0.4540057 0.009600919 0.12999478 0.07024672
0.036875065 0.11953278 0.051597483 0.13132508 0.34147528 0.0585584 -0.11327949 0.18912116
0.37193826 0.23193535 0.40496582 -0.027956625 0.065615155 0.16549909 -0.08083565 0.1306195
0.07621251 0.07909391 0.2834774 0.065263696 -0.013238311 -0.10267187 0.100647524 0.040522553
0.33682528 0.13486926 0.07193331 0.013739008 0.1043865 0.16314144 0.06645707 -0.0054704435
0.32410905 0.06837434 0.11635633 0.07470187 0.38541842 0.2371552 -0.036889013 0.08984121
0.029889947 0.06110873 0.44584876 0.029429108 0.100673884 -0.08190897 0.34663665 0.44588757
0.38660002 0.03804305 0.13997999 0.04314779 0.34648073 -0.012628755 0.13215983 -0.007815477
-0.09895933 0.05972208 -0.07891215 0.3665561 0.38668793 0.10633225 0.06998701 0.25982013
0.1927406 0.12980795 -0.06682681 0.010363907 -0.0082342215 -0.045568366 -0.022485312 0.08613697
0.33677158 -0.088632956 0.114438385 -0.09621902 -0.030343007 -0.031188374 -0.044191822 0.43474796
0.30223936 0.16341378 0.046510622 0.11566558 0.016352883 -0.017469555 0.008702431 0.017362323
-0.04683706 0.14416105 0.12935731 0.122755945 0.09361111 0.13287613 0.058620077 0.011084001
0.018783193 0.38126826 0.12786587 0.24772398 0.0858332 0.41566598 0.09020178 0.039001577
-0.0703872 0.24946365 0.0018904671 -0.039968338 0.079686746 0.07991807 -0.0284002 -0.008093291
0.12399655 0.13112727 0.11697202 0.20866536 0.1108612 0.41724604 0.024837581 0.04508081
00000000: 2494 3e3d d10f a63e f599 973d 4e6b 8b3d
00000010: 6f73 e83e 2c4d 1d3c 5a1d 053e 83dd 8f3d
00000020: 4f0a 173d 9acd f43d e257 533d 157a 063e
00000030: d9d5 ae3e efda 6f3d 14ff e7bd faa8 413e
00000040: b16e be3e 7680 6d3e ae57 cf3e 4b05 e5bc
00000050: 3d61 863d 9878 293e 298d a5bd 1ec1 053e
00000060: 4e15 9c3d fdfb a13d f323 913e f9a8 853d
00000070: 80e5 58bc a145 d2bd 4a20 ce3d fafa 253d
00000080: 5d74 ac3e 2b1b 0a3e c551 933d 9419 613c
00000090: 97c8 d53d 8d0e 273e a51a 883d 6841 b3bb
000000a0: 9ff1 a53e d907 8c3d 3a4c ee3d 4bfd 983d
000000b0: 9055 c53e d0d8 723e ef18 17bd abfe b73d
000000c0: c3db f43c 264d 7a3d 4a46 e43e 5015 f13c
000000d0: 1c2e ce3d e4bf a7bd 5c7a b13e 604b e43e
000000e0: 70f0 c53e 07d3 1b3d ea56 0f3e bdbb 303d
000000f0: ec65 b13e d6e8 4ebc e854 073e 7d0c 00bc
00000100: 30ab cabd 249f 743d b19c a1bd 3ead bb3e
00000110: f6fb c53e b9c4 d93d 5955 8f3d 2507 853e
00000120: cb5d 453e 60ec 043e 7fdc 88bd 60cd 293c
00000130: d4e8 06bc e5a5 3abd 1e33 b8bc 9468 b03d
00000140: 536d ac3e 3285 b5bd ac5e ea3d 7a0e c5bd
00000150: e691 f8bc c37e ffbc 7c02 35bd 4997 de3e
00000160: 1ebf 9a3e f155 273e ec81 3e3d 13e2 ec3d
00000170: 7bf6 853c 501c 8fbc a494 0e3c 6e3b 8e3c
00000180: 38d8 3fbd f49e 133e 3e76 043e 7867 fb3d
00000190: 2eb7 bf3d ae10 083e 9b1b 703d ab99 353c
000001a0: 36df 993c 9835 c33e 45ef 023e 5bab 7d3e
000001b0: 51c9 af3d 2cd2 d43e b6bb b83d 1ec0 1f3d
000001c0: 2a27 90bd 6673 7f3e 8dc9 f73a d7b5 23bd
000001d0: ce32 a33d 16ac a33d 89a7 e8bc b999 04bc
000001e0: e7f1 fd3d 3a46 063e 078f ef3d 5fac 553e
000001f0: 320b e33d 46a1 d53e 2f78 cb3c a8a6 383d

net.4.weight f4 [2, 128]
0.4011084 0.42724794 0.63588184 0.38056707 0.41066968 0.08473707 0.53147674 -0.42605278
-0.45542133 0.3943298 0.08663884 0.41609406 0.4558627 -0.23277476 -0.5159165 -0.13292095
0.52237326 -0.06084758 0.45702878 0.062554434 0.34493968 0.04507396 0.014450243 0.57704663
0.53747416 -0.2164678 0.079679325 0.315433 0.21154164 -0.43194845 -0.40803033 0.3279665
0.43534878 0.35104346 0.2912506 -0.07242252 0.3102082 0.46655583 0.3475367 0.3540137
0.38604212 0.35327914 0.33883134 0.47595945 0.43716395 0.3906994 -0.14789104 0.4578318
0.41237694 0.33157235 0.38212875 -0.09978278 -0.46511677 0.0066753426 0.39597943 0.4282352
0.4068201 -0.6467936 0.3996059 0.44072318 0.505465 -0.3192773 0.3189213 0.37552974
0.07567242 0.50379395 -0.52284265 0.4700257 0.38314268 0.3124696 0.4693925 0.38355696
-0.37636563 -0.43401918 -0.054261286 -0.3405638 -0.022902995 -0.082771815 0.04097555 -0.29724213
0.37796655 -0.6775438 -0.47291294 -0.30657697 -0.08017892 0.012861463 -0.4169363 0.43150926
0.50038934 0.39514187 -0.4096658 0.79759884 -0.42423195 -0.048588842 0.05502842 0.3363326
-0.070914246 -0.4792715 0.29597163 0.425083 -0.22097452 0.37864214 0.44710994 -0.2900425
-0.029074129 0.40099594 0.49023655 0.47382376 0.24402006 0.43802822 -0.33750024 -0.38797948
0.09811593 0.36485553 0.52924556 -0.05871587 -0.38440242 0.44846526 -0.33626893 -0.0714019
-0.09373221 0.14482719 0.5999699 0.42771125 0.27833062 0.36366493 0.5079543 0.5706687
0.3528342 0.40734693 0.4458982 0.45175165 0.3961698 0.5087919 0.40100235 -0.2788449
-0.41956002 0.41635996 0.2336091 0.2841002 0.36955604 -0.36181274 -0.6874624 -0.37994593
0.48763 -0.37012938 0.46157858 0.060116302 0.35562485 -0.12644714 0.0844763 0.4701002
0.62085956 -0.36185083 -0.37881297 0.36560652 0.31079087 -0.46450722 -0.15640292 0.19012284
0.45770982 0.25938815 0.24247658 -0.08713119 0.29654098 0.48147961 0.38142762 0.40487742
0.41769868 0.3912149 0.33824658 -0.18026288 0.49465212 0.43346402 -0.37654173 0.19940545
0.37710166 0.30624595 0.4441935 -0.39711446 -0.20806293 -0.024471859 0.45629942 0.38854575
0.4026785 -0.71921307 0.3467642 -0.21412599 0.5107733 -0.39103928 0.2492349 0.34078813
-0.28692803 0.42627877 -0.6116657 0.47648016 0.46024454 0.23896107 0.45466053 0.4248729
-0.31262162 -0.4151637 -0.0548725 -0.3697558 -0.058722958 -0.054851484 0.043878067 -0.3090244
0.47172144 -0.44148383 -0.35348603 -0.23859794 -0.0021205205 -0.083553694 -0.29934138 0.44579673
0.498749 0.38988653 -0.20272799 0.6604619 -0.61365384 -0.080400795 -0.03152507 0.25726652
0.2347585 -0.48509458 0.26245004 0.4342561 -0.27328908 0.37117544 0.37426803 -0.17099896
-0.046523407 0.42481694 0.5135745 0.49484003 0.30800644 0.39551446 -0.028519705 -0.3292663
-0.27926242 0.4772468 0.47374636 0.024358869 -0.2897561 0.31345248 -0.2861119 -0.07030012
-0.31144914 0.13670065 0.39938024 0.4065477 0.38236916 0.4437668 0.43656054 0.58326995
00000000: 155e cd3e 3ec0 da3e 27c9 223f b0d9 c23e
00000010: 4c43 d23e a18a ad3d dc0e 083f 9723 dabe
00000020: fc2c e9be 98e5 c93e b46f b13d 480a d53e
00000030: d666 e93e 825c 6ebe 1b13 04bf 6e1c 08be
00000040: 41ba 053f 503b 79bd adff e93e 8a1c 803d
00000050: ef9b b03e 799f 383d b6c0 6c3c 54b9 133f
00000060: e897 093f bca9 5dbe ea2e a33d 6f80 a13e
00000070: 5f9e 583e 5928 ddbe 5ae9 d0be 3aeb a73e
00000080: 09e6 de3e f8bb b33e cc1e 953e 4252 94bd
00000090: 9cd3 9e3e 68e0 ee3e 55f0 b13e 4941 b53e
000000a0: 50a7 c53e 01e1 b43e 4d7b ad3e f5b0 f33e
000000b0: f4d3 df3e c009 c83e c070 17be ee68 ea3e
000000c0: 1223 d33e dac3 a93e 61a6 c33e ea5a ccbd
000000d0: c923 eebe d5bc da3b d1bd ca3e a541 db3e
000000e0: b94a d03e 4494 25bf 2599 cc3e 78a6 e13e
000000f0: 2766 013f 5078 a3be a749 a33e 6f45 c03e
00000100: 24fa 9a3d a4f8 003f 04d9 05bf 35a7 f03e
00000110: 472b c43e 04fc 9f3e 3754 f03e 9461 c43e
00000120: ffb2 c0be c337 debe 1541 5ebd 615e aebe
00000130: 109f bbbc 4584 a9bd fad5 273d 1f30 98be
00000140: d584 c13e 8373 2dbf a521 f2be a8f7 9cbe
00000150: d834 a4bd e3b8 523c ad78 d5be c8ee dc3e
00000160: 8419 003f 0950 ca3e b7bf d1be 702f 4c3f
00000170: ee34 d9be 1805 47bd 7b65 613d c933 ac3e
00000180: 7d3b 91bd 1363 f5be 9889 973e 7ba4 d93e
00000190: 2547 62be 62dd c13e 98eb e43e 7380 94be
000001a0: de2c eebc 574f cd3e 4900 fb3e 0799 f23e
000001b0: 65e0 793e 3c45 e03e d5cc acbe 3fa5 c6be
000001c0: 01f1 c83d 58ce ba3e a37c 073f 0d80 70bd
000001d0: 65d0 c4be 3d9d e53e 712b acbe 293b 92bd
000001e0: acf6 bfbd 944d 143e a197 193f f8fc da3e
000001f0: 5a81 8e3e 4a32 ba3e 4b09 023f 5817 123f
00000200: afa6 b43e c78f d03e c54c e43e fe4b e73e
00000210: c5d6 ca3e 3040 023f 2e50 cd3e c2c4 8ebe
00000220: 92d0 d6be 222d d53e 3937 6f3e 9575 913e
00000230: 7336 bd3e 853f b9be 89fd 2fbf 4688 c2be
00000240: a4aa f93e 9981 bdbe 0754 ec3e 833c 763d
00000250: 7614 b63e 5c7b 01be e901 ad3d f9b0 f03e
00000260: a7f0 1e3f 8344 b9be c6f3 c1be c730 bb3e
00000270: fb1f 9f3e e4d3 edbe 1628 20be 90af 423e
00000280: f158 ea3e 86ce 843e c84b 783e d671 b2bd
00000290: 38d4 973e 7f84 f63e 7b4a c33e 184c cf3e
000002a0: 9adc d53e 524d c83e a82e ad3e d596 38be
000002b0: 0b43 fd3e ffee dd3e 14ca c0be f130 4c3e
000002c0: 7813 c13e 45cc 9c3e 556d e33e 9652 cbbe
000002d0: 730e 55be 3579 c8bc 14a0 e93e 78ef c63e
000002e0: e02b ce3e 591e 38bf 148b b13e d843 5bbe
000002f0: 0ac2 023f 4d36 c8be 6f37 7f3e c87b ae3e
00000300: 3be8 92be 3641 da3e 2096 1cbf 35f5 f33e
00000310: 2ca5 eb3e 36b2 743e 44c9 e83e f188 d93e
00000320: f10f a0be 5690 d4be fdc1 60bd a250 bdbe
00000330: 7c87 70bd f3ab 60bd 7db9 333d 7238 9ebe
00000340: 7985 f13e 2b0a e2be 1ffc b4be 0553 74be
00000350: 6ef8 0abb 331e abbd 4643 99be 783f e43e
00000360: 075c ff3e 359f c73e ed97 4fbe 0814 293f
00000370: 6b18 1dbf 2ca9 a4bd 6f20 01bd 70b8 833e
00000380: 8864 703e 515e f8be da5f 863e d156 de3e
00000390: 8cec 8bbe b50a be3e 0fa0 bf3e 5a1a 2fbe
000003a0: 548f 3ebd 9b81 d93e 9e79 033f ac5b fd3e
000003b0: 05b3 9d3e df80 ca3e 28a2 e9bc 9895 a8be
000003c0: 7cfb 8ebe b159 f43e e28e f23e 408c c73c
000003d0: e95a 94be d87c a03e 427d 92be 82f9 8fbd
000003e0: 4376 9fbe 41fb 0b3e 917b cc3e 0527 d03e
000003f0: e4c5 c33e 6735 e33e dd84 df3e 2e51 153f

net.4.bias f4 [2]
0.2545912 0.20089753
00000000: c759 823e 15b8 4d3e

net.0.weight f4 [128, 4]
-0.26519436 0.7025777 0.90471464 -0.19618295 0.7451067 -0.006523192 0.48624903 0.31639606
-0.35168412 -0.2936734 -1.6175971 -0.25223577 0.39730266 0.34035298 0.6793794 0.30690247
-0.18310845 0.37984154 -0.4886926 0.08064803 0.2741913 0.5282474 1.1970451 0.4559623
0.21582882 0.09987469 0.3261109 0.35680938 0.1875886 -0.2143105 -0.27067065 0.22176647
0.3696516 0.117168576 1.252067 0.31737557 -0.3552484 -0.6210184 -1.026908 -0.43649766
0.2255699 0.19901049 -0.5610275 -0.007161095 0.02826041 0.31697255 -0.57358664 0.10475768
-0.038767602 -0.21020728 -0.365648 -0.2286233 -0.19159827 -0.077786334 0.18894984 0.0070425924
-0.9232789 -0.9502966 -0.8472368 -0.6574656 0.58478653 0.37459087 0.6710868 0.27138844
0.16767344 0.23761413 -0.46590477 -0.13001084 0.40655714 -0.25962996 -0.695185 0.03952422
0.1502999 0.23137327 -0.04776515 0.07630998 -0.09365646 0.027642326 -0.060076132 0.15578014
-0.17575482 -0.04994945 0.20471683 0.30329132 0.29383284 -0.32227448 0.9747753 -0.02517864
-0.9543264 -0.31706348 -0.5060272 -0.38744342 -0.259764 0.17615858 0.12219762 0.17620443
0.10384466 0.027560672 -0.34385696 0.43472522 -0.1151892 0.2199418 1.1464047 0.4930323
0.6730619 -0.0003459914 0.76060945 0.38478127 -0.1820084 -0.3151542 -1.4743731 -0.23055676
-0.0976975 -0.19750698 -0.6690877 -0.2789834 -0.1440072 0.42099676 -0.1780091 0.018601773
-0.30260152 -0.31732616 -0.28635857 -0.16376548 0.73911995 0.4498609 -0.035799928 -0.4062774
-0.08215352 0.039989583 -0.08692463 -0.18180571 -0.26633355 0.11185114 -0.5625104 -0.123949215
0.48328885 0.32356432 -0.5869836 -0.25883937 -0.10332366 -0.6926578 -0.47734755 -0.58612674
0.060602643 0.3057497 0.29801664 0.30318525 -0.92558604 -0.6334531 -0.46654373 -0.42102042
0.31124273 -0.04303648 -0.2631841 -0.19182287 0.14729956 0.3037313 1.0535097 0.46671346
-0.25620165 -0.41794536 -0.66872615 -0.30189 -0.12712507 0.012019356 -0.21251497 -0.20394196
0.26931286 -0.61342984 -0.29420263 -0.30888104 0.44208565 -0.45295343 -0.40451354 0.060636688
0.26581553 0.4014702 0.087402105 0.25592393 0.15563856 0.17785224 0.4543843 0.24962558
0.4769177 -0.46894807 -0.63684577 0.11000327 -0.6899245 0.43264323 -0.020167274 0.26078296
-0.7064797 -0.099799424 -1.881337 -0.1957878 0.8292977 -0.29753074 -0.47050798 -0.35618508
0.58159286 0.19918591 0.86733747 0.40780059 0.31217894 -0.038031034 -0.069883704 0.036842734
-0.3110854 -0.20659274 0.33589855 -0.12793289 0.25840586 -0.31942603 -0.40304172 -0.115315795
-0.33423117 0.67872 0.0029201729 0.3628368 0.11307942 0.17561235 -0.12858154 0.05495304
0.7776417 -0.48341674 0.10785389 -0.3553374 0.084241144 -0.3361608 -0.38520157 -0.117997915
0.32653216 -0.095506266 0.34424514 0.14910093 0.00630306 0.40212598 -0.021563184 -0.19430426
-0.3100867 -0.81146455 -1.5683955 -0.57633024 -0.92381346 -0.7233111 0.46670723 -0.16263771
-0.4642674 -0.41596755 -0.65994245 -0.54639894 0.27667835 0.6060888 0.23409942 0.36704424
00000000: 8ec7 87be 22dc 333f 619b 673f 2fe4 48be
00000010: 50bf 3e3f 80c0 d5bb a2f5 f83e aafe a13e
00000020: f10f b4be 5c5c 96be 6c0d cfbf 0c25 81be
00000030: 416b cb3e bf42 ae3e cfeb 2d3f 5222 9d3e
00000040: c880 3bbe 977a c23e eb35 fabe cb2a a53d
00000050: cd62 8c3e 393b 073f c638 993f e473 e93e
00000060: 3b02 5d3e 1a8b cc3d 02f8 a63e b8af b63e
00000070: 3a17 403e 3674 5bbe 5895 8abe c016 633e
00000080: f942 bd3e 14f6 ef3d bb43 a03f 0d7f a23e
00000090: 1ee3 b5be 10fb 1ebf b971 83bf 9f7c dfbe
000000a0: ccfb 663e 68c9 4b3e 809f 0fbf 9ea7 eabb
000000b0: 6082 e73c 3a4a a23e 93d6 12bf 328b d63d
000000c0: c7ca 1ebd 9440 57be 3736 bbbe 3a1c 6abe
000000d0: 5632 44be 714e 9fbd 117c 413e 8cc5 e63b
000000e0: 025c 6cbf a346 73bf 83e4 58bf aa4f 28bf
000000f0: 92b4 153f 60ca bf3e 58cc 2b3f 6df3 8a3e
00000100: 96b2 2b3e 1e51 733e 128b eebe 9021 05be
00000110: 4228 d03e 38ee 84be a5f7 31bf 26e4 213d
00000120: 38e8 193e 1ded 6c3e 64a5 43bd 6848 9c3d
00000130: f5ce bfbd 2972 e23c 6412 76bd d484 1f3e
00000140: 12f9 33be cb97 4cbd 4aa1 513e 0049 9b3e
00000150: 4271 963e 2901 a5be e08a 793f 6f43 cebc
00000160: bc4e 74bf 2556 a2be 008b 01bf fc5e c6be
00000170: c9ff 84be ea62 343e bf42 fa3d ef6e 343e
00000180: 82ac d43d ebc6 e13c 050e b0be 4e94 de3e
00000190: 51e8 ebbd 6c38 613e 64bd 923f bb6e fc3e
000001a0: c94d 2c3f 2e66 b5b9 4db7 423f 0d02 c53e
000001b0: 6960 3abe e45b a1be 42b8 bcbf 1217 6cbe
000001c0: a015 c8bd 453f 4abe 5549 2bbf ead6 8ebe
000001d0: a076 13be e38c d73e 0448 36be bf62 983c
000001e0: 96ee 9abe 9378 a2be 979d 92be 23b2 27be
000001f0: f736 3d3f 2b54 e63e f2a2 12bd 9703 d0be
00000200: 1b40 a8bd 1ecc 233d 8a05 b2bd 472b 3abe
00000210: df5c 88be 3612 e53d ae00 10bf 16d9 fdbd
00000220: a371 f73e 39aa a53e 8f44 16bf 9886 84be
00000230: 5b9b d3bd 0652 31bf e666 f4be 670c 16bf
00000240: 7a3a 783d 3a8b 9c3e a395 983e 193b 9b3e
00000250: 35f3 6cbf fb29 22bf d2de eebe fd8f d7be
00000260: 355b 9f3e 0547 30bd 11c0 86be 376d 44be
00000270: b2d5 163e ab82 9b3e 68d9 863f 11f5 ee3e
00000280: dd2c 83be effc d5be a331 2bbf 5391 9abe
00000290: 132d 02be d5ec 443c 869d 59be 29d6 50be
000002a0: 60e3 893e bd09 1dbf baa1 96be a825 9ebe
000002b0: 0d59 e23e 83e9 e7be 661c cfbe 2d5e 783d
000002c0: f918 883e 818d cd3e e0ff b23d 7608 833e
000002d0: b75f 1f3e e61e 363e 0fa5 e83e d99d 7f3e
000002e0: 8f2e f43e f619 f0be 5308 23bf 6549 e13d
000002f0: e49e 30bf 6a83 dd3e d735 a5bc 5885 853e
00000300: dbdb 34bf a463 ccbd a7cf f0bf 997c 48be
00000310: db4c 543f f355 98be 6ce6 f0be e45d b6be
00000320: 45e3 143f 64f7 4b3e d409 5e3f 3dcb d03e
00000330: ebd5 9f3e 6ec6 1bbd 301f 8fbd 68e8 163d
00000340: 9646 9fbe 0c8d 53be e5fa ab3e d700 03be
00000350: c64d 843e cf8b a3be 7c5b cebe b02a ecbd
00000360: 5920 abbe 98c0 2d3f 5f60 3f3b bfc5 b93e
00000370: 2f96 e73d b9d3 333e e1aa 03be 7016 613d
00000380: 8713 473f 6682 f7be 80e2 dc3d c9ee b5be
00000390: 9f86 ac3d 451d acbe 2439 c5be e4a8 f1bd
000003a0: 392f a73e ca98 c3bd e640 b03e eaad 183e
000003b0: e689 ce3b 75e3 cd3e 46a5 b0bc b2f7 46be
000003c0: afc3 9ebe 24bc 4fbf 2fc1 c8bf 618a 13bf
000003d0: 0a7f 6cbf eb2a 39bf 40f4 ee3e 808a 26be
000003e0: 75b4 edbe b3f9 d4be fdf1 28bf cde0 0bbf
000003f0: c9a8 8d3e a328 1b3f c2b7 6f3e 39ed bb3e

net.0.bias f4 [128]
0.32146755 -0.1865329 0.2947541 -0.021152092 0.59319013 0.022444699 0.77759165 0.70566756
-0.06474287 -0.070322976 0.006586237 0.72600156 0.5206512 0.45667863 0.23325747 0.012282972
0.82547474 0.017230183 0.61066186 0.58027893 0.86137956 -0.27242386 0.9821465 0.560749
0.84991825 -0.32973397 -0.31413156 0.35744274 0.8191595 0.7070142 0.87496775 0.14151295
0.54680073 0.7764727 -0.58221763 0.38174054 0.56752825 -0.10709933 0.74129987 -0.2883212
0.49768868 0.63637424 0.4582762 0.5389649 0.7202132 0.75170285 0.63998723 0.39236355
0.5594538 -0.17973687 0.14185931 0.77185786 -0.22432995 0.0074518416 0.5557205 0.6173779
-0.02418531 0.45587885 0.7591799 0.7940267 -0.09593083 -0.24958895 -0.1735103 0.40602443
0.5465089 0.6973699 0.8353545 0.819557 -0.10616219 0.5823783 0.30217868 0.09725811
0.6650861 0.6531662 -0.51954275 -0.2665688 0.8030436 0.73032856 0.47474056 -0.3041096
-0.39705533 -0.047707513 0.19755664 -0.10110217 0.2392759 0.48670205 0.07193604 -0.12579916
0.38499486 0.007741682 0.7077978 0.39810085 0.7198909 -0.041109044 0.577135 0.00041844603
-0.21956383 -0.012178279 0.6650465 0.03787539 0.4624605 0.76075906 -0.2716667 0.7452451
-0.017721288 -0.4359824 0.7012238 0.0692579 -0.49559563 0.36091217 0.7489006 0.11402495
-0.1876093 -0.36797994 0.32637194 0.5709081 -0.10533561 0.32183257 0.095915794 0.7552317
0.7501883 -0.03721847 0.78927314 0.5283806 -0.38870555 0.4833083 0.61881614 0.57680094
00000000: 6597 a43e 7b02 3fbe 02ea 963e 2747 adbc
00000010: 4fdb 173f f2dd b73c 3f10 473f a1a6 343f
00000020: e997 84bd 7e05 90bd 5cd1 d73b 3ddb 393f
00000030: 6649 053f c8d1 e93e 0cdb 6e3e 853e 493c
00000040: 5052 533f 5026 8d3c 5654 1c3f 298d 143f
00000050: 5f83 5c3f 247b 8bbe f46d 7b3f 3f8d 0f3f
00000060: 3e94 593f e4d2 a8be dad5 a0be bc02 b73e
00000070: 70b4 513f e2fe 343f e3fd 5f3f c5e8 103e
00000080: 22fb 0b3f eac6 463f 370c 15bf 7f73 c33e
00000090: 8849 113f e556 dbbd d4c5 3d3f d69e 93be
000000a0: 0dd1 fe3e 6ce9 223f 2ea3 ea3e 9bf9 093f
000000b0: e45f 383f 996f 403f 34d6 233f e0e3 c83e
000000c0: 5d38 0f3f f10c 38be 9143 113e 7a98 453f
000000d0: c0b6 65be 942e f43b b343 0e3f 7a0c 1e3f
000000e0: 4520 c6bc f468 e93e 9d59 423f 5545 4b3f
000000f0: 6277 c4bd 3f94 7fbe afac 31be 6fe2 cf3e
00000100: 02e8 0b3f d586 323f cbd9 553f 7dce 513f
00000110: 906b d9bd bf16 153f 2ab7 9a3e 432f c73d
00000120: 1543 2a3f e635 273f c100 05bf b57b 88be
00000130: 4494 4d3f d0f6 3a3f 3211 f33e 41b4 9bbe
00000140: d64a cbbe f468 43bd 4a4c 4a3e a80e cfbd
00000150: be04 753e 0331 f93e 3453 933d 7fd1 00be
00000160: 0c1e c53e f0ad fd3b 3d32 353f e0d3 cb3e
00000170: c54a 383f f561 28bd 1fbf 133f e062 db39
00000180: 57d5 60be 6887 47bc 7d40 2a3f 3a23 1b3d
00000190: 9fc7 ec3e 1bc1 423f e617 8bbe 62c8 3e3f
000001a0: 3c2c 91bc 1639 dfbe 6783 333f 16d7 8d3d
000001b0: b6be fdbe 7bc9 b83e f3b7 3f3f ea85 e93d
000001c0: a71c 40be de67 bcbe 391a a73e 0927 123f
000001d0: 32ba d7bd 3dc7 a43e 806f c43d dd56 413f
000001e0: 570c 403f 6572 18bd ce0d 4a3f f343 073f
000001f0: 6a04 c7be 2f74 f73e bc6a 1e3f 3aa9 133f

net.2.weight f4 [128, 128]
0.20230694 -0.19313796 -0.78414047 -0.23557521 0.09101545 -0.35165226 -0.030451026 -0.087096795
-0.33441514 -0.7323725 -0.17845628 0.15706491 -0.21785426 -0.13546944 -0.67614865 -0.17013559
0.0054874304 0.33801493 0.13824832 0.08472354 -0.08156136 -0.15606162 -0.47898307 0.024271188
-0.008637692 -0.5204391 -0.14231718 -0.87044877 -0.011005777 0.18196423 -0.18405524 0.044236038
-0.07118798 0.09133978 -0.13713181 -0.70282066 0.12604976 -0.60424155 0.19612335 -0.41306564
-0.6462703 -0.13958661 -0.1542776 -0.102740906 0.17431852 0.08384712 -0.08800681 0.033769064
-0.5631123 -0.39368016 -0.1146963 0.16294496 -0.1426779 -0.11856395 0.1393127 0.14833005
-0.32683104 -0.17685755 0.055212136 0.081118405 -0.87068796 -0.35948712 -0.44074622 0.023170523
0.17390956 0.103303894 0.079903066 -0.1816623 -0.6835769 0.22661953 -0.026919127 -0.14968424
0.2043658 0.065821126 -0.29023433 -0.39473224 -0.011978865 0.06642466 0.11290623 -0.25435367
0.050215755 -0.1676228 -0.6685877 -0.39650008 -0.008565135 -0.15216811 -0.16246644 -0.5913085
-0.21483268 -0.18976188 0.23205812 0.06865381 -0.16906762 -0.10480368 0.04240626 -0.13377617
-0.16841418 0.20940112 -0.13875046 -0.008793318 0.023143407 -0.2918043 -0.057846986 -0.084144406
-0.36093324 -0.011440488 -0.14556716 -0.38249192 0.043100536 0.07928072 0.12873803 -0.13082033
-0.38237286 -0.43384615 -0.15343983 0.09852639 -0.16164315 0.045759138 -0.28076592 -0.12116215
-0.32213563 0.1168037 -0.38039148 0.0870369 -0.06442279 -0.4325043 0.02815993 0.057046097
0.27564755 -0.18732958 -0.13306497 -0.20172203 0.33476686 -0.3410647 0.26602298 0.41304183
-0.5079434 -0.24631359 -0.278432 0.40347108 0.33067757 0.22499247 0.557347 -0.15074429
0.2179609 0.19211423 0.29346982 0.38585642 0.3409347 -0.46393767 -0.14995956 0.3509535
0.42251134 -0.43132147 -0.1567499 -0.45334038 0.3501739 0.46228707 0.42101467 -0.12412525
0.31842396 0.51409936 -0.22289935 -0.46878546 0.26629063 -0.052067943 0.3995442 -0.5488178
-0.113492295 0.37809104 0.22437413 0.4347479 0.22082962 0.26740512 0.32546636 -0.104223
-0.03991158 -0.39215863 -0.22242735 0.46368816 -0.38167655 0.37081125 0.30109134 0.40613052
-0.41236764 0.35896394 0.36935687 0.35025135 -0.39896014 -0.21227364 -0.22496386 0.08781582
0.15587147 0.26900053 0.2788854 0.33784777 0.0030587993 0.3949706 0.04182815 0.33360654
0.25254017 0.42865908 -0.3563304 -0.45685658 0.3886678 0.26616827 0.41823897 -0.36676767
0.010742167 -0.0029037555 0.3630276 -0.058360342 -0.06689821 -0.025454469 0.30503067 -0.21457215
0.34106225 -0.15801843 0.28601748 0.18492207 -0.08118919 -0.18007115 0.043382134 0.043899402
-0.10926192 0.408724 0.4412948 0.14157279 0.30659816 0.2344858 -0.11445558 0.33707726
-0.3869951 -0.30889994 0.3775463 -0.29396734 0.039424676 0.15969779 0.33830747 -0.10157916
-0.08719909 -0.5223019 0.44706348 0.22937089 -0.09633727 0.24208286 0.026028913 0.42486295
-0.042586632 0.14280242 -0.18541919 0.4211965 -0.046047475 -0.14611009 0.26899356 0.42247504
00000000: 8d29 4f3e f5c5 45be 6ebd 48bf a13a 71be
00000010: 4f66 ba3d c40b b4be 6e74 f9bc ce5f b2bd
00000020: 7638 abbe c47c 3bbf 3ebd 36be a0d5 203e
00000030: 3015 5fbe 80b8 0abe 1418 2dbf 0638 2ebe
00000040: e7cf b33b 4b10 ad3e f890 0d3e 8983 ad3d
00000050: a409 a7bd 9ece 1fbe 453d f5be 5fd4 c63c
00000060: 1b85 0dbc 7f3b 05bf 98bb 11be bbd5 5ebf
00000070: 9351 34bc d554 3a3e fa78 3cbe d930 353d
00000080: 01cb 91bd 5a10 bb3d 486c 0cbe 0eec 33bf
00000090: 3013 013e 93af 1abf 8fd4 483e 577d d3be
000000a0: f871 25bf cbef 0ebe f2fa 1dbe d369 d2bd
000000b0: 8e80 323e 0ab8 ab3d ea3c b4bd 6e51 0a3d
000000c0: 2128 10bf 7290 c9be e5e5 eabd 0bdb 263e
000000d0: 281a 12be a8d1 f2bd fda7 0e3e d5e3 173e
000000e0: 6656 a7be 251a 35be 1f26 623d 6821 a63d
000000f0: 68e5 5ebf b20e b8be 7da9 e1be 1cd0 bd3c
00000100: 5915 323e fe90 d33d 38a4 a33d af05 3abe
00000110: e5fe 2ebf f30e 683e 8085 dcbc d346 19be
00000120: 4545 513e 3acd 863d 9899 94be 581a cabe
00000130: 0043 44bc a709 883d 623b e73d a53a 82be
00000140: 09af 4d3d 50a5 2bbe 9028 2bbf 0f02 cbbe
00000150: c854 0cbc f5d1 1bbe 9a5d 26be fe5f 17bf
00000160: 19fd 5bbe f050 42be a5a0 6d3e 5e9a 8c3d
00000170: 1020 2dbe 50a3 d6bd 30b2 2d3d 9ffc 08be
00000180: c474 2cbe 3f6d 563e 9a14 0ebe d911 10bc
00000190: 3e97 bd3c 6067 95be f6f0 6cbd e753 acbd
000001a0: 3ecc b8be e270 3bbc 8f0f 15be fbd5 c3be
000001b0: 308a 303d ee5d a23d e7d3 033e c4f5 05be
000001c0: 60c6 c3be 1521 debe 551f 1dbe 34c8 c93d
000001d0: c885 25be ef6d 3b3d 8dc0 8fbe dc23 f8bd
000001e0: f6ee a4be c736 ef3d acc2 c2be 6740 b23d
000001f0: 19f0 83bd 3471 ddbe a7af e63c 2ba9 693d
00000200: ad21 8d3e 53d3 3fbe 2f42 08be 3890 4ebe
00000210: 9066 ab3e 08a0 aebe 2a34 883e 387a d33e
00000220: 9408 02bf a139 7cbe a48e 8ebe c393 ce3e
00000230: 924e a93e 6d64 663e 4bae 0e3f b65c 1abe
00000240: 2431 5f3e 98b9 443e ad41 963e f98e c53e
00000250: fe8e ae3e 3d89 edbe 008f 19be 2db0 b33e
00000260: 6853 d83e 2bd6 dcbe 0c83 20be 3b1c e8be
00000270: fe49 b33e e4b0 ec3e 3c8f d73e 6135 febd
00000280: 7708 a33e 049c 033f ba3f 64be a604 f0be
00000290: 3f57 883e 3245 55bd 0f91 cc3e 537f 0cbf
000002a0: a66e e8bd 2695 c13e 55c2 653e 4797 de3e
000002b0: 2921 623e 53e9 883e 87a3 a63e de72 d5bd
000002c0: 537a 23bd 04c9 c8be ffc3 63be 8968 ed3e
000002d0: 1c6b c3be f9da bd3e a528 9a3e 57f0 cf3e
000002e0: da21 d3be 1fca b73e 581c bd3e 2554 b33e
000002f0: 8144 ccbe 435e 59be ed5c 66be c8d8 b33d
00000300: c59c 1f3e 70ba 893e 11ca 8e3e 62fa ac3e
00000310: 2376 483b 9639 ca3e ff53 2b3d 7ace aa3e
00000320: f24c 813e 3479 db3e f070 b6be 1be9 e9be
00000330: 77ff c63e 3547 883e 6b23 d63e f9c8 bbbe
00000340: eaff 2f3c ef4c 3ebb c1de b93e 410b 6fbd
00000350: ee01 89bd e485 d0bc fb2c 9c3e cdb8 5bbe
00000360: b69f ae3e 95cf 21be e270 923e 365c 3d3e
00000370: 8546 a6bd 9264 38be 77b1 313d dccf 333d
00000380: b7c4 dfbd 4644 d13e 64f1 e13e 75f8 103e
00000390: 6ffa 9c3e 0c1d 703e b067 eabd 6495 ac3e
000003a0: 3924 c6be 2228 9ebe c04d c13e e382 96be
000003b0: c57b 213d d187 233e a336 ad3e bc08 d0bd
000003c0: 7095 b2bd 94b5 05bf 81e5 e43e 34e0 6a3e
000003d0: 7a4c c5bd 92e4 773e 963a d53c a387 d93e
000003e0: 526f 2ebd cc3a 123e 87de 3dbe 11a7 d73e
000003f0: 479c 3cbd e29d 15be 86b9 893e a64e d83e

net.2.bias f4 [128]
0.046527997 0.32423496 0.07402412 0.06807576 0.4539008 0.009442434 0.12999478 0.07034269
0.037007187 0.11953278 0.051475182 0.13132508 0.34137616 0.058673907 -0.113157496 0.18928672
0.3718345 0.23206085 0.40485945 -0.027956625 0.065615155 0.16559377 -0.08083565 0.1306195
0.07621251 0.07921461 0.2834884 0.065263696 -0.013238311 -0.10254954 0.10072338 0.040522553
0.33671767 0.13486926 0.07193331 0.013739008 0.1043865 0.16303411 0.06645707 -0.0054704435
0.3240005 0.06837434 0.11635633 0.07486367 0.38530862 0.23704602 -0.036889013 0.08984121
0.029889947 0.06110873 0.4457381 0.029429108 0.100753956 -0.08190897 0.34652627 0.4457847
0.38649428 0.038162395 0.13997999 0.043082613 0.34637436 -0.012628755 0.13215983 -0.007815477
-0.09895933 0.05972208 -0.078792036 0.36644965 0.38657644 0.10633225 0.069972545 0.25971097
0.19265033 0.12980795 -0.06682681 0.010472309 -0.0082342215 -0.045568366 -0.022485312 0.086242706
0.3366589 -0.0884995 0.11437735 -0.09621902 -0.030343007 -0.031188374 -0.044096872 0.4346409
0.3021335 0.1633083 0.04659365 0.11556624 0.016435834 -0.017469555 0.008702431 0.017362323
-0.04683706 0.14414778 0.12935731 0.122755945 0.09372301 0.13287613 0.058620077 0.011172409
0.018783193 0.38116044 0.12784888 0.2476166 0.0858332 0.41556326 0.090254724 0.039101213
-0.0703872 0.24934961 0.0018904671 -0.039968338 0.079783335 0.07991807 -0.028296497 -0.008093291
0.12412221 0.13102315 0.1169842 0.208561 0.1108612 0.41713402 0.024837581 0.04497511
00000000: 2494 3e3d 2002 a63e f599 973d 4e6b 8b3d
00000010: b065 e83e 70b4 1a3c 5a1d 053e d40f 903d
00000020: d994 173d 9acd f43d a4d7 523d 157a 063e
00000030: dbc8 ae3e 0d54 703d 1ebf e7bd 61d4 413e
00000040: 1761 be3e 5ca1 6d3e bd49 cf3e 4b05 e5bc
00000050: 3d61 863d 6a91 293e 298d a5bd 1ec1 053e
00000060: 4e15 9c3d 453b a23d 6425 913e f9a8 853d
00000070: 80e5 58bc 7e05 d2bd 0f48 ce3d fafa 253d
00000080: 4266 ac3e 2b1b 0a3e c551 933d 9419 613c
00000090: 97c8 d53d 6af2 263e a51a 883d 6841 b3bb
000000a0: 65e3 a53e d907 8c3d 3a4c ee3d 2052 993d
000000b0: 2c47 c53e 31bc 723e ef18 17bd abfe b73d
000000c0: c3db f43c 264d 7a3d c937 e43e 5015 f13c
000000d0: 1758 ce3d e4bf a7bd e46b b13e e43d e43e
000000e0: 94e2 c53e 2c50 1c3d ea56 0f3e 6577 303d
000000f0: fb57 b13e d6e8 4ebc e854 073e 7d0c 00bc
00000100: 30ab cabd 249f 743d b85d a1bd 4a9f bb3e
00000110: 59ed c53e b9c4 d93d c44d 8f3d d6f8 843e
00000120: 2146 453e 60ec 043e 7fdc 88bd 0c94 2b3c
00000130: d4e8 06bc e5a5 3abd 1e33 b8bc 04a0 b03d
00000140: 8e5e ac3e 3a3f b5bd ac3e ea3d 7a0e c5bd
00000150: e691 f8bc c37e ffbc ec9e 34bd 4189 de3e
00000160: 3eb1 9a3e 4a3a 273e fcd8 3e3d fead ec3d
00000170: 71a4 863c 501c 8fbc a494 0e3c 6e3b 8e3c
00000180: 38d8 3fbd 7a9b 133e 3e76 043e 7867 fb3d
00000190: d9f1 bf3d ae10 083e 9b1b 703d 7b0c 373c
000001a0: 36df 993c 7627 c33e d1ea 023e 358f 7d3e
000001b0: 51c9 af3d b5c4 d43e 78d7 b83d 9828 203d
000001c0: 2a27 90bd 8155 7f3e 8dc9 f73a d7b5 23bd
000001d0: 7265 a33d 16ac a33d 0ece e7bc b999 04bc
000001e0: c933 fe3d ef2a 063e 6a95 ef3d 0491 553e
000001f0: 320b e33d 9792 d53e 2f78 cb3c d237 383d

net.4.weight f4 [2, 128]
0.4011084 0.4272243 0.63588184 0.38056707 0.41064703 0.08496742 0.53147674 -0.42613977
-0.45553502 0.3943298 0.08656376 0.41609406 0.45584282 -0.2328626 -0.5160287 -0.13250661
0.5223712 -0.060919017 0.45700336 0.062554434 0.34493968 0.045081127 0.014450243 0.57704663
0.53747416 -0.21655789 0.07986343 0.315433 0.21154164 -0.4320598 -0.40808466 0.3279665
0.43532994 0.35104346 0.2912506 -0.07242252 0.3102082 0.4666167 0.3475367 0.3540137
0.38601604 0.35327914 0.33883134 0.47637922 0.43715966 0.39069837 -0.14789104 0.4578318
0.41237694 0.33157235 0.38210544 -0.09978278 -0.46516818 0.0066753426 0.3959578 0.42821452
0.40679765 -0.646901 0.3996059 0.44060197 0.505442 -0.3192773 0.3189213 0.37552974
0.07567242 0.50379395 -0.52294964 0.4700274 0.38313767 0.3124696 0.46977696 0.38355896
-0.37596178 -0.43401918 -0.054261286 -0.34064293 -0.022902995 -0.082771815 0.04097555 -0.2973355
0.37794605 -0.67765784 -0.4724925 -0.30657697 -0.08017892 0.012861463 -0.4169899 0.43148854
0.50038683 0.39517644 -0.40971908 0.79759586 -0.42386925 -0.048588842 0.05502842 0.3363326
-0.070914246 -0.47884622 0.29597163 0.425083 -0.22105993 0.37864214 0.44710994 -0.29011664
-0.029074129 0.4009748 0.49063137 0.47382042 0.24402006 0.43800315 -0.33753806 -0.38802153
0.09811593 0.36492768 0.52924556 -0.05871587 -0.3844469 0.44846526 -0.33636132 -0.0714019
-0.093807586 0.14481553 0.60005456 0.42770094 0.27833062 0.36364302 0.5079543 0.5706684
0.3528342 0.4072074 0.4458982 0.45175165 0.39602956 0.50857455 0.40100235 -0.2789202
-0.4196089 0.41635996 0.2335256 0.2841002 0.36941358 -0.3618928 -0.6875216 -0.38030276
0.4874729 -0.37022054 0.46144262 0.060116302 0.35562485 -0.12660457 0.0844763 0.4701002
0.62085956 -0.36192814 -0.37908596 0.36560652 0.31079087 -0.4645726 -0.15651253 0.19012284
0.45756614 0.25938815 0.24247658 -0.08713119 0.29654098 0.48131928 0.38142762 0.40487742
0.4175608 0.3912149 0.33824658 -0.18056321 0.49449536 0.4333123 -0.37654173 0.19940545
0.37710166 0.30624595 0.44405347 -0.39711446 -0.20817338 -0.024471859 0.45615786 0.3884042
0.40253794 -0.71928006 0.3467642 -0.21422702 0.510636 -0.39103928 0.2492349 0.34078813
-0.28692803 0.42627877 -0.61173314 0.4763193 0.46008825 0.23896107 0.45440754 0.42471892
-0.31298527 -0.4151637 -0.0548725 -0.36985102 -0.058722958 -0.054851484 0.043878067 -0.30910087
0.47157875 -0.44154036 -0.35380638 -0.23859794 -0.0021205205 -0.083553694 -0.29944903 0.44565648
0.49859148 0.3897342 -0.20283918 0.66036063 -0.61394054 -0.080400795 -0.03152507 0.25726652
0.2347585 -0.48541787 0.26245004 0.4342561 -0.273369 0.37117544 0.37426803 -0.17109571
-0.046523407 0.42467552 0.5133592 0.49468845 0.30800644 0.39537615 -0.028643157 -0.3293698
-0.27926242 0.47705722 0.47374636 0.024358869 -0.28986946 0.31345248 -0.28618732 -0.07030012
-0.31153327 0.13655472 0.3991258 0.4064009 0.38236916 0.44362545 0.43656054 0.58316696
00000000: 155e cd3e 25bd da3e 27c9 223f b0d9 c23e
00000010: 5440 d23e 6603 ae3d dc0e 083f fe2e dabe
00000020: e33b e9be 98e5 c93e 5748 b13d 480a d53e
00000030: 3b64 e93e 8973 6ebe 751a 04bf d0af 07be
00000040: 1eba 053f 3886 79bd 58fc e93e 8a1c 803d
00000050: ef9b b03e fda6 383d b6c0 6c3c 54b9 133f
00000060: e897 093f 5ac1 5dbe 708f a33d 6f80 a13e
00000070: 5f9e 583e f136 ddbe 79f0 d0be 3aeb a73e
00000080: 91e3 de3e f8bb b33e cc1e 953e 4252 94bd
00000090: 9cd3 9e3e 62e8 ee3e 55f0 b13e 4941 b53e
000000a0: e5a3 c53e 01e1 b43e 4d7b ad3e fae7 f33e
000000b0: 64d3 df3e 9e09 c83e c070 17be ee68 ea3e
000000c0: 1223 d33e dac3 a93e 53a3 c33e ea5a ccbd
000000d0: 862a eebe d5bc da3b fbba ca3e ef3e db3e
000000e0: c847 d03e 4e9b 25bf 2599 cc3e 9596 e13e
000000f0: a664 013f 5078 a3be a749 a33e 6f45 c03e
00000100: 24fa 9a3d a4f8 003f 07e0 05bf 6ea7 f03e
00000110: 9f2a c43e 04fc 9f3e 9b86 f03e d761 c43e
00000120: 107e c0be c337 debe 1541 5ebd c068 aebe
00000130: 109f bbbc 4584 a9bd fad5 273d 5c3c 98be
00000140: 2582 c13e fc7a 2dbf 89ea f1be a8f7 9cbe
00000150: d834 a4bd e3b8 523c b37f d5be 11ec dc3e
00000160: 5a19 003f 9154 ca3e b3c6 d1be 3e2f 4c3f
00000170: 6405 d9be 1805 47bd 7b65 613d c933 ac3e
00000180: 7d3b 91bd 552b f5be 9889 973e 7ba4 d93e
00000190: 895d 62be 62dd c13e 98eb e43e 2b8a 94be
000001a0: de2c eebc 924c cd3e 0934 fb3e 9798 f23e
000001b0: 65e0 793e f341 e03e cad1 acbe c2aa c6be
000001c0: 01f1 c83d cdd7 ba3e a37c 073f 0d80 70bd
000001d0: 39d6 c4be 3d9d e53e 8d37 acbe 293b 92bd
000001e0: 311e c0bd 864a 143e 2d9d 193f 9efb da3e
000001f0: 5a81 8e3e 6b2f ba3e 4b09 023f 5317 123f
00000200: afa6 b43e 7d7d d03e c54c e43e fe4b e73e
00000210: 63c4 ca3e f131 023f 2e50 cd3e a1ce 8ebe
00000220: fad6 d6be 222d d53e 5621 6f3e 9575 913e
00000230: c723 bd3e 034a b9be 6a01 30bf 0bb7 c2be
00000240: 0c96 f93e 8c8d bdbe 3542 ec3e 833c 763d
00000250: 7614 b63e a1a4 01be e901 ad3d f9b0 f03e
00000260: a7f0 1e3f a54e b9be 8e17 c2be c730 bb3e
00000270: fb1f 9f3e 76dc edbe d244 20be 90af 423e
00000280: 1c46 ea3e 86ce 843e c84b 783e d671 b2bd
00000290: 38d4 973e 7b6f f63e 7b4a c33e 184c cf3e
000002a0: 87ca d53e 524d c83e a82e ad3e 90e5 38be
000002b0: 7f2e fd3e 1cdb dd3e 14ca c0be f130 4c3e
000002c0: 7813 c13e 45cc 9c3e fa5a e33e 9652 cbbe
000002d0: 672b 55be 3579 c8bc 868d e93e eadc c63e
000002e0: 7419 ce3e bd22 38bf 148b b13e 545e 5bbe
000002f0: 0ab9 023f 4d36 c8be 6f37 7f3e c87b ae3e
00000300: 3be8 92be 3641 da3e 8b9a 1cbf 20e0 f33e
00000310: b090 eb3e 36b2 743e 1ba8 e83e c274 d93e
00000320: 9b3f a0be 5690 d4be fdc1 60bd 1d5d bdbe
00000330: 7c87 70bd f3ab 60bd 7db9 333d 7842 9ebe
00000340: c572 f13e 9411 e2be 1c26 b5be 0553 74be
00000350: 6ef8 0abb 331e abbd 6251 99be 162d e43e
00000360: 6247 ff3e 3e8b c73e 13b5 4fbe 650d 293f
00000370: 352b 1dbf 2ca9 a4bd 6f20 01bd 70b8 833e
00000380: 8864 703e b188 f8be da5f 863e d156 de3e
00000390: 06f7 8bbe b50a be3e 0fa0 bf3e b733 2fbe
000003a0: 548f 3ebd 126f d93e 826b 033f ce47 fd3e
000003b0: 05b3 9d3e be6e ca3e 0ea5 eabc 29a3 a8be
000003c0: 7cfb 8ebe d840 f43e e28e f23e 408c c73c
000003d0: c569 94be d87c a03e 2587 92be 82f9 8fbd
000003e0: 4a81 9fbe 00d5 0b3e 385a cc3e c713 d03e
000003f0: e4c5 c33e e022 e33e dd84 df3e 6e4a 153f

net.4.bias f4 [2]
0.25454557 0.20077763
00000000: cc53 823e a798 4d3e
