MountCar/checkpoints/checkpoint_episode_900.pt (torch, 288314 bytes, 24 tensors)

net.0.weight f4 [128, 4]
00000000: 0cef a1be 32bc ed3e 1d64 c13f 5d73 8f3d
00000010: 99bd 443f 11e5 473d a007 543f 6998 b23e
00000020: 99b1 3bbe 9c78 e9be b84c 28c0 c2f7 04bf
00000030: 0230 ab3e 7bb6 953e 8f25 913f df99 ef3e
00000040: 7808 84be 0ed8 ba3e a80c 24bf d6f8 ab3d
00000050: e42c 443e f47f ea3e cd83 d73f 05fd 1c3f
00000060: d555 253e 40be ed3d a54d ad3e 4279 c93e
00000070: 98ac f63d d0f4 61be 1bb5 c9be 87d0 6c3e
00000080: 8136 303e 3e18 b43c dcac d53f 3752 e03e
00000090: ecc8 533c 5eb1 13bf 790a 02c0 9003 0cbf
000000a0: cbf0 ad3e d83d 4b3e a0ae 35bf 04c7 80bd
000000b0: 421a 0fbd 24e8 a43e 70e9 35bf a178 d73d
000000c0: 4e92 a3be fdd0 08bf c79c 3abf 4c34 8abe
000000d0: 34e6 cdbe 1721 91be b6e9 09be f649 4fbd
000000e0: 5b9d 67bf da5e 8dbf e3a0 4dbf b7bf dfbe
000000f0: 51a2 013f 782d 983e 2881 943f b396 de3e
00000100: 4b07 f13d 82c1 853e ce9a 1fbf 59d8 0cbe
00000110: 9bd8 d53e d74c 81be 60b0 3ebf c697 763d
00000120: 9336 d53d b946 763e 5284 20be e128 9b3d
00000130: ddf8 30be e8b4 0f3c db90 2abe 815a 353e
00000140: 6067 88be f453 99bd c217 ce3d e0b6 a33e
00000150: cd4d 8f3e da93 d4be d2e5 9d3f 064b 0a3e
00000160: 5a7f 4cbf e0a8 c4be 0ba8 9bbe f7bd 9fbe
00000170: d92b b3be 4887 1a3e be07 dd3c d1e5 493e
00000180: 5598 fe3c 80df bf3c 2b3d e4be e377 e63e
00000190: 825c cdbe 8ba3 723e 2fc5 e53f f596 dc3e
000001a0: 0ce5 2b3f ff79 c23d 1ce7 823f 5a03 d33e
000001b0: ca8e 043d 3ce8 bebe 8bae 03c0 1bdd 1bbf
000001c0: 019c 89be 19aa 9bbe 9f80 77bf f16d 9bbe
000001d0: 1cfa 5bbe 2134 d43e ba52 9fbe 3c41 c73c
000001e0: e3e5 febe 37b5 eabe 241b 13bf 50c9 68be
000001f0: c37e 6b3f a249 313f 9690 71bc ee9f e4be
00000200: f8f3 2ebe f121 c93c 68b4 89be 068c 46be
00000210: 1a8d b3be dd35 b53d fcbb 3bbf 7411 fcbd
00000220: 8717 173f 5238 1d3f 82a2 54bf 4cf4 f3be
00000230: f5c7 db3d 7be2 51bf 78cb 98bf 2254 64bf
00000240: 6eb6 01bd 0152 8d3e 5977 8f3e 0a2f a23e
00000250: 8e85 0ebf 089d 01bf e341 c3bf b11a 2dbf
00000260: 2f60 883e 1458 54bc f2ca dcbe fa78 57be
00000270: 3ba5 69be 93d1 b03e e30d c73f 6af8 043f
00000280: 443c 35be 9138 eebe 8b5f 62bf 102f 18bf
00000290: 3a2e 5fbe 9180 3c39 861d d6be 3f83 6abe
000002a0: a702 03bc f3ea 6dbf a43d 41bf 4544 ccbe
000002b0: f0af e63e be4a d4be fe1c 07bf 4df8 923d
000002c0: a86e 483e 3ac3 ca3e 9c1d c63c 0f53 7e3e
000002d0: ebba ca3d 4a12 3c3e f281 c63e adf1 8a3e
000002e0: 163e ea3e ec51 e2be f777 46bf 7630 d43d
000002f0: 30d6 58bf 8c7a b43e 821e 2f3f 44dc 043f
00000300: 1cab 05bf cb03 9abe e28d 31c0 631d f2be
00000310: fd25 693f 4a72 97be 8bc1 1ebf c208 9bbe
00000320: 6126 fe3e 54ed 113e 2ade b63f 002b 153f
00000330: 144a 8a3e 502f 8dbc c2b4 2bbe 581d 603d
00000340: 6938 1dbe 754e 11be fd2c 483e 89c6 39bd
00000350: 3905 8b3e 3d59 5abe 25d3 80be 8c08 71bd
00000360: 4fe3 d4be 815e 1f3f 098b a23d 4b85 f43e
00000370: 0f47 833d 6665 453e f3e6 71be 5375 863d
00000380: c105 5a3f bce2 ebbe c7d1 913d c3b1 9ebe
00000390: f47c 08be 11f8 1bbf 710d 30bf dca1 12be
000003a0: 4007 903e b696 9abd 4c7e 933e 26cb 353e
000003b0: 0c68 6fbd 1138 cf3e a74d 29be 5b23 45be
000003c0: 21f8 d53b 7a9f 45bf d085 19c0 e169 32bf
000003d0: 983a 74bf 764a 2ebf 4a07 f3bd d583 dbbe
000003e0: 28ef a3bd 0165 dbbe de10 b3bf 1662 3ebf
000003f0: 91ba d73e ff8a 3c3f 8e61 043f a5b3 023f
-0.3162769 0.46432644 1.5108677 0.07004426 0.76851803 0.04880244 0.82824135 0.34881905
-0.18329467 -0.4559983 -2.6296825 -0.5194055 0.33435065 0.29240784 1.1339587 0.46797082
-0.2578771 0.36492962 -0.6408181 0.08397071 0.1915775 0.45800745 1.6837097 0.6132358
0.16146024 0.11608553 0.338483 0.39350325 0.120446384 -0.22066045 -0.39395985 0.23126422
0.17208292 0.021984216 1.6693377 0.43812725 0.0129263215 -0.57692516 -2.0318892 -0.54692936
0.33972773 0.1984781 -0.7096958 -0.06287959 -0.03493715 0.3220836 -0.7105932 0.10521055
-0.3194756 -0.5344389 -0.72895473 -0.26993024 -0.40214694 -0.28345558 -0.1346806 -0.050607644
-0.9047448 -1.1044571 -0.8032362 -0.43700954 0.506383 0.2972219 1.1601915 0.4347435
0.11768969 0.26124197 -0.6234559 -0.13754405 0.4176682 -0.25253937 -0.74487877 0.060203336
0.104108 0.24050416 -0.15675476 0.075761564 -0.17282434 0.008771159 -0.1665682 0.17710306
-0.2664137 -0.07486716 0.10063125 0.3197546 0.27989045 -0.41519052 1.233576 0.13505182
-0.79881823 -0.3841009 -0.30401644 -0.3119962 -0.3499439 0.15090668 0.02698123 0.19716574
0.031078497 0.023422003 -0.44577917 0.4501334 -0.4010964 0.23695199 1.7950801 0.4308392
0.6714637 0.09495925 1.0226779 0.41213495 0.032362737 -0.37286556 -2.0575283 -0.60884255
-0.26876834 -0.30403212 -0.96680635 -0.30357316 -0.21482128 0.4144602 -0.31117803 0.024323098
-0.49784765 -0.4584138 -0.5746329 -0.22733045 0.919903 0.6925298 -0.014743945 -0.44653267
-0.17085254 0.024552317 -0.26895452 -0.19389352 -0.3506859 0.08848164 -0.73333716 -0.123080164
0.59020275 0.6141406 -0.8306047 -0.4764732 0.10731498 -0.81986207 -1.1937094 -0.89190876
-0.03166812 0.27601627 0.28020743 0.31676513 -0.5567254 -0.50630236 -1.5254482 -0.6761885
0.26635882 -0.012960453 -0.43123585 -0.21042243 -0.22816937 0.34534892 1.5551113 0.5194155
-0.17698771 -0.46527532 -0.88427037 -0.5944681 -0.21794978 0.00017976972 -0.418194 -0.22901629
-0.007996238 -0.9293663 -0.7548468 -0.39895836 0.45056105 -0.41463274 -0.52778614 0.07176266
0.19573462 0.3960207 0.02418404 0.24836372 0.09898933 0.18366352 0.38771015 0.2713751
0.45750493 -0.44203126 -0.775268 0.10360806 -0.84701824 0.35249746 0.68405926 0.518986
-0.5221422 -0.3008102 -2.7742848 -0.47288045 0.9107359 -0.29579383 -0.62014073 -0.3028012
0.49638656 0.1425069 1.4286549 0.5826874 0.27009642 -0.017234474 -0.16768172 0.054715484
-0.1535355 -0.14190085 0.19548412 -0.045355354 0.27152422 -0.21323104 -0.2516109 -0.05884604
-0.41579673 0.62253577 0.07936675 0.47757944 0.06410038 0.19276962 -0.23623256 0.065653466
0.8516503 -0.46071422 0.0712009 -0.30994996 -0.13328916 -0.60925394 -0.6877051 -0.14319557
0.2813053 -0.07548277 0.28807294 0.17753276 -0.058448836 0.40472463 -0.16533528 -0.19251768
0.0065298234 -0.77196467 -2.3987923 -0.6969281 -0.95401907 -0.6808237 -0.11866625 -0.42874017
-0.080046 -0.42850497 -1.3989522 -0.7436842 0.42134526 0.7364959 0.51711357 0.51055366

net.0.bias f4 [128]
00000000: 77e0 013f 7dfa 55bd 7f67 873e 49e3 c33d
00000010: 200c 293f 85a0 1c3e e271 5d3f 79f3 493f
00000020: e267 98bc da6b 1e3e 9aaa f73b 59b5 4b3f
00000030: c553 ee3e f7c5 f93e b912 8a3d 63d0 273e
00000040: 74e4 613f 288a 133e 8404 353f efe2 283f
00000050: 422a 703f 83e7 2abe 3ca2 8f3f ae7e 213f
00000060: 4bb9 6f3f bbc7 8bbd 253c 47be 901f 9f3e
00000070: a630 523f 303c 473f edb0 663f 19b1 153e
00000080: 8f8d 193f 42a0 533f 0486 bbbe ab06 9b3e
00000090: e079 2b3f 0ec6 80bb bd78 493f ea00 4bbe
000000a0: 78cd fa3e 1d86 2f3f 2eb1 c23e 459e 133f
000000b0: 223e 573f d119 543f 4f2a 2e3f c26f 373f
000000c0: 94df 903e 3566 f9bd 582e 973e 3c76 563f
000000d0: 2ed5 cdbe df9c 993d 4170 2a3f d2f8 2e3f
000000e0: 1c51 7ebd e391 e23e d534 533f 4dae 5b3f
000000f0: 2426 27be a4f8 87be e6ff 8bbe 270d 1e3f
00000100: a6f6 373f 46bd 473f d72a 693f d9a7 563f
00000110: 5bd9 8e3d d41f 2b3f 9eac 2a3f d907 b33e
00000120: 42cd 3f3f 77ba 383f e86a e1be 98de e8bd
00000130: d1c5 603f ecc6 513f 1ed7 e43e c5db bbbe
00000140: d64a cbbe 854d 47be f69d 723e fc23 e5bd
00000150: 7a60 cc3e 199e 2a3f 30ef 2a3e 9ae6 08be
00000160: 9693 d03e e5e9 2d3e 08f6 463f 9d77 123f
00000170: d0e4 773f cd96 00bd 1ba4 593f d014 603e
00000180: 1190 68be 32e5 bdbd 9ac0 2f3f 162a 9a3d
00000190: 1d1d 063f cae5 653f 73ee d2be 05da 513f
000001a0: 693d aa3d 67ed 25bf 6113 4b3f 1d86 033d
000001b0: b6be fdbe 5bbd 0a3f 2252 513f 1d93 9e3e
000001c0: 477d 51be ff60 babe a6d1 e13e 885e 1e3f
000001d0: 3ee6 9dbd 6a73 be3e bc33 f23e 274f 493f
000001e0: c164 623f 34b4 9cbd 00a2 763f 6790 163f
000001f0: 6a04 c7be 14a5 993e 5937 333f 2bfc 0d3f
0.5073313 -0.052240837 0.2644615 0.095648356 0.66034126 0.15295608 0.86501896 0.78887135
-0.018604223 0.1547083 0.007558179 0.7957359 0.46548286 0.48783848 0.06741852 0.16388087
0.88239217 0.14408171 0.70710015 0.65971273 0.9381448 -0.16689877 1.1221385 0.6308392
0.9364211 -0.06825205 -0.19456537 0.31078768 0.8210548 0.77826214 0.9011372 0.14618339
0.59981626 0.8266641 -0.36625683 0.30278525 0.6698284 -0.00392986 0.78699857 -0.19824567
0.48984885 0.68564016 0.38025802 0.57663375 0.8407918 0.8285189 0.6803331 0.71654904
0.28295577 -0.121776976 0.29527545 0.8377416 -0.40201706 0.07500624 0.66577536 0.6834842
-0.06208907 0.44251928 0.8250249 0.85812837 -0.16323143 -0.26556885 -0.27343673 0.6173882
0.7186073 0.78023183 0.91080993 0.83849865 0.06975051 0.6684544 0.6666964 0.34966925
0.74922574 0.7215952 -0.44026875 -0.113705814 0.87801844 0.81944156 0.4469537 -0.36691108
-0.39705533 -0.19463165 0.2369307 -0.11188504 0.39917356 0.6664749 0.16692805 -0.13369218
0.407376 0.16983755 0.77719164 0.57213765 0.96833515 -0.031393815 0.8501603 0.2188294
-0.22711207 -0.09272231 0.6865326 0.075275585 0.52388173 0.89803755 -0.41197547 0.81973296
0.08312494 -0.6481537 0.79326445 0.032110322 -0.49559563 0.54195184 0.8176595 0.30971614
-0.20457946 -0.36402127 0.44105262 0.61862993 -0.07709931 0.3719743 0.47305095 0.786364
0.8843499 -0.076515585 0.9634094 0.5881409 -0.38870555 0.30008757 0.7000633 0.554629

net.2.weight f4 [128, 128]
00000000: 4d23 8b3e 97ff 8dbe 6a3d 1dbf 09f2 a5be
00000010: 28db 2a3e ad8f d5be db6d 0c3c a104 1dbd
00000020: 5407 e1be 31e9 20bf 6e36 93be c061 5a3e
00000030: 0e32 c1bd 663b 0ebd 299f eebe 4458 85be
00000040: 6676 5a3d db03 ad3e cb66 393e 53f7 1a3e
00000050: d70f 82bc aac2 70be 8df6 c8be 2cf3 d23d
00000060: 9511 333d d49d 08bf e67a 52be 04bc 4fbf
00000070: 3d54 9e3d cf1b 7e3e de0b babd b238 153d
00000080: c031 de3a d490 343e 7835 31be 0f7b fcbe
00000090: 6360 333e ef44 d8be c691 6f3e df20 00bf
000000a0: b5d4 f5be ca5c 7ebd 6da7 4f3d c1d0 9fbd
000000b0: 8d83 573e 078a fe3d 6f43 6cbd 1abe e13d
000000c0: c7ca aebe 158b 02bf a12e 53be 8d70 4b3e
000000d0: 281a 12be f0df 22be 02dc 5c3e f0c7 463e
000000e0: 3f9d d2be f8cd b5bd 9393 b33d 21f4 0b3e
000000f0: 3e58 46bf 7605 cbbd 2dd9 e9be 1b5f 0b3d
00000100: 5221 4d3e 73c0 1f3e 0054 113e f2f9 c2bd
00000110: 262c febe 86bd 983e 8857 6abd ff76 9cbd
00000120: 5a09 863e 8a1d 103e a014 9abe 2f3c fcbe
00000130: 64ce 633d 9f44 133e c670 533e c605 92be
00000140: 09af 4d3d a878 0e3d d2df 0ebf 0498 2ebe
00000150: df3d 40bd 79d0 99bd 70ae 5ebd 9019 ccbe
00000160: aff3 cebc 2229 88be ad67 893e 78f7 c43d
00000170: fc4a b5bd 307e 05be 9f88 433d a31f 6fbd
00000180: 92c6 47be f76e 373e 7e6b 31bd 1546 a3bc
00000190: d30b 7b3d 0a34 5bbe 126b 1abd 3487 e6bc
000001a0: 949e aebe e270 3bbc 902a c3bd b15a eebe
000001b0: 308a 303d ec9e ed3d 4100 2c3e eb48 1cbe
000001c0: 64f5 d0be 7c02 12bf da54 a8bd e9ff 0e3e
000001d0: c45f 61be c141 ff3d 8c68 c2be e269 d8bc
000001e0: 3290 6dbe 397b 5b3e 4e99 97be 1ec1 213e
000001f0: 19f0 83bd 8b44 64be 6ec3 903d 3c50 1b3e
00000200: 3bda 883e 4f7a 30be 0fc2 a5be edfa 92be
00000210: 804d c63e 7b10 eebe f5cc a53e 9a11 f23e
00000220: e4e8 26bf 79f9 eebe 0537 a4be bfe3 e33e
00000230: 7a46 e33e d9a9 a73e 2a51 243f 46cc 5ebe
00000240: 4f42 723e 04d3 563e 43d6 a43e c0fd e83e
00000250: 894f d73e 9230 16bf 6ed2 d2bd 4471 db3e
00000260: e295 fe3e 9c0b 44bf dd4c 03be 43fd 15bf
00000270: fda9 cd3e 82a2 003f f21c 023f e9a8 c7bd
00000280: 85da b13e 909a 103f 296c 5ebe 7483 18bf
00000290: f9ac a73e 3921 bebb d1b1 d03e f68b 7ebf
000002a0: 3945 d9bd c214 d23e a91b bc3e a36f ef3e
000002b0: 2bcf 783e a9e1 a03e cf0b ba3e 1a82 6b3c
000002c0: 9aa2 193d 1def f6be 69f5 a1be 9bc0 fa3e
000002d0: ed6c 9dbe b084 973e 9d49 b73e a1e8 df3e
000002e0: 39ae e3be 7b2c f53e 2ed4 cf3e 8c1f bc3e
000002f0: c69c 1bbf 9075 c33d c9a1 cdbe aa5c bf3d
00000300: 243e 303e 787a a23e faba 953e 1585 d43e
00000310: 9fbf a8bc 7180 dd3e 4946 8dbb 5e74 d13e
00000320: 5647 a03e 0a36 ff3e 94cb e9be 65ee 28bf
00000330: 8b58 ea3e eac0 973e 566d 053f 3f7c 10bf
00000340: eaff 2f3c ede6 873c fc65 a63d 271d 593e
00000350: 8d3e bdbd 9090 19bd b4ee a23e fe24 01be
00000360: fa9f 013f e942 6dbe d9c6 9c3e fec2 683e
00000370: 5a66 14bd d2ec 8ebe 3a93 c03c d1f8 993d
00000380: 835f a2be 7ef1 fb3e 337f 073f b043 093e
00000390: 02dd a03e 0e31 b03e d60e a2bd ecf4 c33e
000003a0: fbb2 68bf 3fb3 42be 9928 d93e d306 9bbe
000003b0: c57b 213d be3d 0b3e 68ad bd3e a4e8 96bd
000003c0: c02f 893c 337c 28bf 1e71 043f 7c56 803e
000003d0: ec85 b7bd eefa 783e 2efc 19be 9e98 003f
000003e0: c8d3 93bd 8950 6a3e 899f 5bbe 262f e03e
000003f0: 479c 3cbd 9c84 02be f40a 9f3e 15c8 023f
0.2717537 -0.27734062 -0.61421835 -0.3241122 0.16685164 -0.41711178 0.008571113 -0.038334493
-0.43950903 -0.6285582 -0.28752464 0.21326351 -0.09433375 -0.034724616 -0.46605805 -0.26043904
0.05333557 0.33792004 0.18105619 0.15133409 -0.015876694 -0.23511758 -0.39250603 0.103002876
0.04371794 -0.53365827 -0.20554695 -0.81146264 0.07730911 0.24815296 -0.09084295 0.036431022
0.0016952083 0.17633373 -0.17305553 -0.49312636 0.17517237 -0.42240092 0.23395452 -0.5005016
-0.48013845 -0.06210021 0.05069678 -0.078034885 0.21046276 0.124286704 -0.057681497 0.11022587
-0.34139082 -0.5099347 -0.20623256 0.19867153 -0.1426779 -0.15905738 0.21568301 0.19412208
-0.41135594 -0.08877176 0.08768382 0.13667347 -0.77478397 -0.09913151 -0.45673504 0.034026247
0.20032242 0.15600757 0.141922 -0.095203295 -0.49643058 0.29832095 -0.057212383 -0.07639884
0.2617901 0.14073768 -0.3009386 -0.49264666 0.05561675 0.14381646 0.20648488 -0.2852003
0.050215755 0.034783036 -0.5581027 -0.17050177 -0.046934005 -0.07510466 -0.054365575 -0.39863253
-0.025262682 -0.26593882 0.2683691 0.096175134 -0.08852193 -0.13036418 0.047737714 -0.05837978
-0.19509342 0.17913423 -0.043315403 -0.019930879 0.061290573 -0.2140657 -0.037699766 -0.028140642
-0.3410536 -0.011440488 -0.095296025 -0.46553567 0.043100536 0.116025776 0.16796972 -0.15262191
-0.40812218 -0.5703504 -0.08219309 0.1396481 -0.22009188 0.124637134 -0.37970388 -0.026417676
-0.23199537 0.21433724 -0.2960915 0.15796325 -0.06442279 -0.22291772 0.07068525 0.15167326
0.26728997 -0.17234157 -0.32374617 -0.28707066 0.38731003 -0.4649695 0.32382932 0.47279054
-0.6519911 -0.46674708 -0.32073227 0.44509694 0.44389707 0.3274677 0.64186347 -0.21757612
0.23658107 0.20978934 0.3219472 0.45506096 0.42052868 -0.5866786 -0.102940425 0.42859852
0.49723727 -0.76580215 -0.1282229 -0.5858957 0.40168753 0.5024797 0.5082542 -0.09749014
0.3473703 0.56485844 -0.21720947 -0.5957558 0.32749155 -0.0058023003 0.40760663 -0.99432313
-0.10608906 0.41031462 0.36739853 0.4676486 0.24297778 0.31422165 0.36337134 0.01437428
0.037508585 -0.48229304 -0.31632546 0.4897507 -0.30747166 0.2959342 0.3579835 0.4373217
-0.4446886 0.47885498 0.40591568 0.36742818 -0.6078609 0.09543908 -0.40162495 0.09343846
0.17211205 0.3173406 0.29244214 0.41507784 -0.020599185 0.43262056 -0.004311357 0.40909094
0.31304425 0.49845916 -0.4566313 -0.6598876 0.45770678 0.2963937 0.5211996 -0.56439584
0.010742167 0.016589606 0.08124921 0.21202527 -0.09240446 -0.03749138 0.3182274 -0.12611768
0.5063473 -0.23170055 0.3062046 0.22730634 -0.036230423 -0.27915055 0.023507703 0.07518161
-0.31713495 0.4920768 0.52928466 0.13404727 0.31418616 0.34412426 -0.07912986 0.38272798
-0.908981 -0.1901369 0.42413786 -0.30278644 0.039424676 0.13597772 0.3704636 -0.073685914
0.016746402 -0.6581451 0.51735103 0.25065982 -0.089610904 0.24314472 -0.15037605 0.50232875
-0.072181284 0.22882284 -0.21447577 0.4378597 -0.046047475 -0.12745899 0.31063044 0.5108655

net.2.bias f4 [128]
00000000: 8d07 cc3d 6739 bc3e d27c 263e a5a7 3f3e
00000010: 4d6e f93e 92e7 743d c81e 1c3e a707 103d
00000020: 09d4 a13c 5079 1f3e 3bb6 0e3d 157a 063e
00000030: 9450 c53e 75b5 293e e324 54be 013c 653e
00000040: a215 b43e a2f7 983e a54d e33e 4b05 e5bc
00000050: 408c d63d e393 093e 298d a5bd e4c7 683e
00000060: d20a 103e 8bb3 453e 526b 8d3e f099 ea3d
00000070: 80e5 58bc cbcf 4bbe 5898 3b3e fafa 253d
00000080: 983d c23e 2b1b 0a3e c551 933d 9419 613c
00000090: ecd0 183e a3c2 4e3e 5e6d e63d 6e51 393d
000000a0: f504 bc3e d907 8c3d 5d15 463e 16d0 0b3e
000000b0: 2e39 c03e 7c62 8b3e ef18 17bd abfe b73d
000000c0: 1674 663d 264d 7a3d dc10 fa3e eeb7 8a3e
000000d0: ae60 3d3e e4bf a7bd 6739 c23e cd81 fa3e
000000e0: 9a0a dc3e eb38 843d 7992 353e c192 0f3e
000000f0: aab8 c33e 1a9e 453e e854 073e 02f1 4b3d
00000100: 8934 be3c b6d6 fd3d ca10 1abd 187f d13e
00000110: 706f db3e b9c4 d93d 66e5 b03d 69d6 963e
00000120: 400e 7b3e 74da be3d 7fdc 88bd 58ec d33d
00000130: d4e8 06bc e5a5 3abd 1e33 b8bc 5908 563e
00000140: 88de c13e af06 d3bd 3a80 0f3e 4743 e13c
00000150: 9a4a 09bd c37e ffbc 9255 353d 52ca f23e
00000160: c197 a93e e1da 563e e8e8 043e e652 133e
00000170: 6ed7 803d 9453 e93d a494 0e3c 6e3b 8e3c
00000180: b241 4d3d eeb3 213e 3e76 043e 6e45 193e
00000190: b79c 1f3e faca 3f3e 4f02 e03d 6956 c03d
000001a0: 0191 213e 0218 d93e 1387 543e 5726 913e
000001b0: 51c9 af3d fedf ea3e 0b68 2f3e 5a40 0e3e
000001c0: 918c 483e ef94 693e 4b0a 0e3d d7b5 23bd
000001d0: 5141 2b3e 599b e03d d110 c73d b999 04bc
000001e0: b465 623e 1e54 293e c880 173e 2053 7b3e
000001f0: 51ca 183e 0f55 eb3e da62 653d 36d7 0a3e
0.09962378 0.36762545 0.16258553 0.18716295 0.48716965 0.059791155 0.15246117 0.035163548
0.019754427 0.15573621 0.034841757 0.13132508 0.3853804 0.16573127 -0.20717196 0.22386171
0.35172755 0.2987643 0.44395176 -0.027956625 0.10475969 0.1343532 -0.08083565 0.22732502
0.14066628 0.19306771 0.2762094 0.114551425 -0.013238311 -0.19903485 0.18319833 0.040522553
0.37937617 0.13486926 0.07193331 0.013739008 0.14923447 0.20191436 0.11251329 0.045243673
0.36722532 0.06837434 0.19344087 0.13653597 0.37543625 0.27223575 -0.036889013 0.08984121
0.056263052 0.06110873 0.48840988 0.27093452 0.18493912 -0.08190897 0.3793442 0.48927155
0.42976838 0.06456169 0.17731656 0.14020826 0.38226825 0.19298592 0.13215983 0.04979039
0.02321841 0.123944685 -0.037613668 0.40917277 0.42858458 0.10633225 0.08637504 0.29460457
0.24517155 0.093190104 -0.06682681 0.10347813 -0.0082342215 -0.045568366 -0.022485312 0.20901622
0.3786509 -0.10304009 0.14013758 0.0274979 -0.03351841 -0.031188374 0.04427106 0.47419983
0.33123592 0.20981933 0.12979472 0.14387092 0.0629109 0.113928944 0.008702431 0.017362323
0.05011148 0.15791294 0.12935731 0.14967892 0.15587126 0.18729773 0.1093794 0.093914814
0.15777971 0.4240113 0.20754652 0.28349563 0.0858332 0.45874017 0.17129533 0.13891736
0.19584872 0.2281072 0.034677785 -0.039968338 0.16724135 0.1096713 0.09720004 -0.008093291
0.22109109 0.16535994 0.1479522 0.24543428 0.14920928 0.45963332 0.056002475 0.13558659

net.4.weight f4 [2, 128]
00000000: 433d 043f 8ae1 013f e7c1 7d3f 342c 773f
00000010: 91b7 fb3e a851 903e b814 233f b5a7 cabe
00000020: 9b9f 13bf 34d4 133f ed13 2e3e 480a d53e
00000030: b4a3 093f 3bbd aabe d425 12bf d5ee 2abe
00000040: 9a3e 2d3f 6ab7 18be a062 0d3f 8a1c 803d
00000050: 51b9 e43e 312a a33e b6c0 6c3c f576 803f
00000060: 0c87 2a3f 17e9 9ebe 1d48 e33d fdfd e53e
00000070: 5f9e 583e 70d4 f7be a5e7 47bf 3aeb a73e
00000080: 233e 053f f8bb b33e cc1e 953e 4252 94bd
00000090: 2b88 ca3e 9e0a 2f3f df86 e53e 740b ed3e
000000a0: 62d7 ec3e 01e1 b43e ccc0 353f 80ed 0f3f
000000b0: b02a 153f 22a9 f93e c070 17be ee68 ea3e
000000c0: 85ce 073f dac3 a93e b591 ed3e 1975 5fbf
000000d0: d4e1 53bf d5bc da3b 3c5f f53e 7810 023f
000000e0: 95d9 f93e 3b0f 45bf a59b e33e b362 163f
000000f0: 03fb 183f 6960 29bf a749 a33e d784 fb3e
00000100: b6a1 21bf 2e98 313f 57f7 28bf a4bb 0f3f
00000110: 06fa f13e 04fc 9f3e 1438 403f 7d93 f53e
00000120: 60de efbe aa13 38bf 1541 5ebd f31e 4abf
00000130: 109f bbbc 4584 a9bd fad5 273d 4219 f1be
00000140: fe90 ea3e 807e 4fbf 5f79 27bf 3550 1bbf
00000150: d834 a4bd e3b8 523c 321a 4dbf f664 063f
00000160: e9e2 173f 22d9 273f 257e 53bf 5d86 683f
00000170: 20c5 30bf a799 4cbe 7b65 613d c933 ac3e
00000180: b249 943c 1aa5 19bf 9889 973e cc1d 093f
00000190: d1db ccbe 24ad 103f 1176 1e3f ef85 20bf
000001a0: 5412 36be aa39 f83e e07e 483f 382a 133f
000001b0: 65e0 793e c0c1 043f 5854 3abf 798c 59bf
000001c0: d90c 61bf 4371 213f d70f 753f 0d80 70bd
000001d0: 48cd 4abf 14d1 0f3f ae70 0cbf 293b 92bd
000001e0: 3151 a1be 5e71 843e acd8 5c3f 5d8d 053f
000001f0: 9b84 b33e df23 e53e 1cb0 3a3f 24b8 4d3f
00000200: 0793 1d3f aa1f e53e 2124 6e3f 2976 2b3f
00000210: 9f97 df3e d130 4a3f 92ec 053f 2323 83be
00000220: 4cde 05bf 800f 273f 6542 053f 9575 913e
00000230: 92d7 d13e 20e9 efbe 380a 45bf 476a ebbe
00000240: 84ca 083f 9b43 4ebf 2fc6 043f 833c 763d
00000250: 0315 2d3f 2f5b b83b e901 ad3d a6bb 673f
00000260: dcf3 493f 2234 f3be 98d4 d4be cd7b 0f3f
00000270: fb1f 9f3e e1b4 0bbf 810f abbe 90af 423e
00000280: 38e8 fe3e 86ce 843e c84b 783e d671 b2bd
00000290: 026f 223f a64f 4a3f 8e6f 0f3f d42e 0c3f
000002a0: c4b4 ea3e 524d c83e dc15 5c3f 0eac 5abe
000002b0: fd12 093f 2e17 043f 14ca c0be f130 4c3e
000002c0: 8d94 fd3e 45cc 9c3e f71e f93e 55a1 32bf
000002d0: 27a2 c0be 3579 c8bc f8b8 fe3e 268d dc3e
000002e0: 98c9 e33e 1fdd 70bf a613 053f d731 25be
000002f0: 0f78 123f 68e6 19bf 6f37 7f3e 0503 0f3f
00000300: 5908 50bf d1bc 343f 7481 56bf d034 063f
00000310: ca9e 023f 36b2 743e f8eb 383f a659 013f
00000320: 84ea cfbe 39c1 cfbe fdc1 60bd 9b64 23bf
00000330: 7c87 70bd f3ab 60bd 7db9 333d f671 babe
00000340: 1c6f 033f b662 10bf c065 ecbe 7ffe 3abf
00000350: 6163 8a3a 331e abbd 7ef7 08bf acb5 003f
00000360: b8f2 0b3f 886e 373f c9d2 c1be 02da 6a3f
00000370: 1acb 58bf a24d a4be 6f20 01bd 70b8 833e
00000380: f1ba f83e 4144 1dbf da5f 863e 40bb 0f3f
00000390: dae2 debe 79de 3d3f 4731 263f 9d72 b6be
000003a0: 7a9f 90be 7e5c ef3e 36ea 3f3f a86a 123f
000003b0: 05b3 9d3e 9ab1 df3e bf56 43be 2f09 1ebf
000003c0: 58f6 53bf 918a 263f 8b34 913f 408c c73c
000003d0: 769b 00bf 3d61 d33e 8ae5 d8be 82f9 8fbd
000003e0: 4b78 28bf 1cb0 633e 7fa3 863f b3a9 f43e
000003f0: 2af9 3b3f a787 f83e 7dbc 403f 3d54 583f
0.5165598 0.5073477 0.99123996 0.96551824 0.49163488 0.281873 0.6370349 -0.39581075
-0.57665414 0.5774567 0.16999789 0.41609406 0.53765416 -0.33347496 -0.5708897 -0.1669267
0.6767365 -0.14913717 0.55228615 0.062554434 0.44672635 0.31868127 0.014450243 1.0036303
0.66612315 -0.31037208 0.11097739 0.4492034 0.21154164 -0.48404264 -0.78087837 0.3279665
0.5204794 0.35104346 0.2912506 -0.07242252 0.39557013 0.68375576 0.4482946 0.462978
0.46258074 0.35327914 0.7099731 0.5622177 0.5826826 0.4876185 -0.14789104 0.4578318
0.530495 0.33157235 0.46400228 -0.8728805 -0.8276646 0.0066753426 0.4792422 0.5080638
0.48798814 -0.76976365 0.44454685 0.58744353 0.59758013 -0.66162735 0.3189213 0.49124786
-0.63137376 0.6937283 -0.6600241 0.5614569 0.47261065 0.3124696 0.7508557 0.47964087
-0.46849346 -0.71905005 -0.054261286 -0.78953475 -0.022902995 -0.082771815 0.04097555 -0.47089583
0.45813745 -0.810524 -0.6541957 -0.6066926 -0.08017892 0.012861463 -0.80118096 0.52497804
0.5933061 0.65565693 -0.82614356 0.9083002 -0.6905079 -0.19980489 0.05502842 0.3363326
0.018101547 -0.6001755 0.29597163 0.5356109 -0.40011457 0.5651419 0.61898905 -0.62704366
-0.17780429 0.48481494 0.78318596 0.57486296 0.24402006 0.5185814 -0.7278495 -0.8497997
-0.8791023 0.6306345 0.95727295 -0.05871587 -0.79219484 0.561784 -0.54859436 -0.0714019
-0.31507257 0.25867742 0.86268115 0.5216883 0.35062107 0.4475393 0.7292497 0.803591
0.6155247 0.4475072 0.9302388 0.66977173 0.43670365 0.7898074 0.523141 -0.25612745
-0.52292323 0.65258026 0.52054435 0.2841002 0.4098478 -0.46857548 -0.7696872 -0.4597952
0.53434014 -0.8057191 0.51864904 0.060116302 0.67610186 0.0056261043 0.0844763 0.90520704
0.78887725 -0.47500712 -0.41568446 0.5604828 0.31079087 -0.54572874 -0.33410266 0.19012284
0.49786544 0.25938815 0.24247658 -0.08713119 0.63450634 0.79027784 0.56029594 0.54758954
0.45841038 0.3912149 0.85970855 -0.21354696 0.535446 0.5159787 -0.37654173 0.19940545
0.49527398 0.30624595 0.48656437 -0.69777423 -0.37623712 -0.024471859 0.49750495 0.43076438
0.4448974 -0.94087404 0.51983106 -0.16132294 0.57214445 -0.601172 0.2492349 0.5586398
-0.8126274 0.7060061 -0.8379128 0.52424335 0.5102354 0.23896107 0.7223506 0.5052742
-0.4060861 -0.40577105 -0.0548725 -0.63825387 -0.058722958 -0.054851484 0.043878067 -0.3641507
0.51341414 -0.5640062 -0.4617138 -0.7304458 0.0010558182 -0.083553694 -0.53502643 0.5027721
0.54667234 0.7165303 -0.3785613 0.91738904 -0.8468491 -0.3209048 -0.03152507 0.25726652
0.48580125 -0.6143227 0.26245004 0.56145096 -0.4353245 0.7416759 0.6491894 -0.35634318
-0.2824667 0.46750253 0.7496675 0.57193995 0.30800644 0.43690187 -0.1907606 -0.61732763
-0.82797766 0.65055186 1.134416 0.024358869 -0.50237215 0.41285124 -0.42362624 -0.07030012
-0.6580855 0.22235149 1.0518645 0.4778572 0.7342707 0.48540995 0.7528761 0.8450354

net.4.bias f4 [2]
00000000: a5cd 973e d4be 4c3e
0.29649082 0.1999467

net.0.weight f4 [128, 4]
00000000: 03e6 a1be c9c0 ed3e be63 c13f ce5d 8f3d
00000010: 25c3 443f 9406 483d d70a 543f 4d94 b23e
00000020: 9a9b 3bbe 8a79 e9be 054d 28c0 bdf7 04bf
00000030: 933a ab3e 1bb6 953e d524 913f 0899 ef3e
00000040: 2b13 84be 49d7 ba3e 3b0b 24bf 8c00 ac3d
00000050: 0242 443e 3781 ea3e 0083 d73f befb 1c3f
00000060: e53f 253e 94c5 ed3d 1a50 ad3e 3578 c93e
00000070: 9c81 f63d 1af6 61be 16b2 c9be 0cd4 6c3e
00000080: cf40 303e c998 b33c 30ad d53f 375a e03e
00000090: 9128 553c c2b1 13bf c90a 02c0 a303 0cbf
000000a0: 7efb ad3e 753d 4b3e 97af 35bf b5ca 80bd
000000b0: b46f 0fbd 4ee7 a43e 09e8 35bf 9080 d73d
000000c0: ab9c a3be 0ad2 08bf 359b 3abf db30 8abe
000000d0: cef0 cdbe bb22 91be ebe2 09be 2933 4fbd
000000e0: 41a0 67bf e35d 8dbf f19d 4dbf 7ec4 dfbe
000000f0: 9ba7 013f 392e 983e 5480 943f ac94 de3e
00000100: f4dc f03d 3bc0 853e 7199 1fbf 68d3 0cbe
00000110: 07ce d53e b44d 81be 77af 3ebf 1fa7 763d
00000120: 550a d53d 9a46 763e ca7f 20be c32c 9b3d
00000130: 5d0e 31be 71a9 0f3c 348b 2abe 615d 353e
00000140: 2072 88be ef55 99bd 4423 ce3d 72b8 a33e
00000150: bd58 8f3e d29c d4be f6e4 9d3f d65d 0a3e
00000160: 1f7a 4cbf 52a7 c4be e0aa 9bbe d5c0 9fbe
00000170: b836 b3be 0587 1a3e 4234 dd3c 07e8 493e
00000180: 5eec fd3c 1ad9 bf3c 4d3a e4be 5d79 e63e
00000190: 705e cdbe db9f 723e acca e53f cb95 dc3e
000001a0: 5be9 2b3f ac6b c23d 1fe7 823f 6607 d33e
000001b0: 7ce6 043d d1e8 bebe dcae 03c0 44dd 1bbf
000001c0: 77a6 89be cdab 9bbe 1f7f 77bf f46a 9bbe
000001d0: 9d0f 5cbe 8633 d43e e64f 9fbe c25c c73c
000001e0: 6ff0 febe 6eb6 eabe 9c19 13bf 75c4 68be
000001f0: 8f83 6b3f 044a 313f 1a60 72bc d5a1 e4be
00000200: 2409 2fbe 190c c93c 62b1 89be db86 46be
00000210: b797 b3be 8731 b53d 85ba 3bbf 5308 fcbd
00000220: 281f 173f 523f 1d3f ffa4 54bf bc02 f4be
00000230: c7f3 db3d bce2 51bf 19cc 98bf 5854 64bf
00000240: a20e 02bd 8554 8d3e 5c79 8f3e 322d a23e
00000250: 2484 0ebf bc9f 01bf be48 c3bf e418 2dbf
00000260: a755 883e a380 54bc 1bc8 dcbe ff73 57be
00000270: 3ba5 69be 93d1 b03e e30d c73f 6af8 043f
00000280: 7026 35be dd38 eebe d260 62bf 6a2f 18bf
00000290: 2043 5fbe 1d6a 2e39 771a d6be 1a7d 6abe
000002a0: 514a 04bc 1bec 6dbf 1d3c 41bf 9a40 ccbe
000002b0: 84a5 e63e 2e4c d4be 871b 07bf 0103 933d
000002c0: ff57 483e 19c5 ca3e b134 c63c 7150 7e3e
000002d0: 798f ca3d 1913 3c3e a184 c63e 3df2 8a3e
000002e0: 9733 ea3e 5c53 e2be 8e76 46bf 0e3b d43d
000002f0: b7d1 58bf 7d7e b43e d51c 2f3f 42d9 043f
00000300: 0fa8 05bf 9a00 9abe ec8d 31c0 5622 f2be
00000310: d52b 693f de6d 97be f3c0 1ebf a80c 9bbe
00000320: d630 fe3e 63f0 113e 52dd b63f 8c29 153f
00000330: 533f 8a3e 2a36 8dbc 4caf 2bbe 3e29 603d
00000340: 6938 1dbe 754e 11be fd2c 483e 89c6 39bd
00000350: bafa 8a3e bf5c 5abe 76d1 80be 27f3 70bd
00000360: 34ee d4be bd5e 1f3f 4795 a23d bd85 f43e
00000370: f41b 833d 9664 453e 9ce1 71be 1f7b 863d
00000380: 650b 5a3f f0de ebbe 91dd 913d 79b5 9ebe
00000390: d891 08be dcf8 1bbf ed0b 30bf 2a9c 12be
000003a0: 72fc 8f3e ff95 9abd ee80 933e bdcc 353e
000003b0: 88bd 6fbd fd36 cf3e 2248 29be ec1e 45be
000003c0: 21f8 d53b 7a9f 45bf d085 19c0 e169 32bf
000003d0: 983a 74bf 764a 2ebf 4a07 f3bd d583 dbbe
000003e0: 28ef a3bd 0165 dbbe de10 b3bf 1662 3ebf
000003f0: e1c4 d73e a58b 3c3f d05f 043f 58b2 023f
-0.31620798 0.46436146 1.5108564 0.07000314 0.76860267 0.0488344 0.8282904 0.3487877
-0.18321076 -0.4560054 -2.629701 -0.5194052 0.33443126 0.29240498 1.1339365 0.4679644
-0.25795874 0.36492375 -0.64079636 0.08398542 0.19165805 0.45801708 1.6836853 0.6132163
0.16137655 0.11609951 0.33850175 0.39349523 0.1203644 -0.22066537 -0.3939368 0.23127764
0.17212223 0.02192344 1.6693478 0.43818828 0.01301016 -0.5769311 -2.0319083 -0.5469305
0.33980936 0.19847663 -0.70971054 -0.06288663 -0.035018638 0.3220772 -0.7105718 0.10522568
-0.31955466 -0.53445494 -0.7289308 -0.269904 -0.40222782 -0.2834681 -0.13465469 -0.0505859
-0.90478903 -1.1044277 -0.80319124 -0.437046 0.5064637 0.29722765 1.1601663 0.43472803
0.117608935 0.26123223 -0.6234351 -0.1375252 0.4175875 -0.25254595 -0.7448649 0.060217973
0.10402361 0.2405037 -0.15673748 0.07576897 -0.17290635 0.008768425 -0.16654664 0.17711402
-0.2664957 -0.07487094 0.1006532 0.31976658 0.2799739 -0.41525894 1.2335498 0.13512358
-0.7987384 -0.38408905 -0.30403805 -0.31201807 -0.35002685 0.15090568 0.027002458 0.19717418
0.030996498 0.023418952 -0.4457573 0.45014468 -0.40111113 0.23693793 1.7952476 0.43083033
0.6715295 0.09493193 1.0226783 0.41216582 0.03244637 -0.37287 -2.0575476 -0.608845
-0.26884815 -0.3040451 -0.96678346 -0.30355036 -0.21490331 0.4144556 -0.31115645 0.024336223
-0.4979281 -0.45842308 -0.5746095 -0.22731192 0.9199762 0.69253564 -0.01479342 -0.44654718
-0.1709333 0.024541901 -0.26893145 -0.19387381 -0.35076687 0.08847337 -0.7333148 -0.12306275
0.59031916 0.61424744 -0.83064264 -0.47658336 0.10739856 -0.81986594 -1.1937286 -0.891912
-0.031752236 0.27603546 0.28022277 0.31675106 -0.5567038 -0.5063436 -1.5256574 -0.67616105
0.26627848 -0.0129701225 -0.43121418 -0.21040343 -0.22816937 0.34534892 1.5551113 0.5194155
-0.17690444 -0.46527758 -0.88428986 -0.5944735 -0.2180295 0.00016633463 -0.41817066 -0.22899285
-0.008074359 -0.92938393 -0.7548235 -0.39893037 0.45048153 -0.4146437 -0.5277638 0.07178307
0.19564818 0.396035 0.024195047 0.24835373 0.098906465 0.1836666 0.38773063 0.27137938
0.45742485 -0.44204223 -0.7752465 0.10362826 -0.84695 0.35252753 0.6840337 0.5189401
-0.5220956 -0.30078584 -2.7742872 -0.4729182 0.9108251 -0.2957601 -0.6201317 -0.30283093
0.49646634 0.14251857 1.4286292 0.5826652 0.27001438 -0.017237742 -0.16766089 0.05472683
-0.1535355 -0.14190085 0.19548412 -0.045355354 0.27144414 -0.21324442 -0.25159806 -0.05882564
-0.41587985 0.62253934 0.07938629 0.47758284 0.06401816 0.19276652 -0.2362122 0.06566452
0.85173637 -0.46068525 0.071223386 -0.30997828 -0.13336885 -0.60926604 -0.687682 -0.14317384
0.28122288 -0.07548141 0.28809303 0.17753883 -0.05853036 0.4047164 -0.16531423 -0.19250077
0.0065298234 -0.77196467 -2.3987923 -0.6969281 -0.95401907 -0.6808237 -0.11866625 -0.42874017
-0.080046 -0.42850497 -1.3989522 -0.7436842 0.42142394 0.7365058 0.517087 0.5105338

net.0.bias f4 [128]
00000000: 67e3 013f 8fab 55bd 1e6e 873e b3f7 c33d
00000010: 3e09 293f 41ab 1c3e 666e 5d3f 88f0 493f
00000020: 7a38 98bc cc78 1e3e 5741 f93b 72b2 4b3f
00000030: 934e ee3e 57c0 f93e 5e42 8a3d 1cdb 273e
00000040: 9fe1 613f 477e 133e 3101 353f f1df 283f
00000050: 4427 703f 91d4 2abe 94a3 8f3f 887b 213f
00000060: 50b6 6f3f 61c4 8bbd 742e 47be 1926 9f3e
00000070: f82d 523f 3d39 473f 1eae 663f e4b9 153e
00000080: c88a 193f 739d 533f 4376 bbbe 2c0d 9b3e
00000090: 1476 2b3f cc24 82bb f775 493f ea00 4bbe
000000a0: bdd3 fa3e 7383 2f3f 22ac c23e 939b 133f
000000b0: 1b3a 573f a616 543f 9127 2e3f 5b71 373f
000000c0: 74e2 903e 433a f9bd 6e33 973e 3c73 563f
000000d0: 2ed5 cdbe fc83 993d 036d 2a3f c5f5 2e3f
000000e0: 5503 7ebd 908c e23e b231 533f 65ab 5b3f
000000f0: 2426 27be a4f8 87be e6ff 8bbe b90f 1e3f
00000100: 21f5 373f 1bba 473f ff27 693f 30a5 563f
00000110: 6fd2 8e3d d41c 2b3f 1eaf 2a3f 2e04 b33e
00000120: 28ca 3f3f 58b7 383f e86a e1be eec7 e8bd
00000130: c7c2 603f 69c4 513f d9d0 e43e c5db bbbe
00000140: d64a cbbe c657 47be 30ad 723e fc23 e5bd
00000150: 2966 cc3e fca0 2a3f 6ae3 2a3e 9ae6 08be
00000160: 858e d03e 75f4 2d3e 04f3 463f 9775 123f
00000170: 62e7 773f 9c44 00bd f5a6 593f f50e 603e
00000180: 377b 68be aaf1 bdbd e9bd 2f3f 9f11 9a3d
00000190: 211a 063f 7ae8 653f 05e5 d2be 3ed7 513f
000001a0: 6c36 aa3d 67ed 25bf 5710 4b3f c4b5 033d
000001b0: b6be fdbe 53bf 0a3f 1f4f 513f d397 9e3e
000001c0: 477d 51be ff60 babe 24cb e13e c05b 1e3f
000001d0: a3cc 9dbd c96c be3e d637 f23e 2e4c 493f
000001e0: a067 623f 11d0 9cbd 1ba5 763f 848d 163f
000001f0: 6a04 c7be cdaa 993e 2734 333f 30f9 0d3f
0.50737613 -0.052165564 0.264512 0.09568729 0.6602973 0.15299703 0.8649658 0.78882647
-0.018581618 0.15475768 0.007606666 0.7956916 0.46544322 0.48779556 0.0675094 0.16392177
0.88234895 0.1440364 0.7070494 0.6596671 0.93809915 -0.1668265 1.1221795 0.6307912
0.9363756 -0.06824566 -0.19451314 0.31083754 0.8210139 0.77821714 0.9010943 0.14621693
0.5997739 0.82662123 -0.36613664 0.30283487 0.6697705 -0.0039716717 0.78695625 -0.19824567
0.48989668 0.6855995 0.38021952 0.5765926 0.84073037 0.8284706 0.68029124 0.7165734
0.2829777 -0.12169316 0.29531425 0.83769584 -0.40201706 0.07495877 0.6657259 0.68343765
-0.062014896 0.44247866 0.82497704 0.858084 -0.16323143 -0.26556885 -0.27343673 0.6174274
0.7185841 0.7801835 0.91076654 0.83845806 0.06973731 0.66840863 0.6667346 0.34964126
0.7491784 0.7215476 -0.44026875 -0.113662586 0.87797207 0.81940323 0.44690588 -0.36691108
-0.39705533 -0.19467077 0.23698878 -0.11188504 0.39921692 0.6665189 0.16688314 -0.13369218
0.40733734 0.16987784 0.7771456 0.5721068 0.9683744 -0.03131543 0.8502038 0.21880706
-0.22703253 -0.092746094 0.68649155 0.07522892 0.5238362 0.89807856 -0.41190353 0.8196906
0.083111614 -0.6481537 0.7932181 0.032155767 -0.49559563 0.5419819 0.81761354 0.30975208
-0.20457946 -0.36402127 0.44100296 0.6185875 -0.07705047 0.3719237 0.47308224 0.78631866
0.8843937 -0.07656873 0.9634568 0.58809686 -0.38870555 0.30013123 0.70001453 0.55458355

net.2.weight f4 [128, 128]
00000000: 8d1e 8b3e 8d08 8ebe 2440 1dbf 7df9 a5be
00000010: 8dd0 2a3e e395 d5be 44a6 0b3c 1437 1dbd
00000020: 880e e1be beec 20bf fe3e 93be fe55 5a3e
00000030: 3947 c1bd 8861 0ebd f899 eebe fb5f 85be
00000040: 7545 5a3d 9ffb ac3e 835a 393e feeb 1a3e
00000050: 196a 82bc 6ed6 70be 88fb c8be d2de d23d
00000060: 09e1 323d b89f 08bf f08b 52be 30bf 4fbf
00000070: 7a3d 9e3d d710 7e3e 3d21 babd 0ffd 143d
00000080: 0796 d83a 1186 343e a249 31be 0882 fcbe
00000090: a854 333e e744 d8be e284 6f3e df20 00bf
000000a0: 78da f5be 5c89 7ebd 7b71 4f3d f1ec 9fbd
000000b0: 2177 573e 7771 fe3d f27a 6cbd 97b0 e13d
000000c0: 3acd aebe 9d90 02bf 093d 53be a863 4b3e
000000d0: 281a 12be 40f1 22be 89d2 5c3e c2bb 463e
000000e0: 15a8 d2be f6e5 b5bd a579 b33d 92e8 0b3e
000000f0: 3e58 46bf 7605 cbbd 2dd9 e9be 132b 0b3d
00000100: 7e14 4d3e 0cb5 1f3e cf48 113e ad0f c3bd
00000110: 492a febe 8cb8 983e d88e 6abd 8b6f 9cbd
00000120: b603 863e 5b13 103e a014 9abe 5347 fcbe
00000130: 39a1 633d 713a 133e 8c68 533e c605 92be
00000140: 09af 4d3d 2a6f 0e3d b7e2 0ebf 0498 2ebe
00000150: 497b 40bd 53e6 99bd 32ea 5ebd 9019 ccbe
00000160: f84c cfbc ee2f 88be 3361 893e 4ddd c43d
00000170: f761 b5bd ad8e 05be 0553 433d a449 6fbd
00000180: f9de 47be f961 373e bb95 31bd 45dc a3bc
00000190: 2ed9 7a3d 113f 5bbe e5b3 1abd 49ec e6bc
000001a0: ac9e aebe e270 3bbc 9c43 c3bd 5e64 eebe
000001b0: 308a 303d 0086 ed3d 9bf3 2b3e e657 1cbe
000001c0: 64f5 d0be 7c02 12bf 6169 a8bd 2bf3 0e3e
000001d0: a073 61be 812e ff3d 786e c2be abbb d8bc
000001e0: 3b9b 6dbe dc7a 5b3e f49e 97be d1b7 213e
000001f0: 19f0 83bd 364d 64be d1aa 903d a947 1b3e
00000200: f8d5 883e 5c8e 30be 0dc7 a5be f602 93be
00000210: 9448 c63e f016 eebe dbc6 a53e 6c0b f23e
00000220: 03ed 26bf 5c00 efbe f43f a4be 1ede e33e
00000230: b641 e33e b4a5 a73e 2f55 243f 8cdc 5ebe
00000240: 7b36 723e 91c1 563e 4fd0 a43e 64f8 e83e
00000250: 344a d73e 1936 16bf 2de4 d2bd a36c db3e
00000260: fd8f fe3e b70d 44bf 3060 03be 5400 16bf
00000270: a7a4 cd3e ef9f 003f 801a 023f 96c7 c7bd
00000280: 41d5 b13e 1398 103f 387f 5ebe db86 18bf
00000290: 57a7 a73e 3018 bebb 84ab d03e f68b 7ebf
000002a0: c55a d9bd 8b0f d23e 1215 bc3e 8568 ef3e
000002b0: 0ec3 783e b1db a03e d404 ba3e 9133 6b3c
000002c0: e794 193d 9cfa f6be f4fc a1be 46ba fa3e
000002d0: ed6c 9dbe 937b 973e 5f45 b73e bce2 df3e
000002e0: b2b9 e3be c326 f53e cbcd cf3e 0b1a bc3e
000002f0: c69c 1bbf 9075 c33d c9a1 cdbe cc42 bf3d
00000300: 8231 303e 0d75 a23e b2b5 953e 1880 d43e
00000310: 7393 a8bc ea7b dd3e 5902 8fbb 1678 d13e
00000320: f941 a03e 6731 ff3e 94cb e9be f4f3 28bf
00000330: 3a53 ea3e 3fbc 973e 996b 053f 3f7c 10bf
00000340: eaff 2f3c aed5 873c 2450 a63d 271d 593e
00000350: db5d bdbd aeb9 19bd bfe6 a23e fe24 01be
00000360: 609d 013f d850 6dbe 7dc0 9c3e f4b5 683e
00000370: c091 14bd 50f6 8ebe ce28 c03c e0e3 993d
00000380: 9b6b a2be 2eeb fb3e ca7c 073f 7f2f 093e
00000390: d7d6 a03e e62b b03e 9b28 a2bd c5ee c33e
000003a0: 03b2 68bf 3fb3 42be 8122 d93e 0c11 9bbe
000003b0: c57b 213d 9d31 0b3e 3ba7 bd3e 2b07 97bd
000003c0: c02f 893c 337c 28bf c76e 043f 4150 803e
000003d0: 82af b7bd dbf1 783e 6408 1abe 5196 003f
000003e0: 5ee8 93bd 7550 6a3e 26aa 5bbe fe2a e03e
000003f0: 479c 3cbd e38b 02be fc04 9f3e 3dc6 023f
0.27171746 -0.277409 -0.61425996 -0.32416907 0.16681118 -0.41715917 0.0085235275 -0.038382605
-0.439564 -0.6286124 -0.28758997 0.21321866 -0.09437413 -0.03476098 -0.46601844 -0.2604979
0.053288896 0.33785722 0.18100934 0.15129086 -0.015919732 -0.23519298 -0.39254403 0.10296406
0.04367164 -0.5336871 -0.20561194 -0.81151104 0.077265695 0.24811111 -0.09088371 0.036374148
0.0016524204 0.17629267 -0.17313245 -0.49317956 0.17512763 -0.42240068 0.23390535 -0.5005016
-0.4801824 -0.062142715 0.050645333 -0.07808865 0.21041538 0.124239855 -0.057734437 0.1102001
-0.3414095 -0.5100191 -0.20628752 0.19862235 -0.1426779 -0.15912342 0.21564688 0.19407561
-0.4114386 -0.08881752 0.08763436 0.13662937 -0.77478397 -0.09913151 -0.45673504 0.033976626
0.20027348 0.15596408 0.1418793 -0.09524474 -0.49641636 0.29828298 -0.057265133 -0.07638463
0.26174706 0.14069884 -0.3009386 -0.49273166 0.055573676 0.14377762 0.2064535 -0.2852003
0.050215755 0.034773983 -0.5581469 -0.17050177 -0.046992574 -0.07514634 -0.054422565 -0.39863253
-0.025305256 -0.26599067 0.2683197 0.09612522 -0.08856576 -0.13042708 0.047686595 -0.05841984
-0.19518651 0.17908467 -0.043355685 -0.020002494 0.061242275 -0.21410777 -0.037769217 -0.028188841
-0.34105432 -0.011440488 -0.0953438 -0.4656095 0.043100536 0.11597824 0.16792147 -0.15267906
-0.40812218 -0.5703504 -0.082232244 0.13959949 -0.22016764 0.12460042 -0.37974906 -0.026456675
-0.23203747 0.21433586 -0.2961346 0.15792777 -0.06442279 -0.22295079 0.07063831 0.15164055
0.26725745 -0.17241806 -0.32378426 -0.28713197 0.38727248 -0.46501875 0.32378277 0.4727434
-0.652054 -0.46679962 -0.32080042 0.445054 0.4438607 0.3274361 0.6419248 -0.2176382
0.23653595 0.20972277 0.32190177 0.45502007 0.420488 -0.58676296 -0.10297427 0.4285632
0.4971923 -0.7658343 -0.12829661 -0.5859425 0.40164682 0.5024404 0.50821686 -0.09754865
0.34733012 0.56482047 -0.21728218 -0.59580773 0.32744858 -0.005801223 0.40755856 -0.99432313
-0.10613016 0.41027483 0.36734825 0.4675943 0.24293157 0.3141761 0.3633181 0.014355556
0.03749552 -0.48238075 -0.316383 0.4897024 -0.30747166 0.29586467 0.35795113 0.43727672
-0.44477612 0.47881135 0.40586695 0.3673862 -0.6078609 0.09543908 -0.40162495 0.09338912
0.17206386 0.31729928 0.29240185 0.41503978 -0.020578122 0.432586 -0.0043642935 0.4091193
0.31300333 0.49842378 -0.4566313 -0.6599724 0.45766622 0.29635808 0.52117306 -0.56439584
0.010742167 0.016581383 0.08120754 0.21202527 -0.09246417 -0.037530594 0.3181667 -0.12611768
0.5063076 -0.2317537 0.30615607 0.2272566 -0.03627181 -0.27922297 0.023456957 0.07514167
-0.3172272 0.49202865 0.5292479 0.13397025 0.3141391 0.34408492 -0.07917901 0.38268104
-0.90896624 -0.1901369 0.42409137 -0.30286443 0.039424676 0.13593145 0.3704165 -0.07374414
0.016746402 -0.6581451 0.5173153 0.2506123 -0.08969022 0.2431101 -0.15042263 0.50229365
-0.07222055 0.22882254 -0.21451625 0.437828 -0.046047475 -0.12748675 0.3105849 0.5108374

net.2.bias f4 [128]
00000000: 53ef cb3d 9433 bc3e b570 263e 47a3 3f3e
00000010: 7168 f93e a9c2 743d c81e 1c3e a707 103d
00000020: 09d4 a13c 3278 1f3e 0163 0e3d 157a 063e
00000030: 434b c53e 90c4 293e e324 54be 004f 653e
00000040: 3210 b43e fe01 993e 9747 e33e 4b05 e5bc
00000050: b16e d63d e083 093e 298d a5bd 11bc 683e
00000060: f9fc 0f3e 41c3 453e a874 8d3e 3285 ea3d
00000070: 80e5 58bc cbcf 4bbe 989f 3b3e fafa 253d
00000080: 7637 c23e 2b1b 0a3e c551 933d 9419 613c
00000090: e6c0 183e fab4 4e3e e750 e63d 0a1a 393d
000000a0: b4fe bb3e d907 8c3d 5b07 463e d5d2 0b3e
000000b0: 3233 c03e fc5b 8b3e ef18 17bd abfe b73d
000000c0: 1674 663d 264d 7a3d 650a fa3e 69bd 8a3e
000000d0: 3a68 3d3e e4bf a7bd fa32 c23e 1e7c fa3e
000000e0: a704 dc3e eb38 843d 3185 353e 3194 0f3e
000000f0: 88b2 c33e f9a9 453e e854 073e d8ba 4b3d
00000100: 21a8 be3c 46bd fd3d ca10 1abd 0f79 d13e
00000110: dc68 db3e b9c4 d93d cacc b03d eecf 963e
00000120: c619 7b3e 74da be3d 7fdc 88bd 6a02 d43d
00000130: d4e8 06bc e5a5 3abd 1e33 b8bc 1513 563e
00000140: d2d7 c13e af06 d3bd 548a 0f3e 05b3 e13c
00000150: 9a4a 09bd c37e ffbc 917c 353d 30c4 f23e
00000160: c591 a93e a4cd 563e 7ef0 043e 335e 133e
00000170: 9cf3 803d a673 e93d a494 0e3c 6e3b 8e3c
00000180: d808 4d3d aac0 213e 3e76 043e 6e45 193e
00000190: f0a9 1f3e 23be 3f3e 94eb df3d ee67 c03d
000001a0: f7a0 213e db11 d93e d27a 543e 1120 913e
000001b0: 51c9 af3d 55da ea3e 606d 2f3e a74a 0e3e
000001c0: b498 483e 1c88 693e b7e1 0d3d d7b5 23bd
000001d0: bd4a 2b3e 599b e03d 4426 c73d b999 04bc
000001e0: 6177 623e a548 293e d888 173e 3147 7b3e
000001f0: fbb8 183e 784e eb3e 8432 653d 43ca 0a3e
0.09957757 0.367581 0.16253932 0.18714629 0.48712495 0.059755955 0.15246117 0.035163548
0.019754427 0.15573195 0.034762386 0.13132508 0.38533983 0.16578889 -0.20717196 0.22393417
0.35168606 0.29884332 0.44390556 -0.027956625 0.104703315 0.13429213 -0.08083565 0.22727992
0.14061345 0.19312765 0.27628064 0.11451186 -0.013238311 -0.19903485 0.18322599 0.040522553
0.37932938 0.13486926 0.07193331 0.013739008 0.14917335 0.20186225 0.112459 0.04519085
0.3671776 0.06837434 0.19338743 0.13654645 0.3753906 0.27218616 -0.036889013 0.08984121
0.056263052 0.06110873 0.48836055 0.27097633 0.1849679 -0.08190897 0.37929517 0.4892282
0.429723 0.06456169 0.1772659 0.14021374 0.38222146 0.1930312 0.13215983 0.049738735
0.02327353 0.12389617 -0.037613668 0.40912673 0.4285344 0.10633225 0.086328104 0.29455513
0.2452155 0.093190104 -0.06682681 0.10352023 -0.0082342215 -0.045568366 -0.022485312 0.20905717
0.3785997 -0.10304009 0.14017612 0.027551183 -0.03351841 -0.031188374 0.04430825 0.47415304
0.33119026 0.20976883 0.12982365 0.14391403 0.06296465 0.11399011 0.008702431 0.017362323
0.050057262 0.15796152 0.12935731 0.14967892 0.1559217 0.18724875 0.10933605 0.09394823
0.1578406 0.42396435 0.20749977 0.28344777 0.0858332 0.458697 0.17131567 0.13895665
0.19589502 0.22805828 0.034639087 -0.039968338 0.16727729 0.1096713 0.097240955 -0.008093291
0.22115852 0.16531618 0.14798295 0.24538876 0.14914314 0.45958304 0.05595638 0.13553719

net.4.weight f4 [2, 128]
00000000: 8a3f 043f 74e1 013f 0ac3 7d3f 8e30 773f
00000010: 5db7 fb3e 1d66 903e b814 233f b5a7 cabe
00000020: 9b9f 13bf aae5 133f 0308 2e3e 480a d53e
00000030: a8a3 093f 3cbf aabe d425 12bf ddef 2abe
00000040: 1c3f 2d3f 8cbb 18be 9362 0d3f 8a1c 803d
00000050: e4c0 e43e ac22 a33e b6c0 6c3c a577 803f
00000060: bb88 2a3f 32eb 9ebe 0d46 e33d 1c02 e63e
00000070: 5f9e 583e 70d4 f7be 6be7 47bf 3aeb a73e
00000080: 173e 053f f8bb b33e cc1e 953e 4252 94bd
00000090: e68c ca3e 2d0b 2f3f 958a e53e 110f ed3e
000000a0: 2dd7 ec3e 01e1 b43e d4c1 353f 0cee 0f3f
000000b0: 242b 153f 36a9 f93e c070 17be ee68 ea3e
000000c0: 85ce 073f dac3 a93e 9391 ed3e aa75 5fbf
000000d0: ace1 53bf d5bc da3b 1c5f f53e 6210 023f
000000e0: 73d9 f93e 3b0f 45bf 42a2 e33e 3d63 163f
000000f0: f9fa 183f aa60 29bf a749 a33e 4c86 fb3e
00000100: 6ea1 21bf c099 313f 57f7 28bf afbb 0f3f
00000110: 0ffa f13e 04fc 9f3e 1c3a 403f 9793 f53e
00000120: 4ede efbe aa13 38bf 1541 5ebd ff1e 4abf
00000130: 109f bbbc 4584 a9bd fad5 273d 331b f1be
00000140: e290 ea3e 807e 4fbf da77 27bf e451 1bbf
00000150: d834 a4bd e3b8 523c 0c1a 4dbf ec64 063f
00000160: f6e2 173f a8d9 273f d37d 53bf 1a88 683f
00000170: b4c4 30bf e39c 4cbe 7b65 613d c933 ac3e
00000180: 1999 953c d9a3 19bf 9889 973e cc1d 093f
00000190: 4adf ccbe bdaf 103f ec79 1e3f e885 20bf
000001a0: a715 36be 8e39 f83e 097f 483f 472a 133f
000001b0: 65e0 793e aac1 043f 2d54 3abf 328c 59bf
000001c0: b80c 61bf 7773 213f 401b 753f 0d80 70bd
000001d0: 24cd 4abf 14d1 0f3f a571 0cbf 293b 92bd
000001e0: f453 a1be 4471 843e 9ee0 5c3f 598d 053f
000001f0: f887 b33e ce23 e53e d9b4 3a3f 00b8 4d3f
00000200: f58d 1d3f fe14 e53e f51e 6e3f e16f 2b3f
00000210: f38c df3e 962a 4a3f 92ec 053f 2323 83be
00000220: 4cde 05bf b50a 273f 8f39 053f 9575 913e
00000230: e3cc d13e 6ff3 efbe 380a 45bf 1375 ebbe
00000240: 21c5 083f e848 4ebf dec0 043f 833c 763d
00000250: 9b10 2d3f 4499 b73b e901 ad3d 56b6 673f
00000260: 78ee 493f 713e f3be 73df d4be cd76 0f3f
00000270: fb1f 9f3e e1b4 0bbf 0e1a abbe 90af 423e
00000280: 89dd fe3e 86ce 843e c84b 783e d671 b2bd
00000290: 746a 223f 6d4a 4a3f c06a 0f3f f029 0c3f
000002a0: 17aa ea3e 524d c83e ad10 5c3f ffc1 5abe
000002b0: 970d 093f dc11 043f 14ca c0be f130 4c3e
000002c0: 8d94 fd3e 45cc 9c3e 4b14 f93e 79a6 32bf
000002d0: b7ac c0be 3579 c8bc 50ae fe3e 7982 dc3e
000002e0: edbe e33e 1fdd 70bf b60c 053f 7647 25be
000002f0: be72 123f aaeb 19bf 6f37 7f3e cafd 0e3f
00000300: a10d 50bf 80b7 343f 7481 56bf 772f 063f
00000310: 7299 023f 36b2 743e 98e6 383f 5354 013f
00000320: 49f5 cfbe 39c1 cfbe fdc1 60bd e469 23bf
00000330: 7c87 70bd f3ab 60bd 7db9 333d 5a7c babe
00000340: c569 033f b662 10bf 7670 ecbe ad03 3bbf
00000350: 6163 8a3a 331e abbd c8fc 08bf 5ab0 003f
00000360: 5fed 0b3f 4969 373f 59dd c1be f2e3 6a3f
00000370: 72d0 58bf 2958 a4be 6f20 01bd 70b8 833e
00000380: cdac f83e a049 1dbf da5f 863e 40bb 0f3f
00000390: f8ec debe 8fd9 3d3f 902c 263f 2f7d b6be
000003a0: 03aa 90be cf51 ef3e fae4 3f3f 5565 123f
000003b0: 05b3 9d3e eea6 df3e b76b 43be 7c0e 1ebf
000003c0: 8cfb 53bf 2285 263f f731 913f 408c c73c
000003d0: bea0 00bf 3d61 d33e f6ef d8be 82f9 8fbd
000003e0: 817d 28bf ee9a 633e b69d 863f 0c9f f43e
000003f0: 7df4 3b3f fc7c f83e 3db7 403f 0e4f 583f
0.5165945 0.5073464 0.9912573 0.96558464 0.49163333 0.28202906 0.6370349 -0.39581075
-0.57665414 0.57772315 0.16995244 0.41609406 0.53765345 -0.33349025 -0.5708897 -0.16693063
0.6767442 -0.14915293 0.5522854 0.062554434 0.44678414 0.3186239 0.014450243 1.0036513
0.66614884 -0.31038815 0.110973455 0.44923484 0.21154164 -0.48404264 -0.7808749 0.3279665
0.52047867 0.35104346 0.2912506 -0.07242252 0.39560622 0.6837643 0.44832292 0.46300557
0.46257916 0.35327914 0.70998883 0.56222606 0.5826895 0.4876191 -0.14789104 0.4578318
0.530495 0.33157235 0.46400127 -0.87288916 -0.8276622 0.0066753426 0.47924125 0.5080625
0.48798713 -0.76976365 0.4445973 0.58745176 0.59757954 -0.6616312 0.3189213 0.49125898
-0.6313695 0.6937523 -0.6600241 0.5614576 0.47261092 0.3124696 0.7508867 0.47964165
-0.46849293 -0.71905005 -0.054261286 -0.78953546 -0.022902995 -0.082771815 0.04097555 -0.47091064
0.45813662 -0.810524 -0.65417254 -0.6067183 -0.08017892 0.012861463 -0.8011787 0.52497745
0.5933069 0.6556649 -0.8261387 0.90832675 -0.69050145 -0.19981723 0.05502842 0.3363326
0.01826148 -0.60015637 0.29597163 0.5356109 -0.40014106 0.56518155 0.6190479 -0.62704325
-0.17781697 0.4848141 0.7831884 0.57486385 0.24402006 0.5185801 -0.7278469 -0.84979546
-0.8791003 0.6306681 0.95744705 -0.05871587 -0.7921927 0.561784 -0.5486091 -0.0714019
-0.31509364 0.25867665 0.8628024 0.52168804 0.35064673 0.4475388 0.729322 0.80358887
0.61544734 0.44742578 0.93015987 0.6696759 0.43662223 0.7897123 0.523141 -0.25612745
-0.52292323 0.6525071 0.5204095 0.2841002 0.4097663 -0.46865413 -0.7696872 -0.45987758
0.53425795 -0.80579996 0.5185679 0.060116302 0.6760346 0.0056029875 0.0844763 0.905126
0.788795 -0.47508577 -0.41576728 0.5604065 0.31079087 -0.54572874 -0.33418316 0.19012284
0.49778393 0.25938815 0.24247658 -0.08713119 0.63443685 0.79019815 0.5602226 0.5475149
0.45832893 0.3912149 0.85962945 -0.21363066 0.5353636 0.5158975 -0.37654173 0.19940545
0.49527398 0.30624595 0.48648295 -0.6978527 -0.3763177 -0.024471859 0.49742365 0.43068293
0.44481602 -0.94087404 0.5197252 -0.16140541 0.5720633 -0.6012522 0.2492349 0.55856
-0.81270796 0.705925 -0.8379128 0.52416176 0.5101539 0.23896107 0.7222686 0.50519294
-0.40616825 -0.40577105 -0.0548725 -0.6383345 -0.058722958 -0.054851484 0.043878067 -0.36422998
0.51333266 -0.5640062 -0.4617955 -0.73052484 0.0010558182 -0.083553694 -0.53510714 0.5026909
0.54659075 0.7164503 -0.37864187 0.91754067 -0.8469306 -0.3209851 -0.03152507 0.25726652
0.48569337 -0.6144047 0.26245004 0.56145096 -0.43540168 0.74160093 0.64911747 -0.35642383
-0.2825471 0.46742103 0.74958766 0.5718587 0.30800644 0.43682045 -0.19084059 -0.6174085
-0.82805705 0.65046895 1.1343373 0.024358869 -0.50245273 0.41285124 -0.42370576 -0.07030012
-0.65816504 0.2222707 1.051688 0.47777593 0.73419935 0.48532856 0.752796 0.8449563

net.4.bias f4 [2]
00000000: 9dcc 973e a4a9 4c3e
0.29648295 0.19986588
