MountCar/checkpoints/checkpoint_episode_300.pt (torch, 286266 bytes, 24 tensors)

net.0.weight f4 [128, 2]
0.020734647 0.65558934 0.34949926 2.0963304 -0.08054263 -0.20724331 -0.59997284 -0.083988346
0.43534172 0.090745285 -0.5415151 -0.2539012 -0.36284006 -6.1263986 0.45437017 -0.64303464
0.097213894 -0.12627254 -0.14675996 -0.49112037 0.0020588734 0.65660787 -0.60270035 -0.7607307
0.0815984 -0.69585186 0.58171725 0.6056385 0.03319056 0.43477085 0.32202953 -0.07085535
0.060031693 -0.4715718 -0.45656478 -0.81574875 -0.16115336 -0.42480963 0.0034447461 0.6679148
0.2697508 -0.38315254 -0.5702514 -1.0416145 -0.18537942 -0.5670191 0.19388735 -1.2382176
0.2494893 0.91100645 -0.5885814 -0.2199088 -0.65691555 -1.6999704 0.21385977 -0.15869473
-0.6229231 4.1217604 -0.6252817 -1.066138 -0.59362286 -2.0151412 0.01117572 5.78789
0.3647591 -0.6558842 -0.6293278 -1.1015188 0.35884896 0.14248979 -0.39879128 -0.34482184
-0.12465885 -0.75222886 0.28867742 -0.51363736 -0.44037247 -1.5882213 -0.060642693 -6.7816243
-0.70563006 -1.6453906 -0.5785566 -1.3844396 -0.25517148 5.426344 0.19286783 0.18697444
0.09494353 -0.5045787 0.6269333 -0.7809778 0.5411382 -0.38202286 0.6298469 -0.03640864
0.2559598 -0.5894465 0.21054226 -1.851665 -0.288882 -0.1307176 -0.6426741 -1.0669549
-0.48528576 -0.84761477 -0.40291062 -0.6471056 0.24808031 0.2653671 -0.17760701 -0.14368425
0.7063387 -0.41396093 -0.1987486 -0.08103642 0.120629504 -0.20158939 -0.3879766 -0.9886441
0.037797857 -0.56667006 0.090845086 0.015891554 0.5023611 -0.34319663 0.12465411 -0.08608258
0.55436033 0.10644375 0.49270153 -0.61776364 -0.11801708 0.54974407 -0.246903 0.15762231
0.41722828 7.5279365 0.34182942 0.0059506535 -0.16079201 -0.78711873 -0.020350775 0.45951325
0.2897117 0.5749735 -0.061539203 -0.24030548 0.5669877 -0.22935116 0.47435048 0.16749519
0.33531776 -0.97712326 0.36176217 -0.06683394 -0.601966 -1.6202939 -0.5834684 -0.15087824
0.5602681 -0.106146075 1.022876 -1.5960702 0.5898453 8.046715 0.32702824 0.6252967
0.25557846 -1.0454892 0.5253871 -0.22739679 -0.306285 -3.1601903 0.34369832 -0.05160195
-0.2237998 -0.69427294 0.2942156 -0.16788295 0.13211344 -1.4871178 0.19470124 -0.5515153
-0.2799722 0.14338614 0.45017302 1.702135 0.39574304 -0.68986756 0.27988574 2.1927557
-0.21114121 0.49529535 0.27406356 -0.46202293 -0.027390039 -3.4491715 -0.56323063 -5.477595
0.20283978 -0.24561182 0.2610016 0.7246192 0.074001275 -1.2040186 0.06151978 0.27969456
-0.036486816 6.5411406 0.21405971 -0.11181742 0.6733949 0.66193944 0.23495266 -0.578049
-0.44726527 5.6811304 -0.5347143 -1.2428399 -0.52136916 -0.25836197 0.41227898 4.478774
-0.380543 -0.17907253 0.14758208 0.62113637 0.31092694 8.315124 0.29163072 -0.73870575
0.45312083 0.5673149 -0.1642824 -0.8835429 0.16895373 0.14584959 0.34212312 -0.3446379
-0.06646978 -0.5453208 -0.32997534 -1.153399 -0.5738379 -1.7450408 -0.7267459 -0.98443043
-0.21473819 0.5302859 -0.23054811 -0.927823 0.37963158 0.60453755 -0.02265527 -0.6967826
00000000: b5db a93c b4d4 273f 91f1 b23e 472a 0640
00000010: 89f3 a4bd 9737 54be d297 19bf 1502 acbd
00000020: 1ce5 de3e aad8 b93d bca0 0abf 57ff 81be
00000030: 2cc6 b9be 750b c4c0 35a3 e83e eb9d 24bf
00000040: 1418 c73d 974d 01be 3e48 16be 2174 fbbe
00000050: 2aee 063b 7417 283f 924a 1abf 3fbf 42bf
00000060: 101d a73d 5923 32bf 6ceb 143f 200b 1b3f
00000070: d3f2 073d 499a de3e 0ee1 a43e 9c1c 91bd
00000080: cbe3 753d dc71 f1be dcc2 e9be e9d4 50bf
00000090: 6305 25be a680 d9be 40c1 613b 77fc 2a3f
000000a0: c71c 8a3e 922c c4be fffb 11bf a053 85bf
000000b0: 1ad4 3dbe 2a28 11bf 688a 463e ea7d 9ebf
000000c0: 207a 7f3e b837 693f 45ad 16bf c62f 61be
000000d0: 9e2b 28bf a198 d9bf 0efe 5a3e df80 22be
000000e0: e377 1fbf 76e5 8340 7612 20bf 3677 88bf
000000f0: abf7 17bf 13f8 00c0 5e1a 373c 6536 b940
00000100: b4c1 ba3e 07e8 27bf a01b 21bf 91fe 8cbf
00000110: 0dbb b73e d8e8 113e 5f2e ccbe 7d8c b0be
00000120: 244d ffbd 1292 40bf 87cd 933e bd7d 03bf
00000130: 8078 e1be d64a cbbf 7964 78bd 1103 d9c0
00000140: 2ca4 34bf 299c d2bf 491c 14bf 5135 b1bf
00000150: d6a5 82be 9ca4 ad40 257f 453e 3a76 3f3e
00000160: c171 c23d 122c 01bf b37e 203f 29ee 47bf
00000170: 0888 0a3f 8098 c3be a53d 213f 3a21 15bd
00000180: 2a0d 833e f7e5 16bf 6498 573e 5c03 edbf
00000190: 57e8 93be d6da 05be 4a86 24bf fa91 88bf
000001a0: 6077 f8be 48fd 58bf 4d4a cebe b6a8 25bf
000001b0: c408 7e3e 32de 873e 9dde 35be f721 13be
000001c0: 9dd2 343f b0f2 d3be c184 4bbe 6cf6 a5bd
000001d0: 9a0c f73d 736d 4ebe dea4 c6be c817 7dbf
000001e0: edd1 1a3d 4a11 11bf fd0c ba3d 012f 823c
000001f0: bd9a 003f 78b7 afbe a74a ff3d 104c b0bd
00000200: 8fea 0d3f 2eff d93d 6043 fc3e c225 1ebf
00000210: f0b2 f1bd 07bc 0c3f 24d4 7cbe be67 213e
00000220: f29e d53e dbe4 f040 4404 af3e b3fd c23b
00000230: a9a6 24be 9d80 49bf abb6 a6bc 5245 eb3e
00000240: 1855 943e 7731 133f 8810 7cbd a412 76be
00000250: 1b26 113f 08db 6abe 11de f23e dc83 2b3e
00000260: c5ae ab3e c024 7abf e438 b93e 3ce0 88bd
00000270: 721a 1abf ca65 cfbf 2f5e 15bf d37f 1abe
00000280: bb6d 0f3f 1d63 d9bd 9aed 823f 074c ccbf
00000290: 1a00 173f 58bf 0041 3f70 a73e 7213 203f
000002a0: 2edb 823e 97d2 85bf c57f 063f b4da 68be
000002b0: 63d1 9cbe 8f40 4ac0 3af9 af3e 915c 53bd
000002c0: c62b 65be dfbb 31bf 6da3 963e 82e9 2bbe
000002d0: bf48 073e e059 bebf c35f 473e 1b30 0dbf
000002e0: 8458 8fbe d1d3 123e 147d e63e 8fdf d93f
000002f0: d59e ca3e 299b 30bf 2f4d 8f3e 1c56 0c40
00000300: 6735 58be 5a97 fd3e 0f52 8c3e 458e ecbe
00000310: 1361 e0bc 3abf 5cc0 e22f 10bf 7548 afc0
00000320: 3bb5 4f3e aa81 7bbe 00a2 853e a580 393f
00000330: fb8d 973d 481d 9abf 2afc 7b3d 2034 8f3e
00000340: 3373 15bd 0651 d140 7832 5b3e 8800 e5bd
00000350: 9c63 2c3f dd74 293f 6e97 703e 05fb 13bf
00000360: f4ff e4be d2cb b540 09e3 08bf 6115 9fbf
00000370: 7378 05bf 0548 84be 3b16 d33e 1e52 8f40
00000380: 88d6 c2be ca5e 37be c21f 173e cb02 1f3f
00000390: d131 9f3e bf0a 0541 9f50 953e d21b 3dbf
000003a0: 74ff e73e 8d3b 113f a539 28be de2f 62bf
000003b0: 3502 2d3e 9859 153e c32a af3e 6174 b0be
000003c0: 4f21 88bd 259a 0bbf 87f2 a8be 94a2 93bf
000003d0: 0ae7 12bf 7f5d dfbf 050c 3abf a203 7cbf
000003e0: 54e4 5bbe d1c0 073f ce14 6cbe cf85 6dbf
000003f0: 125f c23e f9c2 1a3f 8b97 b9bc 5860 32bf

net.0.bias f4 [128]
-0.4462771 0.113818854 -0.17841788 0.30279475 -0.51668876 0.44326836 -0.2108892 -0.2511282
-0.590685 -0.2109277 -0.38065127 0.31112662 -0.688404 -0.35570717 -0.19238813 0.59623504
-0.2729498 0.3131021 -0.5020516 -0.6126065 0.43487966 0.7201997 0.42250144 0.46702474
0.33503416 0.33841994 -0.40098798 0.4780543 -0.4494901 0.32782125 0.3304027 -0.19257489
0.6161376 0.33013463 0.44839546 -0.5557109 0.42586684 0.712826 0.35079563 -0.042235844
0.1057703 0.4750309 -0.25264937 0.698244 -0.1487729 0.6556937 0.72814316 -0.36677057
0.28018177 0.1675548 -0.45782393 0.6718498 0.27505744 0.35809314 -0.1371279 0.31445926
-0.5016746 -0.5150816 -0.5479874 0.20886433 0.3292322 -0.332512 0.5261736 -0.53888464
0.7956336 -0.53024536 -0.20243907 0.75586647 -0.16406706 0.4226055 0.09463396 -0.68326604
-0.1877229 -0.23986293 0.75090665 0.60394657 0.3404163 -0.6473808 -0.55364263 0.7339768
-0.6054474 0.63548124 -0.17979005 0.41618824 0.52047265 0.6776739 -0.57787764 0.5455522
-0.34624562 -0.5465714 0.5003026 -0.5767261 0.70226574 0.1834266 0.41031462 0.046875104
-0.5937468 0.33926532 0.04625645 -0.31854567 0.22286785 0.33813766 0.51719785 0.44073284
-0.2021105 0.33355615 -0.68900925 0.29782355 -0.34036845 0.39291343 0.3323534 0.3442643
0.7103097 -0.26721558 -0.16112454 0.6214395 0.5610344 0.43314624 -0.3643642 0.55173564
0.38719672 0.57557416 -0.52877295 0.54811275 -0.66219467 0.41234455 -0.54696524 0.7260039
00000000: 6f7e e4be dc19 e93d 2db3 36be ea07 9b3e
00000010: b745 04bf 12f4 e23e 57f3 57be e093 80be
00000020: 2237 17bf 6efd 57be b9e4 c2be fd4b 9f3e
00000030: 3f3b 30bf 401f b6be 6501 45be dca2 183f
00000040: 14c0 8bbe eb4e a03e 7486 00bf c8d3 1cbf
00000050: 8ca8 de3e 025f 383f 1c52 d83e de1d ef3e
00000060: 9989 ab3e 6145 ad3e 4c4e cdbe 89c3 f43e
00000070: 9123 e6be 30d8 a73e 8b2a a93e 5a32 45be
00000080: 32bb 1d3f 6807 a93e 1794 e53e 1243 0ebf
00000090: 380b da3e c47b 363f 7c9b b33e 7eff 2cbd
000000a0: 199e d83d 4037 f33e 425b 81be 1ec0 323f
000000b0: ec57 18be 8bdb 273f 9767 3a3f 5ac9 bbbe
000000c0: fc73 8f3e 7c93 2b3e e667 eabe 59fe 2b3f
000000d0: 54d4 8c3e fc57 b73e 426b 0cbe ce00 a13e
000000e0: bf6d 00bf 63dc 03bf e748 0cbf 88e0 553e
000000f0: 1f91 a83e 033f aabe 50b3 063f 58f4 09bf
00000100: a5ae 4b3f 29be 07bf 304c 4fbe 7780 413f
00000110: 3201 28be c05f d83e 73cf c13d 86ea 2ebf
00000120: 6f3a 40be a19e 75be 6b3b 403f 3e9c 1a3f
00000130: 0c4b ae3e c0ba 25bf 86bb 0dbf e7e5 3b3f
00000140: 9afe 1abf e6ae 223f e21a 38be a016 d53e
00000150: b23d 053f 097c 2d3f caef 13bf 4fa9 0b3f
00000160: 1b47 b1be 1aec 0bbf d513 003f 52a4 13bf
00000170: b0c7 333f 2fd4 3b3e c214 d23e 1c00 403d
00000180: caff 17bf 2fb4 ad3e 6777 3d3d 6b18 a3be
00000190: 7837 643e 6120 ad3e 1467 043f bca7 e13e
000001a0: 0ef6 4ebe dfc7 aa3e e962 30bf 547c 983e
000001b0: c644 aebe f32b c93e 3a2a aa3e 6943 b03e
000001c0: dbd6 353f 7bd0 88be d5fd 24be a916 1f3f
000001d0: f39f 0f3f 58c5 dd3e f28d babe 8c3e 0d3f
000001e0: a63e c63e d458 133f aa5d 07bf 1e51 0c3f
000001f0: 9785 29bf d31e d33e ea05 0cbf 64db 393f

net.2.weight f4 [128, 128]
0.039066736 0.06116633 0.027196623 0.025174133 0.009851004 0.07216392 0.022421038 -0.04577586
-0.034030125 -0.0031779355 -0.039572455 0.06238921 0.0048169317 -0.067891136 -0.009742655 -0.08294581
0.08635288 -0.027318712 -0.0034582647 -0.053344104 -0.031137364 0.03499726 -0.059638757 0.06589696
-0.013135244 0.0790922 -0.019990556 0.06648679 0.0715077 0.068641365 -0.0560718 0.003741386
0.07815609 0.050711215 -0.012792264 0.00023738158 0.06699268 -0.07841219 0.0054546874 -0.0015032516
-0.020441916 -0.070206925 -0.001531901 -0.021480214 -0.08233486 0.0034379922 -0.07073757 0.020883342
0.0052472297 0.042750917 -0.042209372 -0.0679492 -0.043531813 -0.042283636 -0.011464764 -0.06603372
-0.07773146 0.025963016 0.026683917 -0.061738633 0.021645842 0.064646415 0.057796996 -0.06494625
0.014690958 0.08436499 0.037529904 -0.088277 -0.0051063225 0.01526974 0.014402158 0.0695396
0.015999882 -0.022731913 0.04383406 -0.014812436 -0.060219385 0.013516294 0.00901343 0.054543804
-0.08721843 -0.013399136 -0.036149014 -0.031197887 -0.05087526 -0.023035707 -0.085664846 0.07331594
-0.05049282 -0.067769125 0.01463524 0.04125484 -0.057900853 0.05721147 0.016995726 -0.08304485
-0.016423563 0.04162981 -0.027535789 0.02623654 -0.045516793 0.011608896 -0.013046736 0.017654851
0.0038464584 -0.00026928674 0.043549832 0.057972737 -0.028130092 -0.041110437 0.02008979 -0.060674127
0.03139587 0.0663188 -0.024240602 0.017214375 0.014601038 -0.059961814 0.049683988 -0.020003706
0.06698942 0.036881085 0.021936065 0.031198645 0.03329053 -0.02126008 0.026485395 -0.049355224
-0.038104195 0.034514192 0.024930324 0.024076968 -0.053937186 -0.11495991 -0.09402212 -0.033673942
0.046520974 0.0044726552 0.03345563 0.04769307 -0.045227468 0.0126566775 -0.06329043 -0.068637
0.056014508 -0.10058466 0.068804465 0.05996816 0.046650685 0.01264433 0.046402033 -0.098359734
-0.03751866 -0.01672741 -0.081615284 -0.09256336 -0.074214645 0.01772308 -0.027290365 -0.08721897
-0.092170246 0.05366547 -0.10452665 -0.039241508 -0.091164365 -0.04570904 -0.046607085 -0.04217752
0.0055225254 -0.061153747 -0.07136281 0.03388943 0.033306766 0.011677175 -0.060617123 0.05925598
0.008896778 -0.06831734 -0.04082387 -0.08418539 0.03865672 -0.119945504 0.060359903 -0.08031314
-0.0025191065 -0.065215334 0.029569522 0.048793823 0.041603 -0.028021406 -0.07175085 -0.032671984
0.022149278 0.012019481 0.08361984 -0.043882683 -0.053604446 -0.08627757 0.046227627 0.051800173
0.056442596 0.013197147 -0.014932703 0.020357912 -0.07289367 -0.007889458 -0.09481561 -0.096655644
0.050598353 0.029000748 -0.011886307 0.07027206 -0.047083106 -0.02777731 -0.0380695 0.049449652
0.0875777 0.029870883 -0.10824348 0.07972879 0.054855235 0.06882835 -0.08940364 -0.023788914
-0.03734176 -0.00025956772 -0.06392485 0.056633547 0.02970498 0.074857526 -0.08226587 0.050868895
0.056978114 -0.10367555 0.060803182 0.047577843 0.068102196 -0.07665116 0.04254617 0.066424124
-0.09698342 -0.059311192 -0.079013646 0.021495022 -0.08556136 -0.04858393 -0.08260598 -0.1166248
-0.04824178 0.039168093 -0.0678298 0.0013041145 -0.0460758 -0.040577732 -0.00027970754 -0.08070045
00000000: 7104 203d 8c89 7a3d 74cb de3c fc39 ce3c
00000010: 1b66 213c adca 933d 53ac b73c 787f 3bbd
00000020: 2c63 0bbd e944 50bb ba16 22bd d48b 7f3d
00000030: 5ad7 9d3b 820a 8bbd a89f 1fbc 7edf a9bd
00000040: c7d9 b03d 7ecb dfbc 0ea4 62bb 597f 5abd
00000050: c913 ffbc 4959 0f3d c547 74bd fcf4 863d
00000060: 3535 57bc 17fb a13d 3cc3 a3bc 3a2a 883d
00000070: a172 923d d893 8c3d 8bab 65bd 0b32 753b
00000080: 4d10 a03d 90b6 4f3d a596 51bc a2e9 7839
00000090: 7533 893d 9296 a0bd 3cbd b23b c108 c5ba
000000a0: ce75 a7bc a6c8 8fbd 11ca c8ba 46f7 afbc
000000b0: 2e9f a8bd f04f 613b dcde 90bd 8b13 ab3c
000000c0: f4f0 ab3b 961b 2f3d bce3 2cbd f328 8bbd
000000d0: 6a4e 32bd 9b31 2dbd b5d6 3bbc b03c 87bd
000000e0: ac31 9fbd 64b0 d43c 3b98 da3c a6e1 7cbd
000000f0: 9f52 b13c 5765 843d 8bbc 6c3d 8a02 85bd
00000100: 58b2 703c 8dc7 ac3d f5b8 193d 92ca b4bd
00000110: f052 a7bb ee2d 7a3c 07f7 6b3c c76a 8e3d
00000120: 2f12 833c 4738 babc 588b 333d dcaf 72bc
00000130: 9aa8 76bd 7273 5d3c 11ad 133c 5369 5f3d
00000140: 949f b2bd 0d88 5bbc fd10 14bd b692 ffbc
00000150: 9462 50bd 61b5 bcbc 0d71 afbd ab26 963d
00000160: 8fd1 4ebd 8aca 8abd a5c8 6f3c d6fa 283d
00000170: 7229 6dbd 9356 6a3d 9f3a 8b3c 6b13 aabd
00000180: b58a 86bc 0584 2a3d bc92 e1bc 03ee d63c
00000190: d16f 3abd 3d33 3e3c fac1 55bc e8a0 903c
000001a0: dd14 7c3b 0e2f 8db9 4f61 323d d274 6d3d
000001b0: 1471 e6bc 6b63 28bd 5893 a43c 6f85 78bd
000001c0: f598 003d 27d2 873d 3a94 c6bc 2905 8d3c
000001d0: 3139 6f3c 859a 75bd 7081 4b3d d0de a3bc
000001e0: c031 893d 9f10 173d 43b3 b33c 4d94 ff3c
000001f0: a75b 083d 9f29 aebc e6f7 d83c b428 4abd
00000200: 2513 1cbd c15e 0d3d ae3a cc3c 103d c53c
00000210: 3ded 5cbd 1a70 ebbd ab8e c0bd b0ed 09bd
00000220: c78c 3e3d 5a8f 923b c508 093d cf59 433d
00000230: 7040 39bd f45d 4f3c 6a9e 81bd 8e91 8cbd
00000240: 786f 653d 55ff cdbd 5be9 8c3d 2ca1 753d
00000250: ca14 3f3d 2a2a 4f3c 0f10 3e3d d470 c9bd
00000260: 2bad 19bd ec07 89bc ea25 a7bd dc91 bdbd
00000270: d9fd 97bd fe2f 913c 0b90 dfbc dc9f b2bd
00000280: c1c3 bcbd 53d0 5b3d 1112 d6bd b4bb 20bd
00000290: 62b4 babd 6739 3bbd 12e7 3ebd 56c2 2cbd
000002a0: 4df6 b43b 5a7c 7abd aa26 92bd a5cf 0a3d
000002b0: ad6c 083d 9f51 3f3c a949 78bd 66b6 723d
000002c0: cbc3 113c f6e9 8bbd ee36 27bd 6469 acbd
000002d0: 8256 1e3d fda5 f5bd f23b 773d 377b a4bd
000002e0: 9817 25bb 9e8f 85bd c83b f23c 08dc 473d
000002f0: e867 2a3d 268d e5bc 1cf2 92bd 0fd3 05bd
00000300: 6772 b53c 5bed 443c e140 ab3d 54be 33bd
00000310: 5690 5bbd 4bb2 b0bd 2e59 3d3d 6b2c 543d
00000320: 5a30 673d d938 583c 4ca8 74bc a3c5 a63c
00000330: 4749 95bd c942 01bc b02e c2bd 65f3 c5bd
00000340: 3840 4f3d fa92 ed3c c9be 42bc ccea 8f3d
00000350: 37da 40bd 3e8d e3bc c4ee 1bbd b88b 4a3d
00000360: f05b b33d c8b3 f43c c2ae ddbd d948 a33d
00000370: e2af 603d e1f5 8c3d 4119 b7bd f8e0 c2bc
00000380: acf3 18bd 9716 88b9 08eb 82bd 94f8 673d
00000390: dc57 f33c e74e 993d 027b a8bd e75b 503d
000003a0: e261 693d d953 d4bd c20c 793d fce0 423d
000003b0: 2a79 8b3d 49fb 9cbd e544 2e3d 5f09 883d
000003c0: 3e9f c6bd 4bf0 72bd e8d1 a1bd 5416 b03c
000003d0: cb3a afbd f1ff 46bd 532d a9bd fcd8 eebd
000003e0: 2c99 45bd b96e 203d 5aea 8abd d2ee aa3a
000003f0: fab9 3cbd d634 26bd b6a5 92b9 4746 a5bd

net.2.bias f4 [128]
-0.02672655 -0.06381665 0.08617935 -0.065635614 -0.06305698 0.043424826 -0.05348968 0.12690893
0.043760337 -0.019199736 -0.072909504 -0.08803178 0.18307686 0.009320378 0.057283405 0.0008855932
0.06499976 -0.050826713 0.12158096 0.08881345 0.045640536 0.32773024 0.0695743 -0.08783324
-0.05106092 -0.052264813 0.13466026 0.117444955 0.0028255521 0.18704431 -0.028709313 0.035338867
0.15300296 -0.032924432 -0.022085058 0.10921282 0.045996424 0.30570138 0.08377335 0.08180441
0.058483608 0.017037991 0.0013423156 0.07966411 -0.06607896 0.04942662 -0.04368819 0.2071985
0.28172842 0.33629638 0.0052337535 0.09056145 0.169629 -0.08415369 -0.00063602754 0.18114667
0.08002515 0.062195785 -0.08639709 -0.104327664 0.014818072 0.024678381 0.024611963 0.0062979767
0.10998949 -0.028352775 0.0270079 0.2527773 0.026293786 -0.07041181 0.16660282 0.021099113
-0.03261521 0.13799226 0.024757065 -0.019942928 -0.10426828 -0.062580176 0.023667308 0.08019528
0.18012969 -0.04753063 -0.06912577 -0.019786159 0.0451264 0.01588958 0.017634008 -0.025657699
0.049599633 0.14843394 -0.080318645 0.15678896 0.25939015 0.17787932 0.02444064 0.16884233
0.013056704 0.112107016 -0.08591674 0.13402574 0.04006926 0.053886853 0.073035136 -0.092115045
-0.0004935396 -0.02099089 0.085043244 0.17798395 -0.0048712185 0.012552492 0.004390271 -0.03294375
0.0027406474 -0.05807392 -0.08790734 -0.004594106 0.06718679 0.058943395 -0.08127615 -0.06715703
0.045967363 -0.014727309 -0.054086197 -0.022032982 0.059335798 0.06318747 -0.011365182 0.012758388
00000000: a3f1 dabc 4eb2 82bd cd7e b03d f76b 86bd
00000010: 0524 81bd 3bde 313d ff17 5bbd 6af4 013e
00000020: 0a3e 333d c448 9dbc 9451 95bd 024a b4bd
00000030: 8078 3b3e 80b4 183c 01a2 6a3d 2727 683a
00000040: 981e 853d ac2f 50bd 70ff f83d d3e3 b53d
00000050: 92f1 3a3d 42cc a73e f87c 8e3d eae1 b3bd
00000060: 4125 51bd a113 56bd 61e4 093e fb86 f03d
00000070: e62c 393b 8b88 3f3e cb2f ebbc 7dbf 103d
00000080: cfac 1c3e c5db 06bd b9eb b4bc f9aa df3d
00000090: bf66 3c3d e484 9c3e 5d91 ab3d 1289 a73d
000000a0: 828c 6f3d 4293 8b3c a3f0 af3a f026 a33d
000000b0: 6854 87bd 9173 4a3d 63f2 32bd d82b 543e
000000c0: b53e 903e 0a2f ac3e e87f ab3b 4878 b93d
000000d0: 39b3 2d3e c558 acbd 16bb 26ba 837e 393e
000000e0: 3ae4 a33d 02c1 7e3d f5f0 b0bd bea9 d5bd
000000f0: 80c7 723c 512a ca3c 079f c93c 425f ce3b
00000100: 2b42 e13d 1444 e8bc ac3f dd3c 076c 813e
00000110: 1166 d73c 1134 90bd ee99 2a3e 0cd8 ac3c
00000120: 8797 05bd d84d 0d3e 54cf ca3c 5a5f a3bc
00000130: 9c8a d5bd 092a 80bd f1e1 c13c 6c3d a43d
00000140: eb73 383e 7aaf 42bd d091 8dbd 9516 a2bc
00000150: 76d6 383d dd2a 823c 3275 903c 1830 d2bc
00000160: fc28 4b3d 11ff 173e 1a7e a4bd 498d 203e
00000170: c9ce 843e ff25 363e bd37 c83c 01e5 2c3e
00000180: c9eb 553c 5d98 e53d 1ef5 afbd 0b3e 093e
00000190: aa1f 243d 76b8 5c3d 7293 953d d0a6 bcbd
000001a0: e260 01ba 16f5 abbc 272b ae3d 6d41 363e
000001b0: be9e 9fbb f8a8 4d3c 43dc 8f3b 07f0 06bd
000001c0: 6f9c 333b ebde 6dbd c308 b4bd 288a 96bb
000001d0: 3a99 893d a16e 713d 1c74 a6bd a089 89bd
000001e0: 4648 3c3d d04a 71bc 7d89 5dbd 837e b4bc
000001f0: 180a 733d 6f68 813d 0735 3abc 8f08 513c

net.4.weight f4 [3, 128]
0.046167627 0.05905233 -0.61992675 0.08235674 -0.017181395 -0.05456529 -0.04342132 -0.58120936
-0.54708195 0.021773815 0.009799683 -0.015501716 -0.63089377 0.045083497 -0.07438233 0.07347993
-1.3432589 -0.016729144 -0.5436403 -0.4272435 0.0116428835 -0.5615874 0.07306023 -0.03084151
0.058835223 -0.04018759 -0.5630702 -0.43084344 0.015066084 -0.5275949 -0.04367085 0.016718443
-0.615119 0.0063787675 0.045005295 -0.42265558 0.0645435 -0.5086648 0.084701754 -0.016037783
-0.0073745605 -0.008332551 0.047588345 -1.028087 0.03079828 0.026869131 -0.0032562627 -0.4471976
-0.5797208 -0.47346178 -0.08792505 -0.6745803 -0.8041818 -0.007087457 -0.007339568 -0.5063847
-0.83255345 0.0766336 0.025311602 0.01502984 -0.048688814 0.05945597 -0.014885205 -0.052084245
-0.6616184 -0.0510987 -0.052855708 -0.37065032 -0.80924356 -0.027817257 -0.553638 -0.98573095
0.038315404 -1.1670653 -0.66595143 -0.031735856 0.08206011 0.03560043 0.067000076 -0.5161234
-0.8357127 0.012572502 -0.003294992 -1.3097737 -1.0722377 -0.6176568 -0.03625414 0.027177747
0.047103032 -0.6802918 -0.0014097306 -0.44501513 -0.5553332 -0.65922076 0.043008182 -0.7170599
0.028456813 -0.5814866 0.060150325 1.0532668 -0.0080745565 -0.013689688 -0.5384107 0.081796475
-0.010852455 -0.06947984 -0.5824901 -0.55596614 -0.03386173 -0.01716979 -0.56379014 -0.0050460906
-0.033947133 0.039387535 -0.063366145 -0.023166427 -0.02130854 0.058441147 0.060998317 0.06359474
0.06387944 -0.05610424 -0.05583977 0.07865764 0.03088021 0.02289912 -0.033362687 0.02895071
0.06753277 -0.066473 -0.7335953 -0.021106467 0.051980823 0.05720006 -0.038884558 -0.703823
-0.598693 0.044770848 -0.069465354 0.039022133 -0.6359956 0.037353348 -0.067266256 -0.07231432
-0.88001096 0.04362696 -0.607681 -0.6844646 0.048874874 -0.45298618 0.023126997 0.041424934
0.042055886 0.015241891 -0.5724773 -0.7136535 -0.022227457 -0.61600167 0.019275581 0.060354635
-0.6301276 0.01048328 0.07581882 -0.57228506 0.024085818 -0.4612818 0.06303513 -0.05525359
0.016461274 0.056379862 -0.008161222 -0.9981 0.0512256 -0.08512868 0.075214155 -0.4423751
-0.42485827 -0.37283742 0.024563182 -0.59258926 -0.797297 -0.060373366 -0.08084886 -0.72085905
-0.78164107 0.019265514 -0.010488527 -0.009002383 0.070708916 -0.04722427 -9.26988e-05 0.040514387
-0.7570283 0.028676989 -0.064892925 -0.458147 -0.8850075 -0.07089282 -0.69460255 -0.78331006
-0.03633683 -0.8484742 -0.7768654 0.04587038 0.04382027 -0.004035097 0.017032836 -0.6895074
-0.85040206 0.08061306 -0.050579317 -1.2347181 -0.8467908 -0.7512542 0.052674774 -0.06918846
0.066135645 -0.7574206 0.062989295 -0.7167432 -0.4561682 -0.47654447 -0.017757151 -0.80823505
0.05403662 -0.74062705 0.023135323 1.0671461 -0.06786595 -0.045712397 -0.61297166 0.055632047
-0.029147811 -0.06280415 -0.7130296 -0.46303982 0.037669457 -0.03492605 -0.61473197 0.05204941
0.064694464 0.06371557 -0.07907171 0.054068822 0.08019636 0.047285974 -0.031864375 -0.0048499377
-0.021730013 0.07264881 0.036679346 -0.030810336 0.015266661 0.049237885 0.085636154 0.01916689
00000000: 441a 3d3d dbe0 713d 85b3 1ebf a7aa a83d
00000010: ffbf 8cbc db7f 5fbd 8eda 31bd 23ca 14bf
00000020: 900d 0cbf 005f b23c d98e 203c e9fa 7dbc
00000030: 4182 21bf 79a9 383d c355 98bd a57c 963d
00000040: e8ef abbf 8f0b 89bc 032c 0bbf a9bf dabe
00000050: cbc1 3e3c 31c4 0fbf 9aa0 953d 56a7 fcbc
00000060: 34fd 703d be9b 24bd 5e25 10bf 8397 dcbe
00000070: bdd7 763c 7610 07bf 35e0 32bd 1ef5 883c
00000080: 7078 1dbf fb04 d13b 7957 383d 5066 d8be
00000090: 622f 843d db37 02bf 1d78 ad3d ab61 83bc
000000a0: 4ca6 f1bb 4185 08bc ffeb 423d 5b98 83bf
000000b0: ad4c fc3c a71c dc3c 0667 55bb 15f7 e4be
000000c0: 9568 14bf 9569 f2be 0c12 b4bd 4bb1 2cbf
000000d0: dcde 4dbf e63d e8bb c280 f0bb 6da2 01bf
000000e0: 3922 55bf 14f2 9c3d 475a cf3c b83f 763c
000000f0: ec6d 47bd 1a88 733d 13e1 73bc 4a56 55bd
00000100: d35f 29bf df4c 51bd 3a7f 58bd e1c5 bdbe
00000110: 962a 4fbf 04e1 e3bc 38bb 0dbf dd58 7cbf
00000120: 9df0 1c3d 6562 95bf cb7b 2abf 75fd 01bd
00000130: 220f a83d c2d1 113d 5637 893d aa20 04bf
00000140: 44f1 55bf e5fc 4d3c cbf0 57bb aaa6 a7bf
00000150: 163f 89bf c21e 1ebf 397f 14bd dea3 de3c
00000160: 1cef 403d 9a27 2ebf b6c6 b8ba 06d9 e3be
00000170: 512a 0ebf b1c2 28bf 5929 303d 3d91 37bf
00000180: 431e e93c 4edc 14bf 3060 763d 72d1 863f
00000190: 254b 04bc b74a 60bc 49d5 09bf e984 a73d
000001a0: 7fce 31bc 724b 8ebd 121e 15bf cc53 0ebf
000001b0: 99b2 0abd a9a7 8cbc 8d54 10bf ad59 a5bb
000001c0: 260c 0bbd d354 213d 1cc6 81bd 85c7 bdbc
000001d0: 3f8f aebc fc5f 6f3d 5fd9 793d f63d 823d
000001e0: 39d3 823d 8fcd 65bd 3eb8 64bd 4217 a13d
000001f0: 7ff8 fc3c ef96 bb3c 50a7 08bd 0a2a ed3c
00000200: 9f4e 8a3d ff22 88bd e7cc 3bbf 78e7 acbc
00000210: d8e9 543d 9c4a 6a3d 6a45 1fbd be2d 34bf
00000220: f243 19bf a361 373d da43 8ebd acd5 1f3d
00000230: 9cd0 22bf d3ff 183d e4c2 89bd 8819 94bd
00000240: 6648 61bf 2fb2 323d fb90 1bbf 1239 2fbf
00000250: 0531 483d ceed e7be d474 bd3c 31ad 293d
00000260: cb42 2c3d 20b9 793c df8d 12bf ffb1 36bf
00000270: 5b16 b6bc 49b2 1dbf d3e7 9d3c 6c36 773d
00000280: 0b50 21bf 10c2 2b3c e646 9b3d 4681 12bf
00000290: 9f4f c53c 212d ecbe 9018 813d 9751 62bd
000002a0: cbd9 863c 92ee 663d a5b6 05bc 7b83 7fbf
000002b0: efd1 513d f257 aebd e109 9a3d fd7e e2be
000002c0: 0687 d9be 8ce4 bebe ba38 c93c eeb3 17bf
000002d0: a81b 4cbf 104a 77bd 1694 a5bd 388a 38bf
000002e0: a119 48bf b6d2 9d3c 12d8 2bbc bb7e 13bc
000002f0: d6cf 903d 3c6e 41bd 4a67 c2b8 6af2 253d
00000300: 9bcc 41bf 01ec ea3c 95e6 84bd 3e92 eabe
00000310: da8f 62bf 4130 91bd 79d1 31bf 0287 48bf
00000320: eed5 14bd 9b35 59bf a7e0 46bf 94e2 3b3d
00000330: e27c 333d d938 84bb 7288 8b3c 8f83 30bf
00000340: f3b3 59bf 7618 a53d 422c 4fbd 3e0b 9ebf
00000350: 48c7 58bf 3252 40bf 81c1 573d aeb2 8dbd
00000360: 2072 873d 51e6 41bf 8800 813d 7b7c 37bf
00000370: e18e e9be a3fd f3be 7277 91bc 7ee8 4ebf
00000380: 8155 5d3d bc99 3dbf 4a86 bd3c 3e98 883f
00000390: 4efd 8abd ec3c 3bbd b6eb 1cbf 6ede 633d
000003a0: 64c7 eebc 769f 80bd 1c89 36bf 8e13 edbe
000003b0: 4a4b 1a3d 9e0e 0fbd 135f 1dbf c331 553d
000003c0: 887e 843d 4f7d 823d 59f0 a1bd 4577 5d3d
000003d0: fd3d a43d f0ae 413d 3884 02bd 3aec 9ebb
000003e0: 2403 b2bc e6c8 943d 153d 163d f565 fcbc
000003f0: 0421 7a3c aaad 493d 0262 af3d e203 9d3c

net.4.bias f4 [3]
-0.39393824 -0.20290957 -0.23655415
00000000: 46b2 c9be 87c7 4fbe 403b 72be

net.0.weight f4 [128, 2]
0.020734647 0.65558934 0.3488923 2.0970888 -0.08054263 -0.20724331 -0.600122 -0.085279636
0.43534172 0.090745285 -0.5417488 -0.25476453 -0.3623048 -6.124909 0.45437017 -0.64303464
0.097213894 -0.12627254 -0.14675996 -0.49112037 0.0020588734 0.65660787 -0.6026459 -0.7617505
0.0815984 -0.69585186 0.58171725 0.6056385 0.03319056 0.43477085 0.32165363 -0.07142956
0.060031693 -0.4715718 -0.4567178 -0.81660616 -0.16115336 -0.42480963 0.0034447461 0.6679148
0.2694276 -0.38380322 -0.57045776 -1.0423545 -0.18563253 -0.5677777 0.19361599 -1.2387319
0.24925542 0.9104888 -0.58881205 -0.22080576 -0.6567518 -1.6980766 0.21351005 -0.15931524
-0.6238792 4.123969 -0.62515223 -1.0670484 -0.5934422 -2.0159483 0.011072478 5.787513
0.3644505 -0.6563741 -0.62924606 -1.1024401 0.35846192 0.14199162 -0.39879128 -0.34482184
-0.12494352 -0.7530219 0.28835356 -0.51412016 -0.44058925 -1.5889822 -0.06007511 -6.780472
-0.7055762 -1.6447741 -0.57878447 -1.3852156 -0.2557117 5.426872 0.19255579 0.18626456
0.09494353 -0.5045787 0.6266443 -0.7813135 0.5408006 -0.38246885 0.6298469 -0.03640864
0.25559488 -0.5897836 0.2086079 -1.8512744 -0.288882 -0.1307176 -0.6429002 -1.0677358
-0.4853751 -0.84835815 -0.4031421 -0.64789623 0.24808031 0.2653671 -0.17787623 -0.14446619
0.7063387 -0.41396093 -0.1987486 -0.08103642 0.120629504 -0.20158939 -0.38774794 -0.9897942
0.037511986 -0.56729037 0.090845086 0.015891554 0.50217974 -0.34353748 0.12465411 -0.08608258
0.55398834 0.1058899 0.49270153 -0.61776364 -0.11801708 0.54974407 -0.2472047 0.15683417
0.4178072 7.5268607 0.34142378 0.0054524806 -0.16083816 -0.7878098 -0.020350775 0.45951325
0.2897117 0.5749735 -0.061539203 -0.24030548 0.5666384 -0.2298498 0.47395685 0.1669024
0.334947 -0.9774301 0.36176217 -0.06683394 -0.60273063 -1.6217898 -0.5837228 -0.15162452
0.5602681 -0.106146075 1.0227793 -1.5974531 0.59077334 8.045262 0.32680514 0.6247764
0.25525564 -1.0460222 0.5250332 -0.2278657 -0.306285 -3.1601903 0.34333768 -0.052095063
-0.2237998 -0.69427294 0.2942156 -0.16788295 0.13183412 -1.4875859 0.19470124 -0.5515153
-0.2802447 0.14263843 0.44962755 1.7027864 0.3954012 -0.690205 0.2796397 2.1930509
-0.21114121 0.49529535 0.27373508 -0.46251568 -0.027586177 -3.449137 -0.56257004 -5.4759097
0.20239606 -0.24592002 0.26076674 0.72414505 0.073707975 -1.2046218 0.061152577 0.27891254
-0.036677536 6.541217 0.21368691 -0.11231455 0.6733949 0.66193944 0.23456754 -0.57839394
-0.44806188 5.6820383 -0.5348735 -1.2437569 -0.5216059 -0.25923857 0.41192397 4.4786167
-0.3808258 -0.17990686 0.14758208 0.62113637 0.31348282 8.313048 0.29131797 -0.73925394
0.45285675 0.56683195 -0.16453288 -0.8842927 0.16895373 0.14584959 0.3417809 -0.3452259
-0.06674254 -0.54606223 -0.33020988 -1.1540833 -0.5747803 -1.7467886 -0.7269321 -0.98537517
-0.21473819 0.5302859 -0.23075339 -0.9286024 0.37963158 0.60453755 -0.02295421 -0.69744384
00000000: b5db a93c b4d4 273f 03a2 b23e b436 0640
00000010: 89f3 a4bd 9737 54be 98a1 19bf 17a7 aebd
00000020: 1ce5 de3e aad8 b93d 0db0 0abf 7f70 82be
00000030: 0480 b9be 41ff c3c0 35a3 e83e eb9d 24bf
00000040: 1418 c73d 974d 01be 3e48 16be 2174 fbbe
00000050: 2aee 063b 7417 283f 0047 1abf 1502 43bf
00000060: 101d a73d 5923 32bf 6ceb 143f 200b 1b3f
00000070: d3f2 073d 499a de3e c9af a43e a949 92bd
00000080: cbe3 753d dc71 f1be ead6 e9be 1a0d 51bf
00000090: 6305 25be a680 d9be 40c1 613b 77fc 2a3f
000000a0: 6af2 893e db81 c4be 8509 12bf df6b 85bf
000000b0: 7416 3ebe e159 11bf 4543 463e c48e 9ebf
000000c0: d03c 7f3e cb15 693f 63bc 16bf e81a 62be
000000d0: e320 28bf 935a d9bf 61a2 5a3e 8923 23be
000000e0: 8cb6 1fbf 8ef7 8340 fa09 20bf 0b95 88bf
000000f0: d4eb 17bf 4c05 01c0 5769 353c 4e33 b940
00000100: 4299 ba3e 2208 28bf 4516 21bf c21c 8dbf
00000110: 5288 b73e 4066 113e 5f2e ccbe 7d8c b0be
00000120: 63e2 ffbd 0bc6 40bf 14a3 933e 619d 03bf
00000130: ea94 e1be c563 cbbf 5211 76bd a0f9 d8c0
00000140: a4a0 34bf f587 d2bf 382b 14bf bf4e b1bf
00000150: a5ec 82be efa8 ad40 582d 453e 23bc 3e3e
00000160: c171 c23d 122c 01bf c36b 203f 2904 48bf
00000170: e871 0a3f f5d2 c3be a53d 213f 3a21 15bd
00000180: 55dd 823e 0ffc 16bf 4f9d 553e 8ff6 ecbf
00000190: 57e8 93be d6da 05be 1c95 24bf 91ab 88bf
000001a0: 1683 f8be 002e 59bf a468 cebe 87dc 25bf
000001b0: c408 7e3e 32de 873e 3025 36be f2ee 13be
000001c0: 9dd2 343f b0f2 d3be c184 4bbe 6cf6 a5bd
000001d0: 9a0c f73d 736d 4ebe e686 c6be 2763 7dbf
000001e0: 2ba6 193d f139 11bf fd0c ba3d 012f 823c
000001f0: da8e 003f 25e4 afbe a74a ff3d 104c b0bd
00000200: 2ed2 0d3f cedc d83d 6043 fc3e c225 1ebf
00000210: f0b2 f1bd 07bc 0c3f 3b23 7dbe 2399 203e
00000220: d3ea d53e 0bdc f040 19cf ae3e b9aa b23b
00000230: c2b2 24be e7ad 49bf abb6 a6bc 5245 eb3e
00000240: 1855 943e 7731 133f 8810 7cbd a412 76be
00000250: 370f 113f bf5d 6bbe 79aa f23e 76e8 2a3e
00000260: 2c7e ab3e dc38 7abf e438 b93e 3ce0 88bd
00000270: 8e4c 1abf cf96 cfbf db6e 15bf 7543 1bbe
00000280: bb6d 0f3f 1d63 d9bd 6fea 823f 5879 ccbf
00000290: ec3c 173f 65b9 0041 0153 a73e 59f1 1f3f
000002a0: deb0 823e 0ee4 85bf 9368 063f a055 69be
000002b0: 63d1 9cbe 8f40 4ac0 f5c9 af3e a261 55bd
000002c0: c62b 65be dfbb 31bf 6da3 963e 82e9 2bbe
000002d0: 86ff 063e 3769 bebf c35f 473e 1b30 0dbf
000002e0: 3c7c 8fbe cf0f 123e 9535 e63e e8f4 d93f
000002f0: 0772 ca3e 46b1 30bf ef2c 8f3e f25a 0c40
00000300: 6735 58be 5a97 fd3e 0127 8c3e dbce ecbe
00000310: 68fc e1bc a9be 5cc0 9704 10bf a73a afc0
00000320: ea40 4f3e 75d2 7bbe 3883 853e 9261 393f
00000330: 35f4 963d 0c31 9abf 207b 7a3d a0cd 8e3e
00000340: 2f3b 16bd a651 d140 bed0 5a3e 2c05 e6bd
00000350: 9c63 2c3f dd74 293f 7932 703e a011 14bf
00000360: 5e68 e5be 42d3 b540 78ed 08bf 6d33 9fbf
00000370: f787 05bf ebba 84be b3e7 d23e d450 8f40
00000380: 99fb c2be 8139 38be c21f 173e cb02 1f3f
00000390: d280 a03e 3f02 0541 a127 953e bf3f 3dbf
000003a0: d7dc e73e e61b 113f 4f7b 28be 0261 62bf
000003b0: 3502 2d3e 9859 153e e8fd ae3e 73c1 b0be
000003c0: 50b0 88bd bcca 0bbf 4511 a9be 00b9 93bf
000003d0: cd24 13bf c596 dfbf 3918 3abf 8c41 7cbf
000003e0: 54e4 5bbe d1c0 073f 9e4a 6cbe e3b8 6dbf
000003f0: 125f c23e f9c2 1a3f 780a bcbc ae8b 32bf

net.0.bias f4 [128]
-0.4462771 0.114073135 -0.17841788 0.30263302 -0.51668876 0.4432367 -0.21148388 -0.2511282
-0.590685 -0.2109277 -0.38065127 0.31096312 -0.688404 -0.35570717 -0.19238813 0.5963691
-0.2729498 0.31301615 -0.5020516 -0.6126065 0.4349699 0.72017604 0.42251512 0.46710017
0.3350727 0.33837003 -0.40095514 0.47815302 -0.44835562 0.32765225 0.33023876 -0.19284132
0.61624545 0.32999834 0.4485347 -0.5557109 0.42589584 0.71292806 0.3507661 -0.04271083
0.105686605 0.47500533 -0.25226265 0.69829595 -0.1487729 0.65581274 0.7282837 -0.36677057
0.28034955 0.16863626 -0.45782393 0.6718382 0.2750474 0.35808492 -0.1371279 0.3144659
-0.5016746 -0.5150816 -0.5479874 0.20861736 0.32928586 -0.332512 0.52621424 -0.53888464
0.79575807 -0.53024536 -0.20243907 0.7558849 -0.16440503 0.42277044 0.094612904 -0.68326604
-0.1877229 -0.23986293 0.75103277 0.60407054 0.34058106 -0.6473808 -0.5529176 0.7339936
-0.6054474 0.6356107 -0.1802143 0.41622055 0.5205821 0.6778134 -0.57787764 0.54569143
-0.34624562 -0.5465714 0.50039786 -0.5767261 0.7022905 0.1836278 0.41045737 0.0470315
-0.5937468 0.33939174 0.045419138 -0.31932294 0.22308321 0.33819416 0.5172763 0.4408094
-0.20203337 0.3336921 -0.68900925 0.29801494 -0.3396062 0.39280826 0.33231106 0.34456486
0.71032304 -0.26721558 -0.16267018 0.6215382 0.5611089 0.4331497 -0.3643642 0.55183405
0.38722578 0.5755909 -0.52783 0.5480278 -0.66219467 0.41232282 -0.54696524 0.7260685
00000000: 6f7e e4be 2d9f e93d 2db3 36be b7f2 9a3e
00000010: b745 04bf ecef e23e 3b8f 58be e093 80be
00000020: 2237 17bf 6efd 57be b9e4 c2be 8f36 9f3e
00000030: 3f3b 30bf 401f b6be 6501 45be a5ab 183f
00000040: 14c0 8bbe a743 a03e 7486 00bf c8d3 1cbf
00000050: 60b4 de3e 755d 383f e753 d83e c127 ef3e
00000060: a68e ab3e d63e ad3e fe49 cdbe 79d0 f43e
00000070: de8e e5be 09c2 a73e 0e15 a93e 3278 45be
00000080: 43c2 1d3f 8bf5 a83e 57a6 e53e 1243 0ebf
00000090: 050f da3e 7482 363f 9d97 b33e 8df1 2ebd
000000a0: 3872 d83d e633 f33e 9228 81be 86c3 323f
000000b0: ec57 18be 58e3 273f cd70 3a3f 5ac9 bbbe
000000c0: fa89 8f3e fcae 2c3e e667 eabe 97fd 2b3f
000000d0: 03d3 8c3e e856 b73e 426b 0cbe ad01 a13e
000000e0: bf6d 00bf 63dc 03bf e748 0cbf ca9f 553e
000000f0: 2898 a83e 033f aabe fab5 063f 58f4 09bf
00000100: cdb6 4b3f 29be 07bf 304c 4fbe ac81 413f
00000110: cb59 28be 5e75 d83e 69c4 c13d 86ea 2ebf
00000120: 6f3a 40be a19e 75be af43 403f 5ea4 1a3f
00000130: a460 ae3e c0ba 25bf 028c 0dbf 01e7 3b3f
00000140: 9afe 1abf 62b7 223f 198a 38be dc1a d53e
00000150: de44 053f 2e85 2d3f caef 13bf 6fb2 0b3f
00000160: 1b47 b1be 1aec 0bbf 131a 003f 52a4 13bf
00000170: 4fc9 333f ed08 3c3e 7827 d23e 1aa4 403d
00000180: caff 17bf c1c4 ad3e 6b09 3a3d 4c7e a3be
00000190: ed6f 643e c927 ad3e 386c 043f c5b1 e13e
000001a0: d6e1 4ebe b1d9 aa3e e962 30bf 6a95 983e
000001b0: dde0 adbe 2a1e c93e ad24 aa3e ce6a b03e
000001c0: bbd7 353f 7bd0 88be 0393 26be 211d 1f3f
000001d0: d5a4 0f3f ccc5 dd3e f28d babe ff44 0d3f
000001e0: 7542 c63e ed59 133f de1f 07bf 8d4b 0c3f
000001f0: 9785 29bf fa1b d33e ea05 0cbf a0df 393f

net.2.weight f4 [128, 128]
0.039066736 0.06116633 0.027196623 0.025174133 0.009851004 0.07216392 0.022421038 -0.04577586
-0.034030125 -0.0031779355 -0.039572455 0.06238921 0.0048169317 -0.067891136 -0.009742655 -0.08294581
0.08635288 -0.027318712 -0.0034582647 -0.053344104 -0.031137364 0.03499726 -0.059638757 0.06589696
-0.013135244 0.0790922 -0.019990556 0.06648679 0.0715077 0.068641365 -0.0560718 0.003741386
0.07815609 0.050711215 -0.012792264 0.00023738158 0.06699268 -0.07841219 0.0054546874 -0.0015032516
-0.020441916 -0.070206925 -0.001531901 -0.021480214 -0.08233486 0.0034379922 -0.07073757 0.020883342
0.0052472297 0.042750917 -0.042209372 -0.0679492 -0.043531813 -0.042283636 -0.011464764 -0.06603372
-0.07773146 0.025963016 0.026683917 -0.061738633 0.021645842 0.064646415 0.057796996 -0.06494625
0.014690958 0.08436499 0.037529904 -0.088277 -0.0051063225 0.01526974 0.014402158 0.0695396
0.015999882 -0.022731913 0.04383406 -0.014812436 -0.060219385 0.013516294 0.00901343 0.054543804
-0.08721843 -0.013399136 -0.036149014 -0.031197887 -0.05087526 -0.023035707 -0.085664846 0.07331594
-0.05049282 -0.067769125 0.01463524 0.04125484 -0.057900853 0.05721147 0.016995726 -0.08304485
-0.016423563 0.04162981 -0.027535789 0.02623654 -0.045516793 0.011608896 -0.013046736 0.017654851
0.0038464584 -0.00026928674 0.043549832 0.057972737 -0.028130092 -0.041110437 0.02008979 -0.060674127
0.03139587 0.0663188 -0.024240602 0.017214375 0.014601038 -0.059961814 0.049683988 -0.020003706
0.06698942 0.036881085 0.021936065 0.031198645 0.03329053 -0.02126008 0.026485395 -0.049355224
-0.038104195 0.034514192 0.024930324 0.024076968 -0.053937186 -0.11495991 -0.09402212 -0.033673942
0.046520974 0.0044726552 0.03345563 0.04769307 -0.045227468 0.0126566775 -0.06329043 -0.068637
0.056014508 -0.10058466 0.068804465 0.05996816 0.046650685 0.01264433 0.046402033 -0.098359734
-0.03751866 -0.01672741 -0.081615284 -0.09256336 -0.074214645 0.01772308 -0.027290365 -0.08721897
-0.092170246 0.05366547 -0.10452665 -0.039241508 -0.091164365 -0.04570904 -0.046607085 -0.04217752
0.0055225254 -0.061153747 -0.07136281 0.03388943 0.033306766 0.011677175 -0.060617123 0.05925598
0.008896778 -0.06831734 -0.04082387 -0.08418539 0.03865672 -0.119945504 0.060359903 -0.08031314
-0.0025191065 -0.065215334 0.029569522 0.048793823 0.041603 -0.028021406 -0.07175085 -0.032671984
0.022149278 0.012019481 0.08361984 -0.043882683 -0.053604446 -0.08627757 0.046227627 0.051800173
0.056442596 0.013197147 -0.014932703 0.020357912 -0.07289367 -0.007889458 -0.09481561 -0.096655644
0.050598353 0.029000748 -0.011886307 0.07027206 -0.047083106 -0.02777731 -0.0380695 0.049449652
0.0875777 0.029870883 -0.10824348 0.07972879 0.054855235 0.06882835 -0.08940364 -0.023788914
-0.03734176 -0.00025956772 -0.06392485 0.056633547 0.02970498 0.074857526 -0.08226587 0.050868895
0.056978114 -0.10367555 0.060803182 0.047577843 0.068102196 -0.07665116 0.04254617 0.066424124
-0.09698342 -0.059311192 -0.079013646 0.021495022 -0.08556136 -0.04858393 -0.08260598 -0.1166248
-0.04824178 0.039168093 -0.0678298 0.0013041145 -0.0460758 -0.040577732 -0.00027970754 -0.08070045
00000000: 7104 203d 8c89 7a3d 74cb de3c fc39 ce3c
00000010: 1b66 213c adca 933d 53ac b73c 787f 3bbd
00000020: 2c63 0bbd e944 50bb ba16 22bd d48b 7f3d
00000030: 5ad7 9d3b 820a 8bbd a89f 1fbc 7edf a9bd
00000040: c7d9 b03d 7ecb dfbc 0ea4 62bb 597f 5abd
00000050: c913 ffbc 4959 0f3d c547 74bd fcf4 863d
00000060: 3535 57bc 17fb a13d 3cc3 a3bc 3a2a 883d
00000070: a172 923d d893 8c3d 8bab 65bd 0b32 753b
00000080: 4d10 a03d 90b6 4f3d a596 51bc a2e9 7839
00000090: 7533 893d 9296 a0bd 3cbd b23b c108 c5ba
000000a0: ce75 a7bc a6c8 8fbd 11ca c8ba 46f7 afbc
000000b0: 2e9f a8bd f04f 613b dcde 90bd 8b13 ab3c
000000c0: f4f0 ab3b 961b 2f3d bce3 2cbd f328 8bbd
000000d0: 6a4e 32bd 9b31 2dbd b5d6 3bbc b03c 87bd
000000e0: ac31 9fbd 64b0 d43c 3b98 da3c a6e1 7cbd
000000f0: 9f52 b13c 5765 843d 8bbc 6c3d 8a02 85bd
00000100: 58b2 703c 8dc7 ac3d f5b8 193d 92ca b4bd
00000110: f052 a7bb ee2d 7a3c 07f7 6b3c c76a 8e3d
00000120: 2f12 833c 4738 babc 588b 333d dcaf 72bc
00000130: 9aa8 76bd 7273 5d3c 11ad 133c 5369 5f3d
00000140: 949f b2bd 0d88 5bbc fd10 14bd b692 ffbc
00000150: 9462 50bd 61b5 bcbc 0d71 afbd ab26 963d
00000160: 8fd1 4ebd 8aca 8abd a5c8 6f3c d6fa 283d
00000170: 7229 6dbd 9356 6a3d 9f3a 8b3c 6b13 aabd
00000180: b58a 86bc 0584 2a3d bc92 e1bc 03ee d63c
00000190: d16f 3abd 3d33 3e3c fac1 55bc e8a0 903c
000001a0: dd14 7c3b 0e2f 8db9 4f61 323d d274 6d3d
000001b0: 1471 e6bc 6b63 28bd 5893 a43c 6f85 78bd
000001c0: f598 003d 27d2 873d 3a94 c6bc 2905 8d3c
000001d0: 3139 6f3c 859a 75bd 7081 4b3d d0de a3bc
000001e0: c031 893d 9f10 173d 43b3 b33c 4d94 ff3c
000001f0: a75b 083d 9f29 aebc e6f7 d83c b428 4abd
00000200: 2513 1cbd c15e 0d3d ae3a cc3c 103d c53c
00000210: 3ded 5cbd 1a70 ebbd ab8e c0bd b0ed 09bd
00000220: c78c 3e3d 5a8f 923b c508 093d cf59 433d
00000230: 7040 39bd f45d 4f3c 6a9e 81bd 8e91 8cbd
00000240: 786f 653d 55ff cdbd 5be9 8c3d 2ca1 753d
00000250: ca14 3f3d 2a2a 4f3c 0f10 3e3d d470 c9bd
00000260: 2bad 19bd ec07 89bc ea25 a7bd dc91 bdbd
00000270: d9fd 97bd fe2f 913c 0b90 dfbc dc9f b2bd
00000280: c1c3 bcbd 53d0 5b3d 1112 d6bd b4bb 20bd
00000290: 62b4 babd 6739 3bbd 12e7 3ebd 56c2 2cbd
000002a0: 4df6 b43b 5a7c 7abd aa26 92bd a5cf 0a3d
000002b0: ad6c 083d 9f51 3f3c a949 78bd 66b6 723d
000002c0: cbc3 113c f6e9 8bbd ee36 27bd 6469 acbd
000002d0: 8256 1e3d fda5 f5bd f23b 773d 377b a4bd
000002e0: 9817 25bb 9e8f 85bd c83b f23c 08dc 473d
000002f0: e867 2a3d 268d e5bc 1cf2 92bd 0fd3 05bd
00000300: 6772 b53c 5bed 443c e140 ab3d 54be 33bd
00000310: 5690 5bbd 4bb2 b0bd 2e59 3d3d 6b2c 543d
00000320: 5a30 673d d938 583c 4ca8 74bc a3c5 a63c
00000330: 4749 95bd c942 01bc b02e c2bd 65f3 c5bd
00000340: 3840 4f3d fa92 ed3c c9be 42bc ccea 8f3d
00000350: 37da 40bd 3e8d e3bc c4ee 1bbd b88b 4a3d
00000360: f05b b33d c8b3 f43c c2ae ddbd d948 a33d
00000370: e2af 603d e1f5 8c3d 4119 b7bd f8e0 c2bc
00000380: acf3 18bd 9716 88b9 08eb 82bd 94f8 673d
00000390: dc57 f33c e74e 993d 027b a8bd e75b 503d
000003a0: e261 693d d953 d4bd c20c 793d fce0 423d
000003b0: 2a79 8b3d 49fb 9cbd e544 2e3d 5f09 883d
000003c0: 3e9f c6bd 4bf0 72bd e8d1 a1bd 5416 b03c
000003d0: cb3a afbd f1ff 46bd 532d a9bd fcd8 eebd
000003e0: 2c99 45bd b96e 203d 5aea 8abd d2ee aa3a
000003f0: fab9 3cbd d634 26bd b6a5 92b9 4746 a5bd

net.2.bias f4 [128]
-0.02672655 -0.06381665 0.08634321 -0.065635614 -0.06305698 0.043424826 -0.05348968 0.12702258
0.043969072 -0.019199736 -0.072909504 -0.08803178 0.1831758 0.009320378 0.057283405 0.0008855932
0.064719856 -0.050826713 0.12155342 0.08863866 0.045640536 0.3277133 0.0695743 -0.08783324
-0.05106092 -0.052264813 0.13472165 0.11772142 0.0028255521 0.18723492 -0.028709313 0.035338867
0.15306759 -0.032924432 -0.022085058 0.10942441 0.045996424 0.30555618 0.08377335 0.08180441
0.058483608 0.017037991 0.0013423156 0.07931231 -0.06607896 0.04942662 -0.04368819 0.20702592
0.28162047 0.3361351 0.0052337535 0.09061848 0.16949737 -0.08415369 -0.00063602754 0.18134485
0.07968599 0.062195785 -0.08639709 -0.104327664 0.014818072 0.024678381 0.024611963 0.0062979767
0.11009969 -0.028352775 0.0270079 0.2525727 0.025974702 -0.07041181 0.16686146 0.020812515
-0.03261521 0.13798465 0.024873164 -0.019942928 -0.10426828 -0.062580176 0.023667308 0.08036945
0.17993884 -0.04753063 -0.06912577 -0.020202214 0.044209335 0.015977532 0.017634008 -0.025657699
0.049599633 0.1485478 -0.080318645 0.15707049 0.25932577 0.17792399 0.02444064 0.1689604
0.013056704 0.11235356 -0.08591674 0.135239 0.04006926 0.053886853 0.07316002 -0.092115045
-0.0004935396 -0.02099089 0.085252516 0.17786507 -0.0048712185 0.012552492 0.004599635 -0.03294375
0.0027406474 -0.05807392 -0.08790734 -0.004594106 0.06718679 0.058943395 -0.08127615 -0.06715703
0.045967363 -0.014727309 -0.054086197 -0.022032982 0.059335798 0.06318747 -0.011365182 0.012758388
00000000: a3f1 dabc 4eb2 82bd b5d4 b03d f76b 86bd
00000010: 0524 81bd 3bde 313d ff17 5bbd 3512 023e
00000020: ea18 343d c448 9dbc 9451 95bd 024a b4bd
00000030: 7092 3b3e 80b4 183c 01a2 6a3d 2727 683a
00000040: d88b 843d ac2f 50bd 00f1 f83d 3088 b53d
00000050: 92f1 3a3d 0aca a73e f87c 8e3d eae1 b3bd
00000060: 4125 51bd a113 56bd 79f4 093e ee17 f13d
00000070: e62c 393b 83ba 3f3e cb2f ebbc 7dbf 103d
00000080: c0bd 1c3e c5db 06bd b9eb b4bc e819 e03d
00000090: bf66 3c3d dc71 9c3e 5d91 ab3d 1289 a73d
000000a0: 828c 6f3d 4293 8b3c a3f0 af3a 7e6e a23d
000000b0: 6854 87bd 9173 4a3d 63f2 32bd 9afe 533e
000000c0: 8f30 903e e619 ac3e e87f ab3b 2f96 b93d
000000d0: b890 2d3e c558 acbd 16bb 26ba 77b2 393e
000000e0: 6932 a33d 02c1 7e3d f5f0 b0bd bea9 d5bd
000000f0: 80c7 723c 512a ca3c 079f c93c 425f ce3b
00000100: f27b e13d 1444 e8bc ac3f dd3c 3551 813e
00000110: e6c8 d43c 1134 90bd bbdd 2a3e 027f aa3c
00000120: 8797 05bd d94b 0d3e cec2 cb3c 5a5f a3bc
00000130: 9c8a d5bd 092a 80bd f1e1 c13c bd98 a43d
00000140: e341 383e 7aaf 42bd d091 8dbd 1d7f a5bc
00000150: d914 353d 50e3 823c 3275 903c 1830 d2bc
00000160: fc28 4b3d ea1c 183e 1a7e a4bd 16d7 203e
00000170: 59c6 843e b531 363e bd37 c83c f503 2d3e
00000180: c9eb 553c a019 e63d 1ef5 afbd 187c 0a3e
00000190: aa1f 243d 76b8 5c3d ecd4 953d d0a6 bcbd
000001a0: e260 01ba 16f5 abbc df98 ae3d 4322 363e
000001b0: be9e 9fbb f8a8 4d3c 89b8 963b 07f0 06bd
000001c0: 6f9c 333b ebde 6dbd c308 b4bd 288a 96bb
000001d0: 3a99 893d a16e 713d 1c74 a6bd a089 89bd
000001e0: 4648 3c3d d04a 71bc 7d89 5dbd 837e b4bc
000001f0: 180a 733d 6f68 813d 0735 3abc 8f08 513c

net.4.weight f4 [3, 128]
0.046167627 0.05905233 -0.6195488 0.08235674 -0.017181395 -0.05456529 -0.04342132 -0.58080703
-0.5473551 0.021773815 0.009799683 -0.015501716 -0.63108844 0.045083497 -0.07438233 0.07347993
-1.3423046 -0.016729144 -0.5439049 -0.42702278 0.0116428835 -0.561847 0.07306023 -0.03084151
0.058835223 -0.04018759 -0.56336826 -0.43090466 0.015066084 -0.5276198 -0.04367085 0.016718443
-0.61472464 0.0063787675 0.045005295 -0.42332283 0.0645435 -0.50900954 0.084701754 -0.016037783
-0.0073745605 -0.008332551 0.047588345 -1.0271218 0.03079828 0.026869131 -0.0032562627 -0.4475551
-0.5799098 -0.47381008 -0.08792505 -0.674296 -0.8033209 -0.007087457 -0.007339568 -0.50663584
-0.8317383 0.0766336 0.025311602 0.01502984 -0.048688814 0.05945597 -0.014885205 -0.052084245
-0.66123444 -0.0510987 -0.052855708 -0.37102076 -0.80840325 -0.027817257 -0.55371916 -0.9847952
0.038315404 -1.1662023 -0.6652892 -0.031735856 0.08206011 0.03560043 0.067000076 -0.5164171
-0.8348085 0.012572502 -0.003294992 -1.3088332 -1.0711403 -0.6173105 -0.03625414 0.027177747
0.047103032 -0.67966515 -0.0014097306 -0.44505727 -0.55562735 -0.6594345 0.043008182 -0.71629715
0.028456813 -0.58142716 0.060150325 1.0510167 -0.0080745565 -0.013689688 -0.53872573 0.081796475
-0.010852455 -0.06947984 -0.58232325 -0.5561828 -0.03386173 -0.01716979 -0.56369305 -0.0050460906
-0.033947133 0.039387535 -0.063366145 -0.023166427 -0.02130854 0.058441147 0.060998317 0.06359474
0.06387944 -0.05610424 -0.05583977 0.07865764 0.03088021 0.02289912 -0.033362687 0.02895071
0.06753277 -0.066473 -0.7331014 -0.021106467 0.051980823 0.05720006 -0.038884558 -0.7033938
-0.5989728 0.044770848 -0.069465354 0.039022133 -0.63616437 0.037353348 -0.067266256 -0.07231432
-0.879769 0.04362696 -0.60802627 -0.6844524 0.048874874 -0.4528689 0.023126997 0.041424934
0.042055886 0.015241891 -0.57286114 -0.7132335 -0.022227457 -0.6156807 0.019275581 0.060354635
-0.6295812 0.01048328 0.07581882 -0.5730305 0.024085818 -0.46147308 0.06303513 -0.05525359
0.016461274 0.056379862 -0.008161222 -0.99792254 0.0512256 -0.08512868 0.075214155 -0.4426111
-0.42491606 -0.37303826 0.024563182 -0.592321 -0.79686093 -0.060373366 -0.08084886 -0.7210849
-0.7814877 0.019265514 -0.010488527 -0.009002383 0.070708916 -0.04722427 -9.26988e-05 0.040514387
-0.7565569 0.028676989 -0.064892925 -0.45844412 -0.8848344 -0.07089282 -0.6941946 -0.782922
-0.03633683 -0.8486127 -0.77643496 0.04587038 0.04382027 -0.004035097 0.017032836 -0.68985784
-0.8499883 0.08061306 -0.050579317 -1.2345287 -0.846499 -0.7508827 0.052674774 -0.06918846
0.066135645 -0.7569999 0.062989295 -0.7163317 -0.45615408 -0.4762281 -0.017757151 -0.80779254
0.05403662 -0.7401961 0.023135323 1.0690087 -0.06786595 -0.045712397 -0.61337906 0.055632047
-0.029147811 -0.06280415 -0.71250796 -0.46320358 0.037669457 -0.03492605 -0.61431366 0.05204941
0.064694464 0.06371557 -0.07907171 0.054068822 0.08019636 0.047285974 -0.031864375 -0.0048499377
-0.021730013 0.07264881 0.036679346 -0.030810336 0.015266661 0.049237885 0.085636154 0.01916689
00000000: 441a 3d3d dbe0 713d c09a 1ebf a7aa a83d
00000010: ffbf 8cbc db7f 5fbd 8eda 31bd c5af 14bf
00000020: 771f 0cbf 005f b23c d98e 203c e9fa 7dbc
00000030: 038f 21bf 79a9 383d c355 98bd a57c 963d
00000040: a3d0 abbf 8f0b 89bc 5a3d 0bbf bba2 dabe
00000050: cbc1 3e3c 34d5 0fbf 9aa0 953d 56a7 fcbc
00000060: 34fd 703d be9b 24bd e738 10bf 899f dcbe
00000070: bdd7 763c 1712 07bf 35e0 32bd 1ef5 883c
00000080: 985e 1dbf fb04 d13b 7957 383d c5bd d8be
00000090: 622f 843d 734e 02bf 1d78 ad3d ab61 83bc
000000a0: 4ca6 f1bb 4185 08bc ffeb 423d ba78 83bf
000000b0: ad4c fc3c a71c dc3c 0667 55bb f125 e5be
000000c0: f874 14bf 3c97 f2be 0c12 b4bd aa9e 2cbf
000000d0: 70a6 4dbf e63d e8bb c280 f0bb e3b2 01bf
000000e0: cdec 54bf 14f2 9c3d 475a cf3c b83f 763c
000000f0: ec6d 47bd 1a88 733d 13e1 73bc 4a56 55bd
00000100: a946 29bf df4c 51bd 3a7f 58bd 6ff6 bdbe
00000110: 84f3 4ebf 04e1 e3bc 8ac0 0dbf 8a1b 7cbf
00000120: 9df0 1c3d 1e46 95bf 6550 2abf 75fd 01bd
00000130: 220f a83d c2d1 113d 5637 893d e933 04bf
00000140: 03b6 55bf e5fc 4d3c cbf0 57bb d987 a7bf
00000150: 201b 89bf 1008 1ebf 397f 14bd dea3 de3c
00000160: 1cef 403d 89fe 2dbf b6c6 b8ba 8cde e3be
00000170: 983d 0ebf b3d0 28bf 5929 303d 405f 37bf
00000180: 431e e93c 69d8 14bf 3060 763d b787 863f
00000190: 254b 04bc b74a 60bc eee9 09bf e984 a73d
000001a0: 7fce 31bc 724b 8ebd 2313 15bf ff61 0ebf
000001b0: 99b2 0abd a9a7 8cbc 304e 10bf ad59 a5bb
000001c0: 260c 0bbd d354 213d 1cc6 81bd 85c7 bdbc
000001d0: 3f8f aebc fc5f 6f3d 5fd9 793d f63d 823d
000001e0: 39d3 823d 8fcd 65bd 3eb8 64bd 4217 a13d
000001f0: 7ff8 fc3c ef96 bb3c 50a7 08bd 0a2a ed3c
00000200: 9f4e 8a3d ff22 88bd 89ac 3bbf 78e7 acbc
00000210: d8e9 543d 9c4a 6a3d 6a45 1fbd 9e11 34bf
00000220: 4856 19bf a361 373d da43 8ebd acd5 1f3d
00000230: abdb 22bf d3ff 183d e4c2 89bd 8819 94bd
00000240: 8b38 61bf 2fb2 323d 9ca7 1bbf 4638 2fbf
00000250: 0531 483d 6fde e7be d474 bd3c 31ad 293d
00000260: cb42 2c3d 20b9 793c 07a7 12bf 7896 36bf
00000270: 5b16 b6bc 409d 1dbf d3e7 9d3c 6c36 773d
00000280: 3c2c 21bf 10c2 2b3c e646 9b3d 20b2 12bf
00000290: 9f4f c53c 3346 ecbe 9018 813d 9751 62bd
000002a0: cbd9 863c 92ee 663d a5b6 05bc da77 7fbf
000002b0: efd1 513d f257 aebd e109 9a3d ec9d e2be
000002c0: 998e d9be dffe bebe ba38 c93c 59a2 17bf
000002d0: 14ff 4bbf 104a 77bd 1694 a5bd 0599 38bf
000002e0: 940f 48bf b6d2 9d3c 12d8 2bbc bb7e 13bc
000002f0: d6cf 903d 3c6e 41bd 4a67 c2b8 6af2 253d
00000300: b7ad 41bf 01ec ea3c 95e6 84bd 30b9 eabe
00000310: 8284 62bf 4130 91bd bdb6 31bf 946d 48bf
00000320: eed5 14bd af3e 59bf 71c4 46bf 94e2 3b3d
00000330: e27c 333d d938 84bb 7288 8b3c 869a 30bf
00000340: d598 59bf 7618 a53d 422c 4fbd 0905 9ebf
00000350: 29b4 58bf d939 40bf 81c1 573d aeb2 8dbd
00000360: 2072 873d bfca 41bf 8800 813d 8461 37bf
00000370: 078d e9be 2bd4 f3be 7277 91bc 7ecb 4ebf
00000380: 8155 5d3d 7e7d 3dbf 4a86 bd3c 47d5 883f
00000390: 4efd 8abd ec3c 3bbd 6906 1dbf 6ede 633d
000003a0: 64c7 eebc 769f 80bd ec66 36bf 0529 edbe
000003b0: 4a4b 1a3d 9e0e 0fbd a943 1dbf c331 553d
000003c0: 887e 843d 4f7d 823d 59f0 a1bd 4577 5d3d
000003d0: fd3d a43d f0ae 413d 3884 02bd 3aec 9ebb
000003e0: 2403 b2bc e6c8 943d 153d 163d f565 fcbc
000003f0: 0421 7a3c aaad 493d 0262 af3d e203 9d3c

net.4.bias f4 [3]
-0.39426523 -0.20288849 -0.2361244
00000000: 22dd c9be 00c2 4fbe 98ca 71be
