MountCar/checkpoints/checkpoint_episode_100.pt (torch, 286266 bytes, 24 tensors)

net.0.weight f4 [128, 2]
000000 c1 ea b1 be 18 4c d2 3c e5 6d 6d be 8a f0 5f bf
       -0.34749416 0.02567105 -0.23186453 -0.8747641
000010 65 25 c1 bd 8d a0 4e bd f4 bf 96 3e d5 33 34 3f
       -0.094309606 -0.050446082 0.29443324 0.7039159
000020 39 42 68 be 09 83 e1 3e 1d 3a 3d bf e3 58 9b 3e
       -0.22681512 0.44045284 -0.739168 0.30341253
000030 26 c0 97 be 12 c3 96 3d 3f 9b 1b be e4 29 63 bc
       -0.29638785 0.073614255 -0.1519594 -0.013864968
000040 cd 1a 03 bf 89 62 10 bf 3d f2 a2 3e 1a 51 34 bf
       -0.5121277 -0.5640035 0.31825438 -0.7043625
000050 fa 64 5a bc 60 27 28 bf a9 f0 7f 3e 31 75 c6 be
       -0.013329739 -0.6568508 0.24994148 -0.38761285
000060 ce cd c7 3e 16 3e d6 3e cc 22 19 3f d7 63 83 be
       0.39024204 0.41844243 0.5981872 -0.2566211
000070 30 fb e1 3d de 46 3d 3e 7a 51 ba bd 32 a8 c1 3d
       0.11034238 0.18484065 -0.09097572 0.09455909
000080 be 90 8b bc 40 b2 98 3e 0d 00 17 bf c1 57 62 bf
       -0.017036792 0.29823494 -0.5898445 -0.8841515
000090 50 05 ed be 80 ac c8 3d a3 ca fd 3e 09 97 e3 3e
       -0.46293116 0.09798527 0.49568662 0.44451168
0000a0 2f 50 0c 3f 14 c0 c4 3e 56 0e e3 3e 51 10 83 be
       0.5480985 0.38427794 0.44346875 -0.25598386
0000b0 d2 59 a8 3d a6 d2 77 3d 6e 2e 2c 3f 8a 4f a8 3e
       0.08220257 0.060503624 0.67258346 0.32873183
0000c0 87 f2 8b 3e a8 f3 5e bf 00 ee 0c bf 9f e0 4b bf
       0.2733347 -0.8709054 -0.5505066 -0.7963962
0000d0 00 17 44 be 1a bf 9d 3e c7 d0 1c 3f 0c 3c 05 bf
       -0.19149399 0.3080986 0.6125607 -0.5204475
0000e0 50 da 01 bf 21 f3 2d bf 3f 6f dc be 35 79 69 bf
       -0.50723743 -0.6794911 -0.43053624 -0.9120057
0000f0 6c 1e 98 3f 22 e6 31 40 34 90 27 bf 16 54 03 bf
       1.1884284 2.7796712 -0.6545441 -0.5130018
000100 a9 c6 19 bf 4d 8f dd bb c6 61 af be 29 a2 f6 3d
       -0.60068756 -0.0067614675 -0.34254283 0.12042648
000110 b3 12 64 bf d5 8b f9 bf 43 29 d4 3d 5f 87 83 be
       -0.8909103 -1.9495798 0.103594325 -0.25689217
000120 80 07 2d be 51 88 37 bf 34 1d 44 be 2e af 74 bc
       -0.16897392 -0.7169238 -0.19151765 -0.014934344
000130 d6 40 c6 be 1f 45 c8 3d 52 93 b9 3d 8d f5 fb 3e
       -0.3872134 0.09778809 0.09061302 0.49210778
000140 ae 92 09 3e e0 0a 3b be 25 5a a1 3e 9d de e6 bd
       0.1343486 -0.18265867 0.31514087 -0.11272929
000150 78 c0 86 be 3b 77 b2 be 80 94 1e 3f 2e 18 eb 3c
       -0.26318717 -0.3485659 0.61945343 0.028698053
000160 8f 02 a3 be a8 41 bb be 63 64 91 be b7 38 aa be
       -0.3183789 -0.3657353 -0.283969 -0.33246395
000170 bf fb a2 be 42 73 85 be 61 0a 98 be aa 61 7b bf
       -0.31832692 -0.26064497 -0.29695418 -0.981959
000180 77 33 66 bc 3a 4b fa bc 35 e7 24 be 97 f5 1e 3e
       -0.014050356 -0.030553449 -0.16103823 0.15523373
000190 3c d6 2d bd d1 30 75 be 51 ba 48 3e 56 5b 90 3f
       -0.042440638 -0.23944403 0.19602324 1.1277874
0001a0 ab 18 0a be 0f 4e 99 be de 29 ac be a8 9c 8d 3c
       -0.13485973 -0.29942366 -0.33625692 0.017286614
0001b0 90 2c 2e 3e 33 78 04 3f ff 0c eb be 52 a5 26 bf
       0.17009187 0.5174591 -0.45908353 -0.6509601
0001c0 2c db d1 be 87 27 29 bf 4f 7a 57 3e d1 cd 7e bf
       -0.40987527 -0.6607594 0.21042751 -0.995328
0001d0 6d a9 d9 3c 98 42 fe 3c 47 fb dd 3c ad 41 4d be
       0.026570046 0.031037614 0.027097357 -0.20044585
0001e0 e5 80 cd be 2d 25 40 c0 90 4d eb be 81 1e 5d bf
       -0.401374 -3.002269 -0.45957613 -0.8637467
0001f0 e5 6b 1f 3f 5d 25 11 3f 12 89 14 bf 86 71 31 3f
       0.6227401 0.56697637 -0.5802165 0.6931385
000200 2c 6f cc be 36 88 06 3f b8 14 99 be 3f 6a bf be
       -0.39928567 0.5255159 -0.2989862 -0.37385747
000210 ad 8e 98 3e 65 d0 2b 3e f5 03 69 3e dd f3 bf 3d
       0.29796353 0.16778715 0.22755416 0.09372685
000220 cb 1a 3f be a4 67 00 3f d5 34 26 bf 47 20 d3 be
       -0.18662564 0.50158143 -0.64924365 -0.41235563
000230 3e 1e 0b bf 5b 29 0a bf 08 0c 5b be 82 7d 85 bf
       -0.5434302 -0.53969353 -0.21391308 -1.0428927
000240 a9 da 98 3e 13 dc 78 bf c5 19 8e 3d 1f 12 b7 3e
       0.29854324 -0.97210807 0.06938509 0.35756013
000250 62 26 51 3c ae 53 4d bf 4e 39 40 be e8 16 2e be
       0.012765499 -0.8020581 -0.1877186 -0.17000926
000260 9b 46 f3 3e 5d 14 df 3e a0 9d 73 3e df 07 0e be
       0.47514805 0.43570223 0.23790598 -0.1387019
000270 07 c6 7e 3d f9 4b 18 bf a7 38 e7 be 6e 6f 80 bf
       0.062200572 -0.59490925 -0.4516041 -1.0034006
000280 71 2c 0d 3f c1 27 03 bf 40 06 02 3f c6 e4 18 bf
       0.5514594 -0.51232535 0.50790787 -0.5972408
000290 02 c8 c0 3e 28 d6 3b be 0c 88 bb 3f ff 05 29 40
       0.37652594 -0.18343413 1.4650893 2.640991
0002a0 2c c2 49 3e 58 8e b2 bd b7 84 d1 3f 10 cc e5 3f
       0.19702977 -0.08718556 1.6368626 1.79529
0002b0 d8 48 39 3e 80 91 16 bf 3c c7 f5 3d 04 16 04 bf
       0.18094194 -0.58815765 0.120008916 -0.51596093
0002c0 59 77 84 3e 76 39 66 3e 15 46 80 3d 6a 7d 19 3e
       0.25872305 0.22482857 0.06263367 0.14989248
0002d0 33 7c 6e bf d5 92 1a c0 02 6c 83 3e b3 5c c1 bd
       -0.9315826 -2.415212 0.2566834 -0.09441509
0002e0 c2 0e c6 3e 99 3d 99 be 91 e3 a7 3e b9 e6 75 3d
       0.38683134 -0.29929808 0.32790807 0.060034487
0002f0 61 38 57 3f d1 9c 4a 40 94 a7 8d 3f e5 f4 29 40
       0.840704 3.1658213 1.1066766 2.6555722
000300 d1 8f bc 3c 18 1b 93 be ea e9 78 3e 37 90 1a bf
       0.023017796 -0.28731608 0.24307981 -0.60376304
000310 5b 01 af be 02 c8 81 be cb aa 38 bf 88 d1 1b bf
       -0.34180722 -0.25347906 -0.7213561 -0.60866594
000320 86 37 01 bf 72 42 9c 3e 42 05 36 3e 35 94 ec 3e
       -0.5047535 0.30519444 0.17775443 0.46206823
000330 15 22 f0 3e 73 d6 05 bf 3c 4d c8 be a6 f2 5a bf
       0.46901003 -0.5228035 -0.39121425 -0.855265
000340 3e c1 a4 be a2 db c8 3d b7 8e f0 be f0 8f aa be
       -0.32178682 0.09807517 -0.46983883 -0.3331294
000350 8b e9 d8 3c 79 14 21 bf 03 49 45 be 5e 32 af 3d
       0.02647855 -0.62921864 -0.19266133 0.08554529
000360 05 c7 12 3f 80 67 1a bf 52 ec 17 3f 0a 95 4b bf
       0.5733493 -0.6031418 0.5934497 -0.7952429
000370 43 86 f0 be 1a 2d f8 3d 46 75 0e 3e b5 e0 e7 3e
       -0.46977434 0.121179774 0.13911924 0.45288625
000380 a7 02 1f 3f 9a d8 19 bf 42 b4 c8 3f 53 1c 03 40
       0.6211342 -0.6009613 1.568001 2.0486038
000390 79 41 0e bf fc 76 d7 3e 43 4e 13 3f 13 4e b9 3d
       -0.55568653 0.42082965 0.5754129 0.090480946
0003a0 ef 09 0d be e7 8e 80 3e 1f c0 e4 3e d6 80 65 3e
       -0.1377332 0.25109026 0.44677827 0.22412428
0003b0 ea 25 af 3e 20 97 6c bf f4 e1 05 3f d7 90 65 bf
       0.34208614 -0.924181 0.522979 -0.89674133
0003c0 28 68 e9 3e bd f6 84 be b2 8b 21 bf fd 1d 4e bd
       0.45587277 -0.25969496 -0.63103783 -0.050321568
0003d0 e5 db 0f bf 78 62 51 bd 79 da a8 3e e7 54 dd 3e
       -0.5619491 -0.051119298 0.3297918 0.43228838
0003e0 f5 dc ec be d5 48 1b bf 25 0a b9 bc 21 17 47 3e
       -0.46262327 -0.6065801 -0.022587845 0.19442417
0003f0 01 f4 ea 3c ca b8 a2 be 4c 3b 76 3d 9c dc 14 bf
       0.028680803 -0.31781608 0.060115144 -0.58149123

net.0.bias f4 [128]
000000 fc 7d 78 3e 26 e7 0a 3f b7 97 2e be e7 2d be be
       0.24266809 0.54258955 -0.17050062 -0.37144396
000010 cb 1c b5 be f3 ae 27 3f 0c 74 a7 3e 47 e3 23 3f
       -0.3537353 0.65501326 0.32705724 0.6401867
000020 dc 39 23 bf 8a 70 5c 3f dc 14 22 3f 76 d2 21 3f
       -0.6376016 0.8610922 0.6331308 0.6321176
000030 1a 7a 2d bf 51 a3 27 3f 65 b6 0a be 0e 28 23 3f
       -0.6776444 0.65483576 -0.1354614 0.63732994
000040 5b ed e7 3e 7e 0f c5 bd f0 ca 1d 3e 75 73 bb be
       0.45298275 -0.096220955 0.15409446 -0.36611524
000050 f9 3f e9 be 0e 4f d8 3e 41 69 b7 bd 5e d5 b3 be
       -0.4555662 0.42247814 -0.089556225 -0.35123724
000060 cb c1 20 3f 86 95 30 3f 55 8a df 3d 9c 12 2d 3f
       0.62795705 0.68978155 0.109150566 0.6760652
000070 4c 67 00 3f 8d da 72 3e 7f e2 c3 3e e3 b3 b5 3e
       0.5015762 0.23716183 0.3825874 0.35488805
000080 a4 35 9a 3e e3 08 2f 3f 6c 1d bf be fd 91 4b 3f
       0.3011905 0.68372935 -0.37327135 0.79519635
000090 3b 3c 26 3f ef f9 8c be 68 39 27 3f b0 fa d3 bd
       0.64935654 -0.27534434 0.6532197 -0.10350549
0000a0 c3 ad 2e 3f ef d5 28 3f 68 4e 11 3f eb fa 5a 3f
       0.6823389 0.65951437 0.56760263 0.8553912
0000b0 a3 4d 24 3f 4f dc 22 bf 9d 64 37 3e 34 22 45 3e
       0.64180964 -0.63617414 0.17909475 0.19251329
0000c0 62 27 37 3f 99 1c 54 be d3 fa 1e 3f 9c 76 5f 3e
       0.7154447 -0.20714034 0.6210148 0.2182259
0000d0 24 85 72 3e 71 76 0d bf 8f 0c 7b be 99 6b 34 3e
       0.23683602 -0.5525885 -0.2451651 0.1761917
0000e0 ba 91 8f 3e a6 82 f8 3e 4f 31 d7 be 39 b6 d0 3e
       0.28040868 0.48537177 -0.42029807 0.40764025
0000f0 96 b1 17 be db d2 ff 3e 6c f8 a9 be 3f 7a 32 bf
       -0.14813837 0.49965557 -0.33197343 -0.6971778
000100 38 82 2a bf 1b 8f 14 3e e1 e1 16 3f e1 86 2a 3f
       -0.6660495 0.14507715 0.58938414 0.6661206
000110 f3 5c 72 be ce e1 35 3f 53 01 1f 3f 5c 72 a8 3e
       -0.2366827 0.71047676 0.62111396 0.3289975
000120 ce 61 7d 3e 2a 52 c2 be 13 ec ef 3e 55 22 24 bf
       0.24744341 -0.3795331 0.46859798 -0.64114887
000130 ba 3d a2 be 68 a1 16 bf f9 ec 21 bf e9 cc 88 3e
       -0.3168772 -0.58840036 -0.63252217 0.26718834
000140 c1 e0 b4 be af d0 f7 3e 3a 51 9c be c9 3a dd 3e
       -0.35327724 0.484014 -0.3053072 0.43208912
000150 1f aa fd be 39 9a d1 3e 39 d1 b0 bd 41 67 a3 3e
       -0.49543855 0.40937975 -0.08633656 0.31914714
000160 45 79 74 be 78 6a 3c be 42 74 c4 be 63 c2 e1 be
       -0.23874386 -0.1839999 -0.38369948 -0.44093618
000170 03 44 c2 be 0a 45 9d 3e 5c eb a1 3e 94 2b e5 3e
       -0.37942514 0.30716735 0.31624877 0.4475981
000180 91 61 0e 3f 9f 5f 8c 3e 0c 02 3f 3e c2 2d 2f 3f
       0.55617625 0.27416703 0.18653125 0.68429196
000190 04 ea 21 bf 9e 37 32 3e 9f f3 15 bf 93 43 81 3e
       -0.63247705 0.17404029 -0.5857486 0.25246868
0001a0 e2 95 d0 be 2a 1e d3 ba 06 18 ec 3e 4a bd b6 be
       -0.40739352 -0.0016107012 0.46112078 -0.3569129
0001b0 dd 5f 0b 3f fc a8 0f 3f 5c ec c8 3e 94 3b a1 be
       0.5444315 0.56117225 0.39242828 -0.31490767
0001c0 07 70 2d 3f 81 08 d1 3e 8f a1 2c bf f2 d6 0d 3f
       0.67749065 0.408268 -0.6743402 0.55406106
0001d0 26 3c cc be 8b 40 dc 3e 32 4d 34 3f 27 6d fe 3e
       -0.3988964 0.43017992 0.7043029 0.49692652
0001e0 82 86 1c bf a8 dc 1d 3f 10 3f 18 3e 73 4a a4 3e
       -0.6114274 0.6166482 0.14867806 0.3208805
0001f0 c5 33 53 3f fe 2c e9 be 84 60 7b 3e 5b e8 06 be
       0.8250087 -0.4554214 0.24548537 -0.13174574

net.2.weight f4 [128, 128]
000000 df bf 8f 3b b4 eb 8c bb af ea 24 bd 53 d0 58 bd
       0.0043868865 -0.004300559 -0.040262874 -0.05293305
000010 30 f4 d4 3c b7 fe 00 bd d4 0b 3c bc 0c 7b 1e 3c
       0.025995344 -0.031492915 -0.011477429 0.009672891
000020 d2 90 18 3c d2 1d 76 bc 4e 26 86 bd 3e aa 80 bd
       0.009311872 -0.015021758 -0.06550275 -0.06282471
000030 c6 ed d1 3c c5 d0 be bc b9 78 f7 bc 96 16 1b 3c
       0.025626075 -0.023292908 -0.030208932 0.009465834
000040 5f eb d8 bc 97 1a 36 bd 18 30 09 bd 62 95 40 3d
       -0.026479421 -0.04445895 -0.03349313 0.047017463
000050 77 62 90 bd b4 99 98 bd d6 dd 96 bd 95 07 9e bd
       -0.07050031 -0.074511915 -0.073665306 -0.0771629
000060 c4 08 a1 bd c1 59 03 3b 76 c3 7a 3d 36 cf 03 3d
       -0.07863 0.0020042511 0.061221562 0.032180034
000070 68 2a 41 3c 56 3d 4b 3d cd 67 6c 3d 4e 6e 97 3d
       0.011789896 0.04961904 0.05771618 0.07394086
000080 f9 e6 13 3d c0 0b a9 bd aa c9 32 bd 63 4b 6f bd
       0.036108945 -0.08254194 -0.043649353 -0.058421504
000090 60 6a 26 bd ba b6 66 bc 63 85 82 bd b3 0f a3 bd
       -0.04062879 -0.014081651 -0.06373098 -0.07961979
0000a0 08 ed a5 3d 0b e8 3d 3d c8 01 52 bd 34 df 4a bd
       0.08101851 0.04636387 -0.05127123 -0.04952927
0000b0 64 a5 77 bd 35 a2 0a bd 9d c0 4b 3c 86 de 38 3c
       -0.060460463 -0.0338461 0.012436059 0.0112835225
0000c0 26 d1 39 bc 09 43 c7 bc 57 9e 67 3d cb b9 8e 3d
       -0.011341369 -0.024323957 0.05654749 0.06969031
0000d0 0f 92 09 bd be 9b 30 3c 82 4a be bc 27 3f 86 3d
       -0.033586558 0.010779319 -0.023228887 0.06555014
0000e0 5c 5d 91 bd 0f f5 3d 3d fc 9f 63 3d f8 3f be 3c
       -0.07097885 0.046376284 0.055572495 0.023223862
0000f0 79 56 27 bd 3a f9 d8 3c 57 87 60 bc 49 34 21 bd
       -0.04085395 0.026486028 -0.0137041425 -0.039356504
000100 82 c1 1f 3d b5 9a 51 3d 77 9d 69 3d c1 9f b2 3c
       0.039002903 0.05117293 0.057034936 0.021804692
000110 3c 57 e4 bc e0 bd f5 3c 9a 1e 99 3d f9 39 69 3d
       -0.027873628 0.029997766 0.0747654 0.056940053
000120 84 4d 8b ba c0 8c 80 3b d2 a2 0d 3d 6e 3f 91 3d
       -0.001062796 0.0039230287 0.034579106 0.070921764
000130 e9 72 b8 bb cb ee 35 bd 73 84 42 3d 22 a7 8d 3d
       -0.0056289327 -0.044417184 0.047489595 0.06916644
000140 70 79 e9 bb ca 8d 9d 3c 60 7b 3c bd 55 1f 0f bd
       -0.007125072 0.01923265 -0.046016097 -0.03494199
000150 33 93 6e 3c c1 80 89 bd 7d bd 27 bd 02 4c 8e 3d
       0.014561462 -0.06714011 -0.040952194 0.06948091
000160 45 14 fb bc 92 01 39 bc 86 2f 19 bc a2 03 c4 bc
       -0.030649314 -0.011291878 -0.009349709 -0.023927514
000170 1f df 98 3d b9 8c 16 3c 5c ce cb bc e1 f8 0d 3d
       0.07464432 0.009188824 -0.024878673 0.034661178
000180 ed 63 67 3b 0b 3c 43 3d fb ca f5 bc 00 c7 5a bd
       0.0035307363 0.047664683 -0.030004015 -0.053412437
000190 7f ed 1c 3d 41 ac 4b bd 77 d6 96 bd 01 30 48 bd
       0.03831243 -0.04972482 -0.07365125 -0.048873905
0001a0 46 53 13 bd c0 74 61 bd 2e cc 94 bd 97 e7 0d bd
       -0.035968088 -0.055042982 -0.07265507 -0.03464469
0001b0 97 e2 40 bd 09 62 7a bc ae dd 78 bd fa 87 a6 3d
       -0.047091093 -0.015282162 -0.060758285 0.08131404
0001c0 47 e8 96 bd 8f 42 93 bd 2a 8c 17 3d c3 d4 89 3c
       -0.07368522 -0.071904294 0.036998905 0.016825086
0001d0 63 94 87 bd 00 c2 89 3c 43 02 2b 3c 49 17 ba 3c
       -0.066200994 0.01681614 0.010437551 0.022716181
0001e0 36 b9 9b bd 89 55 6e 3d d0 8e 48 3d 40 76 b4 bd
       -0.076036856 0.05818704 0.04896432 -0.08811617
0001f0 1a 9a 27 3d 1e 78 6a 3d 2d 6e bd 3c 7a c8 b3 bd
       0.040918447 0.05724346 0.023123825 -0.08778472
000200 31 2a 98 3d 66 a8 6c 3d 3f 34 d1 bc 65 d2 6a bd
       0.07429922 0.057777785 -0.025537608 -0.057329554
000210 29 98 89 bd a8 ef 79 bd 47 03 82 bd 92 ea 18 3d
       -0.06718475 -0.06101957 -0.06348281 0.03733308
000220 8b 83 87 bb f0 8a e3 3c 42 7d 04 bd 7b f3 bf bd
       -0.004135554 0.027776212 -0.032346018 -0.09372612
000230 73 df 1b 39 bd 94 81 3c 0c 62 26 bd 95 0a 00 3c
       0.00014865193 0.015817994 -0.04062085 0.007815023
000240 87 d5 00 bc a3 23 a1 3d d7 19 9d 3b 96 0e a6 3d
       -0.007863409 0.07868125 0.00479434 0.08108251
000250 47 69 36 bd e2 0a 8b 3d 39 c0 b9 3a 8d f9 94 3d
       -0.044533994 0.06789185 0.0014171667 0.072741605
000260 e5 74 8b 3c af d1 a3 3d 81 77 c0 bd d0 70 fc bc
       0.017023513 0.07998978 -0.093977936 -0.030815512
000270 5a 3d 1a bd 30 bf 85 bd fa e4 96 bb 20 d7 84 bd
       -0.037656166 -0.06530607 -0.004604933 -0.06486344
000280 64 eb a2 3d ca a0 99 3c 02 2f 1a 3c 95 48 96 3d
       0.079550534 0.018753428 0.009410622 0.07338063
000290 aa f8 b5 bd ee 3a e4 bc d0 94 45 bd 3d 5d 76 3c
       -0.088853195 -0.027860131 -0.04823762 0.015036878
0002a0 0a 00 62 bc ae a7 8c bc 1b de cc bb 9e f8 a3 bc
       -0.013793955 -0.0171698 -0.006252063 -0.02001601
0002b0 d6 b2 d3 3c 63 05 21 bd ca 74 de 3c 88 0d 44 bd
       0.025842112 -0.039311778 0.027155299 -0.047864467
0002c0 28 c5 73 3d 48 36 a6 bd 93 97 8b bd 6a c5 03 bc
       0.059514195 -0.08115822 -0.0681602 -0.008042673
0002d0 5d d3 ba bd 40 54 38 3d 17 b5 9e 3d 0e 2b 3a bd
       -0.091223456 0.045002222 0.07749384 -0.045451216
0002e0 c4 61 69 3d da 66 89 bd 2e 5e ad bd 25 cc 65 bd
       0.056978002 -0.067090705 -0.08465229 -0.05610289
0002f0 54 b9 4c 3d 13 c1 25 bc 7a 1d b0 3d 69 11 3c bd
       0.04998143 -0.010116833 0.08599372 -0.04591504
000300 5e 21 13 3c 73 48 6a 3d a3 03 8d bd c8 08 25 3d
       0.008980123 0.057198 -0.06885459 0.040291578
000310 a1 12 35 bd 0c 42 ba bd a8 1e 8e 3d 68 78 8e 3d
       -0.04420722 -0.09094629 0.06939441 0.069565594
000320 9b 0c 6c bd e8 85 aa bd ab 58 a6 bd 11 bf 0e bd
       -0.05762921 -0.08326322 -0.08122381 -0.034850184
000330 3a 1f 95 3d 1a 2b 5d 3d 65 65 80 3c dc c6 a0 bc
       0.072813466 0.053996183 0.015673349 -0.019626074
000340 95 52 73 bc 89 81 ab bd 19 ef ff bb c6 d2 d0 bc
       -0.014851232 -0.08374316 -0.007810485 -0.02549113
000350 4f eb 14 3c 2b e4 0c bd 8b 9f af 3d 23 9b 45 bd
       0.009089305 -0.034397285 0.08575352 -0.048243653
000360 d3 94 b3 bd 38 ad 07 bd 54 5d 8d bd 0a bd 61 3d
       -0.0876862 -0.03312418 -0.069025666 0.055111922
000370 9b aa ae bd ef 5b a3 bd f4 fd bf bc 7f 25 cf 3c
       -0.08528634 -0.07976519 -0.023436524 0.025286434
000380 70 04 14 bc ac 81 e4 3c 58 f6 82 bd 0f 53 08 3d
       -0.009034261 0.027893864 -0.063946426 0.033282336
000390 3f 6c cb bc ff f8 2d 3d 51 1f ef 3c 3f ac 3a bd
       -0.02483189 0.04247379 0.029189738 -0.045574423
0003a0 7e 17 0a bc 16 67 e0 3c 41 68 b9 bd b8 dc 43 bd
       -0.008428453 0.027392905 -0.09053088 -0.047817916
0003b0 16 2c 6f 3d a3 92 85 bd 91 7c 83 3c 19 57 a6 3d
       0.058391653 -0.06522109 0.016050609 0.08122081
0003c0 2b 0f 60 bd 3a 15 6f bd cd 4f 89 bd 78 2a f7 bc
       -0.054701965 -0.058369853 -0.06704674 -0.030171618
0003d0 d5 31 34 3c 57 cf 43 bd 53 c2 af 3c 56 36 a1 bd
       0.010998209 -0.047805157 0.021454966 -0.07871692
0003e0 18 ce 45 bd be 54 bd bd 38 e1 da bc 29 5c 1d bd
       -0.04829225 -0.09244679 -0.02671872 -0.03841797
0003f0 4f 4e 38 3d 29 c9 c4 3c 7c 32 45 bd be 8d f6 3c
       0.044996556 0.024021702 -0.04814385 0.030096885

net.2.bias f4 [128]
000000 e3 bb 10 bd 70 d2 fb bb 84 01 f9 bc b6 7a 92 3d
       -0.035335433 -0.007684998 -0.03039623 0.071523115
000010 48 20 95 bd 65 53 b1 bc 1a e3 03 3d 5f e2 7e 3e
       -0.07281548 -0.02164621 0.032199003 0.24891041
000020 a0 0c 59 3e b1 36 13 bd 4f 7b 55 bc 32 5f 28 3c
       0.21196222 -0.03594083 -0.013029887 0.010276603
000030 77 55 5c 3d 06 e5 e5 bc 2a d3 0b 3e 5a a4 1d bc
       0.053792443 -0.028063308 0.13654771 -0.009621704
000040 36 b2 1e bc b4 46 67 3e ab ea 88 bb e4 14 1b 3e
       -0.0096860435 0.22585565 -0.004178365 0.15144688
000050 ef 9e 26 bc 09 3c 87 bd bf c2 1d bd bb 8c 17 3e
       -0.010169729 -0.06603248 -0.038515802 0.14799778
000060 49 ff 07 3c 6f 84 9f bd 6b 32 7a bd dd 92 b6 3a
       0.008300611 -0.077889316 -0.06108324 0.0013929267
000070 f1 1b 08 bd bc 0b 15 bd 95 5c 25 3e 9b 31 10 3d
       -0.033229772 -0.036388144 0.16148598 0.035203557
000080 1a b0 81 3e 7c d1 2e 3d 69 20 b4 3d 87 2d 20 3e
       0.25329667 0.04268025 0.08795244 0.15642367
000090 b6 91 73 3e ce b4 4f bd f4 4d 4b 3e f5 34 3b 3d
       0.23786053 -0.05070954 0.19853956 0.0457048
0000a0 46 6e 00 bd e0 a6 35 bd eb 4f c8 3d 1a b5 88 3b
       -0.031355165 -0.044348598 0.09780868 0.0041719796
0000b0 2d 02 3b bd 5b 93 29 3d d0 d0 32 bd c9 45 4f 3e
       -0.04565637 0.041400295 -0.04365617 0.20241465
0000c0 f9 27 70 bd df ab 84 3e 08 c8 89 3d 81 5f b2 3b
       -0.05863187 0.25912377 0.06727606 0.005443514
0000d0 82 55 9b bd 8d a9 f8 bb f0 63 c3 3c 3e 62 0b 3e
       -0.07584669 -0.0075885714 0.023851365 0.13611695
0000e0 0d e0 79 3e ae 4f 27 3d 4a 16 42 3e e2 fb 3a 3e
       0.24401875 0.040847473 0.18953815 0.18260148
0000f0 1d ec d1 bd 4e 0e 83 bd a2 d1 68 bd b4 ea fb 3d
       -0.10250113 -0.06399213 -0.056840546 0.123006254
000100 cd bb 28 3b 70 51 80 3e 19 ff a1 bd c1 7f ae bd
       0.0025746704 0.25062132 -0.07909984 -0.08520461
000110 aa 94 07 bd a2 52 78 3e 14 c9 61 bd 22 35 5d 3e
       -0.03310076 0.24250272 -0.055123404 0.216023
000120 85 14 55 bd 4c 3d df 3d 87 3e 89 bd 8d 27 8a 3e
       -0.052021522 0.10900363 -0.06701379 0.269833
000130 89 b8 f8 3c 9d 5b 83 3b 66 1c 89 bd 7f a9 fa 3d
       0.03036143 0.004008724 -0.0669487 0.1223936
000140 89 aa ab 3d 69 ea 30 3d 64 95 71 3e 10 a3 76 3e
       0.083821364 0.0431923 0.23592144 0.24085641
000150 66 e5 7f bd 35 05 8b 3d cf 10 a1 3a af 52 6c 3d
       -0.06247463 0.067881025 0.0012288335 0.05769604
000160 bf b0 e8 bc c2 b6 2e 3d 13 d9 8e 3d 9a 1a 7f 3e
       -0.028404592 0.04265476 0.06974997 0.24912491
000170 19 f4 1c 3d 2b 95 21 bd a9 8b 89 3d 77 b7 c7 bc
       0.038318727 -0.0394489 0.06716091 -0.024379475
000180 73 7b 88 bd d4 15 9b bd 9e 20 c8 3d 0a d6 e4 3d
       -0.06664171 -0.07572523 0.09771846 0.11173637
000190 49 81 0e 3d 27 0c a0 bc 86 d6 aa bd ca 89 45 bd
       0.034791265 -0.019537045 -0.08341698 -0.04822711
0001a0 68 92 7a 3d 7c c0 d6 bc f6 b1 8c bc 3c 2f 37 3d
       0.06117478 -0.02621483 -0.017174702 0.04472278
0001b0 59 21 cf 3d c7 cd 74 bd ac 84 91 3d ba e5 80 3e
       0.101137824 -0.059766557 0.07105383 0.25175267
0001c0 bf 88 97 3c 2d ec 9b 3a 56 0a 44 3d 0b 03 e9 3d
       0.018497823 0.0011895947 0.04786142 0.113775335
0001d0 89 05 e6 bd c7 df 70 3e 04 12 10 bd 4c a6 3a 3c
       -0.112315245 0.23522864 -0.03517343 0.011392187
0001e0 0f 78 4e bb dc 12 01 bd 07 8a ab 3c b2 2a 0f 3c
       -0.0031504666 -0.031512126 0.02093984 0.008738207
0001f0 32 2c 14 bc 75 43 f5 3d f0 17 8e bc 7c 59 bc 3d
       -0.00904374 0.11975757 -0.017345399 0.09196755

net.4.weight f4 [3, 128]
000000 42 9a 5d bd b9 90 5c 3d f5 9e a1 3d 00 f1 49 be
       -0.05410219 0.053848956 0.07891647 -0.1972084
000010 40 58 82 3d cd 7f 1d 3d 8c 0b 8d 3c 7e 22 84 be
       0.063644886 0.03845196 0.01721742 -0.25807565
000020 27 d9 51 be 51 d7 6e be 98 bb 0d 3c 78 ad 25 3d
       -0.20492993 -0.23324324 0.008650683 0.040448636
000030 a0 0c c9 bc fa 4d ae 3c 64 d6 6a be da bd 90 bd
       -0.024542153 0.021277416 -0.22933346 -0.07067461
000040 d7 ca 06 bd 95 ff 73 be 1f b1 91 3d fe 55 83 be
       -0.032908287 -0.23827966 0.07113861 -0.25651544
000050 df c1 13 bd d4 14 24 3c 9c 4b 90 bc f3 34 2d be
       -0.03607356 0.010014731 -0.017614178 -0.1691473
000060 2d 36 1d 3d b2 a5 95 bc 6d 02 a5 bc c4 44 b4 bd
       0.038381744 -0.018267486 -0.020142758 -0.088021785
000070 43 69 a1 3c 56 7b 54 bc 5c f7 96 be 1d bb c0 ba
       0.019703513 -0.012968859 -0.29485595 -0.0014704202
000080 b6 63 80 be 82 5e 89 bd 57 70 c2 bc 5b dc 88 be
       -0.25076073 -0.06707479 -0.023735208 -0.26730618
000090 d3 5e 87 be a1 e7 3e 3d e3 6c 35 be 7d fb d1 3c
       -0.26439533 0.046607617 -0.17717318 0.025632614
0000a0 64 a3 c9 3c d9 e3 36 3d 84 39 93 be c2 82 82 3d
       0.024614044 0.044650886 -0.28754818 0.06372596
0000b0 4b b3 79 bd 2b 8e 27 bb 56 36 1e bd 25 26 9f be
       -0.060962003 -0.0025566916 -0.038626038 -0.3108379
0000c0 e7 9c 6a 3d df a3 96 be 9f 78 6d 3d 32 14 6f 3d
       0.05727854 -0.294219 0.05797636 0.05836887
0000d0 52 7a 99 bd ab 31 b4 bd d6 b3 9a bc 1f 32 7f be
       -0.07494034 -0.08798536 -0.01888458 -0.24921463
0000e0 7a 4d 81 be 0e e6 92 3d 08 64 99 be 51 30 17 be
       -0.25254422 0.07172786 -0.2995913 -0.14764525
0000f0 2a 7a 0f 3d e1 8e 74 3d c2 e8 ae 3d 30 d0 63 be
       0.035028614 0.059706572 0.08540489 -0.22247386
000100 4b fb 6d bb e2 6b 87 be 6b 9f 87 bd 74 73 36 3d
       -0.0036313112 -0.26449496 -0.066222034 0.0445437
000110 1c 7b 8d 3d a2 30 84 be 4f d0 93 3d 16 72 9b be
       0.06908247 -0.25818354 0.07217466 -0.30360478
000120 a0 03 8f bd c2 07 4b be 6b 25 94 bc cd 28 96 be
       -0.06983113 -0.19827178 -0.018084249 -0.29328004
000130 cc 6b 98 bd d1 58 88 bd 3e a4 b5 bc 70 40 9a be
       -0.074424356 -0.066575654 -0.022173043 -0.30127287
000140 a4 b2 98 bd 9b ed 87 bc 0f 87 7d be 7d ec 90 be
       -0.07455948 -0.016592791 -0.24758552 -0.28305426
000150 1c e4 3b 3d 46 b8 1f bb ef e8 a6 bd 10 7d bd 3c
       0.04587184 -0.002437131 -0.08149897 0.023130924
000160 db 94 b3 3c 73 e4 9d 3d 91 9a 2b be 88 e4 97 be
       0.021921566 0.07709589 -0.16758181 -0.29666543
000170 58 a6 86 bd 7f 94 8b 3c 3b 48 2d be d3 3d 23 3d
       -0.06574696 0.017038582 -0.16922085 0.039853882
000180 40 39 30 bc 2c 80 af bd 01 16 9e be a2 90 67 be
       -0.010755837 -0.08569369 -0.30876163 -0.22613767
000190 c1 4b 9c bd f3 d6 0d bc 64 93 3a 3c 7f f1 9d bd
       -0.076316364 -0.008657205 0.01138768 -0.07712077
0001a0 93 77 2f bd 5e b4 9c bd f5 f3 29 bc 38 49 a2 3c
       -0.042838644 -0.0765159 -0.010373105 0.019810304
0001b0 bc 79 90 be 9b 97 cf 3c 30 77 a0 bc 12 54 83 be
       -0.28217876 0.025340846 -0.019588083 -0.25650078
0001c0 17 f5 8f 3d 94 4e 2a 3d e6 8d 16 bd d8 e7 56 be
       0.07029169 0.041578844 -0.03675642 -0.20986879
0001d0 31 5f 8a 3d dc 54 98 be b5 ca 61 bc 2d ab d0 3b
       0.067564376 -0.29752243 -0.013781239 0.006368062
0001e0 ae 44 a6 bd a0 02 5e 3d 6a df 80 3c 2c b3 fb 3c
       -0.08118568 0.054201722 0.015731532 0.030725084
0001f0 7e 7d 53 3d f7 7d 53 be ad e6 32 bd 22 04 3f be
       0.05163335 -0.2065352 -0.04367702 -0.1865392
000200 67 ad 4b bd d5 44 a0 3d 29 e8 fd 3c cd 60 70 be
       -0.049725916 0.07825629 0.030994492 -0.23474427
000210 37 e5 73 3d 0a 8e 5f 3d ce 6c 4a 3c d2 b7 79 be
       0.05954477 0.05457882 0.012355043 -0.24386528
000220 46 20 56 be cc 41 78 3d 57 67 78 bd 3c 95 82 bd
       -0.20910749 0.060609624 -0.060645428 -0.063761204
000230 62 4a b0 3c 09 cb 91 3d bb b3 9c be 62 7d b1 3d
       0.021519843 0.07118804 -0.30605873 0.08666493
000240 79 e4 a3 3d 2e 69 89 be 0c 33 5d 3d 47 2f 82 be
       0.08002562 -0.26838058 0.05400376 -0.25426695
000250 62 67 26 bc f8 d6 2f bd dd ee 9a 3d 2c 29 76 be
       -0.010156484 -0.04292962 0.07565091 -0.24039143
000260 e3 cc 82 bc 06 c7 c7 bc 4a 46 8c bd c5 a1 07 3a
       -0.015966838 -0.024386894 -0.06849344 0.0005173947
000270 e2 84 8c 3d 61 aa a6 bd bc fc 97 be a1 7c 7b 3d
       0.06861283 -0.08137966 -0.2968501 0.061398152
000280 2a 97 78 be 72 7f 8d bc 4b 04 a4 bd 5a 18 91 be
       -0.24276415 -0.017272685 -0.08008631 -0.2833889
000290 b3 ac 7b be 6f af a2 3d 92 44 6f be f5 c9 5d 3b
       -0.24577598 0.079436176 -0.23366001 0.00338423
0002a0 3f 66 2d bc 6a 18 98 bd 59 90 39 be 40 5f d0 bb
       -0.010583459 -0.074265316 -0.1812147 -0.006359011
0002b0 9d 93 4b bd 2b b5 62 3d e5 43 4c 3d 47 d9 6b be
       -0.049701322 0.055348556 0.049869437 -0.23032103
0002c0 04 49 a5 bc 79 88 7d be 7f 11 66 3c 05 32 39 bd
       -0.020176418 -0.24759091 0.014042257 -0.045213718
0002d0 64 e2 ab 3d 53 21 13 3c 16 d6 ab bc d3 fd 99 be
       0.0839279 0.008980113 -0.020976108 -0.30076465
0002e0 90 7e 88 be 8b 6a bd bc 48 9b 17 be c3 03 8e be
       -0.2665906 -0.023122093 -0.14805329 -0.27737245
0002f0 a7 36 8f 3d 1a aa f4 3c 60 97 1c bd b1 cc 49 be
       0.06992846 0.029866267 -0.0382303 -0.1970699
000300 2e fc a3 b9 6f 5a 81 be 5d 29 42 bb 08 79 c8 3c
       -0.0003127767 -0.25264308 -0.0029626705 0.024471775
000310 40 14 48 bd 15 74 9c be 2a 54 00 bd e4 23 42 be
       -0.048847437 -0.30557314 -0.031330265 -0.18959004
000320 fb 21 96 3d ea 8a 56 be 1f af db 3c 89 4d 27 be
       0.073307 -0.20951429 0.026816903 -0.16338171
000330 62 51 a5 3d 4a a5 1b bd e0 a8 8a 3d 39 e8 4d be
       0.08072163 -0.03799943 0.067704916 -0.20108117
000340 ef 80 d3 3a ea c1 ed bc 54 75 9a be a0 15 94 be
       0.0016136448 -0.02902313 -0.3016764 -0.2892275
000350 69 f7 11 3c 41 c9 38 3d 12 e3 a0 bd 5e a4 03 bd
       0.008909085 0.045113806 -0.0785581 -0.032139175
000360 e8 62 8f 3c d8 1a 10 3d 92 58 91 be d5 a0 9b be
       0.017503217 0.03518185 -0.28387886 -0.30396143
000370 49 69 d8 3c 1f 95 57 bc 68 46 74 be 07 0a 52 bc
       0.026417391 -0.013158112 -0.23854983 -0.0128197735
000380 d0 b5 47 3c f6 58 f4 bb f3 75 94 be ed 44 99 be
       0.012189344 -0.007456894 -0.28996238 -0.299354
000390 11 5f 38 3d 3f 0f 90 bd 0a c1 89 3d c2 f8 20 bd
       0.045012537 -0.07034158 0.067262724 -0.039299734
0003a0 da a5 59 3d d1 ef ba 3c f4 00 89 bc cf ec b2 3d
       0.053136684 0.022819431 -0.016724087 0.08736574
0003b0 86 fb 91 be ec 06 c5 3c ff 62 98 3c ee cb 6f be
       -0.2851221 0.024051152 0.018601893 -0.23417637
0003c0 19 11 b5 3a 8c dd 93 bd 5a 2f 35 3d 05 a9 86 be
       0.00138143 -0.07219991 0.04423461 -0.26300827
0003d0 5d 88 1b 3d ab 28 3c be de 53 59 ba 53 29 82 bc
       0.037971843 -0.18374889 -0.000829039 -0.015888846
0003e0 0f ea 82 3c 06 e6 b3 bc 37 44 4e bc 73 40 46 3c
       0.015980748 -0.02196027 -0.012589506 0.012100327
0003f0 fb 1d 50 3b be 45 99 be a7 5c 78 3d 61 89 88 be
       0.003175615 -0.29936022 0.060635235 -0.26667312

net.4.bias f4 [3]
000000 dc ba 5f be 28 ef de bd 59 c6 21 be
       -0.21848625 -0.10885459 -0.1579832

net.0.weight f4 [128, 2]
000000 e1 ce b1 be 4f 19 c5 3c 1d 35 6d be 9d 5b 60 bf
       -0.3472815 0.02405992 -0.23164792 -0.8763979
000010 65 25 c1 bd 8d a0 4e bd f4 bf 96 3e d5 33 34 3f
       -0.094309606 -0.050446082 0.29443324 0.7039159
000020 39 42 68 be 09 83 e1 3e dc 2b 3d bf b8 7f 9a 3e
       -0.22681512 0.44045284 -0.7389505 0.30175567
000030 3e a4 97 be 99 70 93 3d 43 61 1b be c3 34 7e bc
       -0.29617494 0.07199211 -0.15173821 -0.015515509
000040 cd 1a 03 bf 89 62 10 bf a2 0f a3 3e dd bf 34 bf
       -0.5121277 -0.5640035 0.31847864 -0.7060526
000050 90 ed 56 bc 68 94 28 bf c7 15 80 3e 7a 57 c7 be
       -0.013118163 -0.6585145 0.25016615 -0.38933927
000060 ce cd c7 3e 16 3e d6 3e 2d 28 19 3f c7 49 84 be
       0.39024204 0.41844243 0.5982693 -0.25837538
000070 30 fb e1 3d de 46 3d 3e 4a df b9 bd 50 2a be 3d
       0.11034238 0.18484065 -0.09075792 0.09285414
000080 b8 ba 89 bc fa ce 97 3e 51 10 17 bf bc 92 61 bf
       -0.016812667 0.29650098 -0.5900927 -0.88114524
000090 a1 ef ec be fa 05 c6 3d a3 ca fd 3e 09 97 e3 3e
       -0.46276572 0.09669109 0.49568662 0.44451168
0000a0 2f 50 0c 3f 14 c0 c4 3e be 17 e3 3e 7a f3 83 be
       0.5480985 0.38427794 0.4435405 -0.25771695
0000b0 d2 59 a8 3d a6 d2 77 3d 6e 2e 2c 3f 8a 4f a8 3e
       0.08220257 0.060503624 0.67258346 0.32873183
0000c0 27 0f 8c 3e 4c 62 5f bf 21 e0 0c bf ce 4a 4c bf
       0.2735531 -0.87259364 -0.55029494 -0.7980164
0000d0 1f de 43 be 69 ea 9c 3e c8 d6 1c 3f aa ad 05 bf
       -0.19127701 0.3064759 0.6126523 -0.52218115
0000e0 53 cc 01 bf fc 5a 2e bf c4 54 dc be c0 d5 69 bf
       -0.507024 -0.6810758 -0.4303342 -0.9134178
0000f0 98 e9 97 3f 40 c1 31 40 54 82 27 bf 0a ba 03 bf
       1.1868162 2.77742 -0.6543324 -0.5145575
000100 59 b9 19 bf 57 7e 08 bc c2 46 af be 75 2c f3 3d
       -0.60048443 -0.008330903 -0.3423367 0.11873714
000110 7b 07 64 bf c5 1e f9 bf 71 9d d4 3d ec 64 84 be
       -0.89073914 -1.9462515 0.10381592 -0.25858247
000120 5f d1 2c be 14 f5 37 bf 34 1d 44 be 2e af 74 bc
       -0.16876744 -0.71858335 -0.19151765 -0.014934344
000130 56 24 c6 be a1 e0 c4 3d 52 93 b9 3d 8d f5 fb 3e
       -0.38699597 0.09613157 0.09061302 0.49210778
000140 04 ce 09 3e 9a cc 3c be 74 77 a1 3e 85 6d ea bd
       0.13457495 -0.18437424 0.31536448 -0.114466704
000150 99 a4 86 be 2d 50 b3 be 70 a3 1e 3f 7f a1 dc 3c
       -0.26297453 -0.35022107 0.61968136 0.026932476
000160 e6 e6 a2 be 32 1c bc be 63 64 91 be b7 38 aa be
       -0.31816787 -0.3674026 -0.283969 -0.33246395
000170 8e e2 a2 be 08 34 86 be 88 f0 97 be 15 bf 7b bf
       -0.31813473 -0.26211572 -0.29675698 -0.98338443
000180 2a 95 62 bc 07 2f 04 bd 35 e7 24 be 97 f5 1e 3e
       -0.013829509 -0.03227141 -0.16103823 0.15523373
000190 bf f0 2c bd f2 ea 76 be 3a f9 48 3e 59 1e 90 3f
       -0.04222178 -0.24113062 0.19626322 1.1259261
0001a0 44 e1 09 be bf 21 9a be de 29 ac be a8 9c 8d 3c
       -0.13464838 -0.3010387 -0.33625692 0.017286614
0001b0 90 2c 2e 3e 33 78 04 3f e3 f8 ea be ec f7 26 bf
       0.17009187 0.5174591 -0.4589301 -0.6522205
0001c0 a3 c0 d1 be 21 8d 29 bf 80 b3 57 3e 4a 3a 7f bf
       -0.40967283 -0.6623097 0.21064568 -0.9969832
0001d0 6d a9 d9 3c 98 42 fe 3c fa aa df 3c 48 fa 4e be
       0.026570046 0.031037614 0.027303208 -0.20212662
0001e0 7b 70 cd be cb e1 3f c0 e7 32 eb be 3e 89 5d bf
       -0.40124878 -2.9981563 -0.45937273 -0.8653754
0001f0 e5 6b 1f 3f 5d 25 11 3f 12 89 14 bf 86 71 31 3f
       0.6227401 0.56697637 -0.5802165 0.6931385
000200 2c 6f cc be 36 88 06 3f eb fe 98 be ee 21 c0 be
       -0.39928567 0.5255159 -0.29881987 -0.37525886
000210 d8 ab 98 3e f5 07 2a 3e 5c 3e 69 3e 64 63 bc 3d
       0.29818606 0.16604598 0.22777694 0.09198645
000220 cb 1a 3f be a4 67 00 3f c8 26 26 bf 87 f8 d3 be
       -0.18662564 0.50158143 -0.64902925 -0.4140055
000230 c1 10 0b bf e3 92 0a bf 74 d5 5a be 20 b0 85 bf
       -0.5432244 -0.5413038 -0.21370488 -1.0444374
000240 2a b6 98 3e 5a 40 79 bf c5 19 8e 3d 1f 12 b7 3e
       0.2982648 -0.9736382 0.06938509 0.35756013
000250 8e 9e 54 3c a7 c0 4d bf 4e 39 40 be e8 16 2e be
       0.0129772555 -0.8037209 -0.1877186 -0.17000926
000260 9b 46 f3 3e 5d 14 df 3e a0 9d 73 3e df 07 0e be
       0.47514805 0.43570223 0.23790598 -0.1387019
000270 07 c6 7e 3d f9 4b 18 bf 5b 1f e7 be ba 9f 80 bf
       0.062200572 -0.59490925 -0.4514111 -1.0048745
000280 71 2c 0d 3f c1 27 03 bf 8e 0a 02 3f 45 57 19 bf
       0.5514594 -0.51232535 0.50797355 -0.5989879
000290 02 c8 c0 3e 28 d6 3b be 17 4c bb 3f cb e2 28 40
       0.37652594 -0.18343413 1.4632596 2.6388423
0002a0 2c c2 49 3e 58 8e b2 bd 61 4f d1 3f 53 79 e5 3f
       0.19702977 -0.08718556 1.635235 1.792765
0002b0 d8 48 39 3e 80 91 16 bf 47 38 f6 3d 7d 80 04 bf
       0.18094194 -0.58815765 0.12022453 -0.5175856
0002c0 59 77 84 3e 76 39 66 3e 15 46 80 3d 6a 7d 19 3e
       0.25872305 0.22482857 0.06263367 0.14989248
0002d0 5a 71 6e bf 2a 59 1a c0 02 6c 83 3e b3 5c c1 bd
       -0.9314171 -2.4116921 0.2566834 -0.09441509
0002e0 c2 0e c6 3e 99 3d 99 be 78 ed a7 3e 8c b7 6e 3d
       0.38683134 -0.29929808 0.32798362 0.058280513
0002f0 87 d6 56 3f e4 7c 4a 40 19 76 8d 3f 36 d5 29 40
       0.8392109 3.1638727 1.1051666 2.6536384
000300 90 5e be 3c 03 f8 93 be 71 1b 79 3e e4 fb 1a bf
       0.02323845 -0.28900155 0.24326874 -0.60540605
000310 92 e7 ae be 95 84 82 be a2 9c 38 bf d9 3c 1c bf
       -0.3416105 -0.25491777 -0.72114 -0.61030346
000320 86 37 01 bf 72 42 9c 3e e1 26 36 3e 26 94 eb 3e
       -0.5047535 0.30519444 0.17788269 0.46011466
000330 15 22 f0 3e 73 d6 05 bf ab 32 c8 be d9 55 5b bf
       0.46901003 -0.5228035 -0.39101157 -0.8567787
000340 3e c1 a4 be a2 db c8 3d f8 b0 f0 be 1c 6b a9 be
       -0.32178682 0.09807517 -0.47010016 -0.3308953
000350 7c 9e da 3c 34 80 21 bf 03 49 45 be 5e 32 af 3d
       0.0266869 -0.6308625 -0.19266133 0.08554529
000360 c5 cb 12 3f 3f da 1a bf 0f f0 17 3f 50 06 4c bf
       0.5734218 -0.6048927 0.59350675 -0.7969713
000370 4b 6a f0 be 31 d8 f4 3d 46 75 0e 3e b5 e0 e7 3e
       -0.46956095 0.11955298 0.13911924 0.45288625
000380 7f 07 1f 3f c9 49 1a bf 6f 77 c8 3f 68 f2 02 40
       0.62120813 -0.6026884 1.5661448 2.0460453
000390 79 41 0e bf fc 76 d7 3e 34 53 13 3f 63 b9 b5 3d
       -0.55568653 0.42082965 0.5754883 0.0887325
0003a0 ef 09 0d be e7 8e 80 3e 77 ca e4 3e 32 ad 63 3e
       -0.1377332 0.25109026 0.44685718 0.22234038
0003b0 e7 42 af 3e 38 05 6d bf ba e5 05 3f 75 02 66 bf
       0.3423073 -0.9258609 0.5230366 -0.898475
0003c0 28 68 e9 3e bd f6 84 be 1e 7e 21 bf 7d e2 54 bd
       0.45587277 -0.25969496 -0.63083065 -0.05197381
0003d0 3d d2 0f bf b4 60 56 bd a8 e8 a8 3e e3 6b dc 3e
       -0.56180173 -0.052338317 0.32990003 0.4305106
0003e0 7c c0 ec be ec b4 1b bf 25 0a b9 bc 21 17 47 3e
       -0.46240604 -0.6082294 -0.022587845 0.19442417
0003f0 84 b3 ec 3c 10 90 a3 be 4c 3b 76 3d 9c dc 14 bf
       0.028894193 -0.31945848 0.060115144 -0.58149123

net.0.bias f4 [128]
000000 b0 2f 78 3e 67 d3 0a 3f b7 97 2e be e7 2d be be
       0.24236941 0.54228824 -0.17050062 -0.37144396
000010 cb 1c b5 be 1e 9b 27 3f 8d 4c a7 3e 24 cf 23 3f
       -0.3537353 0.65471065 0.3267559 0.63987947
000020 dc 39 23 bf 5a 5c 5c 3f 3d 01 22 3f 40 be 21 3f
       -0.6376016 0.8607842 0.6328314 0.63180923
000030 1a 7a 2d bf d4 93 27 3f 65 b6 0a be 1d 14 23 3f
       -0.6776444 0.6545994 -0.1354614 0.63702565
000040 e1 c4 e7 3e bc 4f c3 bd 07 89 1d 3e 75 73 bb be
       0.45267394 -0.095366925 0.15384303 -0.36611524
000050 f9 3f e9 be da 2f d8 3e 41 69 b7 bd 5e d5 b3 be
       -0.4555662 0.42224008 -0.089556225 -0.35123724
000060 e1 ad 20 3f ff 81 30 3f 00 ee de 3d b2 02 2d 3f
       0.6276532 0.6894836 0.10885239 0.6758224
000070 83 53 00 3f 64 90 72 3e 34 16 c4 3e 32 8d b5 3e
       0.5012743 0.23687893 0.3829819 0.35459286
000080 82 0f 9a 3e 75 f5 2e 3f a7 2b bf be dc 7d 4b 3f
       0.30089957 0.6834329 -0.37337992 0.7948892
000090 ef 28 26 3f ef f9 8c be 75 25 27 3f b0 fa d3 bd
       0.6490621 -0.27534434 0.6529153 -0.10350549
0000a0 6c 99 2e 3f cc c1 28 3f ff 3a 11 3f 77 e6 5a 3f
       0.68202853 0.6592071 0.56730646 0.8550791
0000b0 28 3a 24 3f 4f dc 22 bf 82 1b 37 3e e8 d7 44 3e
       0.6415124 -0.63617414 0.17881587 0.19222987
0000c0 60 13 37 3f 99 1c 54 be ec e6 1e 3f 4e 1e 5f 3e
       0.7151394 -0.20714034 0.6207111 0.21788904
0000d0 b4 38 72 3e 71 76 0d bf 8f 0c 7b be 76 2d 34 3e
       0.23654443 -0.5525885 -0.2451651 0.17595467
0000e0 d7 6b 8f 3e 2f 5b f8 3e 4f 31 d7 be bd 8f d0 3e
       0.28011963 0.48507068 -0.42029807 0.40734664
0000f0 91 80 17 be b7 ac ff 3e 6c f8 a9 be 3f 7a 32 bf
       -0.14795138 0.49936458 -0.33197343 -0.6971778
000100 38 82 2a bf fc 4c 14 3e 83 cd 16 3f b9 72 2a 3f
       -0.6660495 0.14482492 0.58907336 0.665813
000110 f3 5c 72 be 09 ce 35 3f ee ed 1e 3f c1 4b a8 3e
       -0.2366827 0.7101751 0.620818 0.32870296
000120 29 5f 7d 3e 2a 52 c2 be 57 c5 ef 3e 55 22 24 bf
       0.24743332 -0.3795331 0.46830246 -0.64114887
000130 ba 3d a2 be 68 a1 16 bf f9 ec 21 bf b5 a7 88 3e
       -0.3168772 -0.58840036 -0.63252217 0.2669045
000140 c1 e0 b4 be 45 b2 f7 3e 3a 51 9c be 09 63 dd 3e
       -0.35327724 0.48378196 -0.3053072 0.4323962
000150 1f aa fd be 96 8e d1 3e 39 d1 b0 bd eb 3f a3 3e
       -0.49543855 0.40929097 -0.08633656 0.31884703
000160 45 79 74 be 78 6a 3c be ed 80 c4 be 63 c2 e1 be
       -0.23874386 -0.1839999 -0.38379613 -0.44093618
000170 03 44 c2 be a2 25 9d 3e 6d 43 a2 3e 4e 8c e5 3e
       -0.37942514 0.30692774 0.31692067 0.44833606
000180 88 4d 0e 3f 5e 3a 8c 3e 8c b8 3e 3e 3a 1a 2f 3f
       0.55587053 0.2738828 0.18625087 0.68399394
000190 04 ea 21 bf 2f f1 31 3e 9f f3 15 bf 7d 1d 81 3e
       -0.63247705 0.1737716 -0.5857486 0.2521781
0001a0 e2 95 d0 be b5 d1 39 ba 13 f1 eb 3e 4a bd b6 be
       -0.40739352 -0.0007088439 0.46082363 -0.3569129
0001b0 7b 50 0b 3f 37 9a 0f 3f 32 c5 c8 3e 94 3b a1 be
       0.5441968 0.5609469 0.39212948 -0.31490767
0001c0 d2 60 2d 3f ad 0f d1 3e 8f a1 2c bf 49 c7 0d 3f
       0.6772586 0.40832272 -0.6743402 0.5538221
0001d0 26 3c cc be ea 20 dc 3e 2c 39 34 3f 9d 4f fe 3e
       -0.3988964 0.4299386 0.7039974 0.49670115
0001e0 82 86 1c bf 4d c9 1d 3f 05 08 18 3e 77 28 a4 3e
       -0.6114274 0.61635286 0.14846809 0.32062122
0001f0 dd 1f 53 3f fe 2c e9 be 44 13 7b 3e 5b e8 06 be
       0.82470495 -0.4554214 0.24519068 -0.13174574

net.2.weight f4 [128, 128]
000000 df bf 8f 3b b4 eb 8c bb af ea 24 bd 53 d0 58 bd
       0.0043868865 -0.004300559 -0.040262874 -0.05293305
000010 30 f4 d4 3c b7 fe 00 bd d4 0b 3c bc 0c 7b 1e 3c
       0.025995344 -0.031492915 -0.011477429 0.009672891
000020 d2 90 18 3c d2 1d 76 bc 4e 26 86 bd 3e aa 80 bd
       0.009311872 -0.015021758 -0.06550275 -0.06282471
000030 c6 ed d1 3c c5 d0 be bc b9 78 f7 bc 96 16 1b 3c
       0.025626075 -0.023292908 -0.030208932 0.009465834
000040 5f eb d8 bc 97 1a 36 bd 18 30 09 bd 62 95 40 3d
       -0.026479421 -0.04445895 -0.03349313 0.047017463
000050 77 62 90 bd b4 99 98 bd d6 dd 96 bd 95 07 9e bd
       -0.07050031 -0.074511915 -0.073665306 -0.0771629
000060 c4 08 a1 bd c1 59 03 3b 76 c3 7a 3d 36 cf 03 3d
       -0.07863 0.0020042511 0.061221562 0.032180034
000070 68 2a 41 3c 56 3d 4b 3d cd 67 6c 3d 4e 6e 97 3d
       0.011789896 0.04961904 0.05771618 0.07394086
000080 f9 e6 13 3d c0 0b a9 bd aa c9 32 bd 63 4b 6f bd
       0.036108945 -0.08254194 -0.043649353 -0.058421504
000090 60 6a 26 bd ba b6 66 bc 63 85 82 bd b3 0f a3 bd
       -0.04062879 -0.014081651 -0.06373098 -0.07961979
0000a0 08 ed a5 3d 0b e8 3d 3d c8 01 52 bd 34 df 4a bd
       0.08101851 0.04636387 -0.05127123 -0.04952927
0000b0 64 a5 77 bd 35 a2 0a bd 9d c0 4b 3c 86 de 38 3c
       -0.060460463 -0.0338461 0.012436059 0.0112835225
0000c0 26 d1 39 bc 09 43 c7 bc 57 9e 67 3d cb b9 8e 3d
       -0.011341369 -0.024323957 0.05654749 0.06969031
0000d0 0f 92 09 bd be 9b 30 3c 82 4a be bc 27 3f 86 3d
       -0.033586558 0.010779319 -0.023228887 0.06555014
0000e0 5c 5d 91 bd 0f f5 3d 3d fc 9f 63 3d f8 3f be 3c
       -0.07097885 0.046376284 0.055572495 0.023223862
0000f0 79 56 27 bd 3a f9 d8 3c 57 87 60 bc 49 34 21 bd
       -0.04085395 0.026486028 -0.0137041425 -0.039356504
000100 82 c1 1f 3d b5 9a 51 3d 77 9d 69 3d c1 9f b2 3c
       0.039002903 0.05117293 0.057034936 0.021804692
000110 3c 57 e4 bc e0 bd f5 3c 9a 1e 99 3d f9 39 69 3d
       -0.027873628 0.029997766 0.0747654 0.056940053
000120 84 4d 8b ba c0 8c 80 3b d2 a2 0d 3d 6e 3f 91 3d
       -0.001062796 0.0039230287 0.034579106 0.070921764
000130 e9 72 b8 bb cb ee 35 bd 73 84 42 3d 22 a7 8d 3d
       -0.0056289327 -0.044417184 0.047489595 0.06916644
000140 70 79 e9 bb ca 8d 9d 3c 60 7b 3c bd 55 1f 0f bd
       -0.007125072 0.01923265 -0.046016097 -0.03494199
000150 33 93 6e 3c c1 80 89 bd 7d bd 27 bd 02 4c 8e 3d
       0.014561462 -0.06714011 -0.040952194 0.06948091
000160 45 14 fb bc 92 01 39 bc 86 2f 19 bc a2 03 c4 bc
       -0.030649314 -0.011291878 -0.009349709 -0.023927514
000170 1f df 98 3d b9 8c 16 3c 5c ce cb bc e1 f8 0d 3d
       0.07464432 0.009188824 -0.024878673 0.034661178
000180 ed 63 67 3b 0b 3c 43 3d fb ca f5 bc 00 c7 5a bd
       0.0035307363 0.047664683 -0.030004015 -0.053412437
000190 7f ed 1c 3d 41 ac 4b bd 77 d6 96 bd 01 30 48 bd
       0.03831243 -0.04972482 -0.07365125 -0.048873905
0001a0 46 53 13 bd c0 74 61 bd 2e cc 94 bd 97 e7 0d bd
       -0.035968088 -0.055042982 -0.07265507 -0.03464469
0001b0 97 e2 40 bd 09 62 7a bc ae dd 78 bd fa 87 a6 3d
       -0.047091093 -0.015282162 -0.060758285 0.08131404
0001c0 47 e8 96 bd 8f 42 93 bd 2a 8c 17 3d c3 d4 89 3c
       -0.07368522 -0.071904294 0.036998905 0.016825086
0001d0 63 94 87 bd 00 c2 89 3c 43 02 2b 3c 49 17 ba 3c
       -0.066200994 0.01681614 0.010437551 0.022716181
0001e0 36 b9 9b bd 89 55 6e 3d d0 8e 48 3d 40 76 b4 bd
       -0.076036856 0.05818704 0.04896432 -0.08811617
0001f0 1a 9a 27 3d 1e 78 6a 3d 2d 6e bd 3c 7a c8 b3 bd
       0.040918447 0.05724346 0.023123825 -0.08778472
000200 31 2a 98 3d 66 a8 6c 3d 3f 34 d1 bc 65 d2 6a bd
       0.07429922 0.057777785 -0.025537608 -0.057329554
000210 29 98 89 bd a8 ef 79 bd 47 03 82 bd 92 ea 18 3d
       -0.06718475 -0.06101957 -0.06348281 0.03733308
000220 8b 83 87 bb f0 8a e3 3c 42 7d 04 bd 7b f3 bf bd
       -0.004135554 0.027776212 -0.032346018 -0.09372612
000230 73 df 1b 39 bd 94 81 3c 0c 62 26 bd 95 0a 00 3c
       0.00014865193 0.015817994 -0.04062085 0.007815023
000240 87 d5 00 bc a3 23 a1 3d d7 19 9d 3b 96 0e a6 3d
       -0.007863409 0.07868125 0.00479434 0.08108251
000250 47 69 36 bd e2 0a 8b 3d 39 c0 b9 3a 8d f9 94 3d
       -0.044533994 0.06789185 0.0014171667 0.072741605
000260 e5 74 8b 3c af d1 a3 3d 81 77 c0 bd d0 70 fc bc
       0.017023513 0.07998978 -0.093977936 -0.030815512
000270 5a 3d 1a bd 30 bf 85 bd fa e4 96 bb 20 d7 84 bd
       -0.037656166 -0.06530607 -0.004604933 -0.06486344
000280 64 eb a2 3d ca a0 99 3c 02 2f 1a 3c 95 48 96 3d
       0.079550534 0.018753428 0.009410622 0.07338063
000290 aa f8 b5 bd ee 3a e4 bc d0 94 45 bd 3d 5d 76 3c
       -0.088853195 -0.027860131 -0.04823762 0.015036878
0002a0 0a 00 62 bc ae a7 8c bc 1b de cc bb 9e f8 a3 bc
       -0.013793955 -0.0171698 -0.006252063 -0.02001601
0002b0 d6 b2 d3 3c 63 05 21 bd ca 74 de 3c 88 0d 44 bd
       0.025842112 -0.039311778 0.027155299 -0.047864467
0002c0 28 c5 73 3d 48 36 a6 bd 93 97 8b bd 6a c5 03 bc
       0.059514195 -0.08115822 -0.0681602 -0.008042673
0002d0 5d d3 ba bd 40 54 38 3d 17 b5 9e 3d 0e 2b 3a bd
       -0.091223456 0.045002222 0.07749384 -0.045451216
0002e0 c4 61 69 3d da 66 89 bd 2e 5e ad bd 25 cc 65 bd
       0.056978002 -0.067090705 -0.08465229 -0.05610289
0002f0 54 b9 4c 3d 13 c1 25 bc 7a 1d b0 3d 69 11 3c bd
       0.04998143 -0.010116833 0.08599372 -0.04591504
000300 5e 21 13 3c 73 48 6a 3d a3 03 8d bd c8 08 25 3d
       0.008980123 0.057198 -0.06885459 0.040291578
000310 a1 12 35 bd 0c 42 ba bd a8 1e 8e 3d 68 78 8e 3d
       -0.04420722 -0.09094629 0.06939441 0.069565594
000320 9b 0c 6c bd e8 85 aa bd ab 58 a6 bd 11 bf 0e bd
       -0.05762921 -0.08326322 -0.08122381 -0.034850184
000330 3a 1f 95 3d 1a 2b 5d 3d 65 65 80 3c dc c6 a0 bc
       0.072813466 0.053996183 0.015673349 -0.019626074
000340 95 52 73 bc 89 81 ab bd 19 ef ff bb c6 d2 d0 bc
       -0.014851232 -0.08374316 -0.007810485 -0.02549113
000350 4f eb 14 3c 2b e4 0c bd 8b 9f af 3d 23 9b 45 bd
       0.009089305 -0.034397285 0.08575352 -0.048243653
000360 d3 94 b3 bd 38 ad 07 bd 54 5d 8d bd 0a bd 61 3d
       -0.0876862 -0.03312418 -0.069025666 0.055111922
000370 9b aa ae bd ef 5b a3 bd f4 fd bf bc 7f 25 cf 3c
       -0.08528634 -0.07976519 -0.023436524 0.025286434
000380 70 04 14 bc ac 81 e4 3c 58 f6 82 bd 0f 53 08 3d
       -0.009034261 0.027893864 -0.063946426 0.033282336
000390 3f 6c cb bc ff f8 2d 3d 51 1f ef 3c 3f ac 3a bd
       -0.02483189 0.04247379 0.029189738 -0.045574423
0003a0 7e 17 0a bc 16 67 e0 3c 41 68 b9 bd b8 dc 43 bd
       -0.008428453 0.027392905 -0.09053088 -0.047817916
0003b0 16 2c 6f 3d a3 92 85 bd 91 7c 83 3c 19 57 a6 3d
       0.058391653 -0.06522109 0.016050609 0.08122081
0003c0 2b 0f 60 bd 3a 15 6f bd cd 4f 89 bd 78 2a f7 bc
       -0.054701965 -0.058369853 -0.06704674 -0.030171618
0003d0 d5 31 34 3c 57 cf 43 bd 53 c2 af 3c 56 36 a1 bd
       0.010998209 -0.047805157 0.021454966 -0.07871692
0003e0 18 ce 45 bd be 54 bd bd 38 e1 da bc 29 5c 1d bd
       -0.04829225 -0.09244679 -0.02671872 -0.03841797
0003f0 4f 4e 38 3d 29 c9 c4 3c 7c 32 45 bd be 8d f6 3c
       0.044996556 0.024021702 -0.04814385 0.030096885

net.2.bias f4 [128]
000000 e3 bb 10 bd 70 d2 fb bb 84 01 f9 bc 73 e1 91 3d
       -0.035335433 -0.007684998 -0.03039623 0.07123079
000010 48 20 95 bd 65 53 b1 bc 1a e3 03 3d d9 85 7e 3e
       -0.07281548 -0.02164621 0.032199003 0.24855746
000020 cd c7 58 3e 20 c4 10 bd 4f 7b 55 bc 32 5f 28 3c
       0.21169968 -0.03534329 -0.013029887 0.010276603
000030 77 55 5c 3d 06 e5 e5 bc 2f 7d 0b 3e 5a a4 1d bc
       0.053792443 -0.028063308 0.13621973 -0.009621704
000040 36 b2 1e bc a8 ec 66 3e ab ea 88 bb 3d bc 1a 3e
       -0.0096860435 0.22551215 -0.004178365 0.1511087
000050 ef 9e 26 bc 09 3c 87 bd bf c2 1d bd 34 3b 17 3e
       -0.010169729 -0.06603248 -0.038515802 0.14768678
000060 49 ff 07 3c 6f 84 9f bd 6b 32 7a bd dd 92 b6 3a
       0.008300611 -0.077889316 -0.06108324 0.0013929267
000070 a9 de 06 bd bc 0b 15 bd c8 f8 24 3e 9b 31 10 3d
       -0.03292719 -0.036388144 0.16110528 0.035203557
000080 3b 88 81 3e 7c d1 2e 3d 69 20 b4 3d 75 d6 1f 3e
       0.25299248 0.04268025 0.08795244 0.15609153
000090 f2 44 73 3e ce b4 4f bd c3 04 4b 3e f5 34 3b 3d
       0.2375677 -0.05070954 0.19826035 0.0457048
0000a0 46 6e 00 bd e0 a6 35 bd 1c c5 c7 3d 1a b5 88 3b
       -0.031355165 -0.044348598 0.097543925 0.0041719796
0000b0 2d 02 3b bd 5b 93 29 3d d0 d0 32 bd b3 ee 4e 3e
       -0.04565637 0.041400295 -0.04365617 0.20208244
0000c0 f9 27 70 bd ad 83 84 3e 08 c8 89 3d 81 5f b2 3b
       -0.05863187 0.2588171 0.06727606 0.005443514
0000d0 82 55 9b bd 8d a9 f8 bb f0 63 c3 3c f0 fc 0a 3e
       -0.07584669 -0.0075885714 0.023851365 0.1357305
0000e0 b1 8e 79 3e ae 4f 27 3d 85 d5 41 3e 5a a5 3a 3e
       0.24370839 0.040847473 0.18929107 0.18227139
0000f0 1d ec d1 bd 4e 0e 83 bd a2 d1 68 bd 5f 5d fb 3d
       -0.10250113 -0.06399213 -0.056840546 0.122736685
000100 cd bb 28 3b d3 26 80 3e 19 ff a1 bd c1 7f ae bd
       0.0025746704 0.2502962 -0.07909984 -0.08520461
000110 aa 94 07 bd 0c fd 77 3e 14 c9 61 bd 95 f4 5c 3e
       -0.03310076 0.24217623 -0.055123404 0.21577676
000120 85 14 55 bd 8c b3 de 3d 87 3e 89 bd 91 06 8a 3e
       -0.052021522 0.108740896 -0.06701379 0.26958135
000130 89 b8 f8 3c 9d 5b 83 3b 66 1c 89 bd 22 07 fa 3d
       0.03036143 0.004008724 -0.0669487 0.12208392
000140 89 aa ab 3d 69 ea 30 3d 1a 3f 71 3e 2b 50 76 3e
       0.083821364 0.0431923 0.23559228 0.24054019
000150 66 e5 7f bd 35 05 8b 3d cf 10 a1 3a af 52 6c 3d
       -0.06247463 0.067881025 0.0012288335 0.05769604
000160 bf b0 e8 bc c2 b6 2e 3d 2b 25 8e 3d 6b c7 7e 3e
       -0.028404592 0.04265476 0.06940683 0.2488076
000170 19 f4 1c 3d 2b 95 21 bd 43 f3 88 3d 77 b7 c7 bc
       0.038318727 -0.0394489 0.066870235 -0.024379475
000180 73 7b 88 bd d4 15 9b bd 4f 77 c7 3d 03 10 e4 3d
       -0.06664171 -0.07572523 0.09739553 0.111358665
000190 49 81 0e 3d 27 0c a0 bc 86 d6 aa bd ca 89 45 bd
       0.034791265 -0.019537045 -0.08341698 -0.04822711
0001a0 68 92 7a 3d 7c c0 d6 bc f6 b1 8c bc 3c 2f 37 3d
       0.06117478 -0.02621483 -0.017174702 0.04472278
0001b0 d7 62 ce 3d c7 cd 74 bd ac 84 91 3d 17 bb 80 3e
       0.10077446 -0.059766557 0.07105383 0.25142738
0001c0 bf 88 97 3c 2d ec 9b 3a 56 0a 44 3d 96 60 e8 3d
       0.018497823 0.0011895947 0.04786142 0.11346547
0001d0 89 05 e6 bd bb 94 70 3e 04 12 10 bd 4c a6 3a 3c
       -0.112315245 0.23494236 -0.03517343 0.011392187
0001e0 0f 78 4e bb dc 12 01 bd 07 8a ab 3c b2 2a 0f 3c
       -0.0031504666 -0.031512126 0.02093984 0.008738207
0001f0 32 2c 14 bc c7 85 f4 3d f0 17 8e bc 96 a9 bb 3d
       -0.00904374 0.119395785 -0.017345399 0.09163205
