MountCar/checkpoints/checkpoint_episode_150.pt (torch, 286266 bytes, 24 tensors)

net.0.weight f4 [128, 2]
00000000: 1bfa c2be 968e f13d e222 85be 72e5 4dbf
00000010: 6525 c1bd 8da0 4ebd f4bf 963e d533 343f
00000020: 3942 68be 0983 e13e 66df 46bf faca d83e
00000030: 1b90 a6be 7c71 0b3e 1cc2 3abe 6a29 133d
00000040: cd1a 03bf 8962 10bf 1022 923e 7be0 1cbf
00000050: 4192 2fbd bd92 14bf 3e78 573e 5d40 67be
00000060: cecd c73e 163e d63e 9746 383f 0962 083f
00000070: 30fb e13d de46 3d3e 6e5e 03be d160 663e
00000080: f87d 77bd 7c46 f43e 4d63 e8be 5dee 26c0
00000090: aab8 dbbe dd5b 273e a3ca fd3e 0997 e33e
000000a0: 2f50 0c3f 14c0 c43e f96b 0a3f 3166 003f
000000b0: d259 a83d a6d2 773d 6e2e 2c3f 8a4f a83e
000000c0: 81a1 7a3e 097d 46bf 2f29 14bf c464 41bf
000000d0: f403 64be 3377 0b3f 33e1 353f 03d2 033e
000000e0: 8f07 07bf eef7 30bf 1e96 cebe a1a3 86bf
000000f0: dd5b 2c3f a30f c940 26ae 2abf 8ed7 f3be
00000100: a624 1abf 818e 883d 77f3 c0be 6ab9 783e
00000110: 30f7 bebe bb57 84c0 69e2 8e3d d5a7 1cbe
00000120: e183 4bbe 85de 22bf 341d 44be 2eaf 74bc
00000130: df6c d7be c22e 363e 5293 b93d 8df5 fb3e
00000140: 6dac c53d 689d 1bbd a3da 8b3e ea0a 493d
00000150: 74d2 97be aef6 7bbe 2c80 133f c341 543e
00000160: cf94 b4be 224a 82be 6364 91be b738 aabe
00000170: 8c07 9ebe bf40 9cbe 9a95 8ebe a6d8 96bf
00000180: 9ee2 5fbd 10fc 033e 35e7 24be 97f5 1e3e
00000190: 77e0 9fbd 816e 03be 93d7 903e 801e c43f
000001a0: 83b0 2abe c693 4ebe de29 acbe a89c 8d3c
000001b0: 902c 2e3e 3378 043f fa6b c7be 69c8 45bf
000001c0: 1d6f dcbe fb0f 2abf 8888 3e3e f01b 6ebf
000001d0: 6da9 d93c 9842 fe3c 23f3 9bbb b751 b6bd
000001e0: 5d3c 863d 33f2 c7c0 56a7 fabe eb0e 48bf
000001f0: 3e4a 173f 0b05 093f 1289 14bf 8671 313f
00000200: 2c6f ccbe 3688 063f 279b 89be d142 b0be
00000210: e76a 863e 62b9 a13e c6c0 3d3e c96e 863e
00000220: cb1a 3fbe a467 003f 85ba 2ebf a617 abbe
00000230: 0870 11bf ac7a 04bf 0820 68be a53c 8ebf
00000240: 0d19 813f 70ae bbbf c519 8e3d 1f12 b73e
00000250: eacc 8cbc c10d 34bf 4e39 40be e816 2ebe
00000260: 9b46 f33e 5d14 df3e a09d 733e df07 0ebe
00000270: 07c6 7e3d f94b 18bf e6f6 e2be d2b3 8ebf
00000280: 712c 0d3f c127 03bf 65c3 0b3f 9e4d 4f3e
00000290: 02c8 c03e 28d6 3bbe 0ee1 7c3f 6166 be40
000002a0: 2cc2 493e 588e b2bd 5c98 bd3f d0d1 9e40
000002b0: d848 393e 8091 16bf 3ee7 d33d eff2 00bf
000002c0: 5977 843e 7639 663e 1546 803d 6a7d 193e
000002d0: 808c 39bf df0c 9ec0 026c 833e b35c c1bd
000002e0: c20e c63e 993d 99be 8fd6 d93e 4ff2 343f
000002f0: 2206 2e3e aceb d040 ab62 bb3e 03c8 aa40
00000300: eee5 3fbc 2ffb 2bbe e910 b43e a565 773e
00000310: 0c2f a7be 30e4 9ebe 8144 42bf f1ff 00bf
00000320: 8637 01bf 7242 9c3e 201f 883e 0b00 703f
00000330: 1522 f03e 73d6 05bf 99e7 cbbe 5f95 6cbf
00000340: 3ec1 a4be a2db c83d 0b0c b2be 1794 cfbf
00000350: 7a67 273b e51d 15bf 0349 45be 5e32 af3d
00000360: 2635 223f 3c45 7c3e e24e 2d3f e5f3 633d
00000370: 6a05 01bf f318 633e 4675 0e3e b5e0 e73e
00000380: 0b7d 373f 86b2 a23d 6253 a23f 6fdb b040
00000390: 7941 0ebf fc76 d73e 056d 2d3f 7754 693f
000003a0: ef09 0dbe e78e 803e 27a5 103f fd0e 5b3f
000003b0: 74db 9f3e 9cc6 58bf 47b9 073f c062 fcbd
000003c0: 2868 e93e bdf6 84be 7046 2abf ff73 3e3d
000003d0: a807 16bf 00d5 db3e 6382 cf3e 6371 943f
000003e0: 443a fcbe 4dae 0cbf 250a b9bc 2117 473e
000003f0: c500 0ebb 27ea 56be 4c3b 763d 9cdc 14bf
-0.3808144 0.11794774 -0.26003176 -0.8042823 -0.094309606 -0.050446082 0.29443324 0.7039159
-0.22681512 0.44045284 -0.7768463 0.4234236 -0.3253182 0.1361751 -0.1823811 0.035928167
-0.5121277 -0.5640035 0.28541613 -0.6128003 -0.042864088 -0.58036405 0.21041963 -0.22583146
0.39024204 0.41844243 0.7198271 0.5327459 0.11034238 0.18484065 -0.12828991 0.2249787
-0.060422868 0.47710025 -0.4538826 -2.6082985 -0.42914325 0.16343637 0.49568662 0.44451168
0.5480985 0.38427794 0.54071003 0.5015593 0.08220257 0.060503624 0.67258346 0.32873183
0.24475671 -0.7753454 -0.5787534 -0.7554438 -0.22267133 0.5447876 0.7104675 0.12873082
-0.5274591 -0.6912831 -0.40348905 -1.0518686 0.6732767 6.283159 -0.6667198 -0.47625393
-0.6021217 0.066678055 -0.3768575 0.2428948 -0.37297964 -4.1357093 0.06976778 -0.15298398
-0.19874527 -0.6362079 -0.19151765 -0.014934344 -0.4207525 0.17791274 0.09061302 0.49210778
0.09652028 -0.03799191 0.27315244 0.049082674 -0.2965275 -0.2460582 0.5761745 0.20728211
-0.35269782 -0.25447184 -0.283969 -0.33246395 -0.30865133 -0.30518147 -0.27848512 -1.1784866
-0.05465948 0.12889123 -0.16103823 0.15523373 -0.07806485 -0.12835123 0.2828947 1.5321808
-0.16668896 -0.20173559 -0.33625692 0.017286614 0.17009187 0.5174591 -0.38949567 -0.77258927
-0.43053523 -0.66430634 0.1860677 -0.9301138 0.026570046 0.031037614 -0.0047592088 -0.089023046
0.06554482 -6.2483153 -0.48955792 -0.78147763 0.5909766 0.5352332 -0.5802165 0.6931385
-0.39928567 0.5255159 -0.26876184 -0.34425977 0.26253435 0.31586748 0.18530568 0.26256397
-0.18662564 0.50158143 -0.68253356 -0.3341648 -0.5681157 -0.5174968 -0.22668469 -1.1112257
1.008577 -1.4662609 0.06938509 0.35756013 -0.017187554 -0.70333487 -0.1877186 -0.17000926
0.47514805 0.43570223 0.23790598 -0.1387019 0.062200572 -0.59490925 -0.44328994 -1.1148627
0.5514594 -0.51232535 0.54595023 0.20244452 0.37652594 -0.18343413 0.98780906 5.9499974
0.19702977 -0.08718556 1.4812121 4.963112 0.18094194 -0.58815765 0.1034684 -0.5037069
0.25872305 0.22482857 0.06263367 0.14989248 -0.7248001 -4.939071 0.2566834 -0.09441509
0.38683134 -0.29929808 0.42546508 0.70682234 0.16994527 6.5287685 0.36598715 5.3369155
-0.011712534 -0.16795038 0.3516915 0.24159868 -0.3265308 -0.31033468 -0.7588578 -0.50390536
-0.5047535 0.30519444 0.26586246 0.93750066 0.46901003 -0.5228035 -0.39825132 -0.9241542
-0.32178682 0.09807517 -0.34774813 -1.6217068 0.0025543855 -0.5824874 -0.19266133 0.08554529
0.6336235 0.24635786 0.6769849 0.055652518 -0.50398886 0.22177486 0.13911924 0.45288625
0.71675175 0.07944207 1.2681696 5.5267863 -0.55568653 0.42082965 0.67744476 0.9114451
-0.1377332 0.25109026 0.56502 0.85569745 0.31222117 -0.84678054 0.53017086 -0.123235226
0.45587277 -0.25969496 -0.6651373 0.04649734 -0.5860543 0.42935944 0.40529165 1.1597103
-0.49263203 -0.5495346 -0.022587845 0.19442417 -0.002166794 -0.2098776 0.060115144 -0.58149123

net.0.bias f4 [128]
00000000: 7b8b 533e db00 033f b797 2ebe e72d bebe
00000010: cb1c b5be 3131 1f3f 2796 953e c1c2 1b3f
00000020: dc39 23bf b97f 553f c6a4 1a3f dbdf 1b3f
00000030: 1a7a 2dbf 8fa8 0f3f 65b6 0abe b6e4 1b3f
00000040: a804 db3e 929d ddbc e526 f13d 7573 bbbe
00000050: f93f e9be 54ba ba3e 4169 b7bd 5ed5 b3be
00000060: 6643 1a3f bef8 273f 8ece b03d 8978 1a3f
00000070: 9f34 ef3e ac48 563e 4590 283d c1db a73e
00000080: a928 913e 6b24 273f 9c26 0dbf a268 443f
00000090: ff31 1e3f eff9 8cbe d01a 1f3f b0fa d3bd
000000a0: fc3c 283f bbaa 223f af3d 083f 1dad 553f
000000b0: 3135 1c3f 4fdc 22bf a399 173e 363c 1f3e
000000c0: 2b24 303f 991c 54be a6a8 173f 806c 3e3e
000000d0: dd27 4b3e 7176 0dbf 8f0c 7bbe 8085 063e
000000e0: 1b45 763e 463a ea3e 4f31 d7be 4d56 c03e
000000f0: d3c9 ef3b 3edd ee3e e53b babe 3f7a 32bf
00000100: 3882 2abf 0f33 e93d e0be 103f 1166 243f
00000110: f35c 72be 1138 2e3f 9a04 163f 58fc 953e
00000120: 4a40 833e 2a52 c2be 9458 e03e 5522 24bf
00000130: ba3d a2be 68a1 16bf f9ec 21bf 29e8 6f3e
00000140: c1e0 b4be 4f88 e53e 3a51 9cbe ea96 073e
00000150: 1faa fdbe b55b 603d 39d1 b0bd 5be4 923e
00000160: 4579 74be 786a 3cbe 97a5 36be 63c2 e1be
00000170: 0344 c2be eadb 953e ad57 c73d 5263 053f
00000180: 0656 073f eed2 713e f0e8 1d3e 1a66 263f
00000190: 04ea 21bf b2eb 3c3e 9ff3 15bf 83f8 5b3e
000001a0: e295 d0be 078d 04be e6d5 dc3e 4abd b6be
000001b0: 046a fc3e 4e0c ff3e cd19 b63e 943b a1be
000001c0: 9779 1a3f 76f7 953d 8fa1 2cbf e155 f43e
000001d0: 263c ccbe ce16 c83e c498 2d3f a263 f53e
000001e0: 8286 1cbf 2749 153f 8df8 d83c 40c8 913e
000001f0: ee80 4b3f fe2c e9be 56e7 583e 5be8 06be
0.20658676 0.5117318 -0.17050062 -0.37144396 -0.3537353 0.62184435 0.2921612 0.60844046
-0.6376016 0.83398014 0.60407674 0.6088845 -0.6776444 0.56116575 -0.1354614 0.6089586
0.4277699 -0.027052674 0.11774997 -0.36611524 -0.4555662 0.36470282 -0.089556225 -0.35123724
0.6025909 0.65613925 0.08633147 0.6034017 0.46719834 0.2092616 0.04115321 0.32784846
0.28351334 0.65289944 -0.5513704 0.76722157 0.6179504 -0.27534434 0.6215029 -0.10350549
0.65718055 0.63541764 0.5321912 0.83467275 0.61018664 -0.63617414 0.14804702 0.15550312
0.6880519 -0.20714034 0.5924171 0.18596077 0.19839425 -0.5525885 -0.2451651 0.13136864
0.24049799 0.45747584 -0.42029807 0.37565842 0.0073177605 0.4665317 -0.3637382 -0.6971778
-0.6660495 0.11386692 0.5654125 0.6421824 -0.2366827 0.680543 0.5860077 0.29294086
0.25634986 -0.3795331 0.4381758 -0.64114887 -0.3168772 -0.58840036 -0.63252217 0.23428406
-0.35327724 0.44830558 -0.3053072 0.13241163 -0.49543855 0.05477496 -0.08633656 0.28689846
-0.23874386 -0.1839999 -0.17836605 -0.44093618 -0.37942514 0.29269344 0.0973352 0.52104676
0.52865636 0.2361562 0.1542089 0.64999545 -0.63247705 0.18449286 -0.5857486 0.21481518
-0.40739352 -0.12944423 0.43131942 -0.3569129 0.49299634 0.49814075 0.3556656 -0.31490767
0.6034178 0.0732259 -0.6743402 0.4772177 -0.3988964 0.390799 0.67811227 0.47927576
-0.6114274 0.58314747 0.026485706 0.2847309 0.79493606 -0.4554214 0.21181998 -0.13174574

net.2.weight f4 [128, 128]
00000000: dfbf 8f3b b4eb 8cbb afea 24bd 53d0 58bd
00000010: 30f4 d43c b7fe 00bd d40b 3cbc 0c7b 1e3c
00000020: d290 183c d21d 76bc 4e26 86bd 3eaa 80bd
00000030: c6ed d13c c5d0 bebc b978 f7bc 9616 1b3c
00000040: 5feb d8bc 971a 36bd 1830 09bd 6295 403d
00000050: 7762 90bd b499 98bd d6dd 96bd 9507 9ebd
00000060: c408 a1bd c159 033b 76c3 7a3d 36cf 033d
00000070: 682a 413c 563d 4b3d cd67 6c3d 4e6e 973d
00000080: f9e6 133d c00b a9bd aac9 32bd 634b 6fbd
00000090: 606a 26bd bab6 66bc 6385 82bd b30f a3bd
000000a0: 08ed a53d 0be8 3d3d c801 52bd 34df 4abd
000000b0: 64a5 77bd 35a2 0abd 9dc0 4b3c 86de 383c
000000c0: 26d1 39bc 0943 c7bc 579e 673d cbb9 8e3d
000000d0: 0f92 09bd be9b 303c 824a bebc 273f 863d
000000e0: 5c5d 91bd 0ff5 3d3d fc9f 633d f83f be3c
000000f0: 7956 27bd 3af9 d83c 5787 60bc 4934 21bd
00000100: 82c1 1f3d b59a 513d 779d 693d c19f b23c
00000110: 3c57 e4bc e0bd f53c 9a1e 993d f939 693d
00000120: 844d 8bba c08c 803b d2a2 0d3d 6e3f 913d
00000130: e972 b8bb cbee 35bd 7384 423d 22a7 8d3d
00000140: 7079 e9bb ca8d 9d3c 607b 3cbd 551f 0fbd
00000150: 3393 6e3c c180 89bd 7dbd 27bd 024c 8e3d
00000160: 4514 fbbc 9201 39bc 862f 19bc a203 c4bc
00000170: 1fdf 983d b98c 163c 5cce cbbc e1f8 0d3d
00000180: ed63 673b 0b3c 433d fbca f5bc 00c7 5abd
00000190: 7fed 1c3d 41ac 4bbd 77d6 96bd 0130 48bd
000001a0: 4653 13bd c074 61bd 2ecc 94bd 97e7 0dbd
000001b0: 97e2 40bd 0962 7abc aedd 78bd fa87 a63d
000001c0: 47e8 96bd 8f42 93bd 2a8c 173d c3d4 893c
000001d0: 6394 87bd 00c2 893c 4302 2b3c 4917 ba3c
000001e0: 36b9 9bbd 8955 6e3d d08e 483d 4076 b4bd
000001f0: 1a9a 273d 1e78 6a3d 2d6e bd3c 7ac8 b3bd
00000200: 312a 983d 66a8 6c3d 3f34 d1bc 65d2 6abd
00000210: 2998 89bd a8ef 79bd 4703 82bd 92ea 183d
00000220: 8b83 87bb f08a e33c 427d 04bd 7bf3 bfbd
00000230: 73df 1b39 bd94 813c 0c62 26bd 950a 003c
00000240: 87d5 00bc a323 a13d d719 9d3b 960e a63d
00000250: 4769 36bd e20a 8b3d 39c0 b93a 8df9 943d
00000260: e574 8b3c afd1 a33d 8177 c0bd d070 fcbc
00000270: 5a3d 1abd 30bf 85bd fae4 96bb 20d7 84bd
00000280: 64eb a23d caa0 993c 022f 1a3c 9548 963d
00000290: aaf8 b5bd ee3a e4bc d094 45bd 3d5d 763c
000002a0: 0a00 62bc aea7 8cbc 1bde ccbb 9ef8 a3bc
000002b0: d6b2 d33c 6305 21bd ca74 de3c 880d 44bd
000002c0: 28c5 733d 4836 a6bd 9397 8bbd 6ac5 03bc
000002d0: 5dd3 babd 4054 383d 17b5 9e3d 0e2b 3abd
000002e0: c461 693d da66 89bd 2e5e adbd 25cc 65bd
000002f0: 54b9 4c3d 13c1 25bc 7a1d b03d 6911 3cbd
00000300: 5e21 133c 7348 6a3d a303 8dbd c808 253d
00000310: a112 35bd 0c42 babd a81e 8e3d 6878 8e3d
00000320: 9b0c 6cbd e885 aabd ab58 a6bd 11bf 0ebd
00000330: 3a1f 953d 1a2b 5d3d 6565 803c dcc6 a0bc
00000340: 9552 73bc 8981 abbd 19ef ffbb c6d2 d0bc
00000350: 4feb 143c 2be4 0cbd 8b9f af3d 239b 45bd
00000360: d394 b3bd 38ad 07bd 545d 8dbd 0abd 613d
00000370: 9baa aebd ef5b a3bd f4fd bfbc 7f25 cf3c
00000380: 7004 14bc ac81 e43c 58f6 82bd 0f53 083d
00000390: 3f6c cbbc fff8 2d3d 511f ef3c 3fac 3abd
000003a0: 7e17 0abc 1667 e03c 4168 b9bd b8dc 43bd
000003b0: 162c 6f3d a392 85bd 917c 833c 1957 a63d
000003c0: 2b0f 60bd 3a15 6fbd cd4f 89bd 782a f7bc
000003d0: d531 343c 57cf 43bd 53c2 af3c 5636 a1bd
000003e0: 18ce 45bd be54 bdbd 38e1 dabc 295c 1dbd
000003f0: 4f4e 383d 29c9 c43c 7c32 45bd be8d f63c
0.0043868865 -0.004300559 -0.040262874 -0.05293305 0.025995344 -0.031492915 -0.011477429 0.009672891
0.009311872 -0.015021758 -0.06550275 -0.06282471 0.025626075 -0.023292908 -0.030208932 0.009465834
-0.026479421 -0.04445895 -0.03349313 0.047017463 -0.07050031 -0.074511915 -0.073665306 -0.0771629
-0.07863 0.0020042511 0.061221562 0.032180034 0.011789896 0.04961904 0.05771618 0.07394086
0.036108945 -0.08254194 -0.043649353 -0.058421504 -0.04062879 -0.014081651 -0.06373098 -0.07961979
0.08101851 0.04636387 -0.05127123 -0.04952927 -0.060460463 -0.0338461 0.012436059 0.0112835225
-0.011341369 -0.024323957 0.05654749 0.06969031 -0.033586558 0.010779319 -0.023228887 0.06555014
-0.07097885 0.046376284 0.055572495 0.023223862 -0.04085395 0.026486028 -0.0137041425 -0.039356504
0.039002903 0.05117293 0.057034936 0.021804692 -0.027873628 0.029997766 0.0747654 0.056940053
-0.001062796 0.0039230287 0.034579106 0.070921764 -0.0056289327 -0.044417184 0.047489595 0.06916644
-0.007125072 0.01923265 -0.046016097 -0.03494199 0.014561462 -0.06714011 -0.040952194 0.06948091
-0.030649314 -0.011291878 -0.009349709 -0.023927514 0.07464432 0.009188824 -0.024878673 0.034661178
0.0035307363 0.047664683 -0.030004015 -0.053412437 0.03831243 -0.04972482 -0.07365125 -0.048873905
-0.035968088 -0.055042982 -0.07265507 -0.03464469 -0.047091093 -0.015282162 -0.060758285 0.08131404
-0.07368522 -0.071904294 0.036998905 0.016825086 -0.066200994 0.01681614 0.010437551 0.022716181
-0.076036856 0.05818704 0.04896432 -0.08811617 0.040918447 0.05724346 0.023123825 -0.08778472
0.07429922 0.057777785 -0.025537608 -0.057329554 -0.06718475 -0.06101957 -0.06348281 0.03733308
-0.004135554 0.027776212 -0.032346018 -0.09372612 0.00014865193 0.015817994 -0.04062085 0.007815023
-0.007863409 0.07868125 0.00479434 0.08108251 -0.044533994 0.06789185 0.0014171667 0.072741605
0.017023513 0.07998978 -0.093977936 -0.030815512 -0.037656166 -0.06530607 -0.004604933 -0.06486344
0.079550534 0.018753428 0.009410622 0.07338063 -0.088853195 -0.027860131 -0.04823762 0.015036878
-0.013793955 -0.0171698 -0.006252063 -0.02001601 0.025842112 -0.039311778 0.027155299 -0.047864467
0.059514195 -0.08115822 -0.0681602 -0.008042673 -0.091223456 0.045002222 0.07749384 -0.045451216
0.056978002 -0.067090705 -0.08465229 -0.05610289 0.04998143 -0.010116833 0.08599372 -0.04591504
0.008980123 0.057198 -0.06885459 0.040291578 -0.04420722 -0.09094629 0.06939441 0.069565594
-0.05762921 -0.08326322 -0.08122381 -0.034850184 0.072813466 0.053996183 0.015673349 -0.019626074
-0.014851232 -0.08374316 -0.007810485 -0.02549113 0.009089305 -0.034397285 0.08575352 -0.048243653
-0.0876862 -0.03312418 -0.069025666 0.055111922 -0.08528634 -0.07976519 -0.023436524 0.025286434
-0.009034261 0.027893864 -0.063946426 0.033282336 -0.02483189 0.04247379 0.029189738 -0.045574423
-0.008428453 0.027392905 -0.09053088 -0.047817916 0.058391653 -0.06522109 0.016050609 0.08122081
-0.054701965 -0.058369853 -0.06704674 -0.030171618 0.010998209 -0.047805157 0.021454966 -0.07871692
-0.04829225 -0.09244679 -0.02671872 -0.03841797 0.044996556 0.024021702 -0.04814385 0.030096885

net.2.bias f4 [128]
00000000: e3bb 10bd 70d2 fbbb 8401 f9bc ac16 533d
00000010: 4820 95bd 6553 b1bc 1ae3 033d b273 823e
00000020: 4f08 3f3e 3a36 b83c 4f7b 55bc 325f 283c
00000030: 7755 5c3d 06e5 e5bc 4dff f43d 5aa4 1dbc
00000040: 36b2 1ebc 28e6 5b3e abea 88bb 4397 113e
00000050: ef9e 26bc 093c 87bd bfc2 1dbd be54 4c3e
00000060: 49ff 073c 6f84 9fbd 6b32 7abd dd92 b63a
00000070: 2ce4 1fbd bc0b 15bd 704f 393e 9b31 103d
00000080: 5e84 6e3e 7cd1 2e3d 6920 b43d 0b72 133e
00000090: 6606 5e3e ceb4 4fbd 1329 353e f534 3b3d
000000a0: 466e 00bd e0a6 35bd 9f7d a63d 1ab5 883b
000000b0: 2d02 3bbd 5b93 293d d0d0 32bd 81d0 593e
000000c0: f927 70bd a4f0 7a3e 08c8 893d 815f b23b
000000d0: 8255 9bbd 8da9 f8bb f063 c33c 95e6 0e3e
000000e0: 2078 643e ae4f 273d a86f 2e3e bcef 2b3e
000000f0: 1dec d1bd 4e0e 83bd a2d1 68bd 69a1 cb3d
00000100: cdbb 283b 972c 753e 19ff a1bd c17f aebd
00000110: aa94 07bd c82e 693e 14c9 61bd 5673 473e
00000120: 8514 55bd 5194 a73d 873e 89bd 26ca 833e
00000130: 89b8 f83c 9d5b 833b 661c 89bd c037 fd3d
00000140: 053a 553d 69ea 303d f00b 613e 1716 663e
00000150: 66e5 7fbd 3505 8b3d cf10 a13a af52 6c3d
00000160: bfb0 e8bc c2b6 2e3d c7f9 5a3d 7eeb 6f3e
00000170: 19f4 1c3d 2b95 21bd 6699 3e3d 77b7 c7bc
00000180: 737b 88bd d415 9bbd a8bc b43d b680 d93d
00000190: 4981 0e3d 270c a0bc 86d6 aabd ca89 45bd
000001a0: 6892 7a3d 7cc0 d6bc f6b1 8cbc 3c2f 373d
000001b0: 3403 e23d c7cd 74bd ac84 913d f665 773e
000001c0: bf88 973c 2dec 9b3a a8ea 133d 04d2 c13d
000001d0: 8905 e6bd 4d98 6a3e 0412 10bd 4ca6 3a3c
000001e0: 0f78 4ebb dc12 01bd 078a ab3c b22a 0f3c
000001f0: 322c 14bc a131 dd3d f017 8ebc 900a 9c3d
-0.035335433 -0.007684998 -0.03039623 0.051535293 -0.07281548 -0.02164621 0.032199003 0.25478894
0.18655513 0.022486795 -0.013029887 0.010276603 0.053792443 -0.028063308 0.11962757 -0.009621704
-0.0096860435 0.21474516 -0.004178365 0.14217858 -0.010169729 -0.06603248 -0.038515802 0.19954202
0.008300611 -0.077889316 -0.06108324 0.0013929267 -0.03903596 -0.036388144 0.18096709 0.035203557
0.23292682 0.04268025 0.08795244 0.14398973 0.21682128 -0.05070954 0.1769145 0.0457048
-0.031355165 -0.044348598 0.08129429 0.0041719796 -0.04565637 0.041400295 -0.04365617 0.21270944
-0.05863187 0.2450586 0.06727606 0.005443514 -0.07584669 -0.0075885714 0.023851365 0.13955148
0.22311449 0.040847473 0.17034781 0.1679067 -0.10250113 -0.06399213 -0.056840546 0.09942896
0.0025746704 0.23942791 -0.07909984 -0.08520461 -0.03310076 0.22771752 -0.055123404 0.19477591
-0.052021522 0.08182586 -0.06701379 0.25740165 0.03036143 0.004008724 -0.0669487 0.12364149
0.052057285 0.0431923 0.2197721 0.22469364 -0.06247463 0.067881025 0.0012288335 0.05769604
-0.028404592 0.04265476 0.053460862 0.23429677 0.038318727 -0.0394489 0.04653301 -0.024379475
-0.06664171 -0.07572523 0.08825046 0.10620253 0.034791265 -0.019537045 -0.08341698 -0.04822711
0.06117478 -0.02621483 -0.017174702 0.04472278 0.11035767 -0.059766557 0.07105383 0.24159989
0.018497823 0.0011895947 0.036112458 0.094638854 -0.112315245 0.2290966 -0.03517343 0.011392187
-0.0031504666 -0.031512126 0.02093984 0.008738207 -0.00904374 0.108004816 -0.017345399 0.07619202

net.4.weight f4 [3, 128]
00000000: 429a 5dbd b990 5c3d f59e a13d 1d2d 7bbe
00000010: 4058 823d cd7f 1d3d 8c0b 8d3c b539 9dbe
00000020: a4e9 84be d0cf 09bf 98bb 0d3c 78ad 253d
00000030: a00c c9bc fa4d ae3c a099 8fbe dabd 90bd
00000040: d7ca 06bd de30 99be 1fb1 913d c44e a1be
00000050: dfc1 13bd d414 243c 9c4b 90bc d637 ebbe
00000060: 2d36 1d3d b2a5 95bc 6d02 a5bc c444 b4bd
00000070: ae9c a43c 567b 54bc 4c47 b5be 1dbb c0ba
00000080: dff2 9abe 825e 89bd 5770 c2bc 25bf a7be
00000090: 125b a2be a1e7 3e3d f158 60be 7dfb d13c
000000a0: 64a3 c93c d9e3 363d a63b b2be c282 823d
000000b0: 4bb3 79bd 2b8e 27bb 5636 1ebd 6c72 bdbe
000000c0: e79c 6a3d fd03 b8be 9f78 6d3d 3214 6f3d
000000d0: 527a 99bd ab31 b4bd d6b3 9abc e03d a0be
000000e0: da19 9abe 0ee6 923d 1087 babe 1d4a 44be
000000f0: 2a7a 0f3d e18e 743d c2e8 ae3d fb6c 95be
00000100: 4bfb 6dbb 369e a1be 6b9f 87bd 7473 363d
00000110: 1c7b 8d3d 2e6d 9fbe 4fd0 933d d90b b7be
00000120: a003 8fbd dc52 82be 6b25 94bc 8269 b1be
00000130: cc6b 98bd d158 88bd 3ea4 b5bc 92e9 b7be
00000140: c2ca 2fbd 9bed 87bc a225 9cbe d266 adbe
00000150: 1ce4 3b3d 46b8 1fbb efe8 a6bd 107d bd3c
00000160: db94 b33c 73e4 9d3d 7a87 5dbe 3e27 b9be
00000170: 58a6 86bd 7f94 8b3c 12d2 6cbe d33d 233d
00000180: 4039 30bc 2c80 afbd 6ea5 b7be 6bdb 91be
00000190: c14b 9cbd f3d6 0dbc 6493 3a3c 7ff1 9dbd
000001a0: 9377 2fbd 5eb4 9cbd f5f3 29bc 3849 a23c
000001b0: f846 b0be 9b97 cf3c 3077 a0bc 8f4d a2be
000001c0: 17f5 8f3d 944e 2a3d e68d 16bd 5615 89be
000001d0: 315f 8a3d c134 b6be b5ca 61bc 2dab d03b
000001e0: ae44 a6bd a002 5e3d 6adf 803c 2cb3 fb3c
000001f0: 7e7d 533d 5748 87be ade6 32bd e4ac 7abe
00000200: 67ad 4bbd d544 a03d 29e8 fd3c 2828 99be
00000210: 37e5 733d 0a8e 5f3d ce6c 4a3c 463e a1be
00000220: d52b 8cbe 37a6 8abd 5767 78bd 3c95 82bd
00000230: 624a b03c 09cb 913d 0da6 bcbe 627d b13d
00000240: 79e4 a33d 3bc9 aabe 0c33 5d3d 74ec a4be
00000250: 6267 26bc f8d6 2fbd ddee 9a3d e79a 22bf
00000260: e3cc 82bc 06c7 c7bc 4a46 8cbd c5a1 073a
00000270: 6362 8a3d 61aa a6bd 3743 bdbe a17c 7b3d
00000280: 4803 9ebe 727f 8dbc 4b04 a4bd 90b2 b2be
00000290: 161f 9fbe 6faf a23d 0f90 96be f5c9 5d3b
000002a0: 3f66 2dbc 6a18 98bd 739f 82be 405f d0bb
000002b0: 9d93 4bbd 2bb5 623d e543 4c3d 1517 9cbe
000002c0: 0449 a5bc 99cc a1be 7f11 663c 0532 39bd
000002d0: 64e2 ab3d 5321 133c 16d6 abbc 0f3b bcbe
000002e0: 5366 a9be 8b6a bdbc ad5b 62be 179f acbe
000002f0: a736 8f3d 1aaa f43c 6097 1cbd f8f9 87be
00000300: 2efc a3b9 e6b6 a2be 5d29 42bb 0879 c83c
00000310: 4014 48bd 7d5b bbbe 2a54 00bd b810 85be
00000320: fb21 963d a24e 8cbe 1faf db3c b6cc 72be
00000330: 6251 a53d 4aa5 1bbd e0a8 8a3d ce25 8dbe
00000340: ef80 d33a eac1 edbc 2e7d babe 0095 b5be
00000350: 69f7 113c 41c9 383d 12e3 a0bd 5ea4 03bd
00000360: e862 8f3c d81a 103d 6337 b0be 66eb bebe
00000370: 4969 d83c 1f95 57bc 870d 9abe 070a 52bc
00000380: d0b5 473c f658 f4bb 9367 b6be 9e01 bbbe
00000390: 115f 383d 3f0f 90bd 0ac1 893d c2f8 20bd
000003a0: daa5 593d d1ef ba3c f400 89bc cfec b23d
000003b0: 8c8f b6be ec06 c53c ff62 983c 3951 9abe
000003c0: 1911 b53a 8cdd 93bd 8869 9b3d 0874 a7be
000003d0: 5d88 1b3d 51ce 84be de53 59ba 5329 82bc
000003e0: 0fea 823c 06e6 b3bc 3744 4ebc 7340 463c
000003f0: fb1d 503b 1094 b9be a75c 783d ae33 a8be
-0.05410219 0.053848956 0.07891647 -0.24528928 0.063644886 0.03845196 0.01721742 -0.3070809
-0.25959504 -0.5383272 0.008650683 0.040448636 -0.024542153 0.021277416 -0.28046894 -0.07067461
-0.032908287 -0.29920095 0.07113861 -0.31505406 -0.03607356 0.010014731 -0.017614178 -0.45941037
0.038381744 -0.018267486 -0.020142758 -0.088021785 0.020094242 -0.012968859 -0.35405958 -0.0014704202
-0.3026342 -0.06707479 -0.023735208 -0.3276302 -0.31710106 0.046607617 -0.21908928 0.025632614
0.024614044 0.044650886 -0.34811133 0.06372596 -0.060962003 -0.0025566916 -0.038626038 -0.3700136
0.05727854 -0.35940543 0.05797636 0.05836887 -0.07494034 -0.08798536 -0.01888458 -0.31297207
-0.30097848 0.07172786 -0.3643117 -0.19168897 0.035028614 0.059706572 0.08540489 -0.29184708
-0.0036313112 -0.31566018 -0.066222034 0.0445437 0.06908247 -0.31137985 0.07217466 -0.35751227
-0.06983113 -0.25453842 -0.018084249 -0.3465081 -0.074424356 -0.066575654 -0.022173043 -0.35920388
-0.042917974 -0.016592791 -0.30497462 -0.33867508 0.04587184 -0.002437131 -0.08149897 0.023130924
0.021921566 0.07709589 -0.21633711 -0.36162752 -0.06574696 0.017038582 -0.2312701 0.039853882
-0.010755837 -0.08569369 -0.358684 -0.28487715 -0.076316364 -0.008657205 0.01138768 -0.07712077
-0.042838644 -0.0765159 -0.010373105 0.019810304 -0.34429145 0.025340846 -0.019588083 -0.31699798
0.07029169 0.041578844 -0.03675642 -0.2677409 0.067564376 -0.35587123 -0.013781239 0.006368062
-0.08118568 0.054201722 0.015731532 0.030725084 0.05163335 -0.26422378 -0.04367702 -0.24480015
-0.049725916 0.07825629 0.030994492 -0.2991345 0.05954477 0.05457882 0.012355043 -0.31492823
-0.2737719 -0.06769984 -0.060645428 -0.063761204 0.021519843 0.07118804 -0.36845437 0.08666493
0.08002562 -0.33356652 0.05400376 -0.3221165 -0.010156484 -0.04292962 0.07565091 -0.6351761
-0.015966838 -0.024386894 -0.06849344 0.0005173947 0.06757047 -0.08137966 -0.36965343 0.061398152
-0.30861878 -0.017272685 -0.08008631 -0.34901857 -0.31078404 0.079436176 -0.29406783 0.00338423
-0.010583459 -0.074265316 -0.25512275 -0.006359011 -0.049701322 0.055348556 0.049869437 -0.3048636
-0.020176418 -0.31601408 0.014042257 -0.045213718 0.0839279 0.008980113 -0.020976108 -0.36763808
-0.3308588 -0.023122093 -0.22105284 -0.33715126 0.06992846 0.029866267 -0.0382303 -0.265579
-0.0003127767 -0.31780165 -0.0029626705 0.024471775 -0.048847437 -0.36593238 -0.031330265 -0.25989318
0.073307 -0.27403742 0.026816903 -0.23710904 0.08072163 -0.03799943 0.067704916 -0.27567905
0.0016136448 -0.02902313 -0.3642363 -0.3546524 0.008909085 0.045113806 -0.0785581 -0.032139175
0.017503217 0.03518185 -0.34417257 -0.3728897 0.026417391 -0.013158112 -0.30088446 -0.0128197735
0.012189344 -0.007456894 -0.35625896 -0.3652467 0.045012537 -0.07034158 0.067262724 -0.039299734
0.053136684 0.022819431 -0.016724087 0.08736574 -0.35656393 0.024051152 0.018601893 -0.30140093
0.00138143 -0.07219991 0.07588488 -0.32705712 0.037971843 -0.25938657 -0.000829039 -0.015888846
0.015980748 -0.02196027 -0.012589506 0.012100327 0.003175615 -0.36245775 0.060635235 -0.32851928

net.4.bias f4 [3]
00000000: 8703 85be d541 36be 19cf c0bd
-0.25979254 -0.1779855 -0.09414501

net.0.weight f4 [128, 2]
00000000: ba11 c3be 4ca5 f23d 933a 85be 1ac3 4dbf
00000010: 6525 c1bd 8da0 4ebd f4bf 963e d533 343f
00000020: 3942 68be 0983 e13e edea 46bf db10 d93e
00000030: d3a6 a6be 76fb 0b3e 0cee 3abe bd5f 153d
00000040: cd1a 03bf 8962 10bf 0a0c 923e 51be 1cbf
00000050: 3d44 30bd de70 14bf 3f49 573e 0cbf 66be
00000060: cecd c73e 163e d63e 9a91 383f 8559 083f
00000070: 30fb e13d de46 3d3e 8a8c 03be d3e7 663e
00000080: c63c 78bd e087 f43e 3846 e8be 20e7 26c0
00000090: 98dc dbbe c9cd 273e a3ca fd3e 0997 e33e
000000a0: 2f50 0c3f 14c0 c43e 91b6 0a3f ee4b 003f
000000b0: d259 a83d a6d2 773d 6e2e 2c3f 8a4f a83e
000000c0: da72 7a3e 835c 46bf 6834 14bf cd40 41bf
000000d0: bc50 64be b18f 0b3f f92e 363f 95e1 033e
000000e0: 4413 07bf 43d4 30bf 8ac4 cebe e495 86bf
000000f0: 2746 2c3f 35fc c840 69c4 2abf d4a5 f3be
00000100: d93a 1abf f753 893d 7d0a c1be c43f 793e
00000110: 8c1d bfbe 3d5a 84c0 6c88 8e3d 2021 1cbe
00000120: cdb0 4bbe ebbb 22bf 341d 44be 2eaf 74bc
00000130: 1c83 d7be 45ba 363e 5293 b93d 8df5 fb3e
00000140: 384e c53d 4c91 19bd 76c4 8b3e e51e 4b3d
00000150: 0ce9 97be 9468 7bbe f874 133f 69c2 543e
00000160: e0ab b4be 6405 82be 6364 91be b738 aabe
00000170: 8132 9ebe 1f0b 9cbe f9ac 8ebe 23c5 96bf
00000180: b69d 60bd 3981 043e 35e7 24be 97f5 1e3e
00000190: 8b3a a0bd 53e5 02be ba5f 913e fd14 c43f
000001a0: 68de 2abe 3d04 4ebe de29 acbe a89c 8d3c
000001b0: 902c 2e3e 3378 043f 039b c7be 8fab 45bf
000001c0: cf85 dcbe 60eb 29bf 015b 3e3e 3efa 6dbf
000001d0: 6da9 d93c 9842 fe3c 4a62 a1bb 1444 b5bd
000001e0: cc1d 853d 96f3 c7c0 69be fabe 02ec 47bf
000001f0: 3e4a 173f 0b05 093f 1289 14bf 8671 313f
00000200: 2c6f ccbe 3688 063f ebc6 89be b10f b0be
00000210: ae53 863e 11f7 a13e 3193 3d3e 6eb0 863e
00000220: cb1a 3fbe a467 003f 0cc6 2ebf 54d1 aabe
00000230: 337b 11bf 5c57 04bf fa4b 68be 2d2a 8ebf
00000240: 2a2f 813f 73a0 bbbf c519 8e3d 1f12 b73e
00000250: 123f 8ebc 62eb 33bf 4e39 40be e816 2ebe
00000260: 9b46 f33e 5d14 df3e a09d 733e df07 0ebe
00000270: 07c6 7e3d f94b 18bf 790e e3be 73a1 8ebf
00000280: 712c 0d3f c127 03bf eb14 0c3f 924b 4f3e
00000290: 02c8 c03e 28d6 3bbe 0bb6 7c3f 0655 be40
000002a0: 2cc2 493e 588e b2bd 907e bd3f 5ec1 9e40
000002b0: d848 393e 8091 16bf 9190 d33d 96d0 00bf
000002c0: 5977 843e 7639 663e 1546 803d 6a7d 193e
000002d0: d775 39bf d80b 9ec0 026c 833e b35c c1bd
000002e0: c20e c63e 993d 99be d56d da3e c5d6 343f
000002f0: 8a6b 2d3e e1e5 d040 dca6 bb3e 29c6 aa40
00000300: e1c0 42bc 3776 2bbe 9f94 b43e 6d0e 773e
00000310: dd59 a7be 52ad 9ebe bb4f 42bf c7db 00bf
00000320: 8637 01bf 7242 9c3e eba6 883e 79e6 6f3f
00000330: 1522 f03e 73d6 05bf 6f00 ccbe ae71 6cbf
00000340: 3ec1 a4be a2db c83d 5037 b2be f56f cfbf
00000350: df60 1c3b 1efc 14bf 0349 45be 5e32 af3d
00000360: d483 223f ea24 7c3e d499 2d3f 023c 633d
00000370: e610 01bf fea4 633e 4675 0e3e b5e0 e73e
00000380: 19cc 373f c2d1 a23d 963b a23f c5ca b040
00000390: 7941 0ebf fc76 d73e a9b1 2d3f 693d 693f
000003a0: ef09 0dbe e78e 803e 34f3 103f 96f3 5a3f
000003b0: 9cc5 9f3e a8a4 58bf 6608 083f b5f9 fbbd
000003c0: 2868 e93e bdf6 84be c751 2abf d1a6 403d
000003d0: 9c14 16bf bd11 dc3e 630c d03e 0964 943f
000003e0: 4c51 fcbe f88a 0cbf 250a b9bc 2117 473e
000003f0: b809 19bb 5b62 56be 4c3b 763d 9cdc 14bf
-0.38099462 0.11847934 -0.2602125 -0.80375826 -0.094309606 -0.050446082 0.29443324 0.7039159
-0.22681512 0.44045284 -0.7770222 0.42395672 -0.32549152 0.13670143 -0.1825487 0.036468256
-0.5121277 -0.5640035 0.2852481 -0.612279 -0.043033827 -0.5798472 0.21024035 -0.22533816
0.39024204 0.41844243 0.7209717 0.53261596 0.11034238 0.18484065 -0.1284658 0.22549371
-0.060604833 0.47759914 -0.45366073 -2.6078568 -0.42941737 0.16387095 0.49568662 0.44451168
0.5480985 0.38427794 0.54184824 0.5011586 0.08220257 0.060503624 0.67258346 0.32873183
0.24457875 -0.7748491 -0.57892466 -0.75489503 -0.22296423 0.5451613 0.71165425 0.12879021
-0.5276377 -0.69073886 -0.40384322 -1.0514493 0.67294544 6.280787 -0.6670595 -0.47587454
-0.60246044 0.06705468 -0.37703314 0.24340731 -0.3732723 -4.1360154 0.06959614 -0.15247011
-0.19891663 -0.6356799 -0.19151765 -0.014934344 -0.42092216 0.17844494 0.09061302 0.49210778
0.0963406 -0.03749208 0.27298325 0.04959001 -0.29669988 -0.24551612 0.57600355 0.20777287
-0.3528738 -0.25394738 -0.283969 -0.33246395 -0.30897906 -0.30477235 -0.27866343 -1.1778911
-0.054837905 0.1293992 -0.16103823 0.15523373 -0.07823666 -0.12782793 0.28393346 1.5318905
-0.16686404 -0.20118804 -0.33625692 0.017286614 0.17009187 0.5174591 -0.38985452 -0.772149
-0.43070838 -0.6637478 0.18589403 -0.92959964 0.026570046 0.031037614 -0.004925047 -0.088508755
0.06499824 -6.2484846 -0.48973396 -0.78094494 0.5909766 0.5352332 -0.5802165 0.6931385
-0.39928567 0.5255159 -0.26909575 -0.34386972 0.26235718 0.3163381 0.1851318 0.2630648
-0.18662564 0.50158143 -0.68270946 -0.3336283 -0.5682861 -0.516958 -0.22685233 -1.1106621
1.0092518 -1.465834 0.06938509 0.35756013 -0.017364059 -0.7028104 -0.1877186 -0.17000926
0.47514805 0.43570223 0.23790598 -0.1387019 0.062200572 -0.59490925 -0.4434698 -1.114302
0.5514594 -0.51232535 0.5471942 0.20243672 0.37652594 -0.18343413 0.98715276 5.947879
0.19702977 -0.08718556 1.4804249 4.9611044 0.18094194 -0.58815765 0.10330308 -0.50318277
0.25872305 0.22482857 0.06263367 0.14989248 -0.72445434 -4.938946 0.2566834 -0.09441509
0.38683134 -0.29929808 0.4266192 0.7064021 0.16935554 6.5280614 0.3665074 5.3366895
-0.011886806 -0.16744314 0.3526964 0.24126597 -0.32685748 -0.30991608 -0.7590291 -0.50335354
-0.5047535 0.30519444 0.26689848 0.9371105 0.46901003 -0.5228035 -0.3984408 -0.9236096
-0.32178682 0.09807517 -0.34807825 -1.6206042 0.002386145 -0.581972 -0.19266133 0.08554529
0.63482404 0.24623457 0.6781285 0.05547715 -0.5041641 0.22230908 0.13911924 0.45288625
0.71795803 0.079501644 1.2674434 5.524752 -0.55568653 0.42082965 0.6784921 0.9110933
-0.1377332 0.25109026 0.566211 0.8552793 0.3120545 -0.84626245 0.53137815 -0.12303487
0.45587277 -0.25969496 -0.6653103 0.04703409 -0.586252 0.42982283 0.4063445 1.1593028
-0.49280775 -0.5489955 -0.022587845 0.19442417 -0.002335174 -0.20935957 0.060115144 -0.58149123

net.0.bias f4 [128]
00000000: f286 533e aa00 033f b797 2ebe e72d bebe
00000010: cb1c b5be 0d30 1f3f bf94 953e 92c2 1b3f
00000020: dc39 23bf c97f 553f 88a4 1a3f 72df 1b3f
00000030: 1a7a 2dbf cf80 0f3f 65b6 0abe 0ce4 1b3f
00000040: b402 db3e 5131 dcbc b0c6 f03d 7573 bbbe
00000050: f93f e9be 8674 ba3e 4169 b7bd 5ed5 b3be
00000060: be43 1a3f 41f8 273f 8671 b03d 664e 1a3f
00000070: d234 ef3e f114 563e bb03 273d aec1 a73e
00000080: 6f0f 913e 8a23 273f 0619 0dbf 4d68 443f
00000090: 9c31 1e3f eff9 8cbe 351a 1f3f b0fa d3bd
000000a0: 893c 283f 2caa 223f e03c 083f aeac 553f
000000b0: 6834 1c3f 4fdc 22bf 6266 173e 3640 1f3e
000000c0: 5e23 303f 991c 54be 22a8 173f c8d5 3d3e
000000d0: 7b24 4b3e 7176 0dbf 8f0c 7bbe 0d51 063e
000000e0: ec43 763e 933b ea3e 4f31 d7be 3f55 c03e
000000f0: 73c4 fb3b e2db ee3e e53b babe 3f7a 32bf
00000100: 3882 2abf 24cb e83d a5be 103f 5c65 243f
00000110: f35c 72be 7d37 2e3f 4a04 163f abfd 953e
00000120: 1265 833e 2a52 c2be 4158 e03e 5522 24bf
00000130: ba3d a2be 68a1 16bf f9ec 21bf c1e8 6f3e
00000140: c1e0 b4be 0233 e53e 3a51 9cbe 176a 073e
00000150: 1faa fdbe 3367 5e3d 39d1 b0bd 90e6 923e
00000160: 4579 74be 786a 3cbe eebd 36be 63c2 e1be
00000170: 0344 c2be 7392 953e 7abf c83d 5058 053f
00000180: a455 073f 9e55 713e 06b5 1d3e 1b65 263f
00000190: 04ea 21bf 115c 3c3e 9ff3 15bf 27f8 5b3e
000001a0: e295 d0be 9694 04be 5bd6 dc3e 4abd b6be
000001b0: 4615 fc3e 9abe fe3e 6117 b63e 943b a1be
000001c0: ef4e 1a3f ff1b 953d 8fa1 2cbf 250e f43e
000001d0: 263c ccbe bfc9 c73e 0e99 2d3f 580e f53e
000001e0: 8286 1cbf 5048 153f 8300 d83c 3d81 913e
000001f0: a980 4b3f fe2c e9be f6e5 583e 5be8 06be
0.20656946 0.5117289 -0.17050062 -0.37144396 -0.3537353 0.62182695 0.29215047 0.60843766
-0.6376016 0.8339811 0.60407305 0.60887825 -0.6776444 0.5605592 -0.1354614 0.60894847
0.427755 -0.026878985 0.11756647 -0.36611524 -0.4555662 0.36417025 -0.089556225 -0.35123724
0.60259616 0.6561318 0.08615403 0.60275877 0.46719986 0.20906426 0.040775042 0.32764953
0.28332087 0.65288603 -0.5511631 0.7672165 0.6179445 -0.27534434 0.62149364 -0.10350549
0.6571737 0.6354091 0.5321789 0.83466613 0.61017466 -0.63617414 0.1478515 0.15551838
0.68803966 -0.20714034 0.59240925 0.18538582 0.19838135 -0.5525885 -0.2451651 0.13116856
0.24049348 0.45748577 -0.42029807 0.37565038 0.0076833307 0.46652132 -0.3637382 -0.6971778
-0.6660495 0.11366871 0.565409 0.6421716 -0.2366827 0.6805342 0.58600295 0.29295096
0.25663048 -0.3795331 0.43817332 -0.64114887 -0.3168772 -0.58840036 -0.63252217 0.23428632
-0.35327724 0.44765478 -0.3053072 0.13224064 -0.49543855 0.054297637 -0.08633656 0.2869153
-0.23874386 -0.1839999 -0.1784589 -0.44093618 -0.37942514 0.29213294 0.09802146 0.5208788
0.5286505 0.23567817 0.15401086 0.64998025 -0.63247705 0.18394496 -0.5857486 0.21481381
-0.40739352 -0.12947306 0.4313229 -0.3569129 0.4923498 0.49754792 0.35564712 -0.31490767
0.60276693 0.072807305 -0.6743402 0.4766704 -0.3988964 0.39021108 0.6781167 0.47862506
-0.6114274 0.58313465 0.026367432 0.28418913 0.79493195 -0.4554214 0.21181473 -0.13174574

net.2.weight f4 [128, 128]
00000000: dfbf 8f3b b4eb 8cbb afea 24bd 53d0 58bd
00000010: 30f4 d43c b7fe 00bd d40b 3cbc 0c7b 1e3c
00000020: d290 183c d21d 76bc 4e26 86bd 3eaa 80bd
00000030: c6ed d13c c5d0 bebc b978 f7bc 9616 1b3c
00000040: 5feb d8bc 971a 36bd 1830 09bd 6295 403d
00000050: 7762 90bd b499 98bd d6dd 96bd 9507 9ebd
00000060: c408 a1bd c159 033b 76c3 7a3d 36cf 033d
00000070: 682a 413c 563d 4b3d cd67 6c3d 4e6e 973d
00000080: f9e6 133d c00b a9bd aac9 32bd 634b 6fbd
00000090: 606a 26bd bab6 66bc 6385 82bd b30f a3bd
000000a0: 08ed a53d 0be8 3d3d c801 52bd 34df 4abd
000000b0: 64a5 77bd 35a2 0abd 9dc0 4b3c 86de 383c
000000c0: 26d1 39bc 0943 c7bc 579e 673d cbb9 8e3d
000000d0: 0f92 09bd be9b 303c 824a bebc 273f 863d
000000e0: 5c5d 91bd 0ff5 3d3d fc9f 633d f83f be3c
000000f0: 7956 27bd 3af9 d83c 5787 60bc 4934 21bd
00000100: 82c1 1f3d b59a 513d 779d 693d c19f b23c
00000110: 3c57 e4bc e0bd f53c 9a1e 993d f939 693d
00000120: 844d 8bba c08c 803b d2a2 0d3d 6e3f 913d
00000130: e972 b8bb cbee 35bd 7384 423d 22a7 8d3d
00000140: 7079 e9bb ca8d 9d3c 607b 3cbd 551f 0fbd
00000150: 3393 6e3c c180 89bd 7dbd 27bd 024c 8e3d
00000160: 4514 fbbc 9201 39bc 862f 19bc a203 c4bc
00000170: 1fdf 983d b98c 163c 5cce cbbc e1f8 0d3d
00000180: ed63 673b 0b3c 433d fbca f5bc 00c7 5abd
00000190: 7fed 1c3d 41ac 4bbd 77d6 96bd 0130 48bd
000001a0: 4653 13bd c074 61bd 2ecc 94bd 97e7 0dbd
000001b0: 97e2 40bd 0962 7abc aedd 78bd fa87 a63d
000001c0: 47e8 96bd 8f42 93bd 2a8c 173d c3d4 893c
000001d0: 6394 87bd 00c2 893c 4302 2b3c 4917 ba3c
000001e0: 36b9 9bbd 8955 6e3d d08e 483d 4076 b4bd
000001f0: 1a9a 273d 1e78 6a3d 2d6e bd3c 7ac8 b3bd
00000200: 312a 983d 66a8 6c3d 3f34 d1bc 65d2 6abd
00000210: 2998 89bd a8ef 79bd 4703 82bd 92ea 183d
00000220: 8b83 87bb f08a e33c 427d 04bd 7bf3 bfbd
00000230: 73df 1b39 bd94 813c 0c62 26bd 950a 003c
00000240: 87d5 00bc a323 a13d d719 9d3b 960e a63d
00000250: 4769 36bd e20a 8b3d 39c0 b93a 8df9 943d
00000260: e574 8b3c afd1 a33d 8177 c0bd d070 fcbc
00000270: 5a3d 1abd 30bf 85bd fae4 96bb 20d7 84bd
00000280: 64eb a23d caa0 993c 022f 1a3c 9548 963d
00000290: aaf8 b5bd ee3a e4bc d094 45bd 3d5d 763c
000002a0: 0a00 62bc aea7 8cbc 1bde ccbb 9ef8 a3bc
000002b0: d6b2 d33c 6305 21bd ca74 de3c 880d 44bd
000002c0: 28c5 733d 4836 a6bd 9397 8bbd 6ac5 03bc
000002d0: 5dd3 babd 4054 383d 17b5 9e3d 0e2b 3abd
000002e0: c461 693d da66 89bd 2e5e adbd 25cc 65bd
000002f0: 54b9 4c3d 13c1 25bc 7a1d b03d 6911 3cbd
00000300: 5e21 133c 7348 6a3d a303 8dbd c808 253d
00000310: a112 35bd 0c42 babd a81e 8e3d 6878 8e3d
00000320: 9b0c 6cbd e885 aabd ab58 a6bd 11bf 0ebd
00000330: 3a1f 953d 1a2b 5d3d 6565 803c dcc6 a0bc
00000340: 9552 73bc 8981 abbd 19ef ffbb c6d2 d0bc
00000350: 4feb 143c 2be4 0cbd 8b9f af3d 239b 45bd
00000360: d394 b3bd 38ad 07bd 545d 8dbd 0abd 613d
00000370: 9baa aebd ef5b a3bd f4fd bfbc 7f25 cf3c
00000380: 7004 14bc ac81 e43c 58f6 82bd 0f53 083d
00000390: 3f6c cbbc fff8 2d3d 511f ef3c 3fac 3abd
000003a0: 7e17 0abc 1667 e03c 4168 b9bd b8dc 43bd
000003b0: 162c 6f3d a392 85bd 917c 833c 1957 a63d
000003c0: 2b0f 60bd 3a15 6fbd cd4f 89bd 782a f7bc
000003d0: d531 343c 57cf 43bd 53c2 af3c 5636 a1bd
000003e0: 18ce 45bd be54 bdbd 38e1 dabc 295c 1dbd
000003f0: 4f4e 383d 29c9 c43c 7c32 45bd be8d f63c
0.0043868865 -0.004300559 -0.040262874 -0.05293305 0.025995344 -0.031492915 -0.011477429 0.009672891
0.009311872 -0.015021758 -0.06550275 -0.06282471 0.025626075 -0.023292908 -0.030208932 0.009465834
-0.026479421 -0.04445895 -0.03349313 0.047017463 -0.07050031 -0.074511915 -0.073665306 -0.0771629
-0.07863 0.0020042511 0.061221562 0.032180034 0.011789896 0.04961904 0.05771618 0.07394086
0.036108945 -0.08254194 -0.043649353 -0.058421504 -0.04062879 -0.014081651 -0.06373098 -0.07961979
0.08101851 0.04636387 -0.05127123 -0.04952927 -0.060460463 -0.0338461 0.012436059 0.0112835225
-0.011341369 -0.024323957 0.05654749 0.06969031 -0.033586558 0.010779319 -0.023228887 0.06555014
-0.07097885 0.046376284 0.055572495 0.023223862 -0.04085395 0.026486028 -0.0137041425 -0.039356504
0.039002903 0.05117293 0.057034936 0.021804692 -0.027873628 0.029997766 0.0747654 0.056940053
-0.001062796 0.0039230287 0.034579106 0.070921764 -0.0056289327 -0.044417184 0.047489595 0.06916644
-0.007125072 0.01923265 -0.046016097 -0.03494199 0.014561462 -0.06714011 -0.040952194 0.06948091
-0.030649314 -0.011291878 -0.009349709 -0.023927514 0.07464432 0.009188824 -0.024878673 0.034661178
0.0035307363 0.047664683 -0.030004015 -0.053412437 0.03831243 -0.04972482 -0.07365125 -0.048873905
-0.035968088 -0.055042982 -0.07265507 -0.03464469 -0.047091093 -0.015282162 -0.060758285 0.08131404
-0.07368522 -0.071904294 0.036998905 0.016825086 -0.066200994 0.01681614 0.010437551 0.022716181
-0.076036856 0.05818704 0.04896432 -0.08811617 0.040918447 0.05724346 0.023123825 -0.08778472
0.07429922 0.057777785 -0.025537608 -0.057329554 -0.06718475 -0.06101957 -0.06348281 0.03733308
-0.004135554 0.027776212 -0.032346018 -0.09372612 0.00014865193 0.015817994 -0.04062085 0.007815023
-0.007863409 0.07868125 0.00479434 0.08108251 -0.044533994 0.06789185 0.0014171667 0.072741605
0.017023513 0.07998978 -0.093977936 -0.030815512 -0.037656166 -0.06530607 -0.004604933 -0.06486344
0.079550534 0.018753428 0.009410622 0.07338063 -0.088853195 -0.027860131 -0.04823762 0.015036878
-0.013793955 -0.0171698 -0.006252063 -0.02001601 0.025842112 -0.039311778 0.027155299 -0.047864467
0.059514195 -0.08115822 -0.0681602 -0.008042673 -0.091223456 0.045002222 0.07749384 -0.045451216
0.056978002 -0.067090705 -0.08465229 -0.05610289 0.04998143 -0.010116833 0.08599372 -0.04591504
0.008980123 0.057198 -0.06885459 0.040291578 -0.04420722 -0.09094629 0.06939441 0.069565594
-0.05762921 -0.08326322 -0.08122381 -0.034850184 0.072813466 0.053996183 0.015673349 -0.019626074
-0.014851232 -0.08374316 -0.007810485 -0.02549113 0.009089305 -0.034397285 0.08575352 -0.048243653
-0.0876862 -0.03312418 -0.069025666 0.055111922 -0.08528634 -0.07976519 -0.023436524 0.025286434
-0.009034261 0.027893864 -0.063946426 0.033282336 -0.02483189 0.04247379 0.029189738 -0.045574423
-0.008428453 0.027392905 -0.09053088 -0.047817916 0.058391653 -0.06522109 0.016050609 0.08122081
-0.054701965 -0.058369853 -0.06704674 -0.030171618 0.010998209 -0.047805157 0.021454966 -0.07871692
-0.04829225 -0.09244679 -0.02671872 -0.03841797 0.044996556 0.024021702 -0.04814385 0.030096885

net.2.bias f4 [128]
00000000: e3bb 10bd 70d2 fbbb 8401 f9bc 7b39 533d
00000010: 4820 95bd 6553 b1bc 1ae3 033d b56e 823e
00000020: 820c 3f3e 3d51 b63c 4f7b 55bc 325f 283c
00000030: 7755 5c3d 06e5 e5bc e50e f53d 5aa4 1dbc
00000040: 36b2 1ebc 96e7 5b3e abea 88bb 3d8f 113e
00000050: ef9e 26bc 093c 87bd bfc2 1dbd 8063 4c3e
00000060: 49ff 073c 6f84 9fbd 6b32 7abd dd92 b63a
00000070: 2ce4 1fbd bc0b 15bd 3543 393e 9b31 103d
00000080: 2a86 6e3e 7cd1 2e3d 6920 b43d c872 133e
00000090: 7a07 5e3e ceb4 4fbd b732 353e f534 3b3d
000000a0: 466e 00bd e0a6 35bd c95e a63d 1ab5 883b
000000b0: 2d02 3bbd 5b93 293d d0d0 32bd 6cbe 593e
000000c0: f927 70bd 14ec 7a3e 08c8 893d 815f b23b
000000d0: 8255 9bbd 8da9 f8bb f063 c33c 0ee0 0e3e
000000e0: cb7b 643e ae4f 273d c761 2e3e 76ff 2b3e
000000f0: 1dec d1bd 4e0e 83bd a2d1 68bd c49e cb3d
00000100: cdbb 283b b824 753e 19ff a1bd c17f aebd
00000110: aa94 07bd 7a33 693e 14c9 61bd 2d66 473e
00000120: 8514 55bd cb9c a73d 873e 89bd 85c1 833e
00000130: 89b8 f83c 9d5b 833b 661c 89bd 9813 fd3d
00000140: 053a 553d 69ea 303d 9910 613e 5917 663e
00000150: 66e5 7fbd 3505 8b3d cf10 a13a af52 6c3d
00000160: bfb0 e8bc c2b6 2e3d 7c2d 5b3d bfeb 6f3e
00000170: 19f4 1c3d 2b95 21bd 97b8 3e3d 77b7 c7bc
00000180: 737b 88bd d415 9bbd 09ac b43d b386 d93d
00000190: 4981 0e3d 270c a0bc 86d6 aabd ca89 45bd
000001a0: 6892 7a3d 7cc0 d6bc f6b1 8cbc 3c2f 373d
000001b0: 14ee e13d c7cd 74bd ac84 913d ee5b 773e
000001c0: bf88 973c 2dec 9b3a a8ea 133d 12e0 c13d
000001d0: 8905 e6bd 5a86 6a3e 0412 10bd 4ca6 3a3c
000001e0: 0f78 4ebb dc12 01bd 078a ab3c b22a 0f3c
000001f0: 322c 14bc ae3f dd3d f017 8ebc 9f1b 9c3d
-0.035335433 -0.007684998 -0.03039623 0.05156849 -0.07281548 -0.02164621 0.032199003 0.25475088
0.18657115 0.022255534 -0.013029887 0.010276603 0.053792443 -0.028063308 0.119657315 -0.009621704
-0.0096860435 0.21475062 -0.004178365 0.14214797 -0.010169729 -0.06603248 -0.038515802 0.19959831
0.008300611 -0.077889316 -0.06108324 0.0013929267 -0.03903596 -0.036388144 0.18092044 0.035203557
0.23293367 0.04268025 0.08795244 0.14399254 0.2168254 -0.05070954 0.17695127 0.0457048
-0.031355165 -0.044348598 0.081235476 0.0041719796 -0.04565637 0.041400295 -0.04365617 0.21264046
-0.05863187 0.24504119 0.06727606 0.005443514 -0.07584669 -0.0075885714 0.023851365 0.13952658
0.22312848 0.040847473 0.17029487 0.1679667 -0.10250113 -0.06399213 -0.056840546 0.099423915
0.0025746704 0.23939788 -0.07909984 -0.08520461 -0.03310076 0.22773543 -0.055123404 0.1947257
-0.052021522 0.08184203 -0.06701379 0.2573358 0.03036143 0.004008724 -0.0669487 0.12357253
0.052057285 0.0431923 0.21978988 0.22469844 -0.06247463 0.067881025 0.0012288335 0.05769604
-0.028404592 0.04265476 0.053510174 0.23429774 0.038318727 -0.0394489 0.046562757 -0.024379475
-0.06664171 -0.07572523 0.088218756 0.10621395 0.034791265 -0.019537045 -0.08341698 -0.04822711
0.06117478 -0.02621483 -0.017174702 0.04472278 0.11031738 -0.059766557 0.07105383 0.24156162
0.018497823 0.0011895947 0.036112458 0.09466566 -0.112315245 0.22902814 -0.03517343 0.011392187
-0.0031504666 -0.031512126 0.02093984 0.008738207 -0.00904374 0.108031616 -0.017345399 0.07622456

net.4.weight f4 [3, 128]
00000000: 429a 5dbd b990 5c3d f59e a13d dad8 7abe
00000010: 4058 823d cd7f 1d3d 8c0b 8d3c 340f 9dbe
00000020: 26c0 84be 95b7 09bf 98bb 0d3c 78ad 253d
00000030: a00c c9bc fa4d ae3c b570 8fbe dabd 90bd
00000040: d7ca 06bd 9507 99be 1fb1 913d e824 a1be
00000050: dfc1 13bd d414 243c 9c4b 90bc 04da eabe
00000060: 2d36 1d3d b2a5 95bc 6d02 a5bc c444 b4bd
00000070: ae9c a43c 567b 54bc 7f1c b5be 1dbb c0ba
00000080: bac9 9abe 825e 89bd 5770 c2bc 8895 a7be
00000090: 8b32 a2be a1e7 3e3d 2a06 60be 7dfb d13c
000000a0: 64a3 c93c d9e3 363d d812 b2be c282 823d
000000b0: 4bb3 79bd 2b8e 27bb 5636 1ebd 2a48 bdbe
000000c0: e79c 6a3d e6da b7be 9f78 6d3d 3214 6f3d
000000d0: 527a 99bd ab31 b4bd d6b3 9abc dd13 a0be
000000e0: 4df0 99be 0ee6 923d 225e babe 93f4 43be
000000f0: 2a7a 0f3d e18e 743d c2e8 ae3d d943 95be
00000100: 4bfb 6dbb 8174 a1be 6b9f 87bd 7473 363d
00000110: 1c7b 8d3d 6343 9fbe 4fd0 933d cce2 b6be
00000120: a003 8fbd 282a 82be 6b25 94bc 9940 b1be
00000130: cc6b 98bd d158 88bd 3ea4 b5bc 34bf b7be
00000140: c2ca 2fbd 9bed 87bc 39fc 9bbe a63d adbe
00000150: 1ce4 3b3d 46b8 1fbb efe8 a6bd 107d bd3c
00000160: db94 b33c 73e4 9d3d 0a32 5dbe 2dfe b8be
00000170: 58a6 86bd 7f94 8b3c 7380 6cbe d33d 233d
00000180: 4039 30bc 2c80 afbd fa7b b7be ebb0 91be
00000190: c14b 9cbd f3d6 0dbc 6493 3a3c 7ff1 9dbd
000001a0: 9377 2fbd 5eb4 9cbd f5f3 29bc 3849 a23c
000001b0: fc1c b0be 9b97 cf3c 3077 a0bc fc23 a2be
000001c0: 17f5 8f3d 944e 2a3d e68d 16bd e4eb 88be
000001d0: 315f 8a3d f60a b6be b5ca 61bc 2dab d03b
000001e0: ae44 a6bd a002 5e3d 6adf 803c 2cb3 fb3c
000001f0: 7e7d 533d fb1e 87be ade6 32bd 1d59 7abe
00000200: 67ad 4bbd d544 a03d 29e8 fd3c a137 99be
00000210: 37e5 733d 0a8e 5f3d ce6c 4a3c 2450 a1be
00000220: a53c 8cbe 5411 8bbd 5767 78bd 3c95 82bd
00000230: 624a b03c 09cb 913d 40ba bcbe 627d b13d
00000240: 79e4 a33d 23df aabe 0c33 5d3d 4d01 a5be
00000250: 6267 26bc f8d6 2fbd ddee 9a3d cd62 22bf
00000260: e3cc 82bc 06c7 c7bc 4a46 8cbd c5a1 073a
00000270: 6362 8a3d 61aa a6bd c755 bdbe a17c 7b3d
00000280: 1517 9ebe 727f 8dbc 4b04 a4bd 56c7 b2be
00000290: 7234 9fbe 6faf a23d ba9e 96be f5c9 5d3b
000002a0: 3f66 2dbc 6a18 98bd c9b4 82be 405f d0bb
000002b0: 9d93 4bbd 2bb5 623d e543 4c3d 412b 9cbe
000002c0: 0449 a5bc c4e2 a1be 7f11 663c 0532 39bd
000002d0: 64e2 ab3d 5321 133c 16d6 abbc d350 bcbe
000002e0: 6b78 a9be 8b6a bdbc d489 62be d2ab acbe
000002f0: a736 8f3d 1aaa f43c 6097 1cbd 2b0f 88be
00000300: 2efc a3b9 26ca a2be 5d29 42bb 0879 c83c
00000310: 4014 48bd 116e bbbe 2a54 00bd 9923 85be
00000320: fb21 963d 2462 8cbe 1faf db3c b6f4 72be
00000330: 6251 a53d 4aa5 1bbd e0a8 8a3d 5639 8dbe
00000340: ef80 d33a eac1 edbc 2a91 babe 8ea9 b5be
00000350: 69f7 113c 41c9 383d 12e3 a0bd 5ea4 03bd
00000360: e862 8f3c d81a 103d 2246 b0be 8501 bfbe
00000370: 4969 d83c 1f95 57bc cc20 9abe 070a 52bc
00000380: d0b5 473c f658 f4bb 5d7b b6be b115 bbbe
00000390: 115f 383d 3f0f 90bd 0ac1 893d c2f8 20bd
000003a0: daa5 593d d1ef ba3c f400 89bc cfec b23d
000003b0: 36a4 b6be ec06 c53c ff62 983c a466 9abe
000003c0: 1911 b53a 8cdd 93bd 8869 9b3d e786 a7be
000003d0: 5d88 1b3d 82e2 84be de53 59ba 5329 82bc
000003e0: 0fea 823c 06e6 b3bc 3744 4ebc 7340 463c
000003f0: fb1d 503b 2ca9 b9be a75c 783d c545 a8be
-0.05410219 0.053848956 0.07891647 -0.24496785 0.063644886 0.03845196 0.01721742 -0.30675662
-0.25927848 -0.5379575 0.008650683 0.040448636 -0.024542153 0.021277416 -0.28015676 -0.07067461
-0.032908287 -0.29888597 0.07113861 -0.3147347 -0.03607356 0.010014731 -0.017614178 -0.45869458
0.038381744 -0.018267486 -0.020142758 -0.088021785 0.020094242 -0.012968859 -0.35373303 -0.0014704202
-0.3023203 -0.06707479 -0.023735208 -0.3273127 -0.31679186 0.046607617 -0.21877351 0.025632614
0.024614044 0.044650886 -0.34780002 0.06372596 -0.060962003 -0.0025566916 -0.038626038 -0.3696912
0.05727854 -0.35909194 0.05797636 0.05836887 -0.07494034 -0.08798536 -0.01888458 -0.31265154
-0.30066147 0.07172786 -0.36399943 -0.19136266 0.035028614 0.059706572 0.08540489 -0.29153326
-0.0036313112 -0.31534198 -0.066222034 0.0445437 0.06908247 -0.311061 0.07217466 -0.35719907
-0.06983113 -0.25422788 -0.018084249 -0.34619597 -0.074424356 -0.066575654 -0.022173043 -0.35888064
-0.042917974 -0.016592791 -0.30465868 -0.33836097 0.04587184 -0.002437131 -0.08149897 0.023130924
0.021921566 0.07709589 -0.2160112 -0.3613142 -0.06574696 0.017038582 -0.23095874 0.039853882
-0.010755837 -0.08569369 -0.35836774 -0.2845529 -0.076316364 -0.008657205 0.01138768 -0.07712077
-0.042838644 -0.0765159 -0.010373105 0.019810304 -0.34397113 0.025340846 -0.019588083 -0.3166808
0.07029169 0.041578844 -0.03675642 -0.2674247 0.067564376 -0.35555238 -0.013781239 0.006368062
-0.08118568 0.054201722 0.015731532 0.030725084 0.05163335 -0.26390824 -0.04367702 -0.24448057
-0.049725916 0.07825629 0.030994492 -0.29925254 0.05954477 0.05457882 0.012355043 -0.31506455
-0.27390018 -0.067904145 -0.060645428 -0.063761204 0.021519843 0.07118804 -0.36860847 0.08666493
0.08002562 -0.33373365 0.05400376 -0.32227555 -0.010156484 -0.04292962 0.07565091 -0.6343201
-0.015966838 -0.024386894 -0.06849344 0.0005173947 0.06757047 -0.08137966 -0.36979505 0.061398152
-0.30876985 -0.017272685 -0.08008631 -0.34917706 -0.310947 0.079436176 -0.29417974 0.00338423
-0.010583459 -0.074265316 -0.25528553 -0.006359011 -0.049701322 0.055348556 0.049869437 -0.3050175
-0.020176418 -0.3161832 0.014042257 -0.045213718 0.0839279 0.008980113 -0.020976108 -0.36780414
-0.33099684 -0.023122093 -0.2212289 -0.33724838 0.06992846 0.029866267 -0.0382303 -0.26574072
-0.0003127767 -0.31794852 -0.0029626705 0.024471775 -0.048847437 -0.36607412 -0.031330265 -0.2600372
0.073307 -0.27418625 0.026816903 -0.23726162 0.08072163 -0.03799943 0.067704916 -0.27582806
0.0016136448 -0.02902313 -0.36438876 -0.35480922 0.008909085 0.045113806 -0.0785581 -0.032139175
0.017503217 0.03518185 -0.34428507 -0.37305847 0.026417391 -0.013158112 -0.30103147 -0.0128197735
0.012189344 -0.007456894 -0.35640994 -0.36539987 0.045012537 -0.07034158 0.067262724 -0.039299734
0.053136684 0.022819431 -0.016724087 0.08736574 -0.35672158 0.024051152 0.018601893 -0.30156434
0.00138143 -0.07219991 0.07588488 -0.3272011 0.037971843 -0.25954062 -0.000829039 -0.015888846
0.015980748 -0.02196027 -0.012589506 0.012100327 0.003175615 -0.3626188 0.060635235 -0.3286573

net.4.bias f4 [3]
00000000: 6ddd 84be 6f5d 36be 67e5 c0bd
-0.25950184 -0.1780908 -0.09418755
