MountCar/checkpoints/checkpoint_episode_700.pt (torch, 288314 bytes, 24 tensors)

net.0.weight f4 [128, 4]
-0.32629973 0.54537416 1.2786015 -0.0018282657 0.7803306 0.06683214 0.55127215 0.3110906
-0.6169379 -0.5998904 -2.0860093 -0.3952248 0.42063776 0.39732558 0.7999042 0.38384
-0.16240372 0.3536474 -0.45480186 0.09822166 0.28421217 0.5610267 1.3554767 0.5371474
0.23618273 0.07978186 0.41372716 0.37594113 0.21476255 -0.23032792 -0.23332678 0.22941606
0.39204168 0.19811198 1.3342682 0.30522168 -0.3447653 -0.7025112 -1.3917906 -0.46214312
0.2774712 0.2681466 -0.44916093 0.08138952 0.053738806 0.3021331 -0.53686684 0.11507588
-0.1514584 -0.4537602 -0.49457353 -0.26344272 -0.24281561 -0.24804306 0.037539218 -0.072669595
-0.6769638 -0.7406845 -0.9571337 -0.7377698 0.6043094 0.42269516 0.8233607 0.31669584
0.19544461 0.22628082 -0.43734208 -0.118710436 0.4008465 -0.27073115 -0.72832125 -0.07033672
0.14820668 0.16900352 -0.026502931 0.08518472 -0.071332194 0.005963754 -0.01669938 0.17029957
-0.15417695 -0.06894069 0.2509549 0.31530175 0.25015014 -0.38332987 0.9822998 0.00085731613
-0.7697911 -0.29726514 -0.4099741 -0.23820233 -0.22063565 0.17697018 0.17698538 0.19033295
0.13196418 0.015198969 -0.29237932 0.45159942 0.02387471 0.25472102 1.4879307 0.37747183
0.72626156 0.07797167 0.7872407 0.38292724 -0.19324096 -0.4357124 -1.6478305 -0.37673613
-0.13305265 -0.28557923 -0.7370948 -0.27290878 -0.12307773 0.39943424 -0.13977651 0.032828636
-0.3712952 -0.46925718 -0.37669367 -0.21165136 0.80286384 0.5633908 0.009909964 -0.42809197
-0.053112764 0.03189265 -0.059353523 -0.17212886 -0.23734087 0.091818646 -0.52431035 -0.10131816
0.51769847 0.41750878 -0.5542607 -0.2791949 -0.11632653 -0.90654963 -0.7050858 -0.64397055
0.04039269 0.22281663 0.3435513 0.30665082 -0.92721194 -0.71775365 -0.8541968 -0.4557758
0.3383714 -0.05490103 -0.24148023 -0.18812487 0.14922158 0.3735378 1.1867471 0.43105572
-0.25987378 -0.5450527 -0.8717676 -0.40823093 -0.09671302 0.005329007 -0.19416192 -0.19732027
0.1719345 -0.7696033 -0.44907504 -0.35535645 0.5008146 -0.44908187 -0.35371113 0.069512166
0.23059036 0.30599406 0.10835089 0.25146836 0.17129739 0.1478185 0.5044193 0.25671387
0.53044087 -0.46369532 -0.59190965 0.10913562 -0.59503233 0.48382926 0.38211286 0.5201348
-0.88870436 -0.43649104 -2.2878623 -0.30212125 0.87580687 -0.23563382 -0.43926612 -0.24741678
0.5960991 0.24490112 1.0864012 0.45574299 0.34184828 -0.050874814 -0.015456962 0.052365564
-0.25451276 -0.23452741 0.120952904 -0.14713538 0.28450635 -0.27086163 -0.32622495 -0.1570721
-0.28808403 0.64051676 0.18576136 0.46952337 0.13507137 0.15499182 -0.08638528 0.066323966
0.8222859 -0.40890783 0.18136486 -0.27654487 0.015313345 -0.50207675 -0.4695532 -0.1573341
0.35581195 -0.107205205 0.4158041 0.16460763 0.029635973 0.38594478 0.012392477 -0.18284048
-0.27418697 -0.8953298 -1.8956115 -0.5931948 -0.92673934 -0.7517593 0.05368594 -0.2873791
-0.4407982 -0.5482075 -0.9671332 -0.5031035 0.3173151 0.6590861 0.52616435 0.54989386
00000000: c210 a7be a49d 0b3f 37a9 a33f 6ba2 efba
00000010: bfc3 473f 4adf 883d 2c20 0d3f 4447 9f3e
00000020: a4ef 1dbf 6b92 19bf 2d81 05c0 e85a cabe
00000030: d55d d73e 426e cb3e 86c6 4c3f ad86 c43e
00000040: 294d 26be 4611 b53e cadb e8be 7028 c93d
00000050: 4284 913e 729f 0f3f 4380 ad3f 7e82 093f
00000060: e3d9 713e ac64 a33d 0cd4 d33e 5b7b c03e
00000070: b7ea 5b3e 15db 6bbe 37ed 6ebe 0bec 6a3e
00000080: b0b9 c83e dedd 4a3e 4dc9 aa3f 0446 9c3e
00000090: 1485 b0be c6d7 33bf 3226 b2bf 069e ecbe
000000a0: b510 8e3e 834a 893e 6cf8 e5be 8caf a63d
000000b0: 391d 5c3d 31b1 9a3e 1b70 09bf e7ac eb3d
000000c0: e917 1bbe 4253 e8be be38 fdbe f7e1 86be
000000d0: a8a4 78be 00ff 7dbe b9c2 193d ccd3 94bd
000000e0: 804d 2dbf 809d 3dbf b706 75bf 7bde 3cbf
000000f0: 05b4 1a3f 806b d83e c4c7 523f f525 a23e
00000100: a222 483e 29b6 673e 4deb dfbe 751e f3bd
00000110: c13b cd3e 469d 8abe 4373 3abf b30c 90bd
00000120: 7ec3 173e 420f 2d3e ad1c d9bc 5475 ae3d
00000130: 9d16 92bd 986b c33b 23cd 88bc 0363 2e3e
00000140: 90e0 1dbe c730 8dbd 297d 803e 3b6f a13e
00000150: ae13 803e d043 c4be 0078 7b3f 83bd 603a
00000160: 0811 45bf 2333 98be 20e8 d1be 50eb 73be
00000170: 50ee 61be ac37 353e a83b 353e a4e6 423e
00000180: 9e21 073e 1905 793c beb2 95be 0a38 e73e
00000190: e594 c33c cb6a 823e 8374 be3f fd43 c13e
000001a0: 47ec 393f 9caf 9f3d 9b88 493f 0a0f c43e
000001b0: f5e0 45be b215 dfbe 1cec d2bf 8fe3 c0be
000001c0: f43e 08be 7137 92be 3fb2 3cbf b3ba 8bbe
000001d0: 2d10 fcbd a582 cc3e 9321 0fbe 5277 063d
000001e0: 681a bebe 7a42 f0be fedd c0be 22bb 58be
000001f0: 7c88 4d3f 613a 103f 675d 223c df2e dbbe
00000200: c58c 59bd dea1 023d ae1c 73bd 8c42 30be
00000210: 7c09 73be 6a0b bc3d 3439 06bf e57f cfbd
00000220: e387 043f b6c3 d53e 07e4 0dbf a2f2 8ebe
00000230: 9b3c eebd a313 68bf 8180 34bf 41db 24bf
00000240: ce72 253d 0b2a 643e f5e5 af3e 5601 9d3e
00000250: c35d 6dbf b4be 37bf a4ac 5abf 725b e9be
00000260: 043f ad3e e7df 60bd 9846 77be cea3 40be
00000270: 8bcd 183e 5940 bf3e 54e7 973f 56b3 dc3e
00000280: 2d0e 85be 9388 0bbf 292c 5fbf a503 d1be
00000290: 7a11 c6bd f39e ae3b 62d2 46be 530e 4abe
000002a0: 990f 303e b904 45bf 2aed e5be 48f1 b5be
000002b0: 6335 003f 0fee e5be a019 b5be 655c 8e3d
000002c0: e11f 6c3e 41ab 9c3e 12e7 dd3d 76c0 803e
000002d0: 9568 2f3e bc5d 173e a021 013f 0070 833e
000002e0: f9ca 073f 7969 edbe 6487 17bf 7f82 df3d
000002f0: 0a54 18bf 78b8 f73e 4ca4 c33e 8e27 053f
00000300: 2182 63bf c17b dfbe 566c 12c0 a3af 9abe
00000310: e134 603f fe49 71be 7de7 e0be d35a 7dbe
00000320: f399 183f 5cc7 7a3e 320f 8b3f 2557 e93e
00000330: bd06 af3e 1c62 50bd 333f 7dbc 467d 563d
00000340: 7f4f 82be f427 70be 28b6 f73d a8aa 16be
00000350: d1aa 913e 60ae 8abe f506 a7be 82d7 20be
00000360: c07f 93be e8f8 233f 3a38 3e3e 5e65 f03e
00000370: 2650 0a3e 2db6 1e3e c4ea b0bd dcd4 873d
00000380: 5481 523f 5e5c d1be b6b7 393e 4a97 8dbe
00000390: d3e4 7a3c 1a88 00bf 4769 f0be 311c 21be
000003a0: fc2c b63e 678e dbbd 46e4 d43e e78e 283e
000003b0: 24c7 f23c 8e9a c53e d109 4b3c 893a 3bbe
000003c0: 3c62 8cbe 5534 65bf 66a3 f2bf 9ddb 17bf
000003d0: ca3e 6dbf 4c73 40bf cae5 5b3d 5a23 93be
000003e0: 4db0 e1be 5457 0cbf 0b96 77bf 64cb 00bf
000003f0: 2077 a23e deb9 283f b5b2 063f d8c5 0c3f

net.0.bias f4 [128]
0.35076147 -0.14805503 0.14616525 -0.032826144 0.6139329 0.035562385 0.7949323 0.7275439
-0.041919068 -0.025572395 0.012387031 0.74647665 0.45997038 0.4464483 0.08218978 0.017569978
0.84045774 0.034498386 0.64034635 0.603408 0.8829091 -0.34602335 1.1102824 0.5943749
0.8728431 -0.042075835 -0.23552322 0.3692664 0.79665667 0.7276969 0.8593325 0.15601754
0.56528306 0.7981957 -0.53617233 0.3642321 0.5979112 -0.077799596 0.75364137 -0.26589784
0.49849692 0.6563233 0.3926561 0.5332703 0.75735813 0.77056915 0.6351453 0.5791826
0.24621537 -0.13258979 0.13365978 0.78947204 -0.3104288 -0.05617914 0.6153244 0.63531965
-0.01716268 0.42128208 0.7714703 0.8119442 -0.1370825 -0.33695725 -0.18747407 0.38020846
0.58868766 0.71994436 0.8587484 0.7992602 -0.0035063773 0.6167499 0.32180774 0.31196058
0.6912851 0.68560714 -0.35766843 -0.19379452 0.82602525 0.78574663 0.40771008 -0.25058144
-0.39705533 -0.09753917 0.24901876 -0.15467659 0.2706439 0.61324656 0.0018740607 -0.11434457
0.3850765 0.005309084 0.7239166 0.43144533 0.9383774 -0.038319934 0.5803012 0.08859554
-0.28987375 -0.02788861 0.6299498 -0.010757912 0.47758055 0.8385871 -0.25386345 0.76973903
0.0634969 -0.5156735 0.72754765 0.060245134 -0.49559563 0.38843966 0.7684422 0.13520393
-0.24247162 -0.4640077 0.37641448 0.5830895 -0.08663673 0.36174548 0.07190569 0.7290674
0.8816434 -0.0732496 0.9810081 0.5242069 -0.38870555 0.23525517 0.6389493 0.5171583
00000000: 0297 b33e bd9b 17be 58ac 153e b574 06bd
00000010: b52a 1d3f dda9 113d af80 4b3f 5140 3a3f
00000020: 54b3 2bbd 337d d1bc f9f2 4a3c 1819 3f3f
00000030: 3d81 eb3e df94 e43e 1e53 a83d eaee 8f3c
00000040: 3d28 573f 2e4e 0d3d bded 233f f278 1a3f
00000050: 5506 623f f929 b1be bc1d 8e3f f428 183f
00000060: a572 5f3f b657 2cbd 002d 71be 7c10 bd3e
00000070: b1f1 4b3f 584a 3a3f 37fd 5b3f 10c3 1f3e
00000080: 64b6 103f 8e56 4c3f 9742 09bf a17c ba3e
00000090: b510 193f 6555 9fbd a4ee 403f c323 88be
000000a0: fd3a ff3e ce04 283f 380a c93e 6784 083f
000000b0: 39e2 413f 0544 453f e298 223f 5045 143f
000000c0: e21f 7c3e 9ec5 07be 1cde 083e d71a 4a3f
000000d0: 86f0 9ebe 191c 66bd e685 1d3f 4fa4 223f
000000e0: c098 8cbc 49b2 d73e 147f 453f 93db 4f3f
000000f0: 5b5f 0cbe a985 acbe 34f9 3fbe afaa c23e
00000100: 3cb4 163f 464e 383f efd6 5b3f 519c 4c3f
00000110: 40cb 65bb 52e3 1d3f fcc3 a43e 4cb9 9f3e
00000120: 0ff8 303f f383 2f3f 5120 b7be 1272 46be
00000130: 6476 533f b126 493f 60bf d03e 364c 80be
00000140: d64a cbbe 9ec2 c7bd c6fe 7e3e 8a63 1ebe
00000150: d691 8a3e bafd 1c3f 0ba3 f53a 7c2d eabd
00000160: bf28 c53e d3f7 ad3b 9952 393f 67e6 dc3e
00000170: 8039 703f 5df5 1cbd 9f8e 143f 9471 b53d
00000180: 556a 94be a776 e4bc 6444 213f f441 30bc
00000190: 7085 f43e a5ad 563f 64fa 81be 9e0d 453f
000001a0: aa0a 823d 2e03 04bf 9040 3a3f 9ac3 763d
000001b0: b6be fdbe 90e1 c63e a1b8 443f e672 0a3e
000001c0: 7b4a 78be 6b92 edbe 66b9 c03e 5a45 153f
000001d0: 996e b1bd b436 b93e 4a43 933d 29a4 3a3f
000001e0: 62b3 613f e303 96bd 5923 7b3f 6c32 063f
000001f0: 6a04 c7be bbe6 703e 2e92 233f 7d64 043f

net.2.weight f4 [128, 128]
0.18635339 -0.20751464 -0.78414047 -0.25151196 0.07500391 -0.36771154 -0.046531677 -0.10316746
-0.35013726 -0.7323725 -0.19415796 0.14106485 -0.23385388 -0.15164292 -0.67614865 -0.18603325
-0.010483569 0.33320707 0.1222421 0.06860732 -0.09773987 -0.15606162 -0.49530876 0.00812374
-0.024729807 -0.5204391 -0.14721832 -0.88007087 -0.027010841 0.16595314 -0.20016773 0.028431173
-0.08719565 0.0753132 -0.1497834 -0.70598704 0.109978855 -0.60424155 0.18015328 -0.41306564
-0.6609121 -0.15560003 -0.16614413 -0.118599206 0.15830636 0.06777752 -0.103893384 0.017278315
-0.5703063 -0.40443748 -0.13066216 0.14693187 -0.1426779 -0.12198063 0.123230144 0.1323188
-0.33757356 -0.19282664 0.039158847 0.06514097 -0.87068796 -0.35948712 -0.44074622 0.007175122
0.15790926 0.087252855 0.06390917 -0.19774261 -0.6835769 0.2105697 -0.04285977 -0.14968424
0.18832424 0.049672134 -0.29658288 -0.3979079 -0.028136674 0.0504224 0.096804336 -0.25435367
0.050215755 -0.17853643 -0.6685877 -0.39650008 -0.02440654 -0.16829738 -0.16246644 -0.5913085
-0.22306767 -0.20566784 0.2160672 0.05269786 -0.18542571 -0.120808594 0.02646183 -0.14935961
-0.18254904 0.20940112 -0.1548546 -0.013906968 0.0071477117 -0.30778205 -0.0734126 -0.10018414
-0.37707642 -0.011440488 -0.16167206 -0.39816278 0.043100536 0.06333833 0.11271592 -0.14662513
-0.38237286 -0.43384615 -0.1695339 0.08254694 -0.17735034 0.029822856 -0.28076592 -0.13731745
-0.338326 0.10104503 -0.39644656 0.07101651 -0.06442279 -0.4325043 0.012087878 0.040955298
0.30865034 -0.15613003 -0.22201486 -0.1660107 0.3557918 -0.32251817 0.3028453 0.4273488
-0.47962284 -0.35798118 -0.22826378 0.4331548 0.34845123 0.25677252 0.33825433 -0.11477142
0.24499133 0.16593741 0.32615316 0.40244263 0.35674608 -0.50380343 -0.12974489 0.3684144
0.44933861 -0.5624243 -0.11085933 -0.48994172 0.34221515 0.4903129 0.444075 -0.08672715
0.3267693 0.5187653 -0.11499135 -0.5188644 0.3058925 -0.1100045 0.42101744 -0.7151321
-0.13695961 0.3816685 0.21593308 0.44514522 0.2481245 0.30538782 0.3353538 -0.043116644
0.060878538 -0.36851138 -0.19657747 0.49009502 -0.36973253 0.3213459 0.30459732 0.43717986
-0.4094744 0.36212766 0.39880216 0.38057548 -0.54053116 -0.18147345 -0.31292495 0.11825038
0.18321896 0.3098395 0.3028124 0.3618185 -0.06792082 0.4109898 0.07357908 0.34417155
0.292083 0.45057368 -0.43388468 -0.4810118 0.3982605 0.27062294 0.45901722 -0.4674528
0.010742167 -0.0643298 0.22378875 -0.054434408 -0.03892757 -0.13156146 0.2294623 -0.25330526
0.3532492 -0.11884265 0.30981824 0.21154186 -0.111438766 -0.17234814 0.076945335 0.055394497
-0.15773173 0.3756683 0.4565585 0.07079027 0.32950285 0.24601449 -0.060768504 0.33303005
-0.81065154 -0.2760583 0.37853765 -0.2674744 0.039424676 0.18107162 0.36760718 -0.060172096
-0.121731244 -0.41586286 0.47221968 0.2515057 -0.05452662 0.25334722 -0.041918922 0.44840783
-0.14899561 0.15028214 -0.2869435 0.44271496 -0.046047475 -0.124012865 0.30077088 0.43873933
00000000: 6cd3 3e3e b87e 54be 6ebd 48bf 2dc6 80be
00000010: a69b 993d b044 bcbe 0098 3ebd 7649 d3bd
00000020: 3145 b3be c47c 3bbf 58d1 46be 4e73 103e
00000030: 6477 6fbe 4848 1bbe 1418 2dbf 807f 3ebe
00000040: 47c3 2bbc 1e9a aa3e 115a fa3d ff81 8c3d
00000050: d72b c8bd 9ece 1fbe 1c99 fdbe 6f19 053c
00000060: 2a96 cabc 7f3b 05bf 66c0 16be 534c 61bf
00000070: d745 ddbc 9fef 293e c5f8 4cbe 7ee8 e83c
00000080: a293 b2bd cf3d 9a3d d260 19be 91bb 34bf
00000090: 983c e13d 93af 1abf 1a7a 383e 577d d3be
000000a0: 8931 29bf 9d55 1fbe b021 2abe 24e4 f2bd
000000b0: 101b 223e f1ce 8a3d 0ec6 d4bd 418b 8d3c
000000c0: 98ff 11bf 6e12 cfbe 4dcc 05be 4f75 163e
000000d0: 281a 12be fbd0 f9bd 1660 fc3d 947e 073e
000000e0: 71d6 acbe 5974 45be 0765 203d a168 853d
000000f0: 68e5 5ebf b20e b8be 7da9 e1be 491d eb3b
00000100: f7b2 213e a0b1 b23d d0e2 823d 0a7d 4abe
00000110: e5fe 2ebf 959f 573e ba8d 2fbd d346 19be
00000120: 12d8 403e 0275 4b3d b6d9 97be 96ba cbbe
00000130: e27e e6bc b887 4e3d 5a41 c63d a53a 82be
00000140: 09af 4d3d 41d2 36be 9028 2bbf 0f02 cbbe
00000150: 39f0 c7bc 2656 2cbe 9a5d 26be fe5f 17bf
00000160: da6b 64be 979a 52be b840 5d3e b6d9 573d
00000170: 3de0 3dbe 7f6a f7bd 7bc6 d83c baf1 18be
00000180: 23ee 3abe 3f6d 563e 3492 1ebe 0dda 63bc
00000190: 5a37 ea3b 9c95 9dbe 5859 96bd 582d cdbd
000001a0: 2910 c1be e270 3bbc 5c8d 25be fedb cbbe
000001b0: 308a 303d 87b7 813d 9bd7 e63d e624 16be
000001c0: 60c6 c3be 1521 debe 4b9a 2dbe 5f0e a93d
000001d0: 549b 35be 104f f43c 8dc0 8fbe f29c 0cbe
000001e0: 1139 adbe b2f0 ce3d 0bfb cabe 1b71 913d
000001f0: 19f0 83bd 3471 ddbe 3c0c 463c bec0 273d
00000200: 6b07 9e3e 8de0 1fbe dd57 63be b5fe 29be
00000210: 582a b63e 1a21 a5be 8a0e 9b3e 76cd da3e
00000220: 2091 f5be 4f49 b7be fbbd 69be 77c6 dd3e
00000230: 3368 b23e b077 833e ac2f ad3e 470d ebbd
00000240: 02df 7a3e 7feb 293e 8cfd a63e f60c ce3e
00000250: 6ca7 b63e 43f9 00bf d8db 04be d0a0 bc3e
00000260: b60f e63e 0afb 0fbf 370a e3bd a4d9 fabe
00000270: d336 af3e 4b0a fb3e cc5d e33e 019e b1bd
00000280: 4e4e a73e cdcd 043f 9680 ebbd 4cd4 04bf
00000290: f19d 9c3e 0a4a e1bd 998f d73e e612 37bf
000002a0: 243f 0cbe 0e6a c33e 901d 5d3e 13ea e33e
000002b0: 5914 7e3e cb5b 9c3e 7eb3 ab3e 149b 30bd
000002c0: c65b 793d 86ad bcbe 9b4b 49be bced fa3e
000002d0: 954d bdbe 7387 a43e 2ef4 9b3e 0ad6 df3e
000002e0: a1a6 d1be cc68 b93e cc2f cc3e cada c23e
000002f0: 4060 0abf 2dd4 39be b337 a0be 412d f23d
00000300: c09d 3b3e 48a3 9e3e 3a0a 9b3e 4640 b93e
00000310: 121a 8bbd 416d d23e a1b0 963d 4137 b03e
00000320: e78b 953e 98b1 e63e 2226 debe 2e47 f6be
00000330: cde8 cb3e 178f 8a3e 4e04 eb3e f955 efbe
00000340: eaff 2f3c 58bf 83bd e128 653e 9df6 5ebd
00000350: 8472 1fbd 0cb8 06be 2af8 6a3e 3ab1 81be
00000360: 14dd b43e c663 f3bd 7fa0 9e3e 6e9e 583e
00000370: 023a e4bd 087c 30be 8495 9d3d 57e5 623d
00000380: 6d84 21be 9857 c03e 09c2 e93e 7dfa 903d
00000390: 99b4 a83e 39eb 7b3e 65e8 78bd ea82 aa3e
000003a0: dc86 4fbf 8357 8dbe b0cf c13e 68f2 88be
000003b0: c57b 213d d76a 393e 0237 bc3e 0477 76bd
000003c0: 3b4e f9bd faeb d4be c7c6 f13e 5bc5 803e
000003d0: 4e57 5fbd bab6 813e 2db3 2bbd b695 e53e
000003e0: 4e92 18be 90e3 193e 42ea 92be 89ab e23e
000003f0: 479c 3cbd 75fa fdbd a4fe 993e 71a2 e03e

net.2.bias f4 [128]
0.030468846 0.34272987 0.13146242 0.17983802 0.47238883 0.02755649 0.12999478 0.038340107
0.052423287 0.11000329 0.05894723 0.13132508 0.36025503 0.061332833 -0.20717196 0.2502982
0.33604977 0.20039959 0.43876842 -0.027956625 0.054225907 0.14512157 -0.08083565 0.18312396
0.07621251 0.0878475 0.28763756 0.055770364 -0.013238311 -0.19903485 0.101851836 0.040522553
0.3549175 0.13486926 0.07193331 0.013739008 0.0920675 0.1600026 0.05550356 -0.014998599
0.34210992 0.06837434 0.16592716 0.1070023 0.3466928 0.26698875 -0.036889013 0.08984121
0.029889947 0.06110873 0.46358323 0.063202806 0.10116412 -0.08190897 0.36438808 0.46442264
0.40489146 0.025985468 0.13997999 0.08836397 0.3777847 0.08647633 0.13215983 -0.010543253
-0.088666886 0.061264567 -0.09917732 0.38479826 0.4043765 0.10633225 0.08536143 0.28956437
0.27608955 0.22106715 -0.06682681 0.025618376 -0.0082342215 -0.045568366 -0.022485312 0.09217526
0.35419723 -0.108915426 0.1845021 -0.0032098545 -0.03351841 -0.031188374 -0.051290248 0.46876314
0.31790024 0.15813182 0.048509117 0.124624215 0.045204107 -0.017469555 0.008702431 0.017362323
-0.04683706 0.20615207 0.12935731 0.122755945 0.095003344 0.13903607 0.03925688 0.010738242
0.018783193 0.3993534 0.13569173 0.27881342 0.0858332 0.43419242 0.09617476 0.05542818
-0.0340914 0.22252595 0.012805297 -0.039968338 0.07237923 0.07991807 -0.0017432028 -0.008093291
0.1343382 0.14531879 0.04624222 0.23988816 0.09810232 0.43479854 0.022472398 0.05802128
00000000: cd99 f93c 4a7a af3e 169e 063e 7527 383e
00000010: f3dc f13e 26be e13c 5a1d 053e 840a 1d3d
00000020: cdb9 563d 6849 e13d a772 713d 157a 063e
00000030: 5973 b83e 2338 7b3d e324 54be 1627 803e
00000040: b70e ac3e 8d35 4d3e 41a6 e03e 4b05 e5bc
00000050: fc1b 5e3d c09a 143e 298d a5bd d984 3b3e
00000060: 4e15 9c3d 64e9 b33d 3b45 933e 776f 643d
00000070: 80e5 58bc cbcf 4bbe b297 d03d fafa 253d
00000080: bfb7 b53e 2b1b 0a3e c551 933d 9419 613c
00000090: e38d bc3d b9d7 233e b357 633d afbc 75bc
000000a0: 0829 af3e d907 8c3d cfe8 293e 0624 db3d
000000b0: b881 b13e c0b2 883e ef18 17bd abfe b73d
000000c0: c3db f43c 264d 7a3d c85a ed3e 7970 813d
000000d0: 222f cf3d e4bf a7bd 1391 ba3e cec8 ed3e
000000e0: ef4d cf3e 7adf d43c ea56 0f3e 2bf8 b43d
000000f0: ff6c c13e 811a b13d e854 073e 9cbd 2cbc
00000100: fc96 b5bd 8ef0 7a3d 7b1d cbbd 4704 c53e
00000110: 700a cf3e b9c4 d93d f9d1 ae3d c841 943e
00000120: 9c5b 8d3e 6d5f 623e 7fdc 88bd a1dd d13c
00000130: d4e8 06bc e5a5 3abd 1e33 b8bc 62c6 bc3d
00000140: 5759 b53e 0d0f dfbd 1eee 3c3e 6c5c 52bb
00000150: 9a4a 09bd c37e ffbc b915 52bd b901 f03e
00000160: d2c3 a23e 4fed 213e 7fb1 463d fb3a ff3d
00000170: f127 393d 501c 8fbc a494 0e3c 6e3b 8e3c
00000180: 38d8 3fbd 8719 533e 3e76 043e 7867 fb3d
00000190: 1d91 c23d 795f 0e3e d2cb 203d 74ef 2f3c
000001a0: 36df 993c 0d78 cc3e c6f2 0a3e a2c0 8e3e
000001b0: 51c9 af3d 784e de3e 46f7 c43d a908 633d
000001c0: 6da3 0bbd d8dd 633e 4fcd 513c d7b5 23bd
000001d0: 903b 943d 16ac a33d 2e7c e4ba b999 04bc
000001e0: f48f 093e 73ce 143e 7b68 3d3d 3ea5 753e
000001f0: dfe9 c83d ea9d de3e 0918 b83c b9a7 6d3d

net.4.weight f4 [2, 128]
0.3878637 0.45547572 0.807018 0.76863915 0.44084546 0.09361729 0.53147674 -0.3989869
-0.5430714 0.38481557 0.10437647 0.41609406 0.48363283 -0.22573426 -0.5708897 -0.21770382
0.57875305 -0.046272457 0.48841006 0.062554434 0.32741705 0.14919841 0.014450243 0.813263
0.53747416 -0.21225382 0.0791276 0.30596513 0.21154164 -0.48404264 -0.46438846 0.3279665
0.46497595 0.35104346 0.2912506 -0.07242252 0.29109326 0.5065304 0.33792135 0.34451362
0.4142296 0.35327914 0.5354535 0.4821435 0.49287406 0.414343 -0.14789104 0.4578318
0.41237694 0.33157235 0.41131896 -0.386696 -0.5240014 0.0066753426 0.4259616 0.45693785
0.43578896 -0.8073483 0.3996059 0.53585696 0.5337294 -0.41712403 0.3189213 0.3715943
-0.27591595 0.5586815 -0.6480644 0.49888963 0.4132326 0.3124696 0.5789237 0.40939078
-0.5119839 -0.56560165 -0.054261286 -0.56436414 -0.022902995 -0.082771815 0.04097555 -0.2875655
0.40619832 -0.7782 -0.6068983 -0.4481008 -0.08017892 0.012861463 -0.5050268 0.46352887
0.529801 0.46124426 -0.4845391 0.7762724 -0.5825608 -0.048588842 0.05502842 0.3363326
-0.070914246 -0.6228399 0.29597163 0.425083 -0.2924507 0.3665168 0.43077996 -0.31845158
-0.029074129 0.43101877 0.5704736 0.50263244 0.24402006 0.4664022 -0.43723708 -0.57628
-0.18991083 0.4330036 0.6393533 -0.05871587 -0.49607253 0.44846526 -0.4010325 -0.0714019
-0.15989333 0.16915163 0.6313672 0.4550006 0.26880783 0.3926536 0.5751871 0.676471
0.3528342 0.4196546 0.80218184 0.59359705 0.41136098 0.48224905 0.40100235 -0.25612745
-0.5614713 0.41635996 0.26033157 0.2841002 0.38127697 -0.33948767 -0.7696872 -0.4487392
0.50846374 -0.35126618 0.4944892 0.060116302 0.36583462 -0.07963219 0.0844763 0.84050876
0.62085956 -0.34185514 -0.39453048 0.36560652 0.31079087 -0.54572874 -0.20728399 0.19012284
0.47150052 0.25938815 0.24247658 -0.08713119 0.30479994 0.6058533 0.38142762 0.40487742
0.4296788 0.3912149 0.70738643 -0.2188963 0.5072325 0.48090664 -0.37654173 0.19940545
0.37710166 0.30624595 0.45774755 -0.47498778 -0.24724504 -0.024471859 0.4713937 0.40250278
0.41732803 -0.79279006 0.3467642 -0.24008736 0.5447209 -0.48892248 0.2492349 0.34392792
-0.58933705 0.55759 -0.6672042 0.49439415 0.47785068 0.23896107 0.67956936 0.47381577
-0.38010043 -0.3930226 -0.0548725 -0.5058258 -0.058722958 -0.054851484 0.043878067 -0.28221777
0.48407927 -0.5763905 -0.3919692 -0.51032615 0.0010558182 -0.083553694 -0.38582626 0.4807919
0.5172856 0.55285305 -0.25116545 0.6890094 -0.7635961 -0.080400795 -0.03152507 0.25726652
0.2347585 -0.5616954 0.26245004 0.4342561 -0.28118455 0.4621521 0.37426803 -0.20364608
-0.046523407 0.4383355 0.58571804 0.5413188 0.30800644 0.40827933 -0.08385358 -0.49691862
-0.56702584 0.58227533 0.96730256 0.024358869 -0.36605948 0.31345248 -0.31510258 -0.07030012
-0.31221735 0.14546332 0.49361408 0.44747925 0.38549745 0.45629436 0.56732994 0.65755874
00000000: 1296 c63e 1d34 e93e bb98 4e3f 89c5 443f
00000010: 7fb6 e13e 6cba bf3d dc0e 083f 0348 ccbe
00000020: ba06 0bbf 8c06 c53e 55c3 d53d 480a d53e
00000030: b99e f73e e226 67be d425 12bf c0ed 5ebe
00000040: 2929 143f 3088 3dbd e210 fa3e 8a1c 803d
00000050: 35a3 a73e 78c7 183e b6c0 6c3c 0132 503f
00000060: e897 093f 1159 59be a70d a23d 76a7 9c3e
00000070: 5f9e 583e 70d4 f7be 53c4 edbe 3aeb a73e
00000080: 5411 ee3e f8bb b33e cc1e 953e 4252 94bd
00000090: 2d0a 953e faab 013f 0704 ad3e 1764 b03e
000000a0: e715 d43e 01e1 b43e 7b13 093f 83db f63e
000000b0: fd59 fc3e c424 d43e c070 17be ee68 ea3e
000000c0: 1223 d33e dac3 a93e 6698 d23e 05fd c5be
000000d0: f524 06bf d5bc da3b a417 da3e c2f3 e93e
000000e0: bb1f df3e 61ae 4ebf 2599 cc3e ec2d 093f
000000f0: 7da2 083f 4891 d5be a749 a33e 9c41 be3e
00000100: db44 8dbe c005 0f3f 8ce7 25bf 766e ff3e
00000110: 3993 d33e 04fc 9f3e 5834 143f ab9b d13e
00000120: 6011 03bf 45cb 10bf 1541 5ebd 2b7a 10bf
00000130: 109f bbbc 4584 a9bd fad5 273d c93b 93be
00000140: 3af9 cf3e 1d38 47bf b05d 1bbf 786d e5be
00000150: d834 a4bd e3b8 523c 7049 01bf a853 ed3e
00000160: 0aa1 073f 3528 ec3e 8215 f8be cab9 463f
00000170: b422 15bf 1805 47bd 7b65 613d c933 ac3e
00000180: 7d3b 91bd 7072 1fbf 9889 973e 7ba4 d93e
00000190: 19bc 95be 17a8 bb3e 318f dc3e 160c a3be
000001a0: de2c eebc 7eae dc3e 8f0a 123f 85ac 003f
000001b0: 65e0 793e 45cc ee3e 8add dfbe 1687 13bf
000001c0: fc77 42be a6b2 dd3e a8ac 233f 0d80 70bd
000001d0: 38fd fdbe 3d9d e53e 2254 cdbe 293b 92bd
000001e0: 14bb 23be 1636 2d3e 48a1 213f d7f5 e83e
000001f0: 2ea1 893e e509 c93e 763f 133f 342d 2d3f
00000200: afa6 b43e f8dc d63e ca5b 4d3f faf5 173f
00000210: e89d d23e 59e9 f63e 2e50 cd3e 2323 83be
00000220: 95bc 0fbf 222d d53e 2e4a 853e 9575 913e
00000230: bc36 c33e 54d1 adbe 380a 45bf 25c1 e5be
00000240: ae2a 023f 29d9 b3be b02d fd3e 833c 763d
00000250: ad4e bb3e 3416 a3bd e901 ad3d 952b 573f
00000260: a7f0 1e3f a307 afbe e6ff c9be c730 bb3e
00000270: fb1f 9f3e e1b4 0bbf 4142 54be 90af 423e
00000280: 8468 f13e 86ce 843e c84b 783e d671 b2bd
00000290: bd0e 9c3e 3419 1b3f 7b4a c33e 184c cf3e
000002a0: dcfe db3e 524d c83e 4717 353f 5a26 60be
000002b0: fdd9 013f 6539 f63e 14ca c0be f130 4c3e
000002c0: 7813 c13e 45cc 9c3e e35d ea3e 9931 f3be
000002d0: ce2d 7dbe 3579 c8bc 845a f13e d814 ce3e
000002e0: 05ac d53e 4af4 4abf 148b b13e 76d9 75be
000002f0: d472 0b3f 0c54 fabe 6f37 7f3e 5217 b03e
00000300: cbde 16bf 38be 0e3f e5cd 2abf 3b21 fd3e
00000310: d8a8 f43e 36b2 743e 42f8 2d3f fb97 f23e
00000320: 869c c2be 423a c9be fdc1 60bd cd7d 01bf
00000330: 7c87 70bd f3ab 60bd 7db9 333d d97e 90be
00000340: 3dd9 f73e 548e 13bf 30b0 c8be bca4 02bf
00000350: 6163 8a3a 331e abbd 058b c5be 5b2a f63e
00000360: d46c 043f c787 0d3f c298 80be ec62 303f
00000370: 097b 43bf 2ca9 a4bd 6f20 01bd 70b8 833e
00000380: 8864 703e 45cb 0fbf da5f 863e d156 de3e
00000390: 6cf7 8fbe 339f ec3e 0fa0 bf3e 9988 50be
000003a0: 548f 3ebd 836d e03e 9ef1 153f de93 0a3f
000003b0: 05b3 9d3e fd09 d13e 6dbb abbd 1e6c febe
000003c0: 9b28 11bf ff0f 153f 24a1 773f 408c c73c
000003d0: 266c bbbe d87c a03e 2055 a1be 82f9 8fbd
000003e0: f4da 9fbe 56f4 143e fcba fc3e 001c e53e
000003f0: ec5f c53e 6a9f e93e 893c 113f c555 283f

net.4.bias f4 [2]
0.27373037 0.20145418
00000000: 6326 8c3e 014a 4e3e

net.0.weight f4 [128, 4]
-0.326293 0.5453594 1.2783041 -0.0018255942 0.78038657 0.06689368 0.5513291 0.3110797
-0.61695874 -0.60000485 -2.086111 -0.39514786 0.42069873 0.3973894 0.79995614 0.38382927
-0.16246611 0.35358104 -0.454859 0.098234676 0.28427383 0.56109333 1.3555301 0.5371322
0.23611586 0.07971156 0.4136639 0.3759544 0.21469836 -0.23039357 -0.23338267 0.22942403
0.39210385 0.19818282 1.3343308 0.30520225 -0.34476542 -0.70253754 -1.3917881 -0.46210936
0.27752876 0.26820633 -0.44909146 0.08137962 0.05367509 0.30206573 -0.53692377 0.11508809
-0.15148981 -0.4537843 -0.49466464 -0.26347595 -0.24285452 -0.24807985 0.037538543 -0.07267664
-0.6769606 -0.7406278 -0.9570929 -0.7378365 0.6043679 0.42275563 0.82341063 0.3166859
0.19537745 0.22620973 -0.43739974 -0.11869681 0.4007774 -0.2708081 -0.72837865 -0.07031607
0.1481434 0.16894053 -0.026563331 0.08519006 -0.07139555 0.005898147 -0.016757086 0.17030995
-0.15424097 -0.06900818 0.25089645 0.3153143 0.25018567 -0.3832548 0.98232424 0.0008244843
-0.7697352 -0.29722562 -0.40998918 -0.23815224 -0.22069949 0.17689973 0.17692399 0.19035085
0.13189971 0.015131499 -0.29243743 0.4516113 0.023995126 0.25486475 1.4879947 0.37739202
0.72632736 0.078041606 0.78729993 0.38292286 -0.1932146 -0.43570435 -1.647862 -0.37668312
-0.13311651 -0.2856508 -0.7371508 -0.27289 -0.12314163 0.3993676 -0.1398336 0.03283993
-0.371397 -0.4693454 -0.37670928 -0.21165042 0.8028809 0.56343323 0.010014381 -0.4281306
-0.05317779 0.03182111 -0.05940939 -0.17211156 -0.23740579 0.0917485 -0.5243705 -0.10130245
0.51767135 0.41751143 -0.5539798 -0.27919433 -0.11631791 -0.90656686 -0.7051269 -0.64390075
0.040325925 0.22275022 0.34348923 0.3066587 -0.9272124 -0.7177723 -0.8541899 -0.45575327
0.33830538 -0.054973084 -0.24153726 -0.18810754 0.14928587 0.37361163 1.1868176 0.43102673
-0.2598386 -0.54503936 -0.87179136 -0.40817136 -0.096776515 0.005257225 -0.19421767 -0.1973008
0.17188533 -0.76965034 -0.44910404 -0.35535637 0.5007483 -0.4491517 -0.3537632 0.06952403
0.2305231 0.3059352 0.10829413 0.25146112 0.17122911 0.14774902 0.5043621 0.25672412
0.53037655 -0.46376553 -0.5919649 0.109151594 -0.59498477 0.48386207 0.38210166 0.520194
-0.8887697 -0.436607 -2.287962 -0.30208912 0.87587106 -0.23556362 -0.43919685 -0.24742533
0.5961519 0.2449621 1.0864562 0.4557256 0.3417819 -0.05094329 -0.015512397 0.052376524
-0.25451276 -0.23452741 0.120952904 -0.14713538 0.28442076 -0.27096272 -0.3262793 -0.15704307
-0.28813946 0.64045095 0.18569107 0.469546 0.13500504 0.15492317 -0.08644171 0.06633498
0.8223464 -0.40884185 0.1814304 -0.27655807 0.015264612 -0.50212026 -0.4695771 -0.15734841
0.35574338 -0.10727612 0.41574743 0.16461919 0.029570831 0.38587606 0.012335698 -0.18282759
-0.27418697 -0.8953298 -1.8956115 -0.5931948 -0.92673934 -0.7517593 0.05368594 -0.2873791
-0.4407982 -0.5482075 -0.9671332 -0.5031035 0.31740078 0.6591793 0.52620286 0.5498684
00000000: e00f a7be ac9c 0b3f 789f a33f c748 efba
00000010: 6ac7 473f 8eff 883d e723 0d3f d745 9f3e
00000020: 02f1 1dbf eb99 19bf d882 05c0 d250 cabe
00000030: d365 d73e a076 cb3e edc9 4c3f 4585 c43e
00000040: 845d 26be 9308 b53e 47e3 e8be 432f c93d
00000050: 578c 913e d0a3 0f3f 0382 ad3f 7f81 093f
00000060: 5bc8 713e d03f a33d c1cb d33e 187d c03e
00000070: e3d9 5b3e 4bec 6bbe defb 6ebe 22ee 6a3e
00000080: d6c1 c83e 70f0 4a3e 5acb aa3f 7843 9c3e
00000090: 1885 b0be 80d9 33bf 1d26 b2bf 9999 ecbe
000000a0: 4018 8e3e 5752 893e 51ef e5be 5caa a63d
000000b0: 69da 5b3d 5ca8 9a3e d673 09bf 4eb3 eb3d
000000c0: 2520 1bbe 6a56 e8be af44 fdbe 52e6 86be
000000d0: dbae 78be a508 7ebe 04c2 193d 7dd7 94bd
000000e0: 4a4d 2dbf c999 3dbf 0a04 75bf dae2 3cbf
000000f0: dbb7 1a3f 6d73 d83e 0acb 523f a724 a23e
00000100: 0711 483e 86a3 673e dcf2 dfbe 5017 f3bd
00000110: b232 cd3e 5ca7 8abe 0677 3abf df01 90bd
00000120: e7b2 173e bffe 2c3e 589b d9bc 2078 ae3d
00000130: d537 92bd 3e45 c13b 2846 89bc bb65 2e3e
00000140: 58f1 1dbe 2954 8dbd 8075 803e e070 a13e
00000150: 5618 803e f939 c4be 9a79 7b3f 3422 583a
00000160: 5e0d 45bf f52d 98be 1aea d1be 2ede 73be
00000170: 0cff 61be 3425 353e 902b 353e 55eb 423e
00000180: b810 073e 1bea 773c 5cba 95be 9939 e73e
00000190: 6d91 c43c a27d 823e 9c76 be3f 8739 c13e
000001a0: 97f0 393f 47d4 9f3d 7d8c 493f 770e c43e
000001b0: 0cda 45be a414 dfbe 24ed d2bf 9cdc c0be
000001c0: b24f 08be d240 92be eab5 3cbf 3db8 8bbe
000001d0: ae31 fcbd e979 cc3e 8a30 0fbe 2a83 063d
000001e0: bf27 bebe 0a4e f0be 0ae0 c0be e3ba 58be
000001f0: 9a89 4d3f 293d 103f 5c13 243c ef33 dbbe
00000200: f4d0 59bd da56 023d 4357 73bd 033e 30be
00000210: 811a 73be a3e6 bb3d 253d 06bf a977 cfbd
00000220: 1c86 043f 0fc4 d53e 9fd1 0dbf 8ff2 8ebe
00000230: 1638 eebd c414 68bf 3283 34bf aed6 24bf
00000240: cc2c 253d a218 643e d2dd af3e 5e02 9d3e
00000250: cb5d 6dbf edbf 37bf 30ac 5abf 7e58 e9be
00000260: 5d36 ad3e 752b 61bd 8b55 77be 439f 40be
00000270: 65de 183e 064a bf3e a4e9 973f 89af dc3e
00000280: 9109 85be b387 0bbf b82d 5fbf d6fb d0be
00000290: c432 c6bd cd44 ac3b ffe0 46be 3909 4abe
000002a0: b502 303e ce07 45bf f7f0 e5be 45f1 b5be
000002b0: 0a31 003f 36f7 e5be 7320 b5be 9d62 8e3d
000002c0: 3f0e 6c3e 8aa3 9c3e 50c9 dd3d 83bf 803e
000002d0: af56 2f3e 854b 173e e01d 013f 5871 833e
000002e0: c2c6 073f ad72 edbe 038b 17bf df8a df3d
000002f0: ec50 18bf c5bc f73e d4a2 c33e 6f2b 053f
00000300: 6986 63bf f48a dfbe f86d 12c0 6dab 9abe
00000310: 1639 603f 9737 71be 69de e0be 115d 7dbe
00000320: 699d 183f 58d7 7a3e ff10 8b3f de54 e93e
00000330: 0afe ae3e e9a9 50bd b527 7ebc c488 563d
00000340: 7f4f 82be f427 70be 28b6 f73d a8aa 16be
00000350: 999f 913e a0bb 8abe 150e a7be e6cf 20be
00000360: 0487 93be 98f4 233f cd25 3e3e 5568 f03e
00000370: c33e 0a3e 2ea4 1e3e 5a08 b1bd a2da 873d
00000380: 4b85 523f b853 d1be e4c8 393e 0599 8dbe
00000390: 6c18 7a3c f48a 00bf 696c f0be f11f 21be
000003a0: ff23 b63e 95b3 dbbd d9dc d43e ef91 283e
000003b0: 873e f23c 8c91 c53e ab1b 4a3c 2837 3bbe
000003c0: 3c62 8cbe 5534 65bf 66a3 f2bf 9ddb 17bf
000003d0: ca3e 6dbf 4c73 40bf cae5 5b3d 5a23 93be
000003e0: 4db0 e1be 5457 0cbf 0b96 77bf 64cb 00bf
000003f0: 5b82 a23e f9bf 283f 3bb5 063f 2dc4 0c3f

net.0.bias f4 [128]
0.3507866 -0.14803469 0.1460362 -0.032816425 0.61391264 0.03557778 0.79490507 0.7275232
-0.04189324 -0.025560662 0.012387723 0.74645495 0.45996013 0.44644338 0.08223958 0.01757443
0.8404305 0.03447204 0.6403267 0.60338813 0.88288534 -0.34597984 1.1102864 0.59434307
0.8728206 -0.041988447 -0.23547792 0.36924645 0.79662883 0.7276757 0.8592863 0.15598853
0.56525517 0.7981698 -0.5362004 0.36420137 0.59788543 -0.077790916 0.75361586 -0.26581633
0.49848148 0.65629506 0.3926283 0.5332481 0.7573399 0.7705469 0.63512146 0.57919466
0.24603513 -0.132553 0.1336686 0.78945065 -0.3104288 -0.056240134 0.6152907 0.6352975
-0.017143624 0.42126575 0.7714467 0.81192136 -0.1370825 -0.33695725 -0.18747407 0.3802348
0.5886535 0.71992296 0.85872495 0.7992356 -0.0034948254 0.6167247 0.32176796 0.3120395
0.6912636 0.68557626 -0.357584 -0.1937468 0.8260006 0.7857139 0.40767884 -0.25058144
-0.39705533 -0.09757487 0.2490656 -0.15467659 0.27064314 0.61327165 0.0018607776 -0.11434457
0.38506594 0.005304694 0.72389996 0.43142444 0.93839717 -0.03831004 0.5802855 0.088517435
-0.28986862 -0.027884385 0.6299143 -0.01073176 0.47755593 0.8385619 -0.25384098 0.76971483
0.06351976 -0.5156735 0.72752696 0.060259838 -0.49559563 0.38845396 0.76841867 0.13517447
-0.24247162 -0.4640077 0.37638912 0.58306396 -0.0866285 0.3617147 0.07191292 0.72903436
0.8816642 -0.07326717 0.98103184 0.52417356 -0.38870555 0.23513891 0.63892657 0.5171303
00000000: 4d9a b33e 6896 17be 838a 153e 846a 06bd
00000010: 6129 1d3f 02ba 113d e67e 4b3f f63e 3a3f
00000020: 3f98 2bbd 9864 d1bc e0f5 4a3c ac17 3f3f
00000030: e57f eb3e 3a94 e43e 3a6d a83d 40f8 8f3c
00000040: 7426 573f 8e32 0d3d 73ec 233f a577 1a3f
00000050: c604 623f 4524 b1be dd1d 8e3f de26 183f
00000060: 2c71 5f3f 14fc 2bbd 2021 71be df0d bd3e
00000070: deef 4b3f f448 3a3f 30fa 5b3f 75bb 1f3e
00000080: 90b4 103f db54 4c3f 6e44 09bf 9a78 ba3e
00000090: 050f 193f d850 9fbd f8ec 403f 1419 88be
000000a0: f738 ff3e f402 283f 9406 c93e f382 083f
000000b0: 07e1 413f 9042 453f 5297 223f 1a46 143f
000000c0: a2f0 7b3e f9bb 07be 6ce0 083e 7019 4a3f
000000d0: 86f0 9ebe 0e5c 66bd b183 1d3f dba2 223f
000000e0: c970 8cbc 25b0 d73e 887d 453f 14da 4f3f
000000f0: 5b5f 0cbe a985 acbe 34f9 3fbe 23ae c23e
00000100: ffb1 163f df4c 383f 66d5 5b3f b49a 4c3f
00000110: 7109 65bb ace1 1d3f c5be a43e a4c3 9f3e
00000120: a7f6 303f ed81 2f3f 4015 b7be 9065 46be
00000130: c674 533f 8c24 493f 48bb d03e 364c 80be
00000140: d64a cbbe 55d5 c7bd 0d0b 7f3e 8a63 1ebe
00000150: bd91 8a3e 5fff 1c3f 56e5 f33a 7c2d eabd
00000160: 5d27 c53e 00d3 ad3b 8251 393f aae3 dc3e
00000170: cc3a 703f fdea 1cbd 978d 143f a148 b53d
00000180: a969 94be cb6d e4bc 1042 213f 44d4 2fbc
00000190: 3682 f43e feab 563f 72f7 81be 080c 453f
000001a0: a616 823d 2e03 04bf 353f 3a3f 05d3 763d
000001b0: b6be fdbe 70e3 c63e 16b7 443f 2d6b 0a3e
000001c0: 7b4a 78be 6b92 edbe 13b6 c03e ae43 153f
000001d0: 486a b1bd ab32 b93e 1547 933d ffa1 3a3f
000001e0: bfb4 613f 190d 96bd e724 7b3f 3d30 063f
000001f0: 6a04 c7be 41c8 703e b190 233f a762 043f

net.2.weight f4 [128, 128]
0.18635339 -0.20751464 -0.78414047 -0.25151196 0.07500391 -0.36771154 -0.046531677 -0.10316746
-0.35013726 -0.7323725 -0.19415796 0.14106485 -0.23385388 -0.15164292 -0.67614865 -0.18603325
-0.010483569 0.33320707 0.1222421 0.06860732 -0.09773987 -0.15606162 -0.49530876 0.00812374
-0.024729807 -0.5204391 -0.14721832 -0.88007087 -0.027010841 0.16595314 -0.20016773 0.028431173
-0.08719565 0.0753132 -0.1497834 -0.70598704 0.109978855 -0.60424155 0.18015328 -0.41306564
-0.6609121 -0.15560003 -0.16614413 -0.118599206 0.15830636 0.06777752 -0.103893384 0.017278315
-0.5703063 -0.40443748 -0.13066216 0.14693187 -0.1426779 -0.12198063 0.123230144 0.1323188
-0.33757356 -0.19282664 0.039158847 0.06514097 -0.87068796 -0.35948712 -0.44074622 0.007175122
0.15790926 0.087252855 0.06390917 -0.19774261 -0.6835769 0.2105697 -0.04285977 -0.14968424
0.18832424 0.049672134 -0.29658288 -0.3979079 -0.028136674 0.0504224 0.096804336 -0.25435367
0.050215755 -0.17853643 -0.6685877 -0.39650008 -0.02440654 -0.16829738 -0.16246644 -0.5913085
-0.22306767 -0.20566784 0.2160672 0.05269786 -0.18542571 -0.120808594 0.02646183 -0.14935961
-0.18254904 0.20940112 -0.1548546 -0.013906968 0.0071477117 -0.30778205 -0.0734126 -0.10018414
-0.37707642 -0.011440488 -0.16167206 -0.39816278 0.043100536 0.06333833 0.11271592 -0.14662513
-0.38237286 -0.43384615 -0.1695339 0.08254694 -0.17735034 0.029822856 -0.28076592 -0.13731745
-0.338326 0.10104503 -0.39644656 0.07101651 -0.06442279 -0.4325043 0.012087878 0.040955298
0.30865014 -0.1562012 -0.22200942 -0.16608472 0.35576612 -0.3225919 0.30280492 0.42731383
-0.47969654 -0.35798204 -0.22833276 0.4331177 0.3484686 0.2568052 0.33826095 -0.114842005
0.24495074 0.16587932 0.32611257 0.40241945 0.35672817 -0.50378317 -0.12970266 0.36840135
0.44930446 -0.5624876 -0.11093115 -0.48989287 0.34220245 0.4902819 0.44409192 -0.086793005
0.3267422 0.51875085 -0.115055636 -0.51880664 0.30585536 -0.11000465 0.42097497 -0.715176
-0.13691382 0.3816454 0.21591504 0.44510126 0.248081 0.30534792 0.33531088 -0.04307174
0.060895186 -0.36857906 -0.196642 0.49005294 -0.36973253 0.32128534 0.30457443 0.43713996
-0.4095389 0.362118 0.39876 0.3805374 -0.54053116 -0.18147345 -0.31292495 0.11819333
0.18317047 0.3098035 0.3027808 0.3618332 -0.06792281 0.4109656 0.07351675 0.34423244
0.2920478 0.45056048 -0.43393776 -0.4810758 0.39824376 0.27059847 0.4590149 -0.4674528
0.010742167 -0.064325415 0.22385551 -0.054434408 -0.03898884 -0.1315662 0.22943695 -0.25330526
0.3532527 -0.11891734 0.30977628 0.21149333 -0.111438535 -0.17243084 0.0768898 0.055340596
-0.15775952 0.37566718 0.45657462 0.070732124 0.32946092 0.24600379 -0.060843952 0.33299923
-0.81073 -0.2760583 0.37850755 -0.26753938 0.039424676 0.18102778 0.36756593 -0.06023846
-0.121731244 -0.41586286 0.47219896 0.25146413 -0.054598495 0.2533089 -0.04187359 0.44843248
-0.14899163 0.15022297 -0.28694913 0.44269496 -0.046047475 -0.12399945 0.30073223 0.43873796
00000000: 6cd3 3e3e b87e 54be 6ebd 48bf 2dc6 80be
00000010: a69b 993d b044 bcbe 0098 3ebd 7649 d3bd
00000020: 3145 b3be c47c 3bbf 58d1 46be 4e73 103e
00000030: 6477 6fbe 4848 1bbe 1418 2dbf 807f 3ebe
00000040: 47c3 2bbc 1e9a aa3e 115a fa3d ff81 8c3d
00000050: d72b c8bd 9ece 1fbe 1c99 fdbe 6f19 053c
00000060: 2a96 cabc 7f3b 05bf 66c0 16be 534c 61bf
00000070: d745 ddbc 9fef 293e c5f8 4cbe 7ee8 e83c
00000080: a293 b2bd cf3d 9a3d d260 19be 91bb 34bf
00000090: 983c e13d 93af 1abf 1a7a 383e 577d d3be
000000a0: 8931 29bf 9d55 1fbe b021 2abe 24e4 f2bd
000000b0: 101b 223e f1ce 8a3d 0ec6 d4bd 418b 8d3c
000000c0: 98ff 11bf 6e12 cfbe 4dcc 05be 4f75 163e
000000d0: 281a 12be fbd0 f9bd 1660 fc3d 947e 073e
000000e0: 71d6 acbe 5974 45be 0765 203d a168 853d
000000f0: 68e5 5ebf b20e b8be 7da9 e1be 491d eb3b
00000100: f7b2 213e a0b1 b23d d0e2 823d 0a7d 4abe
00000110: e5fe 2ebf 959f 573e ba8d 2fbd d346 19be
00000120: 12d8 403e 0275 4b3d b6d9 97be 96ba cbbe
00000130: e27e e6bc b887 4e3d 5a41 c63d a53a 82be
00000140: 09af 4d3d 41d2 36be 9028 2bbf 0f02 cbbe
00000150: 39f0 c7bc 2656 2cbe 9a5d 26be fe5f 17bf
00000160: da6b 64be 979a 52be b840 5d3e b6d9 573d
00000170: 3de0 3dbe 7f6a f7bd 7bc6 d83c baf1 18be
00000180: 23ee 3abe 3f6d 563e 3492 1ebe 0dda 63bc
00000190: 5a37 ea3b 9c95 9dbe 5859 96bd 582d cdbd
000001a0: 2910 c1be e270 3bbc 5c8d 25be fedb cbbe
000001b0: 308a 303d 87b7 813d 9bd7 e63d e624 16be
000001c0: 60c6 c3be 1521 debe 4b9a 2dbe 5f0e a93d
000001d0: 549b 35be 104f f43c 8dc0 8fbe f29c 0cbe
000001e0: 1139 adbe b2f0 ce3d 0bfb cabe 1b71 913d
000001f0: 19f0 83bd 3471 ddbe 3c0c 463c bec0 273d
00000200: 6407 9e3e 35f3 1fbe 7056 63be 1d12 2abe
00000210: fa26 b63e c42a a5be 3f09 9b3e e1c8 da3e
00000220: c99a f5be 6c49 b7be 10d0 69be 9ac1 dd3e
00000230: 7a6a b23e f97b 833e 8a30 ad3e 4932 ebbd
00000240: 5ed4 7a3e 45dc 293e 3af8 a63e ec09 ce3e
00000250: 13a5 b63e eff7 00bf c6d0 04be 1a9f bc3e
00000260: 3c0b e63e 30ff 0fbf df2f e3bd 3dd3 fabe
00000270: 2935 af3e 3b06 fb3e 0460 e33e 88c0 b1bd
00000280: c14a a73e dbcc 043f 4aa2 ebbd 83d0 04bf
00000290: 1399 9c3e 1e4a e1bd 088a d73e c615 37bf
000002a0: 2333 0cbe 0767 c33e d518 5d3e 50e4 e33e
000002b0: f208 7e3e 9056 9c3e dead ab3e fe6b 30bd
000002c0: 3b6d 793d 65b6 bcbe 855c 49be 38e8 fa3e
000002d0: 954d bdbe 837f a43e 2ef1 9b3e cfd0 df3e
000002e0: 15af d1be 8867 b93e 452a cc3e ccd5 c23e
000002f0: 4060 0abf 2dd4 39be b337 a0be 580f f23d
00000300: 0a91 3b3e 909e 9e3e 1606 9b3e 3442 b93e
00000310: 1d1b 8bbd 156a d23e f38f 963d 3c3f b03e
00000320: 4a87 953e ddaf e63e 172d debe 914f f6be
00000330: 9be6 cb3e e28b 8a3e 0004 eb3e f955 efbe
00000340: eaff 2f3c 0bbd 83bd 613a 653e 9df6 5ebd
00000350: c3b2 1fbd 4ab9 06be 85f1 6a3e 3ab1 81be
00000360: 8add b43e ef8a f3bd ff9a 9e3e b591 583e
00000370: e339 e4bd b691 30be 6678 9d3d d2ac 623d
00000380: b68b 21be 7357 c03e 26c4 e93e 01dc 903d
00000390: 1aaf a83e 6be8 7b3e 8237 79bd e07e aa3e
000003a0: 008c 4fbf 8357 8dbe becb c13e ecfa 88be
000003b0: c57b 213d 595f 393e 9a31 bc3e 9abc 76bd
000003c0: 3b4e f9bd faeb d4be 10c4 f13e e8bf 803e
000003d0: aca2 5fbd b4b1 813e a483 2bbd f198 e53e
000003e0: 4391 18be 0dd4 193e ffea 92be eaa8 e23e
000003f0: 479c 3cbd 6cf3 fdbd 93f9 993e 43a2 e03e

net.2.bias f4 [128]
0.030468846 0.34269997 0.13151033 0.17991011 0.4723587 0.027653363 0.12999478 0.038340107
0.052495915 0.11000329 0.058906216 0.13132508 0.36022803 0.061370596 -0.20717196 0.25033686
0.33603597 0.20044507 0.43873686 -0.027956625 0.054225907 0.14508905 -0.08083565 0.18318969
0.07621251 0.08788608 0.28764808 0.055770364 -0.013238311 -0.19903485 0.1018685 0.040522553
0.3548859 0.13486926 0.07193331 0.013739008 0.0920675 0.16006602 0.05550356 -0.014998599
0.342078 0.06837434 0.16598187 0.107025996 0.346678 0.26695493 -0.036889013 0.08984121
0.029889947 0.06110873 0.46355012 0.06328758 0.10118173 -0.08190897 0.36435503 0.46439353
0.40486088 0.026032045 0.13997999 0.0883678 0.377753 0.08651036 0.13215983 -0.010543253
-0.08872129 0.061264567 -0.099146664 0.3847671 0.40434274 0.10633225 0.08541389 0.2895306
0.27613783 0.22109193 -0.06682681 0.02564787 -0.0082342215 -0.045568366 -0.022485312 0.092206694
0.35416302 -0.108886555 0.18454887 -0.0031762598 -0.03351841 -0.031188374 -0.051263727 0.46873116
0.31786928 0.15819703 0.048528407 0.12455839 0.045239814 -0.017469555 0.008702431 0.017362323
-0.04683706 0.20620252 0.12935731 0.122755945 0.095034406 0.13903607 0.03925688 0.010761458
0.018783193 0.39932176 0.13569173 0.27878082 0.0858332 0.4341634 0.09618048 0.05545695
-0.034062978 0.2225633 0.012982692 -0.039968338 0.0724051 0.07991807 -0.0017160025 -0.008093291
0.13437861 0.14529017 0.04624222 0.23985709 0.09810232 0.43476468 0.022472398 0.05802128
00000000: cd99 f93c 5f76 af3e a5aa 063e 5b3a 383e
00000010: 00d9 f13e 4e89 e23c 5a1d 053e 840a 1d3d
00000020: f505 573d 6849 e13d a547 713d 157a 063e
00000030: cf6f b83e bc5f 7b3d e324 54be 272c 803e
00000040: e80c ac3e 7941 4d3e 1ea2 e03e 4b05 e5bc
00000050: fc1b 5e3d 3992 143e 298d a5bd 1496 3b3e
00000060: 4e15 9c3d 9efd b33d 9c46 933e 776f 643d
00000070: 80e5 58bc cbcf 4bbe 6fa0 d03d fafa 253d
00000080: 9bb3 b53e 2b1b 0a3e c551 933d 9419 613c
00000090: e38d bc3d 59e8 233e b357 633d afbc 75bc
000000a0: d924 af3e d907 8c3d 27f7 293e 7230 db3d
000000b0: c77f b13e 51ae 883e ef18 17bd abfe b73d
000000c0: c3db f43c 264d 7a3d 7156 ed3e eb9c 813d
000000d0: 5e38 cf3d e4bf a7bd be8c ba3e fdc4 ed3e
000000e0: ed49 cf3e 2841 d53c ea56 0f3e 2dfa b43d
000000f0: d768 c13e 582c b13d e854 073e 9cbd 2cbc
00000100: 82b3 b5bd 8ef0 7a3d 680d cbbd 3100 c53e
00000110: 0306 cf3e b9c4 d93d 7aed ae3d 5b3d 943e
00000120: f061 8d3e ec65 623e 7fdc 88bd 7b1b d23c
00000130: d4e8 06bc e5a5 3abd 1e33 b8bc ddd6 bc3d
00000140: db54 b53e eaff debd 61fa 3c3e cc28 50bb
00000150: 9a4a 09bd c37e ffbc eaf9 51bd 88fd ef3e
00000160: c3bf a23e 67fe 213e b9c5 463d 7818 ff3d
00000170: 624d 393d 501c 8fbc a494 0e3c 6e3b 8e3c
00000180: 38d8 3fbd c126 533e 3e76 043e 7867 fb3d
00000190: 66a1 c23d 795f 0e3e d2cb 203d d450 303c
000001a0: 36df 993c e773 cc3e c6f2 0a3e 5cbc 8e3e
000001b0: 51c9 af3d aa4a de3e 46fa c43d d426 633d
000001c0: 9f85 0bbd a2e7 633e 5bb5 543c d7b5 23bd
000001d0: 2049 943d 16ac a33d 7deb e0ba b999 04bc
000001e0: 8c9a 093e f2c6 143e 7b68 3d3d 199d 753e
000001f0: dfe9 c83d 7a99 de3e 0918 b83c b9a7 6d3d

net.4.weight f4 [2, 128]
0.3878637 0.45547822 0.80704933 0.7686601 0.4408476 0.09361267 0.53147674 -0.3989869
-0.54302657 0.38481557 0.10437303 0.41609406 0.48363495 -0.22572172 -0.5708897 -0.21770741
0.57875496 -0.046264768 0.488412 0.062554434 0.32741705 0.14923626 0.014450243 0.81329274
0.53747416 -0.21224071 0.07912017 0.30596513 0.21154164 -0.48404264 -0.4643843 0.3279665
0.46497813 0.35104346 0.2912506 -0.07242252 0.29109326 0.5065695 0.33792135 0.34451362
0.41423225 0.35327914 0.5354888 0.48213765 0.49287832 0.414342 -0.14789104 0.4578318
0.41237694 0.33157235 0.4113212 -0.38639423 -0.5239976 0.0066753426 0.42596385 0.45693976
0.4357913 -0.80726564 0.3996059 0.5359048 0.5337309 -0.41711456 0.3189213 0.3715943
-0.27590135 0.5586815 -0.64799577 0.49889114 0.41323447 0.3124696 0.57895494 0.40938905
-0.5119897 -0.56558144 -0.054261286 -0.56435823 -0.022902995 -0.082771815 0.04097555 -0.2875528
0.40620062 -0.7781523 -0.60690767 -0.4480908 -0.08017892 0.012861463 -0.50502354 0.46353078
0.52980274 0.461286 -0.48453543 0.7762492 -0.58256185 -0.048588842 0.05502842 0.3363326
-0.070914246 -0.6228487 0.29597163 0.425083 -0.29244038 0.3665168 0.43077996 -0.31844276
-0.029074129 0.43102077 0.5704736 0.5026321 0.24402006 0.46640477 -0.43723238 -0.57627547
-0.18964565 0.43302685 0.63935083 -0.05871587 -0.49606872 0.44846526 -0.40102383 -0.0714019
-0.15988778 0.16915187 0.6313672 0.45500073 0.26880783 0.39265594 0.5751871 0.676471
0.3528342 0.4196201 0.8022722 0.59371233 0.4113273 0.48240134 0.40100235 -0.25612745
-0.5616163 0.41635996 0.26022467 0.2841002 0.38124418 -0.3395916 -0.7696872 -0.44873208
0.50850147 -0.3513545 0.49445343 0.060116302 0.36583462 -0.07954959 0.0844763 0.84061337
0.62085956 -0.3419589 -0.3944942 0.36560652 0.31079087 -0.54572874 -0.20735049 0.19012284
0.47146848 0.25938815 0.24247658 -0.08713119 0.30479994 0.6059242 0.38142762 0.40487742
0.4296431 0.3912149 0.7074758 -0.21892978 0.5072735 0.48087698 -0.37654173 0.19940545
0.37710166 0.30624595 0.45771253 -0.4750094 -0.24731435 -0.024471859 0.47135973 0.4024697
0.417294 -0.7928564 0.3467642 -0.24013504 0.5446855 -0.48902944 0.2492349 0.34392792
-0.5893098 0.55759 -0.66724753 0.4943725 0.47782603 0.23896107 0.67966974 0.4737867
-0.38008073 -0.39308375 -0.0548725 -0.5058779 -0.058722958 -0.054851484 0.043878067 -0.28232202
0.4840463 -0.5765095 -0.39195892 -0.5103855 0.0010558182 -0.083553694 -0.38589376 0.4807592
0.51726323 0.55293477 -0.25123003 0.68883216 -0.7636388 -0.080400795 -0.03152507 0.25726652
0.2347585 -0.5616875 0.26245004 0.4342561 -0.2812859 0.4621521 0.37426803 -0.20370513
-0.046523407 0.43830135 0.58571804 0.5412894 0.30800644 0.4082441 -0.08391638 -0.496988
-0.5670288 0.5823589 0.96747917 0.024358869 -0.36613396 0.31345248 -0.31519318 -0.07030012
-0.312309 0.14540818 0.49361408 0.4474481 0.38549745 0.45626017 0.56732994 0.65755874
00000000: 1296 c63e 7134 e93e c99a 4e3f e9c6 443f
00000010: c7b6 e13e 00b8 bf3d dc0e 083f 0348 ccbe
00000020: ca03 0bbf 8c06 c53e 87c1 d53d 480a d53e
00000030: 009f f73e 9823 67be d425 12bf b1ee 5ebe
00000040: 4929 143f 2080 3dbd 2311 fa3e 8a1c 803d
00000050: 35a3 a73e 64d1 183e b6c0 6c3c f433 503f
00000060: e897 093f a155 59be c109 a23d 76a7 9c3e
00000070: 5f9e 583e 70d4 f7be c7c3 edbe 3aeb a73e
00000080: 9d11 ee3e f8bb b33e cc1e 953e 4252 94bd
00000090: 2d0a 953e 8aae 013f 0704 ad3e 1764 b03e
000000a0: 4016 d43e 01e1 b43e cb15 093f bfda f63e
000000b0: 8c5a fc3e a224 d43e c070 17be ee68 ea3e
000000c0: 1223 d33e dac3 a93e b198 d23e 77d5 c5be
000000d0: b524 06bf d5bc da3b ef17 da3e 02f4 e93e
000000e0: 0a20 df3e f6a8 4ebf 2599 cc3e 0f31 093f
000000f0: 97a2 083f 0a90 d5be a749 a33e 9c41 be3e
00000100: f142 8dbe c005 0f3f 0de3 25bf a96e ff3e
00000110: 7893 d33e 04fc 9f3e 6436 143f 719b d13e
00000120: c211 03bf f2c9 10bf 1541 5ebd c879 10bf
00000130: 109f bbbc 4584 a9bd fad5 273d 1f3a 93be
00000140: 87f9 cf3e fd34 47bf 4d5e 1bbf 286c e5be
00000150: d834 a4bd e3b8 523c 3949 01bf e853 ed3e
00000160: 27a1 073f ae2d ec3e 0715 f8be 44b8 463f
00000170: c622 15bf 1805 47bd 7b65 613d c933 ac3e
00000180: 7d3b 91bd 0373 1fbf 9889 973e 7ba4 d93e
00000190: bfba 95be 17a8 bb3e 318f dc3e ee0a a3be
000001a0: de2c eebc c1ae dc3e 8f0a 123f 7fac 003f
000001b0: 65e0 793e 9bcc ee3e ecdc dfbe ca86 13bf
000001c0: 7832 42be b2b5 dd3e 7fac 233f 0d80 70bd
000001d0: b8fc fdbe 3d9d e53e ff52 cdbe 293b 92bd
000001e0: 9fb9 23be 2636 2d3e 48a1 213f dbf5 e83e
000001f0: 2ea1 893e 330a c93e 763f 133f 342d 2d3f
00000200: afa6 b43e 72d8 d63e b661 4d3f 88fd 173f
00000210: 7e99 d23e 4ffd f63e 2e50 cd3e 2323 83be
00000220: 16c6 0fbf 222d d53e 2b3c 853e 9575 913e
00000230: 7032 c33e f3de adbe 380a 45bf 36c0 e5be
00000240: 272d 023f bde4 b3be 0029 fd3e 833c 763d
00000250: ad4e bb3e e5ea a2bd e901 ad3d 7032 573f
00000260: a7f0 1e3f 3d15 afbe 25fb c9be c730 bb3e
00000270: fb1f 9f3e e1b4 0bbf b053 54be 90af 423e
00000280: 5164 f13e 86ce 843e c84b 783e d671 b2bd
00000290: bd0e 9c3e d91d 1b3f 7b4a c33e 184c cf3e
000002a0: 2efa db3e 524d c83e 221d 353f 212f 60be
000002b0: addc 013f 8235 f63e 14ca c0be f130 4c3e
000002c0: 7813 c13e 45cc 9c3e 4c59 ea3e 6f34 f3be
000002d0: f93f 7dbe 3579 c8bc 1056 f13e 8210 ce3e
000002e0: 8fa7 d53e a3f8 4abf 148b b13e f6e5 75be
000002f0: 8270 0b3f 1162 fabe 6f37 7f3e 5217 b03e
00000300: 02dd 16bf 38be 0e3f bcd0 2abf 641e fd3e
00000310: 9da5 f43e 36b2 743e d6fe 2d3f 2c94 f23e
00000320: f199 c2be 4642 c9be fdc1 60bd 3781 01bf
00000330: 7c87 70bd f3ab 60bd 7db9 333d 838c 90be
00000340: ebd4 f73e 2096 13bf d7ae c8be a0a8 02bf
00000350: 6163 8a3a 331e abbd de93 c5be 1226 f63e
00000360: 5d6b 043f 228d 0d3f 39a1 80be 4e57 303f
00000370: d57d 43bf 2ca9 a4bd 6f20 01bd 70b8 833e
00000380: 8864 703e c1ca 0fbf da5f 863e d156 de3e
00000390: b504 90be 339f ec3e 0fa0 bf3e 1498 50be
000003a0: 548f 3ebd 0969 e03e 9ef1 153f f191 0a3f
000003b0: 05b3 9d3e 5f05 d13e 5adc abbd 3675 febe
000003c0: cd28 11bf 7915 153f b7ac 773f 408c c73c
000003d0: e975 bbbe d87c a03e 0061 a1be 82f9 8fbd
000003e0: f7e6 9fbe e2e5 143e fcba fc3e eb17 e53e
000003f0: ec5f c53e ef9a e93e 893c 113f c555 283f

net.4.bias f4 [2]
0.27373403 0.20140752
00000000: de26 8c3e c63d 4e3e
