MountCar/checkpoints/checkpoint_episode_400.pt (torch, 286266 bytes, 24 tensors)

net.0.weight f4 [128, 2]
0.020734647 0.65558934 0.54885787 2.036974 -0.08054263 -0.20724331 -0.6026885 -0.20619914
0.43534172 0.090745285 -0.55703 -0.2481704 -0.1547854 -6.7819176 0.45437017 -0.64303464
0.097213894 -0.12627254 -0.14675996 -0.49112037 0.0020588734 0.65660787 -0.6025912 -0.86299753
0.0815984 -0.69585186 0.58171725 0.6056385 0.03319056 0.43477085 0.34292552 -0.037246715
0.060031693 -0.4715718 -0.47783798 -0.8059161 -0.16115336 -0.42480963 0.0034447461 0.6679148
0.2943181 -0.32921785 -0.57540363 -1.0734974 -0.19894996 -0.52924037 0.2146275 -1.1885804
0.23654684 1.0329101 -0.59867924 -0.25163308 -0.6518249 -2.5065913 0.23488747 -0.07812962
-0.70529103 2.8078156 -0.63185173 -1.1198503 -0.5971032 -2.0213132 -0.16480985 5.7597327
0.38535148 -0.5578705 -0.6269072 -1.2031007 0.37190193 0.22512916 -0.39879128 -0.34482184
-0.117986284 -0.806411 0.30518186 -0.45204845 -0.44315782 -1.6540494 0.2650986 -6.756193
-0.81255525 -1.9005253 -0.5786166 -1.4073943 -0.4293557 4.876827 0.19452693 0.18840516
0.09494353 -0.5045787 0.65627176 -0.7243533 0.56539035 -0.30597872 0.6298469 -0.03640864
0.462749 -0.83060735 0.42675626 -2.4613633 -0.288882 -0.1307176 -0.65222925 -1.0954857
-0.49569574 -0.9278633 -0.40632692 -0.7381517 0.24808031 0.2653671 -0.18500656 -0.10892044
0.7063387 -0.41396093 -0.1987486 -0.08103642 0.120629504 -0.20158939 -0.38487574 -1.1549455
0.050844513 -0.5847799 0.090845086 0.015891554 0.49139223 -0.25175908 0.12465411 -0.08608258
0.5732746 0.15989129 0.49270153 -0.61776364 -0.11801708 0.54974407 -0.2544128 0.23210318
0.3307296 8.043642 0.36873463 0.065537214 -0.13027662 -1.1642206 -0.020350775 0.45951325
0.2897117 0.5749735 -0.061539203 -0.24030548 0.59212595 -0.16246575 0.49459282 0.26536793
0.5334618 -1.0944055 0.36176217 -0.06683394 -0.63472706 -2.412224 -0.59884137 -0.12510577
0.5602681 -0.106146075 0.9676138 0.51406425 0.57264715 8.92891 0.3166977 0.72067493
0.29530412 -1.0673469 0.5571863 -0.13924344 -0.306285 -3.1601903 0.37225768 0.036519334
-0.2237998 -0.69427294 0.2942156 -0.16788295 0.15347591 -1.4984456 0.19470124 -0.5515153
-0.2921106 0.21559602 0.59981567 1.791617 0.614601 -0.7881775 -0.083246425 2.3774889
-0.21114121 0.49529535 0.28980094 -0.4026493 0.051510483 -5.1930423 -0.45918435 -5.9142513
0.4196655 -0.1065153 0.24853544 0.8406361 0.08880065 -1.2318627 0.07609046 0.27259442
-0.34797776 6.230006 0.26283127 -0.01975906 0.6733949 0.66193944 0.4532077 -0.7571896
-0.57222956 4.761763 -0.5498366 -1.2630925 -0.53698003 -0.24652448 0.4233714 4.6994896
-0.3843455 -0.17537066 0.14758208 0.62113637 -0.094608165 8.292812 0.30979323 -0.74709696
0.44496325 0.6882719 -0.16558018 -0.9058969 0.16895373 0.14584959 0.36368105 -0.28244883
-0.06292158 -0.56922734 -0.3318573 -1.1710354 -0.49887082 -2.8436692 -0.7472783 -1.0088282
-0.21473819 0.5302859 -0.23468107 -0.9794465 0.37963158 0.60453755 -0.008814348 -0.7478187
00000000: b5db a93c b4d4 273f f381 0c3f c85d 0240
00000010: 89f3 a4bd 9737 54be cb49 1abf de25 53be
00000020: 1ce5 de3e aad8 b93d 8599 0ebf 6220 7ebe
00000030: 1080 1ebe 7805 d9c0 35a3 e83e eb9d 24bf
00000040: 1418 c73d 974d 01be 3e48 16be 2174 fbbe
00000050: 2aee 063b 7417 283f 6b43 1abf 68ed 5cbf
00000060: 101d a73d 5923 32bf 6ceb 143f 200b 1b3f
00000070: d3f2 073d 499a de3e ef93 af3e 0390 18bd
00000080: cbe3 753d dc71 f1be 2ea7 f4be 8450 4ebf
00000090: 6305 25be a680 d9be 40c1 613b 77fc 2a3f
000000a0: ddb0 963e 3e8f a8be a74d 13bf 5d68 89bf
000000b0: 8ab9 4bbe 4c7c 07bf 50c7 5b3e 6723 98bf
000000c0: 5639 723e 6636 843f 0b43 19bf 0dd6 80be
000000d0: ffdd 26bf fe6b 20c0 5786 703e 6c02 a0bd
000000e0: f48d 34bf 40b3 3340 09c1 21bf 4157 8fbf
000000f0: c1db 18bf 325d 01c0 eac3 28be bb4f b840
00000100: ca4c c53e 9ad0 0ebf fe7c 20bf 34ff 99bf
00000110: ee69 be3e 4288 663e 5f2e ccbe 7d8c b0be
00000120: cba2 f1bd f470 4ebf cc40 9c3e e572 e7be
00000130: 95e5 e2be e4b7 d3bf 01bb 873e bc32 d8c0
00000140: 9f03 50bf 6a44 f3bf 3820 14bf 7f25 b4bf
00000150: 83d4 dbbe f70e 9c40 1132 473e 48ed 403e
00000160: c171 c23d 122c 01bf 6d01 283f 386f 39bf
00000170: 6cbd 103f 3ea9 9cbe a53d 213f 3a21 15bd
00000180: 70ed ec3e afa2 54bf cc7f da3e fa86 1dc0
00000190: 57e8 93be d6da 05be 7ff8 26bf e038 8cbf
000001a0: d5cb fdbe 7388 6dbf 150a d0be 83f7 3cbf
000001b0: c408 7e3e 32de 873e 5c72 3dbe ae11 dfbd
000001c0: 9dd2 343f b0f2 d3be c184 4bbe 6cf6 a5bd
000001d0: 9a0c f73d 736d 4ebe 6f0e c5be 41d5 93bf
000001e0: 5642 503d 23b4 15bf fd0c ba3d 012f 823c
000001f0: c397 fb3e 91e6 80be a74a ff3d 104c b0bd
00000200: 20c2 123f 8bba 233e 6043 fc3e c225 1ebf
00000210: f0b2 f1bd 07bc 0c3f 6542 82be 75ac 6d3e
00000220: 6455 a93e c2b2 0041 c9ca bc3e 6038 863d
00000230: 3c67 05be 2e05 95bf abb6 a6bc 5245 eb3e
00000240: 1855 943e 7731 133f 8810 7cbd a412 76be
00000250: 9195 173f 6c5d 26be 453b fd3e 4ede 873e
00000260: f490 083f 7b15 8cbf e438 b93e 3ce0 88bd
00000270: 797d 22bf e161 1ac0 ab4d 19bf ba1b 00be
00000280: bb6d 0f3f 1d63 d9bd 8ab5 773f b799 033f
00000290: 0199 123f d1dc 0e41 3326 a23e 277e 383f
000002a0: 1a32 973e d39e 88bf c3a3 0e3f d595 0ebe
000002b0: 63d1 9cbe 8f40 4ac0 8f98 be3e 4c95 153d
000002c0: c62b 65be dfbb 31bf 6da3 963e 82e9 2bbe
000002d0: ca28 1d3e 11cd bfbf c35f 473e 1b30 0dbf
000002e0: 858f 95be 34c5 5c3e 858d 193f b553 e53f
000002f0: 7e56 1d3f 00c6 49bf 1a7d aabd c728 1840
00000300: 6735 58be 5a97 fd3e ca60 943e 0d28 cebe
00000310: a8fc 523d 672d a6c0 361a ebbe 8c41 bdc0
00000320: 65de d63e b224 dabd 1380 7e3e ed33 573f
00000330: 1ddd b53d adad 9dbf 51d5 9b3d 7f91 8b3e
00000340: 242a b2be 365c c740 d291 863e c1dd a1bc
00000350: 9c63 2c3f dd74 293f d70a e83e 2dd7 41bf
00000360: a37d 12bf 5d60 9840 17c2 0cbf 04ad a1bf
00000370: 8677 09bf ea70 7cbe 23c4 d83e 3862 9640
00000380: efc8 c4be 5e94 33be c21f 173e cb02 1f3f
00000390: edc1 c1bd 5caf 0441 389d 9e3e bf41 3fbf
000003a0: 39d2 e33e 9632 303f da8d 29be dce8 67bf
000003b0: 3502 2d3e 9859 153e 6734 ba3e 229d 90be
000003c0: 08dd 80bd e2b8 11bf 33e9 a9be 7de4 95bf
000003d0: ff6b ffbe adfe 35c0 a14d 3fbf 4821 81bf
000003e0: 54e4 5bbe d1c0 073f 3c50 70be 01bd 7abf
000003f0: 125f c23e f9c2 1a3f 0e6a 10bc 0c71 3fbf

net.0.bias f4 [128]
-0.4462771 0.17232537 -0.17841788 0.30385432 -0.51668876 0.42819753 -0.13147227 -0.2511282
-0.590685 -0.2109277 -0.38065127 0.316402 -0.688404 -0.35570717 -0.19238813 0.58863914
-0.2729498 0.2982588 -0.5020516 -0.6126065 0.42401758 0.70156884 0.40942964 0.45037284
0.33366725 0.32114255 -0.40802807 0.46699297 -0.48504198 0.33678022 0.3435858 -0.26951125
0.60277003 0.33678037 0.44977316 -0.5557109 0.40654838 0.70003736 0.3280843 0.13648884
0.11206562 0.45539257 -0.3653607 0.6888783 -0.1487729 0.6505457 0.7210841 -0.36677057
0.26901186 0.2587801 -0.45782393 0.6568549 0.26592565 0.34120953 -0.1371279 0.29920697
-0.5016746 -0.5150816 -0.5479874 0.2177565 0.31020582 -0.332512 0.52753586 -0.53888464
0.7909421 -0.53024536 -0.20243907 0.7452802 -0.16188629 0.42673653 0.08951317 -0.68326604
-0.1877229 -0.23986293 0.7430718 0.603499 0.30970103 -0.6473808 -0.49270418 0.7232326
-0.6054474 0.6087028 -0.1962758 0.41443422 0.50242066 0.6706288 -0.57787764 0.53618664
-0.34624562 -0.5465714 0.48323622 -0.5767261 0.69251734 0.25513774 0.37199852 0.0144655695
-0.5937468 0.3376413 0.01719524 -0.24205679 0.307881 0.3376239 0.50019646 0.43214238
-0.34931397 0.31925628 -0.68900925 0.26655915 -0.46427515 0.37071955 0.3174168 0.32646045
0.69918907 -0.26721558 -0.32137588 0.60847074 0.5618795 0.4142397 -0.3643642 0.54071087
0.370617 0.5581384 -0.5021769 0.53197944 -0.66219467 0.39322162 -0.54696524 0.709325
00000000: 6f7e e4be 1076 303e 2db3 36be cb92 9b3e
00000010: b745 04bf b53c db3e aba0 06be e093 80be
00000020: 2237 17bf 6efd 57be b9e4 c2be 71ff a13e
00000030: 3f3b 30bf 401f b6be 6501 45be 0eb1 163f
00000040: 14c0 8bbe 61b5 983e 7486 00bf c8d3 1cbf
00000050: d518 d93e 049a 333f c3a0 d13e 4597 e63e
00000060: 6fd6 aa3e cc6c a43e 0ee9 d0be b419 ef3e
00000070: 6c57 f8be 756e ac3e 7aea af3e 61fd 89be
00000080: 234f 1a3f 7a6e ac3e ab48 e63e 1243 0ebf
00000090: 1c27 d03e a635 333f aafa a73e bbc3 0b3e
000000a0: a982 e53d 3729 e93e 8f10 bbbe 545a 303f
000000b0: ec57 18be 2a8a 263f f898 383f 5ac9 bbbe
000000c0: ecbb 893e d37e 843e e667 eabe a527 283f
000000d0: 6827 883e 04b3 ae3e 426b 0cbe a831 993e
000000e0: bf6d 00bf 63dc 03bf e748 0cbf 8ffb 5e3e
000000f0: 4cd3 9e3e 033f aabe 970c 073f 58f4 09bf
00000100: 2e7b 4a3f 29be 07bf 304c 4fbe afca 3e3f
00000110: 85c5 25be 367d da3e ae52 b73d 86ea 2ebf
00000120: 6f3a 40be a19e 75be f439 3e3f e97e 1a3f
00000130: 2291 9e3e c0ba 25bf b943 fcbe c625 393f
00000140: 9afe 1abf f2d3 1b3f 86fc 48be b930 d43e
00000150: a49e 003f 54ae 2b3f caef 13bf 8743 093f
00000160: 1b47 b1be 1aec 0bbf bd6a f73e 52a4 13bf
00000170: d148 313f 6aa1 823e 9776 be3e ff00 6d3c
00000180: caff 17bf 52df ac3e 08dd 8c3c bcdd 77be
00000190: 94a2 9d3e 0add ac3e e00c 003f c441 dd3e
000001a0: 48d9 b2be 8f75 a33e e962 30bf 717a 883e
000001b0: 79b5 edbe f4ce bd3e 7484 a23e d325 a73e
000001c0: 0efe 323f 7bd0 88be 618b a4be bdc4 1b3f
000001d0: 56d7 0f3f 3a17 d43e f28d babe 076c 0a3f
000001e0: 83c1 bd3e 28e2 0e3f aa8e 00bf ce2f 083f
000001f0: 9785 29bf 5854 c93e ea05 0cbf 5396 353f

net.2.weight f4 [128, 128]
0.039066736 0.06116633 0.027196623 0.025174133 0.009851004 0.07216392 0.022421038 -0.04577586
-0.034030125 -0.0031779355 -0.039572455 0.06238921 0.0048169317 -0.067891136 -0.009742655 -0.08294581
0.08635288 -0.027318712 -0.0034582647 -0.053344104 -0.031137364 0.03499726 -0.059638757 0.06589696
-0.013135244 0.0790922 -0.019990556 0.06648679 0.0715077 0.068641365 -0.0560718 0.003741386
0.07815609 0.050711215 -0.012792264 0.00023738158 0.06699268 -0.07841219 0.0054546874 -0.0015032516
-0.020441916 -0.070206925 -0.001531901 -0.021480214 -0.08233486 0.0034379922 -0.07073757 0.020883342
0.0052472297 0.042750917 -0.042209372 -0.0679492 -0.043531813 -0.042283636 -0.011464764 -0.06603372
-0.07773146 0.025963016 0.026683917 -0.061738633 0.021645842 0.064646415 0.057796996 -0.06494625
0.014690958 0.08436499 0.037529904 -0.088277 -0.0051063225 0.01526974 0.014402158 0.0695396
0.015999882 -0.022731913 0.04383406 -0.014812436 -0.060219385 0.013516294 0.00901343 0.054543804
-0.08721843 -0.013399136 -0.036149014 -0.031197887 -0.05087526 -0.023035707 -0.085664846 0.07331594
-0.05049282 -0.067769125 0.01463524 0.04125484 -0.057900853 0.05721147 0.016995726 -0.08304485
-0.016423563 0.04162981 -0.027535789 0.02623654 -0.045516793 0.011608896 -0.013046736 0.017654851
0.0038464584 -0.00026928674 0.043549832 0.057972737 -0.028130092 -0.041110437 0.02008979 -0.060674127
0.03139587 0.0663188 -0.024240602 0.017214375 0.014601038 -0.059961814 0.049683988 -0.020003706
0.06698942 0.036881085 0.021936065 0.031198645 0.03329053 -0.02126008 0.026485395 -0.049355224
-0.038104195 0.034514192 0.024930324 0.024076968 -0.053937186 -0.11495991 -0.09402212 -0.033673942
0.046520974 0.0044726552 0.03345563 0.04769307 -0.045227468 0.0126566775 -0.06329043 -0.068637
0.056014508 -0.10058466 0.068804465 0.05996816 0.046650685 0.01264433 0.046402033 -0.098359734
-0.03751866 -0.01672741 -0.081615284 -0.09256336 -0.074214645 0.01772308 -0.027290365 -0.08721897
-0.092170246 0.05366547 -0.10452665 -0.039241508 -0.091164365 -0.04570904 -0.046607085 -0.04217752
0.0055225254 -0.061153747 -0.07136281 0.03388943 0.033306766 0.011677175 -0.060617123 0.05925598
0.008896778 -0.06831734 -0.04082387 -0.08418539 0.03865672 -0.119945504 0.060359903 -0.08031314
-0.0025191065 -0.065215334 0.029569522 0.048793823 0.041603 -0.028021406 -0.07175085 -0.032671984
0.022149278 0.012019481 0.08361984 -0.043882683 -0.053604446 -0.08627757 0.046227627 0.051800173
0.056442596 0.013197147 -0.014932703 0.020357912 -0.07289367 -0.007889458 -0.09481561 -0.096655644
0.050598353 0.029000748 -0.011886307 0.07027206 -0.047083106 -0.02777731 -0.0380695 0.049449652
0.0875777 0.029870883 -0.10824348 0.07972879 0.054855235 0.06882835 -0.08940364 -0.023788914
-0.03734176 -0.00025956772 -0.06392485 0.056633547 0.02970498 0.074857526 -0.08226587 0.050868895
0.056978114 -0.10367555 0.060803182 0.047577843 0.068102196 -0.07665116 0.04254617 0.066424124
-0.09698342 -0.059311192 -0.079013646 0.021495022 -0.08556136 -0.04858393 -0.08260598 -0.1166248
-0.04824178 0.039168093 -0.0678298 0.0013041145 -0.0460758 -0.040577732 -0.00027970754 -0.08070045
00000000: 7104 203d 8c89 7a3d 74cb de3c fc39 ce3c
00000010: 1b66 213c adca 933d 53ac b73c 787f 3bbd
00000020: 2c63 0bbd e944 50bb ba16 22bd d48b 7f3d
00000030: 5ad7 9d3b 820a 8bbd a89f 1fbc 7edf a9bd
00000040: c7d9 b03d 7ecb dfbc 0ea4 62bb 597f 5abd
00000050: c913 ffbc 4959 0f3d c547 74bd fcf4 863d
00000060: 3535 57bc 17fb a13d 3cc3 a3bc 3a2a 883d
00000070: a172 923d d893 8c3d 8bab 65bd 0b32 753b
00000080: 4d10 a03d 90b6 4f3d a596 51bc a2e9 7839
00000090: 7533 893d 9296 a0bd 3cbd b23b c108 c5ba
000000a0: ce75 a7bc a6c8 8fbd 11ca c8ba 46f7 afbc
000000b0: 2e9f a8bd f04f 613b dcde 90bd 8b13 ab3c
000000c0: f4f0 ab3b 961b 2f3d bce3 2cbd f328 8bbd
000000d0: 6a4e 32bd 9b31 2dbd b5d6 3bbc b03c 87bd
000000e0: ac31 9fbd 64b0 d43c 3b98 da3c a6e1 7cbd
000000f0: 9f52 b13c 5765 843d 8bbc 6c3d 8a02 85bd
00000100: 58b2 703c 8dc7 ac3d f5b8 193d 92ca b4bd
00000110: f052 a7bb ee2d 7a3c 07f7 6b3c c76a 8e3d
00000120: 2f12 833c 4738 babc 588b 333d dcaf 72bc
00000130: 9aa8 76bd 7273 5d3c 11ad 133c 5369 5f3d
00000140: 949f b2bd 0d88 5bbc fd10 14bd b692 ffbc
00000150: 9462 50bd 61b5 bcbc 0d71 afbd ab26 963d
00000160: 8fd1 4ebd 8aca 8abd a5c8 6f3c d6fa 283d
00000170: 7229 6dbd 9356 6a3d 9f3a 8b3c 6b13 aabd
00000180: b58a 86bc 0584 2a3d bc92 e1bc 03ee d63c
00000190: d16f 3abd 3d33 3e3c fac1 55bc e8a0 903c
000001a0: dd14 7c3b 0e2f 8db9 4f61 323d d274 6d3d
000001b0: 1471 e6bc 6b63 28bd 5893 a43c 6f85 78bd
000001c0: f598 003d 27d2 873d 3a94 c6bc 2905 8d3c
000001d0: 3139 6f3c 859a 75bd 7081 4b3d d0de a3bc
000001e0: c031 893d 9f10 173d 43b3 b33c 4d94 ff3c
000001f0: a75b 083d 9f29 aebc e6f7 d83c b428 4abd
00000200: 2513 1cbd c15e 0d3d ae3a cc3c 103d c53c
00000210: 3ded 5cbd 1a70 ebbd ab8e c0bd b0ed 09bd
00000220: c78c 3e3d 5a8f 923b c508 093d cf59 433d
00000230: 7040 39bd f45d 4f3c 6a9e 81bd 8e91 8cbd
00000240: 786f 653d 55ff cdbd 5be9 8c3d 2ca1 753d
00000250: ca14 3f3d 2a2a 4f3c 0f10 3e3d d470 c9bd
00000260: 2bad 19bd ec07 89bc ea25 a7bd dc91 bdbd
00000270: d9fd 97bd fe2f 913c 0b90 dfbc dc9f b2bd
00000280: c1c3 bcbd 53d0 5b3d 1112 d6bd b4bb 20bd
00000290: 62b4 babd 6739 3bbd 12e7 3ebd 56c2 2cbd
000002a0: 4df6 b43b 5a7c 7abd aa26 92bd a5cf 0a3d
000002b0: ad6c 083d 9f51 3f3c a949 78bd 66b6 723d
000002c0: cbc3 113c f6e9 8bbd ee36 27bd 6469 acbd
000002d0: 8256 1e3d fda5 f5bd f23b 773d 377b a4bd
000002e0: 9817 25bb 9e8f 85bd c83b f23c 08dc 473d
000002f0: e867 2a3d 268d e5bc 1cf2 92bd 0fd3 05bd
00000300: 6772 b53c 5bed 443c e140 ab3d 54be 33bd
00000310: 5690 5bbd 4bb2 b0bd 2e59 3d3d 6b2c 543d
00000320: 5a30 673d d938 583c 4ca8 74bc a3c5 a63c
00000330: 4749 95bd c942 01bc b02e c2bd 65f3 c5bd
00000340: 3840 4f3d fa92 ed3c c9be 42bc ccea 8f3d
00000350: 37da 40bd 3e8d e3bc c4ee 1bbd b88b 4a3d
00000360: f05b b33d c8b3 f43c c2ae ddbd d948 a33d
00000370: e2af 603d e1f5 8c3d 4119 b7bd f8e0 c2bc
00000380: acf3 18bd 9716 88b9 08eb 82bd 94f8 673d
00000390: dc57 f33c e74e 993d 027b a8bd e75b 503d
000003a0: e261 693d d953 d4bd c20c 793d fce0 423d
000003b0: 2a79 8b3d 49fb 9cbd e544 2e3d 5f09 883d
000003c0: 3e9f c6bd 4bf0 72bd e8d1 a1bd 5416 b03c
000003d0: cb3a afbd f1ff 46bd 532d a9bd fcd8 eebd
000003e0: 2c99 45bd b96e 203d 5aea 8abd d2ee aa3a
000003f0: fab9 3cbd d634 26bd b6a5 92b9 4746 a5bd

net.2.bias f4 [128]
-0.02672655 -0.06381665 0.08579658 -0.065635614 -0.06305698 0.043424826 -0.05348968 0.13449161
-0.0029270614 -0.019199736 -0.072909504 -0.08803178 0.19179203 0.009320378 0.057283405 0.0008855932
0.053474333 -0.050826713 0.10036029 0.08058951 0.045640536 0.3532233 0.0695743 -0.08783324
-0.05106092 -0.052264813 0.12897137 0.09866651 0.0028255521 0.17526153 -0.028709313 0.035338867
0.127698 -0.032924432 -0.022085058 0.0315332 0.045996424 0.32307026 0.08377335 0.08180441
0.058483608 0.017037991 0.0013423156 0.07134401 -0.06607896 0.04942662 -0.04368819 0.22179493
0.28506556 0.354684 0.0052337535 0.09435425 0.19430013 -0.08415369 -0.00063602754 0.14275849
0.08281536 0.062195785 -0.08639709 -0.104327664 0.014818072 0.024678381 0.024611963 0.0062979767
0.071998134 -0.028352775 0.0270079 0.26211753 0.01798869 -0.07041181 0.14638944 0.033481028
-0.03261521 0.14461008 0.037353773 -0.019942928 -0.10426828 -0.062580176 0.023667308 0.031052276
0.19190541 -0.04753063 -0.06912577 -0.02979915 0.051185302 0.02572946 0.017634008 -0.025657699
0.049599633 0.1556711 -0.080318645 0.1472041 0.28211504 0.20863758 0.02444064 0.18321602
0.013056704 0.09950689 -0.08591674 0.15546776 0.04006926 0.053886853 0.053324584 -0.092115045
-0.0004935396 -0.02099089 0.07898004 0.18481326 -0.0048712185 0.012552492 -0.001075691 -0.03294375
0.0027406474 -0.05807392 -0.08790734 -0.004594106 0.06718679 0.058943395 -0.08127615 -0.06715703
0.045967363 -0.014727309 -0.054086197 -0.022032982 0.059335798 0.06318747 -0.011365182 0.012758388
00000000: a3f1 dabc 4eb2 82bd 1eb6 af3d f76b 86bd
00000010: 0524 81bd 3bde 313d ff17 5bbd 2bb8 093e
00000020: f1d3 3fbb c448 9dbc 9451 95bd 024a b4bd
00000030: 2165 443e 80b4 183c 01a2 6a3d 2727 683a
00000040: e707 5b3d ac2f 50bd b289 cd3d 1d0c a53d
00000050: 92f1 3a3d afd9 b43e f87c 8e3d eae1 b3bd
00000060: 4125 51bd a113 56bd 1211 043e ab11 ca3d
00000070: e62c 393b c277 333e cb2f ebbc 7dbf 103d
00000080: 44c3 023e c5db 06bd b9eb b4bc f528 013d
00000090: bf66 3c3d 7769 a53e 5d91 ab3d 1289 a73d
000000a0: 828c 6f3d 4293 8b3c a3f0 af3a cf1c 923d
000000b0: 6854 87bd 9173 4a3d 63f2 32bd 361e 633e
000000c0: 1df4 913e 2499 b53e e87f ab3b cd3c c13d
000000d0: 9df6 463e c558 acbd 16bb 26ba 482f 123e
000000e0: 199b a93d 02c1 7e3d f5f0 b0bd bea9 d5bd
000000f0: 80c7 723c 512a ca3c 079f c93c 425f ce3b
00000100: c273 933d 1444 e8bc ac3f dd3c 4534 863e
00000110: 045d 933c 1134 90bd 1de7 153e 6723 093d
00000120: 8797 05bd aa14 143e 4500 193d 5a5f a3bc
00000130: 9c8a d5bd 092a 80bd f1e1 c13c 5861 fe3c
00000140: da82 443e 7aaf 42bd d091 8dbd 591d f4bc
00000150: aea7 513d 97c6 d23c 3275 903c 1830 d2bc
00000160: fc28 4b3d 3f68 1f3e 1a7e a4bd acbc 163e
00000170: 6271 903e 17a5 553e bd37 c83c fb9c 3b3e
00000180: c9eb 553c 45ca cb3d 1ef5 afbd f132 1f3e
00000190: aa1f 243d 76b8 5c3d e16a 5a3d d0a6 bcbd
000001a0: e260 01ba 16f5 abbc 4ac0 a13d b03f 3d3e
000001b0: be9e 9fbb f8a8 4d3c 33fe 8cba 07f0 06bd
000001c0: 6f9c 333b ebde 6dbd c308 b4bd 288a 96bb
000001d0: 3a99 893d a16e 713d 1c74 a6bd a089 89bd
000001e0: 4648 3c3d d04a 71bc 7d89 5dbd 837e b4bc
000001f0: 180a 733d 6f68 813d 0735 3abc 8f08 513c

net.4.weight f4 [3, 128]
0.046167627 0.05905233 -0.74858195 0.08235674 -0.017181395 -0.05456529 -0.04342132 -0.7774145
-0.60592556 0.021773815 0.009799683 -0.015501716 -0.6777557 0.045083497 -0.07438233 0.07347993
-1.8630257 -0.016729144 -0.5237541 -0.7924023 0.0116428835 -0.5426926 0.07306023 -0.03084151
0.058835223 -0.04018759 -0.595834 -0.5706082 0.015066084 -0.59341586 -0.04367085 0.016718443
-0.8683746 0.0063787675 0.045005295 -0.45919836 0.0645435 -0.44753355 0.084701754 -0.016037783
-0.0073745605 -0.008332551 0.047588345 -1.6127651 0.03079828 0.026869131 -0.0032562627 -0.3849988
-0.44308028 -0.42283857 -0.08792505 -0.87830347 -1.2584926 -0.007087457 -0.007339568 -0.5576551
-1.1904162 0.0766336 0.025311602 0.01502984 -0.048688814 0.05945597 -0.014885205 -0.052084245
-1.1095326 -0.0510987 -0.052855708 -0.30112386 -1.4038827 -0.027817257 -0.60860217 -1.4944615
0.038315404 -1.8160499 -0.9420796 -0.031735856 0.08206011 0.03560043 0.067000076 -0.5712025
-1.3110939 0.012572502 -0.003294992 -1.6830126 -1.3316216 -0.71166486 -0.03625414 0.027177747
0.047103032 -0.9065465 -0.0014097306 -0.6359004 -0.5158314 -0.65769506 0.043008182 -1.0482851
0.028456813 -0.75112593 0.060150325 1.3519917 -0.0080745565 -0.013689688 -0.5522766 0.081796475
-0.010852455 -0.06947984 -0.82348406 -0.45566452 -0.03386173 -0.01716979 -0.6966622 -0.0050460906
-0.033947133 0.039387535 -0.063366145 -0.023166427 -0.02130854 0.058441147 0.060998317 0.06359474
0.06387944 -0.05610424 -0.05583977 0.07865764 0.03088021 0.02289912 -0.033362687 0.02895071
0.06753277 -0.066473 -0.8386782 -0.021106467 0.051980823 0.05720006 -0.038884558 -0.9165966
-0.633129 0.044770848 -0.069465354 0.039022133 -0.70774454 0.037353348 -0.067266256 -0.07231432
-1.0274787 0.04362696 -0.6600138 -1.3943685 0.048874874 -0.3883482 0.023126997 0.041424934
0.042055886 0.015241891 -0.62933147 -0.77174306 -0.022227457 -0.8203333 0.019275581 0.060354635
-0.79864055 0.01048328 0.07581882 -0.8466561 0.024085818 -0.4335405 0.06303513 -0.05525359
0.016461274 0.056379862 -0.008161222 -1.8528271 0.0512256 -0.08512868 0.075214155 -0.41397637
-0.55091673 -0.33882168 0.024563182 -0.89171886 -1.1724848 -0.060373366 -0.08084886 -0.7621495
-1.1676744 0.019265514 -0.010488527 -0.009002383 0.070708916 -0.04722427 -9.26988e-05 0.040514387
-1.1196918 0.028676989 -0.064892925 -0.43808353 -1.4179094 -0.07089282 -0.83536625 -1.2376229
-0.03633683 -1.3228936 -1.0552549 0.04587038 0.04382027 -0.004035097 0.017032836 -0.63126314
-1.2650545 0.08061306 -0.050579317 -1.8057361 -1.4008768 -0.9203525 0.052674774 -0.06918846
0.066135645 -1.0161273 0.062989295 -0.7392685 -0.4070834 -0.3972115 -0.017757151 -1.1115237
0.05403662 -0.85078883 0.023135323 1.239012 -0.06786595 -0.045712397 -0.52904284 0.055632047
-0.029147811 -0.06280415 -0.86917144 -0.5568041 0.037669457 -0.03492605 -0.7023903 0.05204941
0.064694464 0.06371557 -0.07907171 0.054068822 0.08019636 0.047285974 -0.031864375 -0.0048499377
-0.021730013 0.07264881 0.036679346 -0.030810336 0.015266661 0.049237885 0.085636154 0.01916689
00000000: 441a 3d3d dbe0 713d 11a3 3fbf a7aa a83d
00000010: ffbf 8cbc db7f 5fbd 8eda 31bd a304 47bf
00000020: f01d 1bbf 005f b23c d98e 203c e9fa 7dbc
00000030: 6681 2dbf 79a9 383d c355 98bd a57c 963d
00000040: a077 eebf 8f0b 89bc c014 06bf e1da 4abf
00000050: cbc1 3e3c e7ed 0abf 9aa0 953d 56a7 fcbc
00000060: 34fd 703d be9b 24bd 9488 18bf 6113 12bf
00000070: bdd7 763c 1aea 17bf 35e0 32bd 1ef5 883c
00000080: cc4d 5ebf fb04 d13b 7957 383d 0c1c ebbe
00000090: 622f 843d 1e23 e5be 1d78 ad3d ab61 83bc
000000a0: 4ca6 f1bb 4185 08bc ffeb 423d 166f cebf
000000b0: ad4c fc3c a71c dc3c 0667 55bb 901e c5be
000000c0: 6bdb e2be 4c7e d8be 0c12 b4bd 7fd8 60bf
000000d0: 4916 a1bf e63d e8bb c280 f0bb 7cc2 0ebf
000000e0: 8f5f 98bf 14f2 9c3d 475a cf3c b83f 763c
000000f0: ec6d 47bd 1a88 733d 13e1 73bc 4a56 55bd
00000100: 2a05 8ebf df4c 51bd 3a7f 58bd e82c 9abe
00000110: 6eb2 b3bf 04e1 e3bc 5acd 1bbf 844a bfbf
00000120: 9df0 1c3d 5374 e8bf 212c 71bf 75fd 01bd
00000130: 220f a83d c2d1 113d 5637 893d 543a 12bf
00000140: edd1 a7bf e5fc 4d3c cbf0 57bb f56c d7bf
00000150: 9472 aabf ab2f 36bf 397f 14bd dea3 de3c
00000160: 1cef 403d 6e13 68bf b6c6 b8ba 5eca 22bf
00000170: 870d 04bf b45e 28bf 5929 303d 352e 86bf
00000180: 431e e93c ca49 40bf 3060 763d 100e ad3f
00000190: 254b 04bc b74a 60bc 0062 0dbf e984 a73d
000001a0: 7fce 31bc 724b 8ebd dacf 52bf dc4c e9be
000001b0: 99b2 0abd a9a7 8cbc 7458 32bf ad59 a5bb
000001c0: 260c 0bbd d354 213d 1cc6 81bd 85c7 bdbc
000001d0: 3f8f aebc fc5f 6f3d 5fd9 793d f63d 823d
000001e0: 39d3 823d 8fcd 65bd 3eb8 64bd 4217 a13d
000001f0: 7ff8 fc3c ef96 bb3c 50a7 08bd 0a2a ed3c
00000200: 9f4e 8a3d ff22 88bd 9db3 56bf 78e7 acbc
00000210: d8e9 543d 9c4a 6a3d 6a45 1fbd 13a6 6abf
00000220: be14 22bf a361 373d da43 8ebd acd5 1f3d
00000230: bf2e 35bf d3ff 183d e4c2 89bd 8819 94bd
00000240: 6c84 83bf 2fb2 323d aaf6 28bf ab7a b2bf
00000250: 0531 483d 93d5 c6be d474 bd3c 31ad 293d
00000260: cb42 2c3d 20b9 793c de1b 21bf f490 45bf
00000270: 5b16 b6bc 5d01 52bf d3e7 9d3c 6c36 773d
00000280: b573 4cbf 10c2 2b3c e646 9b3d 74be 58bf
00000290: 9f4f c53c 05f9 ddbe 9018 813d 9751 62bd
000002a0: cbd9 863c 92ee 663d a5b6 05bc 7029 edbf
000002b0: efd1 513d f257 aebd e109 9a3d b6f4 d3be
000002c0: e108 0dbf 097a adbe ba38 c93c b047 64bf
000002d0: fb13 96bf 104a 77bd 1694 a5bd 3b1c 43bf
000002e0: 5b76 95bf b6d2 9d3c 12d8 2bbc bb7e 13bc
000002f0: d6cf 903d 3c6e 41bd 4a67 c2b8 6af2 253d
00000300: 1052 8fbf 01ec ea3c 95e6 84bd 7c4c e0be
00000310: 0e7e b5bf 4130 91bd 90da 55bf 6d6a 9ebf
00000320: eed5 14bd 9454 a9bf 9812 87bf 94e2 3b3d
00000330: e27c 333d d938 84bb 7288 8b3c 769a 21bf
00000340: 4eed a1bf 7618 a53d 422c 4fbd 5c22 e7bf
00000350: ee4f b3bf 399c 6bbf 81c1 573d aeb2 8dbd
00000360: 2072 873d 7610 82bf 8800 813d b340 3dbf
00000370: 3c6d d0be 4e5f cbbe 7277 91bc 6946 8ebf
00000380: 8155 5d3d 4ccd 59bf 4a86 bd3c f297 9e3f
00000390: 4efd 8abd ec3c 3bbd 5a6f 07bf 6ede 633d
000003a0: 64c7 eebc 769f 80bd 0582 5ebf b78a 0ebf
000003b0: 4a4b 1a3d 9e0e 0fbd dacf 33bf c331 553d
000003c0: 887e 843d 4f7d 823d 59f0 a1bd 4577 5d3d
000003d0: fd3d a43d f0ae 413d 3884 02bd 3aec 9ebb
000003e0: 2403 b2bc e6c8 943d 153d 163d f565 fcbc
000003f0: 0421 7a3c aaad 493d 0262 af3d e203 9d3c

net.4.bias f4 [3]
-0.4551252 -0.11736264 -0.24209537
00000000: 2c06 e9be d35b f0bd d9e7 77be

net.0.weight f4 [128, 2]
0.020734647 0.65558934 0.54859465 2.0366867 -0.08054263 -0.20724331 -0.6030209 -0.20622337
0.43534172 0.090745285 -0.5571988 -0.24783419 -0.1559546 -6.7826552 0.45437017 -0.64303464
0.097213894 -0.12627254 -0.14675996 -0.49112037 0.0020588734 0.65660787 -0.6029982 -0.8628605
0.0815984 -0.69585186 0.58171725 0.6056385 0.03319056 0.43477085 0.3429616 -0.0374277
0.060031693 -0.4715718 -0.47814393 -0.8057957 -0.16115336 -0.42480963 0.0034447461 0.6679148
0.29433325 -0.32962394 -0.57556444 -1.0731672 -0.19901536 -0.5289612 0.21446575 -1.188661
0.2365095 1.0331563 -0.59879667 -0.25116003 -0.6521763 -2.5067453 0.23488024 -0.07829765
-0.70459586 2.807225 -0.6323207 -1.1197722 -0.59768903 -2.0213177 -0.16593175 5.760724
0.38529384 -0.5580322 -0.6274412 -1.2029577 0.3719562 0.22463691 -0.39879128 -0.34482184
-0.11817661 -0.8063641 0.3050967 -0.45193747 -0.4435056 -1.6537794 0.26485536 -6.7570105
-0.812233 -1.9008883 -0.5789248 -1.4072679 -0.42697456 4.876847 0.19456694 0.18840352
0.09494353 -0.5045787 0.6562775 -0.72466195 0.5653812 -0.30616048 0.6298469 -0.03640864
0.46254373 -0.8305791 0.425957 -2.46246 -0.288882 -0.1307176 -0.6524382 -1.0951759
-0.49605003 -0.92741907 -0.4065137 -0.7379086 0.24808031 0.2653671 -0.18516374 -0.10876234
0.7063387 -0.41396093 -0.1987486 -0.08103642 0.120629504 -0.20158939 -0.38555807 -1.1549696
0.05072611 -0.5848024 0.090845086 0.015891554 0.49130172 -0.25175482 0.12465411 -0.08608258
0.5733652 0.15970217 0.49270153 -0.61776364 -0.11801708 0.54974407 -0.25452724 0.23217876
0.33103672 8.0435095 0.36891726 0.06485014 -0.1307005 -1.1634884 -0.020350775 0.45951325
0.2897117 0.5749735 -0.061539203 -0.24030548 0.59218454 -0.16265026 0.49464577 0.26492274
0.5333116 -1.0944326 0.36176217 -0.06683394 -0.6356705 -2.413569 -0.5988852 -0.12481578
0.5602681 -0.106146075 0.9692409 0.5126391 0.5737269 8.928052 0.3166448 0.72088474
0.29507902 -1.0674754 0.5572708 -0.13959683 -0.306285 -3.1601903 0.37237978 0.036307752
-0.2237998 -0.69427294 0.2942156 -0.16788295 0.1532805 -1.4983892 0.19470124 -0.5515153
-0.29211324 0.21580426 0.5997885 1.7911034 0.61439943 -0.78813696 -0.083347835 2.378111
-0.21114121 0.49529535 0.28980258 -0.4032096 0.05139487 -5.193186 -0.4592033 -5.9153223
0.41949132 -0.10995205 0.24844994 0.8408018 0.08871411 -1.2317976 0.076173574 0.27247193
-0.34819615 6.2307863 0.262865 -0.020326057 0.6733949 0.66193944 0.45301506 -0.7570137
-0.5705748 4.761861 -0.5501541 -1.2629935 -0.5372124 -0.2462128 0.42363945 4.699612
-0.38440946 -0.17521003 0.14758208 0.62113637 -0.0950767 8.293359 0.3096899 -0.7471047
0.4449136 0.6883184 -0.1657309 -0.90573114 0.16895373 0.14584959 0.3636223 -0.28276762
-0.06301508 -0.5691228 -0.3320619 -1.170807 -0.499386 -2.8446674 -0.74754053 -1.008592
-0.21473819 0.5302859 -0.2348834 -0.9793183 0.37963158 0.60453755 -0.008941608 -0.74771285
00000000: b5db a93c b4d4 273f b370 0c3f 1359 0240
00000010: 89f3 a4bd 9737 54be 945f 1abf 382c 53be
00000020: 1ce5 de3e aad8 b93d 95a4 0ebf 3fc8 7dbe
00000030: 90b2 1fbe 830b d9c0 35a3 e83e eb9d 24bf
00000040: 1418 c73d 974d 01be 3e48 16be 2174 fbbe
00000050: 2aee 063b 7417 283f 175e 1abf 6de4 5cbf
00000060: 101d a73d 5923 32bf 6ceb 143f 200b 1b3f
00000070: d3f2 073d 499a de3e aa98 af3e ca4d 19bd
00000080: cbe3 753d dc71 f1be 48cf f4be a148 4ebf
00000090: 6305 25be a680 d9be 40c1 613b 77fc 2a3f
000000a0: d9b2 963e 78c4 a8be 3158 13bf 8b5d 89bf
000000b0: afca 4bbe 006a 07bf e99c 5b3e 0b26 98bf
000000c0: 8c2f 723e 773e 843f bd4a 19bf 0c98 80be
000000d0: 07f5 26bf 846e 20c0 7284 703e 855a a0bd
000000e0: 6560 34bf 93a9 3340 c5df 21bf b254 8fbf
000000f0: 2602 19bf 455d 01c0 03ea 29be da57 b840
00000100: 3c45 c53e 33db 0ebf fd9f 20bf 85fa 99bf
00000110: 0b71 be3e 3807 663e 5f2e ccbe 7d8c b0be
00000120: 9406 f2bd e16d 4ebf a235 9c3e 5964 e7be
00000130: 2a13 e3be 0baf d3bf 1f9b 873e 6e39 d8c0
00000140: 80ee 4fbf 4f50 f3bf 6a34 14bf 5b21 b4bf
00000150: 699c dabe 210f 9c40 8e3c 473e daec 403e
00000160: c171 c23d 122c 01bf cd01 283f 7283 39bf
00000170: d3bc 103f 11c1 9cbe a53d 213f 3a21 15bd
00000180: 88d2 ec3e d5a0 54bf 0917 da3e f298 1dc0
00000190: 57e8 93be d6da 05be 3106 27bf b92e 8cbf
000001a0: 45fa fdbe 566b 6dbf 9022 d0be 94e7 3cbf
000001b0: c408 7e3e 32de 873e 909b 3dbe cabe debd
000001c0: 9dd2 343f b0f2 d3be c184 4bbe 6cf6 a5bd
000001d0: 9a0c f73d 736d 4ebe de67 c5be 0bd6 93bf
000001e0: 2ec6 4f3d 9cb5 15bf fd0c ba3d 012f 823c
000001f0: e68b fb3e 02e6 80be a74a ff3d 104c b0bd
00000200: 10c8 123f f788 233e 6043 fc3e c225 1ebf
00000210: f0b2 f1bd 07bc 0c3f 6551 82be 45c0 6d3e
00000220: a57d a93e 37b2 0041 b9e2 bc3e 26d0 843d
00000230: 5ad6 05be 30ed 94bf abb6 a6bc 5245 eb3e
00000240: 1855 943e 7731 133f 8810 7cbd a412 76be
00000250: 6899 173f ca8d 26be 3642 fd3e f4a3 873e
00000260: 1c87 083f 5e16 8cbf e438 b93e 3ce0 88bd
00000270: 4dbb 22bf ea77 1ac0 8a50 19bf 6a9f ffbd
00000280: bb6d 0f3f 1d63 d9bd 2c20 783f 513c 033f
00000290: c4df 123f 4dd9 0e41 441f a23e e78b 383f
000002a0: 9914 973e 09a3 88bf 4da9 0e3f 79f2 0ebe
000002b0: 63d1 9cbe 8f40 4ac0 90a8 be3e 70b7 143d
000002c0: c62b 65be dfbb 31bf 6da3 963e 82e9 2bbe
000002d0: 90f5 1c3e 38cb bfbf c35f 473e 1b30 0dbf
000002e0: de8f 95be cbfb 5c3e bd8b 193f e042 e53f
000002f0: 4849 1d3f 58c3 49bf 45b2 aabd f832 1840
00000300: 6735 58be 5a97 fd3e 0161 943e 7d71 cebe
00000310: 6d83 523d 942e a6c0 b21c ebbe 524a bdc0
00000320: 91c7 d63e 8a2e e1bd a969 7e3e c93e 573f
00000330: beaf b53d 8bab 9dbf e400 9c3d 7181 8b3e
00000340: c446 b2be 9a62 c740 3e96 863e d582 a6bc
00000350: 9c63 2c3f dd74 293f 97f1 e73e a6cb 41bf
00000360: 3111 12bf 2a61 9840 e6d6 0cbf c5a9 a1bf
00000370: c086 09bf 351f 7cbe 45e7 d83e 3963 9640
00000380: 51d1 c4be 426a 33be c21f 173e cb02 1f3f
00000390: 93b7 c2bd 99b1 0441 ad8f 9e3e 4142 3fbf
000003a0: b7cb e33e a235 303f 5cb5 29be ffdd 67bf
000003b0: 3502 2d3e 9859 153e b42c ba3e ebc6 90be
000003c0: 0d0e 81bd 08b2 11bf 0404 aabe 01dd 95bf
000003d0: 86af ffbe 080f 36c0 d15e 3fbf 8b19 81bf
000003e0: 54e4 5bbe d1c0 073f 4685 70be 9bb4 7abf
000003f0: 125f c23e f9c2 1a3f d27f 12bc 1c6a 3fbf

net.0.bias f4 [128]
-0.4462771 0.17236295 -0.17841788 0.30376187 -0.51668876 0.42819226 -0.13071206 -0.2511282
-0.590685 -0.2109277 -0.38065127 0.31649756 -0.688404 -0.35570717 -0.19238813 0.58858913
-0.2729498 0.2983201 -0.5020516 -0.6126065 0.42395985 0.7016124 0.409391 0.4504404
0.33374065 0.32114005 -0.40754563 0.46697304 -0.48584643 0.33695087 0.3438347 -0.2683643
0.6028309 0.3369639 0.44979236 -0.5557109 0.40654433 0.7001154 0.3281823 0.13618977
0.11179529 0.4554382 -0.3673732 0.68877304 -0.1487729 0.65057415 0.721125 -0.36677057
0.26903987 0.2589192 -0.45782393 0.6568774 0.26602924 0.34118736 -0.1371279 0.29923022
-0.5016746 -0.5150816 -0.5479874 0.21798812 0.31020588 -0.332512 0.5276155 -0.53888464
0.7909122 -0.53024536 -0.20243907 0.7452536 -0.16171966 0.4266811 0.08970749 -0.68326604
-0.1877229 -0.23986293 0.743084 0.60345775 0.30969858 -0.6473808 -0.49178362 0.7231884
-0.6054474 0.60781217 -0.1965458 0.41451162 0.5025039 0.67064226 -0.57787764 0.5361689
-0.34624562 -0.5465714 0.48329827 -0.5767261 0.69245255 0.25514445 0.37208548 0.014491902
-0.5937468 0.33762938 0.018379347 -0.24208176 0.3076968 0.33771953 0.5002077 0.43199635
-0.34896347 0.3192317 -0.68900925 0.26666182 -0.46577728 0.37074286 0.31744942 0.32624084
0.699126 -0.26721558 -0.32076254 0.608531 0.56193924 0.41425738 -0.3643642 0.5407196
0.37055308 0.5581796 -0.5017793 0.5320272 -0.66219467 0.39323056 -0.54696524 0.70932525
00000000: 6f7e e4be ea7f 303e 2db3 36be ad86 9b3e
00000010: b745 04bf 043c db3e 62d9 05be e093 80be
00000020: 2237 17bf 6efd 57be b9e4 c2be f80b a23e
00000030: 3f3b 30bf 401f b6be 6501 45be c7ad 163f
00000040: 14c0 8bbe 6abd 983e 7486 00bf c8d3 1cbf
00000050: 4411 d93e df9c 333f b29b d13e 20a0 e63e
00000060: 0ee0 aa3e 786c a43e d2a9 d0be 1717 ef3e
00000070: ddc0 f8be d384 ac3e 1a0b b03e 0c67 89be
00000080: 2053 1a3f 8886 ac3e 2f4b e63e 1243 0ebf
00000090: 9426 d03e c33a 333f 8307 a83e 5575 0b3e
000000a0: eef4 e43d 322f e93e 5718 bcbe 6e53 303f
000000b0: ec57 18be 078c 263f a69b 383f 5ac9 bbbe
000000c0: 98bf 893e 0f91 843e e667 eabe 1e29 283f
000000d0: fc34 883e 1cb0 ae3e 426b 0cbe b434 993e
000000e0: bf6d 00bf 63dc 03bf e748 0cbf 4738 5f3e
000000f0: 4ed3 9e3e 033f aabe cf11 073f 58f4 09bf
00000100: 3979 4a3f 29be 07bf 304c 4fbe f1c8 3e3f
00000110: d799 25be f275 da3e 8fb8 b73d 86ea 2ebf
00000120: 6f3a 40be a19e 75be c13a 3e3f 357c 1a3f
00000130: d090 9e3e c0ba 25bf 10cb fbbe e022 393f
00000140: 9afe 1abf 9499 1b3f 4d43 49be de3a d43e
00000150: 18a4 003f 36af 2b3f caef 13bf 5d42 093f
00000160: 1b47 b1be 1aec 0bbf df72 f73e 52a4 13bf
00000170: 9244 313f 4ba2 823e fd81 be3e 716f 6d3c
00000180: caff 17bf c2dd ac3e 4990 963c 48e4 77be
00000190: 6f8a 9d3e 93e9 ac3e 9d0d 003f a02e dd3e
000001a0: 57ab b2be 5672 a33e e962 30bf e687 883e
000001b0: 5c7a eebe 02d2 bd3e bb88 a23e 0a09 a73e
000001c0: ecf9 323f 7bd0 88be fd3a a4be b0c8 1b3f
000001d0: 40db 0f3f 8b19 d43e f28d babe 9a6c 0a3f
000001e0: 22b9 bd3e dce4 0e3f 9c74 00bf ef32 083f
000001f0: 9785 29bf 8455 c93e ea05 0cbf 5796 353f

net.2.weight f4 [128, 128]
0.039066736 0.06116633 0.027196623 0.025174133 0.009851004 0.07216392 0.022421038 -0.04577586
-0.034030125 -0.0031779355 -0.039572455 0.06238921 0.0048169317 -0.067891136 -0.009742655 -0.08294581
0.08635288 -0.027318712 -0.0034582647 -0.053344104 -0.031137364 0.03499726 -0.059638757 0.06589696
-0.013135244 0.0790922 -0.019990556 0.06648679 0.0715077 0.068641365 -0.0560718 0.003741386
0.07815609 0.050711215 -0.012792264 0.00023738158 0.06699268 -0.07841219 0.0054546874 -0.0015032516
-0.020441916 -0.070206925 -0.001531901 -0.021480214 -0.08233486 0.0034379922 -0.07073757 0.020883342
0.0052472297 0.042750917 -0.042209372 -0.0679492 -0.043531813 -0.042283636 -0.011464764 -0.06603372
-0.07773146 0.025963016 0.026683917 -0.061738633 0.021645842 0.064646415 0.057796996 -0.06494625
0.014690958 0.08436499 0.037529904 -0.088277 -0.0051063225 0.01526974 0.014402158 0.0695396
0.015999882 -0.022731913 0.04383406 -0.014812436 -0.060219385 0.013516294 0.00901343 0.054543804
-0.08721843 -0.013399136 -0.036149014 -0.031197887 -0.05087526 -0.023035707 -0.085664846 0.07331594
-0.05049282 -0.067769125 0.01463524 0.04125484 -0.057900853 0.05721147 0.016995726 -0.08304485
-0.016423563 0.04162981 -0.027535789 0.02623654 -0.045516793 0.011608896 -0.013046736 0.017654851
0.0038464584 -0.00026928674 0.043549832 0.057972737 -0.028130092 -0.041110437 0.02008979 -0.060674127
0.03139587 0.0663188 -0.024240602 0.017214375 0.014601038 -0.059961814 0.049683988 -0.020003706
0.06698942 0.036881085 0.021936065 0.031198645 0.03329053 -0.02126008 0.026485395 -0.049355224
-0.038104195 0.034514192 0.024930324 0.024076968 -0.053937186 -0.11495991 -0.09402212 -0.033673942
0.046520974 0.0044726552 0.03345563 0.04769307 -0.045227468 0.0126566775 -0.06329043 -0.068637
0.056014508 -0.10058466 0.068804465 0.05996816 0.046650685 0.01264433 0.046402033 -0.098359734
-0.03751866 -0.01672741 -0.081615284 -0.09256336 -0.074214645 0.01772308 -0.027290365 -0.08721897
-0.092170246 0.05366547 -0.10452665 -0.039241508 -0.091164365 -0.04570904 -0.046607085 -0.04217752
0.0055225254 -0.061153747 -0.07136281 0.03388943 0.033306766 0.011677175 -0.060617123 0.05925598
0.008896778 -0.06831734 -0.04082387 -0.08418539 0.03865672 -0.119945504 0.060359903 -0.08031314
-0.0025191065 -0.065215334 0.029569522 0.048793823 0.041603 -0.028021406 -0.07175085 -0.032671984
0.022149278 0.012019481 0.08361984 -0.043882683 -0.053604446 -0.08627757 0.046227627 0.051800173
0.056442596 0.013197147 -0.014932703 0.020357912 -0.07289367 -0.007889458 -0.09481561 -0.096655644
0.050598353 0.029000748 -0.011886307 0.07027206 -0.047083106 -0.02777731 -0.0380695 0.049449652
0.0875777 0.029870883 -0.10824348 0.07972879 0.054855235 0.06882835 -0.08940364 -0.023788914
-0.03734176 -0.00025956772 -0.06392485 0.056633547 0.02970498 0.074857526 -0.08226587 0.050868895
0.056978114 -0.10367555 0.060803182 0.047577843 0.068102196 -0.07665116 0.04254617 0.066424124
-0.09698342 -0.059311192 -0.079013646 0.021495022 -0.08556136 -0.04858393 -0.08260598 -0.1166248
-0.04824178 0.039168093 -0.0678298 0.0013041145 -0.0460758 -0.040577732 -0.00027970754 -0.08070045
00000000: 7104 203d 8c89 7a3d 74cb de3c fc39 ce3c
00000010: 1b66 213c adca 933d 53ac b73c 787f 3bbd
00000020: 2c63 0bbd e944 50bb ba16 22bd d48b 7f3d
00000030: 5ad7 9d3b 820a 8bbd a89f 1fbc 7edf a9bd
00000040: c7d9 b03d 7ecb dfbc 0ea4 62bb 597f 5abd
00000050: c913 ffbc 4959 0f3d c547 74bd fcf4 863d
00000060: 3535 57bc 17fb a13d 3cc3 a3bc 3a2a 883d
00000070: a172 923d d893 8c3d 8bab 65bd 0b32 753b
00000080: 4d10 a03d 90b6 4f3d a596 51bc a2e9 7839
00000090: 7533 893d 9296 a0bd 3cbd b23b c108 c5ba
000000a0: ce75 a7bc a6c8 8fbd 11ca c8ba 46f7 afbc
000000b0: 2e9f a8bd f04f 613b dcde 90bd 8b13 ab3c
000000c0: f4f0 ab3b 961b 2f3d bce3 2cbd f328 8bbd
000000d0: 6a4e 32bd 9b31 2dbd b5d6 3bbc b03c 87bd
000000e0: ac31 9fbd 64b0 d43c 3b98 da3c a6e1 7cbd
000000f0: 9f52 b13c 5765 843d 8bbc 6c3d 8a02 85bd
00000100: 58b2 703c 8dc7 ac3d f5b8 193d 92ca b4bd
00000110: f052 a7bb ee2d 7a3c 07f7 6b3c c76a 8e3d
00000120: 2f12 833c 4738 babc 588b 333d dcaf 72bc
00000130: 9aa8 76bd 7273 5d3c 11ad 133c 5369 5f3d
00000140: 949f b2bd 0d88 5bbc fd10 14bd b692 ffbc
00000150: 9462 50bd 61b5 bcbc 0d71 afbd ab26 963d
00000160: 8fd1 4ebd 8aca 8abd a5c8 6f3c d6fa 283d
00000170: 7229 6dbd 9356 6a3d 9f3a 8b3c 6b13 aabd
00000180: b58a 86bc 0584 2a3d bc92 e1bc 03ee d63c
00000190: d16f 3abd 3d33 3e3c fac1 55bc e8a0 903c
000001a0: dd14 7c3b 0e2f 8db9 4f61 323d d274 6d3d
000001b0: 1471 e6bc 6b63 28bd 5893 a43c 6f85 78bd
000001c0: f598 003d 27d2 873d 3a94 c6bc 2905 8d3c
000001d0: 3139 6f3c 859a 75bd 7081 4b3d d0de a3bc
000001e0: c031 893d 9f10 173d 43b3 b33c 4d94 ff3c
000001f0: a75b 083d 9f29 aebc e6f7 d83c b428 4abd
00000200: 2513 1cbd c15e 0d3d ae3a cc3c 103d c53c
00000210: 3ded 5cbd 1a70 ebbd ab8e c0bd b0ed 09bd
00000220: c78c 3e3d 5a8f 923b c508 093d cf59 433d
00000230: 7040 39bd f45d 4f3c 6a9e 81bd 8e91 8cbd
00000240: 786f 653d 55ff cdbd 5be9 8c3d 2ca1 753d
00000250: ca14 3f3d 2a2a 4f3c 0f10 3e3d d470 c9bd
00000260: 2bad 19bd ec07 89bc ea25 a7bd dc91 bdbd
00000270: d9fd 97bd fe2f 913c 0b90 dfbc dc9f b2bd
00000280: c1c3 bcbd 53d0 5b3d 1112 d6bd b4bb 20bd
00000290: 62b4 babd 6739 3bbd 12e7 3ebd 56c2 2cbd
000002a0: 4df6 b43b 5a7c 7abd aa26 92bd a5cf 0a3d
000002b0: ad6c 083d 9f51 3f3c a949 78bd 66b6 723d
000002c0: cbc3 113c f6e9 8bbd ee36 27bd 6469 acbd
000002d0: 8256 1e3d fda5 f5bd f23b 773d 377b a4bd
000002e0: 9817 25bb 9e8f 85bd c83b f23c 08dc 473d
000002f0: e867 2a3d 268d e5bc 1cf2 92bd 0fd3 05bd
00000300: 6772 b53c 5bed 443c e140 ab3d 54be 33bd
00000310: 5690 5bbd 4bb2 b0bd 2e59 3d3d 6b2c 543d
00000320: 5a30 673d d938 583c 4ca8 74bc a3c5 a63c
00000330: 4749 95bd c942 01bc b02e c2bd 65f3 c5bd
00000340: 3840 4f3d fa92 ed3c c9be 42bc ccea 8f3d
00000350: 37da 40bd 3e8d e3bc c4ee 1bbd b88b 4a3d
00000360: f05b b33d c8b3 f43c c2ae ddbd d948 a33d
00000370: e2af 603d e1f5 8c3d 4119 b7bd f8e0 c2bc
00000380: acf3 18bd 9716 88b9 08eb 82bd 94f8 673d
00000390: dc57 f33c e74e 993d 027b a8bd e75b 503d
000003a0: e261 693d d953 d4bd c20c 793d fce0 423d
000003b0: 2a79 8b3d 49fb 9cbd e544 2e3d 5f09 883d
000003c0: 3e9f c6bd 4bf0 72bd e8d1 a1bd 5416 b03c
000003d0: cb3a afbd f1ff 46bd 532d a9bd fcd8 eebd
000003e0: 2c99 45bd b96e 203d 5aea 8abd d2ee aa3a
000003f0: fab9 3cbd d634 26bd b6a5 92b9 4746 a5bd

net.2.bias f4 [128]
-0.02672655 -0.06381665 0.08586672 -0.065635614 -0.06305698 0.043424826 -0.05348968 0.13472222
-0.0024648274 -0.019199736 -0.072909504 -0.08803178 0.19176061 0.009320378 0.057283405 0.0008855932
0.053803124 -0.050826713 0.100484066 0.081293374 0.045640536 0.35303304 0.0695743 -0.08783324
-0.05106092 -0.052264813 0.12916191 0.098928034 0.0028255521 0.17546588 -0.028709313 0.035338867
0.12852485 -0.032924432 -0.022085058 0.031732626 0.045996424 0.32274243 0.08377335 0.08180441
0.058483608 0.017037991 0.0013423156 0.07209762 -0.06607896 0.04942662 -0.04368819 0.22144979
0.2850027 0.3543209 0.0052337535 0.09434793 0.1943283 -0.08415369 -0.00063602754 0.14300296
0.082727775 0.062195785 -0.08639709 -0.104327664 0.014818072 0.024678381 0.024611963 0.0062979767
0.07219451 -0.028352775 0.0270079 0.2617699 0.018315066 -0.07041181 0.14658794 0.033931814
-0.03261521 0.14489622 0.03754907 -0.019942928 -0.10426828 -0.062580176 0.023667308 0.03146692
0.19219492 -0.04753063 -0.06912577 -0.02853451 0.050387565 0.025686588 0.017634008 -0.025657699
0.049599633 0.15568402 -0.080318645 0.14741607 0.28186518 0.20850793 0.02444064 0.18328683
0.013056704 0.09979257 -0.08591674 0.15499732 0.04006926 0.053886853 0.053412236 -0.092115045
-0.0004935396 -0.02099089 0.07903775 0.18474472 -0.0048712185 0.012552492 -0.0009400025 -0.03294375
0.0027406474 -0.05807392 -0.08790734 -0.004594106 0.06718679 0.058943395 -0.08127615 -0.06715703
0.045967363 -0.014727309 -0.054086197 -0.022032982 0.059335798 0.06318747 -0.011365182 0.012758388
00000000: a3f1 dabc 4eb2 82bd e4da af3d f76b 86bd
00000010: 0524 81bd 3bde 313d ff17 5bbd 9ff4 093e
00000020: f188 21bb c448 9dbc 9451 95bd 024a b4bd
00000030: e55c 443e 80b4 183c 01a2 6a3d 2727 683a
00000040: aa60 5c3d ac2f 50bd 97ca cd3d 247d a63d
00000050: 92f1 3a3d bfc0 b43e f87c 8e3d eae1 b3bd
00000060: 4125 51bd a113 56bd 0543 043e c89a ca3d
00000070: e62c 393b 54ad 333e cb2f ebbc 7dbf 103d
00000080: 059c 033e c5db 06bd b9eb b4bc 12fa 013d
00000090: bf66 3c3d 7f3e a53e 5d91 ab3d 1289 a73d
000000a0: 828c 6f3d 4293 8b3c a3f0 af3a eba7 933d
000000b0: 6854 87bd 9173 4a3d 63f2 32bd bcc3 623e
000000c0: e0eb 913e 8d69 b53e e87f ab3b 7d39 c13d
000000d0: fffd 463e c558 acbd 16bb 26ba 5e6f 123e
000000e0: 2e6d a93d 02c1 7e3d f5f0 b0bd bea9 d5bd
000000f0: 80c7 723c 512a ca3c 079f c93c 425f ce3b
00000100: b7da 933d 1444 e8bc ac3f dd3c b406 863e
00000110: 7a09 963c 1134 90bd 261b 163e 16fc 0a3d
00000120: 8797 05bd ad5f 143e 0ecd 193d 5a5f a3bc
00000130: 9c8a d5bd 092a 80bd f1e1 c13c 75e3 003d
00000140: bfce 443e 7aaf 42bd d091 8dbd 34c1 e9bc
00000150: 3163 4e3d ae6c d23c 3275 903c 1830 d2bc
00000160: fc28 4b3d a26b 1f3e 1a7e a4bd 3df4 163e
00000170: a250 903e 1a83 553e bd37 c83c 8baf 3b3e
00000180: c9eb 553c 0c60 cc3d 1ef5 afbd 9eb7 1e3e
00000190: aa1f 243d 76b8 5c3d cac6 5a3d d0a6 bcbd
000001a0: e260 01ba 16f5 abbc 8bde a13d b82d 3d3e
000001b0: be9e 9fbb f8a8 4d3c 806a 76ba 07f0 06bd
000001c0: 6f9c 333b ebde 6dbd c308 b4bd 288a 96bb
000001d0: 3a99 893d a16e 713d 1c74 a6bd a089 89bd
000001e0: 4648 3c3d d04a 71bc 7d89 5dbd 837e b4bc
000001f0: 180a 733d 6f68 813d 0735 3abc 8f08 513c

net.4.weight f4 [3, 128]
0.046167627 0.05905233 -0.74948925 0.08235674 -0.017181395 -0.05456529 -0.04342132 -0.7785375
-0.60642505 0.021773815 0.009799683 -0.015501716 -0.677637 0.045083497 -0.07438233 0.07347993
-1.8640043 -0.016729144 -0.5235091 -0.79132426 0.0116428835 -0.5427005 0.07306023 -0.03084151
0.058835223 -0.04018759 -0.595613 -0.5709774 0.015066084 -0.5947841 -0.04367085 0.016718443
-0.86922765 0.0063787675 0.045005295 -0.45779276 0.0645435 -0.44732043 0.084701754 -0.016037783
-0.0073745605 -0.008332551 0.047588345 -1.6116605 0.03079828 0.026869131 -0.0032562627 -0.3847477
-0.4430312 -0.42261147 -0.08792505 -0.87982714 -1.2601602 -0.007087457 -0.007339568 -0.55801725
-1.1881901 0.0766336 0.025311602 0.01502984 -0.048688814 0.05945597 -0.014885205 -0.052084245
-1.109898 -0.0510987 -0.052855708 -0.30082017 -1.402215 -0.027817257 -0.609269 -1.4963515
0.038315404 -1.8172692 -0.94358146 -0.031735856 0.08206011 0.03560043 0.067000076 -0.5715291
-1.3129702 0.012572502 -0.003294992 -1.6820627 -1.3293352 -0.7125834 -0.03625414 0.027177747
0.047103032 -0.90800923 -0.0014097306 -0.6361221 -0.51575965 -0.657827 0.043008182 -1.0497824
0.028456813 -0.75164 0.060150325 1.3512058 -0.0080745565 -0.013689688 -0.55214506 0.081796475
-0.010852455 -0.06947984 -0.8240504 -0.45555505 -0.03386173 -0.01716979 -0.69739777 -0.0050460906
-0.033947133 0.039387535 -0.063366145 -0.023166427 -0.02130854 0.058441147 0.060998317 0.06359474
0.06387944 -0.05610424 -0.05583977 0.07865764 0.03088021 0.02289912 -0.033362687 0.02895071
0.06753277 -0.066473 -0.8395826 -0.021106467 0.051980823 0.05720006 -0.038884558 -0.9174307
-0.63390243 0.044770848 -0.069465354 0.039022133 -0.7085663 0.037353348 -0.067266256 -0.07231432
-1.0269821 0.04362696 -0.66065145 -1.3940786 0.048874874 -0.38933554 0.023126997 0.041424934
0.042055886 0.015241891 -0.62999654 -0.77259195 -0.022227457 -0.8211831 0.019275581 0.060354635
-0.799375 0.01048328 0.07581882 -0.8462977 0.024085818 -0.43434274 0.06303513 -0.05525359
0.016461274 0.056379862 -0.008161222 -1.8525498 0.0512256 -0.08512868 0.075214155 -0.41474795
-0.5516893 -0.33962464 0.024563182 -0.8925198 -1.1734576 -0.060373366 -0.08084886 -0.7629958
-1.1676023 0.019265514 -0.010488527 -0.009002383 0.070708916 -0.04722427 -9.26988e-05 0.040514387
-1.1196358 0.028676989 -0.064892925 -0.43880197 -1.4176023 -0.07089282 -0.836241 -1.23831
-0.03633683 -1.3222753 -1.0560614 0.04587038 0.04382027 -0.004035097 0.017032836 -0.63200146
-1.2657751 0.08061306 -0.050579317 -1.8055766 -1.4007398 -0.9211948 0.052674774 -0.06918846
0.066135645 -1.0169536 0.062989295 -0.74014425 -0.40800774 -0.3982696 -0.017757151 -1.1123017
0.05403662 -0.8516194 0.023135323 1.2379955 -0.06786595 -0.045712397 -0.52980614 0.055632047
-0.029147811 -0.06280415 -0.87012035 -0.5575772 0.037669457 -0.03492605 -0.70327294 0.05204941
0.064694464 0.06371557 -0.07907171 0.054068822 0.08019636 0.047285974 -0.031864375 -0.0048499377
-0.021730013 0.07264881 0.036679346 -0.030810336 0.015266661 0.049237885 0.085636154 0.01916689
00000000: 441a 3d3d dbe0 713d 87de 3fbf a7aa a83d
00000010: ffbf 8cbc db7f 5fbd 8eda 31bd 3c4e 47bf
00000020: ac3e 1bbf 005f b23c d98e 203c e9fa 7dbc
00000030: 9e79 2dbf 79a9 383d c355 98bd a57c 963d
00000040: b197 eebf 8f0b 89bc b104 06bf 3a94 4abf
00000050: cbc1 3e3c 6cee 0abf 9aa0 953d 56a7 fcbc
00000060: 34fd 703d be9b 24bd 187a 18bf 932b 12bf
00000070: bdd7 763c c543 18bf 35e0 32bd 1ef5 883c
00000080: b485 5ebf fb04 d13b 7957 383d d063 eabe
00000090: 622f 843d 2f07 e5be 1d78 ad3d ab61 83bc
000000a0: 4ca6 f1bb 4185 08bc ffeb 423d e44a cebf
000000b0: ad4c fc3c a71c dc3c 0667 55bb a7fd c4be
000000c0: fcd4 e2be 8860 d8be 0c12 b4bd 5a3c 61bf
000000d0: ee4c a1bf e63d e8bb c280 f0bb 38da 0ebf
000000e0: 9d16 98bf 14f2 9c3d 475a cf3c b83f 763c
000000f0: ec6d 47bd 1a88 733d 13e1 73bc 4a56 55bd
00000100: 2311 8ebf df4c 51bd 3a7f 58bd 1a05 9abe
00000110: c87b b3bf 04e1 e3bc 0ef9 1bbf 7288 bfbf
00000120: 9df0 1c3d 479c e8bf 8e8e 71bf 75fd 01bd
00000130: 220f a83d c2d1 113d 5637 893d bb4f 12bf
00000140: 680f a8bf e5fc 4d3c cbf0 57bb d54d d7bf
00000150: a827 aabf de6b 36bf 397f 14bd dea3 de3c
00000160: 1cef 403d 4b73 68bf b6c6 b8ba e6d8 22bf
00000170: d308 04bf 5a67 28bf 5929 303d 455f 86bf
00000180: 431e e93c 7b6b 40bf 3060 763d 50f4 ac3f
00000190: 254b 04bc b74a 60bc 6159 0dbf e984 a73d
000001a0: 7fce 31bc 724b 8ebd f8f4 52bf 833e e9be
000001b0: 99b2 0abd a9a7 8cbc a988 32bf ad59 a5bb
000001c0: 260c 0bbd d354 213d 1cc6 81bd 85c7 bdbc
000001d0: 3f8f aebc fc5f 6f3d 5fd9 793d f63d 823d
000001e0: 39d3 823d 8fcd 65bd 3eb8 64bd 4217 a13d
000001f0: 7ff8 fc3c ef96 bb3c 50a7 08bd 0a2a ed3c
00000200: 9f4e 8a3d ff22 88bd e3ee 56bf 78e7 acbc
00000210: d8e9 543d 9c4a 6a3d 6a45 1fbd bddc 6abf
00000220: 6e47 22bf a361 373d da43 8ebd acd5 1f3d
00000230: 9a64 35bf d3ff 183d e4c2 89bd 8819 94bd
00000240: 2674 83bf 2fb2 323d 7420 29bf 2b71 b2bf
00000250: 0531 483d fd56 c7be d474 bd3c 31ad 293d
00000260: cb42 2c3d 20b9 793c 7447 21bf 96c8 45bf
00000270: 5b16 b6bc 0e39 52bf d3e7 9d3c 6c36 773d
00000280: d7a3 4cbf 10c2 2b3c e646 9b3d f7a6 58bf
00000290: 9f4f c53c 2c62 debe 9018 813d 9751 62bd
000002a0: cbd9 863c 92ee 663d a5b6 05bc 5a20 edbf
000002b0: efd1 513d f257 aebd e109 9a3d d859 d4be
000002c0: 833b 0dbf 48e3 adbe ba38 c93c 2d7c 64bf
000002d0: dc33 96bf 104a 77bd 1694 a5bd b153 43bf
000002e0: fe73 95bf b6d2 9d3c 12d8 2bbc bb7e 13bc
000002f0: d6cf 903d 3c6e 41bd 4a67 c2b8 6af2 253d
00000300: 3a50 8fbf 01ec ea3c 95e6 84bd a7aa e0be
00000310: fe73 b5bf 4130 91bd e413 56bf f180 9ebf
00000320: eed5 14bd 5140 a9bf 052d 87bf 94e2 3b3d
00000330: e27c 333d d938 84bb 7288 8b3c d9ca 21bf
00000340: eb04 a2bf 7618 a53d 422c 4fbd 221d e7bf
00000350: 714b b3bf 6cd3 6bbf 81c1 573d aeb2 8dbd
00000360: 2072 873d 892b 82bf 8800 813d 187a 3dbf
00000370: 64e6 d0be fee9 cbbe 7277 91bc e75f 8ebf
00000380: 8155 5d3d bb03 5abf 4a86 bd3c a376 9e3f
00000390: 4efd 8abd ec3c 3bbd 60a1 07bf 6ede 633d
000003a0: 64c7 eebc 769f 80bd 35c0 5ebf 61bd 0ebf
000003b0: 4a4b 1a3d 9e0e 0fbd b209 34bf c331 553d
000003c0: 887e 843d 4f7d 823d 59f0 a1bd 4577 5d3d
000003d0: fd3d a43d f0ae 413d 3884 02bd 3aec 9ebb
000003e0: 2403 b2bc e6c8 943d 153d 163d f565 fcbc
000003f0: 0421 7a3c aaad 493d 0262 af3d e203 9d3c

net.4.bias f4 [3]
-0.45498234 -0.118312694 -0.24149087
00000000: 72f3 e8be ed4d f2bd 6249 77be
