MountCar/checkpoints/checkpoint_episode_50.pt (torch, 286168 bytes, 24 tensors)

net.0.weight f4 [128, 2]
000000 1d 03 cb be c0 31 20 3e a1 a6 8f be 7c 1c 44 bf
       -0.39650813 0.15643978 -0.28056815 -0.76605964
000010 65 25 c1 bd 8d a0 4e bd f4 bf 96 3e d5 33 34 3f
       -0.094309606 -0.050446082 0.29443324 0.7039159
000020 39 42 68 be 09 83 e1 3e 95 ca 49 bf 4f 44 d6 3e
       -0.22681512 0.44045284 -0.7882474 0.4184899
000030 39 c2 b0 be 0f 1b 4f 3e 68 be 4a be 4c e4 fa 3d
       -0.3452318 0.20225166 -0.19799197 0.122505754
000040 cd 1a 03 bf 89 62 10 bf 46 16 8b 3e e0 90 1b bf
       -0.5121277 -0.5640035 0.2716543 -0.60767937
000050 32 34 78 bd 86 2f 0c bf 12 93 4f 3e 17 1c a3 be
       -0.060596652 -0.54760015 0.20270947 -0.31857368
000060 ce cd c7 3e 16 3e d6 3e 34 d0 10 3f f5 da 40 be
       0.39024204 0.41844243 0.5656769 -0.18833525
000070 30 fb e1 3d de 46 3d 3e f5 f6 0d be 82 e1 52 3e
       0.11034238 0.18484065 -0.13863738 0.20593837
000080 c4 a6 83 bd be cd c8 3e aa 6c 22 bf 2b 91 86 be
       -0.064282924 0.3921947 -0.6344706 -0.2628263
000090 db 9d 19 bf cf 9a 49 3e a3 ca fd 3e 09 97 e3 3e
       -0.60006493 0.19687961 0.49568662 0.44451168
0000a0 2f 50 0c 3f 14 c0 c4 3e c5 45 e1 3e c1 d4 19 be
       0.5480985 0.38427794 0.43998542 -0.15022565
0000b0 d2 59 a8 3d a6 d2 77 3d 6e 2e 2c 3f 8a 4f a8 3e
       0.08220257 0.060503624 0.67258346 0.32873183
0000c0 dd 4d 67 3e 6d 11 46 bf 79 26 19 bf 1f 55 28 bf
       0.22588296 -0.7737034 -0.5982433 -0.65754884
0000d0 8c 85 93 be df 5a c4 3e 3d ff 0e 3f ab e8 e5 be
       -0.28812826 0.3835058 0.5585821 -0.44904074
0000e0 03 fd 0d bf 5e f6 04 bf eb 9f 10 bf ad df 50 bf
       -0.5546419 -0.51938426 -0.56494015 -0.815913
0000f0 8b e4 d2 3e 69 92 ba 3e 30 8b 44 bf e1 de e1 be
       0.4118999 0.36439827 -0.76774883 -0.44115356
000100 de dc 3b bf d8 a2 97 3d ff 67 c8 be 2c 38 75 3e
       -0.7338389 0.07404107 -0.39141843 0.23947209
000110 4a 57 20 bf b2 25 fb be f7 e0 66 3d 5f 17 22 be
       -0.6263319 -0.49052197 0.056366887 -0.15829228
000120 1f 70 5e be b9 61 18 bf 34 1d 44 be 2e af 74 bc
       -0.21722458 -0.5952411 -0.19151765 -0.014934344
000130 67 8a de be af 44 5e 3e 52 93 b9 3d 8d f5 fb 3e
       -0.43464968 0.21705888 0.09061302 0.49210778
000140 86 1a b1 3d af ca cd bd b1 d1 89 3e 95 ba 13 bd
       0.08647637 -0.100484245 0.26917794 -0.03606661
000150 18 57 a0 be 42 94 66 be 3c ee 12 3f ff 57 b6 3d
       -0.31316447 -0.22517493 0.57394767 0.08903503
000160 f4 d1 bb be c7 05 81 be 63 64 91 be b7 38 aa be
       -0.3668362 -0.2519972 -0.283969 -0.33246395
000170 cb 49 c8 be a9 93 ba bd b7 eb bc be f9 ab 51 bf
       -0.391188 -0.09110195 -0.36898586 -0.81903034
000180 93 dd 7c bd 20 f1 74 3d 35 e7 24 be 97 f5 1e 3e
       -0.061734747 0.059800267 -0.16103823 0.15523373
000190 8f fc b7 bd 7e 8d 08 be d0 7f 2c 3e b8 eb 97 3f
       -0.089837186 -0.13335225 0.16845632 1.1868811
0001a0 07 0c 3e be a6 6e 34 be de 29 ac be a8 9c 8d 3c
       -0.18559276 -0.17620334 -0.33625692 0.017286614
0001b0 90 2c 2e 3e 33 78 04 3f 94 b0 19 bf fc c3 0a bf
       0.17009187 0.5174591 -0.6003506 -0.542053
0001c0 d0 24 eb be 89 ab 03 bf c5 30 26 3e ae 67 65 bf
       -0.45926523 -0.51433617 0.16229542 -0.8961133
0001d0 6d a9 d9 3c 98 42 fe 3c 80 f8 af bc a3 ce b9 bd
       0.026570046 0.031037614 -0.021480799 -0.09072616
0001e0 4e 58 e5 be 36 c1 65 bf 16 40 02 bf f0 48 3f bf
       -0.44793934 -0.8974794 -0.5087904 -0.7472067
0001f0 e5 6b 1f 3f 5d 25 11 3f 12 89 14 bf 86 71 31 3f
       0.6227401 0.56697637 -0.5802165 0.6931385
000200 2c 6f cc be 36 88 06 3f 66 a4 de be e7 97 a1 be
       -0.39928567 0.5255159 -0.434848 -0.31561205
000210 d1 4c 80 3e 7f bc 81 3e 00 b8 39 3e 14 3e 33 3e
       0.25058606 0.25339124 0.18136597 0.1750415
000220 cb 1a 3f be a4 67 00 3f 3d 27 32 bf 9e d7 90 be
       -0.18662564 0.50158143 -0.6959112 -0.28289503
000230 ab 60 17 bf 47 d1 ca be 76 b6 85 be 18 82 63 bf
       -0.5913188 -0.3961279 -0.2611577 -0.8887038
000240 96 94 8e 3e f0 be 56 bf c5 19 8e 3d 1f 12 b7 3e
       0.27847737 -0.838851 0.06938509 0.35756013
000250 16 61 14 bd e7 dc 31 bf 4e 39 40 be e8 16 2e be
       -0.0362254 -0.69477695 -0.1877186 -0.17000926
000260 9b 46 f3 3e 5d 14 df 3e a0 9d 73 3e df 07 0e be
       0.47514805 0.43570223 0.23790598 -0.1387019
000270 07 c6 7e 3d f9 4b 18 bf 80 e8 00 bf 86 4b 54 bf
       0.062200572 -0.59490925 -0.50354767 -0.8292774
000280 71 2c 0d 3f c1 27 03 bf 50 c3 01 3f 86 e3 ff be
       0.5514594 -0.51232535 0.5068865 -0.49978274
000290 02 c8 c0 3e 28 d6 3b be 0e 1c 06 3f e1 8e 83 3e
       0.37652594 -0.18343413 0.5238656 0.25694945
0002a0 2c c2 49 3e 58 8e b2 bd 7c 9e 45 3f 8a 00 e5 be
       0.19702977 -0.08718556 0.7719495 -0.44726974
0002b0 d8 48 39 3e 80 91 16 bf c2 fd 91 3d 4d 94 c7 be
       0.18094194 -0.58815765 0.071284786 -0.38980332
0002c0 59 77 84 3e 76 39 66 3e 15 46 80 3d 6a 7d 19 3e
       0.25872305 0.22482857 0.06263367 0.14989248
0002d0 91 41 37 bf 62 6e 48 bf 02 6c 83 3e b3 5c c1 bd
       -0.7158442 -0.7829343 0.2566834 -0.09441509
0002e0 c2 0e c6 3e 99 3d 99 be 86 77 9b 3e 84 6e 14 3e
       0.38683134 -0.29929808 0.30364627 0.14495283
0002f0 d0 c8 8a 3e d9 52 74 3f 00 a4 17 3f 6e 16 12 3f
       0.27106333 0.95438915 0.5923462 0.57065475
000300 2e 33 cb bc b3 d3 4d be e4 10 3c 3e 99 21 02 bf
       -0.024804678 -0.20100288 0.18365818 -0.50832516
000310 96 e7 ef be 16 27 20 be c3 1b 45 bf 7b be ff be
       -0.46856374 -0.1563991 -0.76995486 -0.49950013
000320 86 37 01 bf 72 42 9c 3e c5 10 21 3e b4 bb e4 3e
       -0.5047535 0.30519444 0.15729053 0.44674456
000330 15 22 f0 3e 73 d6 05 bf 57 d9 e1 be f7 91 2f bf
       0.46901003 -0.5228035 -0.4411113 -0.685821
000340 3e c1 a4 be a2 db c8 3d c4 5c 18 bf 2a 30 e1 3d
       -0.32178682 0.09807517 -0.5951655 0.10995515
000350 b4 f9 a8 bc 85 12 03 bf 03 49 45 be 5e 32 af 3d
       -0.02062688 -0.51200134 -0.19266133 0.08554529
000360 a6 92 11 3f 32 01 07 bf 7f f5 17 3f 5e 2f 37 bf
       0.5686439 -0.527362 0.5935897 -0.7155665
000370 9e 13 05 bf bb 06 79 3e 46 75 0e 3e b5 e0 e7 3e
       -0.5198306 0.24318974 0.13911924 0.45288625
000380 a9 a9 0e 3f 13 82 07 bf ab 92 3d 3f 29 b3 36 be
       0.5572763 -0.5293285 0.7405192 -0.17841782
000390 36 e1 31 bf 23 f2 95 3e 65 2e 10 3f 8c 7a 31 3e
       -0.6948427 0.29286298 0.5632079 0.17331904
0003a0 ef 09 0d be e7 8e 80 3e 43 24 ea 3e 12 72 a7 3e
       -0.1377332 0.25109026 0.4573079 0.32704216
0003b0 c3 62 97 3e 09 ed 53 bf fe d9 06 3f b0 7f 4c bf
       0.29567537 -0.8278356 0.5267638 -0.79882336
0003c0 28 68 e9 3e bd f6 84 be ff de 2d bf 06 b6 a3 3d
       0.45587277 -0.25969496 -0.6791839 0.079937026
0003d0 ad ba 33 bf 33 b9 6b 3b 69 c4 9c 3e 9e 05 f9 3e
       -0.7020672 0.0035968542 0.306186 0.48637098
0003e0 19 6c 02 bf 26 18 ef be 25 0a b9 bc 21 17 47 3e
       -0.50946194 -0.4669811 -0.022587845 0.19442417
0003f0 3d 6c a8 bc e8 d3 62 be 4c 3b 76 3d 9c dc 14 bf
       -0.020559425 -0.22151148 0.060115144 -0.58149123

net.0.bias f4 [128]
000000 7e ae 8a 3e 73 24 11 3f b7 97 2e be e7 2d be be
       0.27086252 0.5669624 -0.17050062 -0.37144396
000010 cb 1c b5 be 57 5f 2e 3f 4e 69 b5 3e 11 52 2a 3f
       -0.3537353 0.6811423 0.35431904 0.66531473
000020 dc 39 23 bf 80 df 61 3f 61 e1 27 3f a5 b2 26 3f
       -0.6376016 0.8823166 0.65578276 0.6511634
000030 1a 7a 2d bf 45 63 2a 3f 65 b6 0a be bd 2e 29 3f
       -0.6776444 0.66557723 -0.1354614 0.6608694
000040 b5 c7 f2 3e 26 e2 ee bb 7e f7 e3 3d 75 73 bb be
       0.4741799 -0.0072901426 0.1113119 -0.36611524
000050 f9 3f e9 be 4b 80 d2 3e 41 69 b7 bd 5e d5 b3 be
       -0.4555662 0.41113505 -0.089556225 -0.35123724
000060 ee 2a 26 3f 60 51 37 3f 81 bb b7 3d 9c 6b 32 3f
       0.64909256 0.71608543 0.089713104 0.6969545
000070 47 83 07 3f 64 98 36 3e eb fa ba 3d 35 73 a0 3e
       0.5293469 0.1783157 0.0912989 0.31337896
000080 6f f9 75 3e 31 a7 35 3f 01 48 a0 be 6e 5e 51 3f
       0.24020933 0.7095824 -0.31304935 0.81784713
000090 75 aa 2c 3f ef f9 8c be 75 83 2d 3f b0 fa d3 bd
       0.67447597 -0.27534434 0.6777871 -0.10350549
0000a0 1d 11 34 3f 5b af 2d 3f 0d 6d 18 3f c7 44 5f 3f
       0.7033861 0.67845696 0.595414 0.8721432
0000b0 17 bc 2a 3f 4f dc 22 bf df d8 46 3e c4 bb 4d 3e
       0.6669325 -0.63617414 0.19418667 0.20091158
0000c0 72 f1 3c 3f 99 1c 54 be 2c bf 24 3f 44 e6 63 3e
       0.73805916 -0.20714034 0.64354205 0.22255808
0000d0 f4 a3 87 3e 71 76 0d bf 8f 0c 7b be f2 be 04 3e
       0.26492274 -0.5525885 -0.2451651 0.12963465
0000e0 c1 58 9e 3e b6 df 01 3f 4f 31 d7 be d2 dc dd 3e
       0.3092709 0.5073198 -0.42029807 0.43332535
0000f0 6c 9e 19 bd 0c 7b 06 3f 6c f8 a9 be 3f 7a 32 bf
       -0.0375046 0.52531505 -0.33197343 -0.6971778
000100 38 82 2a bf e3 48 bd 3d b2 45 1c 3f ef 81 2f 3f
       -0.6660495 0.09242418 0.61043847 0.6855764
000110 f3 5c 72 be 14 fe 3b 3f 99 f5 25 3f 85 dc b5 3e
       -0.2366827 0.7343457 0.6482788 0.35519806
000120 c5 e8 81 3e 2a 52 c2 be 9a 4a fc 3e 55 22 24 bf
       0.25372902 -0.3795331 0.49275666 -0.64114887
000130 ba 3d a2 be 68 a1 16 bf f9 ec 21 bf b5 27 98 3e
       -0.3168772 -0.58840036 -0.63252217 0.29717794
000140 c1 e0 b4 be 0a a7 f2 3e 3a 51 9c be e0 6a 74 3c
       -0.35327724 0.47393066 -0.3053072 0.014918059
000150 1f aa fd be 36 dc 15 be 39 d1 b0 bd 81 58 b0 3e
       -0.49543855 -0.14634785 -0.08633656 0.34442523
000160 45 79 74 be 78 6a 3c be b9 e1 63 be 63 c2 e1 be
       -0.23874386 -0.1839999 -0.22254075 -0.44093618
000170 03 44 c2 be 33 e0 9c 3e 45 b5 ce 3d 2b f5 8f 3e
       -0.37942514 0.306398 0.10093168 0.28116736
000180 cd dd 13 3f 76 c0 99 3e cf 3c 11 3e d8 a1 35 3f
       0.57760316 0.3002965 0.14183353 0.7095008
000190 04 ea 21 bf d4 a8 35 3e 9f f3 15 bf d6 6f 90 3e
       -0.63247705 0.17740184 -0.5857486 0.28210324
0001a0 e2 95 d0 be 5b 3b 1f 3d 48 e4 f7 3e 4a bd b6 be
       -0.40739352 0.038874965 0.48416352 -0.3569129
0001b0 52 7a 08 3f 08 63 0c 3f 45 85 d7 3e 94 3b a1 be
       0.53311646 0.5483861 0.42093864 -0.31490767
0001c0 0f 1a 34 3f d1 b3 a2 3c be d3 09 bf ac 2f 0c 3f
       0.7035226 0.019861134 -0.5383872 0.5476024
0001d0 26 3c cc be 33 d2 d1 3e b3 81 39 3f b8 1d f7 3e
       -0.3988964 0.40980682 0.7246353 0.4826486
0001e0 82 86 1c bf c0 a7 24 3f 46 b0 dd 3d 66 9e a3 3e
       -0.6114274 0.64318466 0.10824637 0.31956786
0001f0 af 85 59 3f fe 2c e9 be 8e 00 8a 3e 5b e8 06 be
       0.8496961 -0.4554214 0.26953548 -0.13174574

net.2.weight f4 [128, 128]
000000 df bf 8f 3b b4 eb 8c bb af ea 24 bd 53 d0 58 bd
       0.0043868865 -0.004300559 -0.040262874 -0.05293305
000010 30 f4 d4 3c b7 fe 00 bd d4 0b 3c bc 0c 7b 1e 3c
       0.025995344 -0.031492915 -0.011477429 0.009672891
000020 d2 90 18 3c d2 1d 76 bc 4e 26 86 bd 3e aa 80 bd
       0.009311872 -0.015021758 -0.06550275 -0.06282471
000030 c6 ed d1 3c c5 d0 be bc b9 78 f7 bc 96 16 1b 3c
       0.025626075 -0.023292908 -0.030208932 0.009465834
000040 5f eb d8 bc 97 1a 36 bd 18 30 09 bd 62 95 40 3d
       -0.026479421 -0.04445895 -0.03349313 0.047017463
000050 77 62 90 bd b4 99 98 bd d6 dd 96 bd 95 07 9e bd
       -0.07050031 -0.074511915 -0.073665306 -0.0771629
000060 c4 08 a1 bd c1 59 03 3b 76 c3 7a 3d 36 cf 03 3d
       -0.07863 0.0020042511 0.061221562 0.032180034
000070 68 2a 41 3c 56 3d 4b 3d cd 67 6c 3d 4e 6e 97 3d
       0.011789896 0.04961904 0.05771618 0.07394086
000080 f9 e6 13 3d c0 0b a9 bd aa c9 32 bd 63 4b 6f bd
       0.036108945 -0.08254194 -0.043649353 -0.058421504
000090 60 6a 26 bd ba b6 66 bc 63 85 82 bd b3 0f a3 bd
       -0.04062879 -0.014081651 -0.06373098 -0.07961979
0000a0 08 ed a5 3d 0b e8 3d 3d c8 01 52 bd 34 df 4a bd
       0.08101851 0.04636387 -0.05127123 -0.04952927
0000b0 64 a5 77 bd 35 a2 0a bd 9d c0 4b 3c 86 de 38 3c
       -0.060460463 -0.0338461 0.012436059 0.0112835225
0000c0 26 d1 39 bc 09 43 c7 bc 57 9e 67 3d cb b9 8e 3d
       -0.011341369 -0.024323957 0.05654749 0.06969031
0000d0 0f 92 09 bd be 9b 30 3c 82 4a be bc 27 3f 86 3d
       -0.033586558 0.010779319 -0.023228887 0.06555014
0000e0 5c 5d 91 bd 0f f5 3d 3d fc 9f 63 3d f8 3f be 3c
       -0.07097885 0.046376284 0.055572495 0.023223862
0000f0 79 56 27 bd 3a f9 d8 3c 57 87 60 bc 49 34 21 bd
       -0.04085395 0.026486028 -0.0137041425 -0.039356504
000100 82 c1 1f 3d b5 9a 51 3d 77 9d 69 3d c1 9f b2 3c
       0.039002903 0.05117293 0.057034936 0.021804692
000110 3c 57 e4 bc e0 bd f5 3c 9a 1e 99 3d f9 39 69 3d
       -0.027873628 0.029997766 0.0747654 0.056940053
000120 84 4d 8b ba c0 8c 80 3b d2 a2 0d 3d 6e 3f 91 3d
       -0.001062796 0.0039230287 0.034579106 0.070921764
000130 e9 72 b8 bb cb ee 35 bd 73 84 42 3d 22 a7 8d 3d
       -0.0056289327 -0.044417184 0.047489595 0.06916644
000140 70 79 e9 bb ca 8d 9d 3c 60 7b 3c bd 55 1f 0f bd
       -0.007125072 0.01923265 -0.046016097 -0.03494199
000150 33 93 6e 3c c1 80 89 bd 7d bd 27 bd 02 4c 8e 3d
       0.014561462 -0.06714011 -0.040952194 0.06948091
000160 45 14 fb bc 92 01 39 bc 86 2f 19 bc a2 03 c4 bc
       -0.030649314 -0.011291878 -0.009349709 -0.023927514
000170 1f df 98 3d b9 8c 16 3c 5c ce cb bc e1 f8 0d 3d
       0.07464432 0.009188824 -0.024878673 0.034661178
000180 ed 63 67 3b 0b 3c 43 3d fb ca f5 bc 00 c7 5a bd
       0.0035307363 0.047664683 -0.030004015 -0.053412437
000190 7f ed 1c 3d 41 ac 4b bd 77 d6 96 bd 01 30 48 bd
       0.03831243 -0.04972482 -0.07365125 -0.048873905
0001a0 46 53 13 bd c0 74 61 bd 2e cc 94 bd 97 e7 0d bd
       -0.035968088 -0.055042982 -0.07265507 -0.03464469
0001b0 97 e2 40 bd 09 62 7a bc ae dd 78 bd fa 87 a6 3d
       -0.047091093 -0.015282162 -0.060758285 0.08131404
0001c0 47 e8 96 bd 8f 42 93 bd 2a 8c 17 3d c3 d4 89 3c
       -0.07368522 -0.071904294 0.036998905 0.016825086
0001d0 63 94 87 bd 00 c2 89 3c 43 02 2b 3c 49 17 ba 3c
       -0.066200994 0.01681614 0.010437551 0.022716181
0001e0 36 b9 9b bd 89 55 6e 3d d0 8e 48 3d 40 76 b4 bd
       -0.076036856 0.05818704 0.04896432 -0.08811617
0001f0 1a 9a 27 3d 1e 78 6a 3d 2d 6e bd 3c 7a c8 b3 bd
       0.040918447 0.05724346 0.023123825 -0.08778472
000200 31 2a 98 3d 66 a8 6c 3d 3f 34 d1 bc 65 d2 6a bd
       0.07429922 0.057777785 -0.025537608 -0.057329554
000210 29 98 89 bd a8 ef 79 bd 47 03 82 bd 92 ea 18 3d
       -0.06718475 -0.06101957 -0.06348281 0.03733308
000220 8b 83 87 bb f0 8a e3 3c 42 7d 04 bd 7b f3 bf bd
       -0.004135554 0.027776212 -0.032346018 -0.09372612
000230 73 df 1b 39 bd 94 81 3c 0c 62 26 bd 95 0a 00 3c
       0.00014865193 0.015817994 -0.04062085 0.007815023
000240 87 d5 00 bc a3 23 a1 3d d7 19 9d 3b 96 0e a6 3d
       -0.007863409 0.07868125 0.00479434 0.08108251
000250 47 69 36 bd e2 0a 8b 3d 39 c0 b9 3a 8d f9 94 3d
       -0.044533994 0.06789185 0.0014171667 0.072741605
000260 e5 74 8b 3c af d1 a3 3d 81 77 c0 bd d0 70 fc bc
       0.017023513 0.07998978 -0.093977936 -0.030815512
000270 5a 3d 1a bd 30 bf 85 bd fa e4 96 bb 20 d7 84 bd
       -0.037656166 -0.06530607 -0.004604933 -0.06486344
000280 64 eb a2 3d ca a0 99 3c 02 2f 1a 3c 95 48 96 3d
       0.079550534 0.018753428 0.009410622 0.07338063
000290 aa f8 b5 bd ee 3a e4 bc d0 94 45 bd 3d 5d 76 3c
       -0.088853195 -0.027860131 -0.04823762 0.015036878
0002a0 0a 00 62 bc ae a7 8c bc 1b de cc bb 9e f8 a3 bc
       -0.013793955 -0.0171698 -0.006252063 -0.02001601
0002b0 d6 b2 d3 3c 63 05 21 bd ca 74 de 3c 88 0d 44 bd
       0.025842112 -0.039311778 0.027155299 -0.047864467
0002c0 28 c5 73 3d 48 36 a6 bd 93 97 8b bd 6a c5 03 bc
       0.059514195 -0.08115822 -0.0681602 -0.008042673
0002d0 5d d3 ba bd 40 54 38 3d 17 b5 9e 3d 0e 2b 3a bd
       -0.091223456 0.045002222 0.07749384 -0.045451216
0002e0 c4 61 69 3d da 66 89 bd 2e 5e ad bd 25 cc 65 bd
       0.056978002 -0.067090705 -0.08465229 -0.05610289
0002f0 54 b9 4c 3d 13 c1 25 bc 7a 1d b0 3d 69 11 3c bd
       0.04998143 -0.010116833 0.08599372 -0.04591504
000300 5e 21 13 3c 73 48 6a 3d a3 03 8d bd c8 08 25 3d
       0.008980123 0.057198 -0.06885459 0.040291578
000310 a1 12 35 bd 0c 42 ba bd a8 1e 8e 3d 68 78 8e 3d
       -0.04420722 -0.09094629 0.06939441 0.069565594
000320 9b 0c 6c bd e8 85 aa bd ab 58 a6 bd 11 bf 0e bd
       -0.05762921 -0.08326322 -0.08122381 -0.034850184
000330 3a 1f 95 3d 1a 2b 5d 3d 65 65 80 3c dc c6 a0 bc
       0.072813466 0.053996183 0.015673349 -0.019626074
000340 95 52 73 bc 89 81 ab bd 19 ef ff bb c6 d2 d0 bc
       -0.014851232 -0.08374316 -0.007810485 -0.02549113
000350 4f eb 14 3c 2b e4 0c bd 8b 9f af 3d 23 9b 45 bd
       0.009089305 -0.034397285 0.08575352 -0.048243653
000360 d3 94 b3 bd 38 ad 07 bd 54 5d 8d bd 0a bd 61 3d
       -0.0876862 -0.03312418 -0.069025666 0.055111922
000370 9b aa ae bd ef 5b a3 bd f4 fd bf bc 7f 25 cf 3c
       -0.08528634 -0.07976519 -0.023436524 0.025286434
000380 70 04 14 bc ac 81 e4 3c 58 f6 82 bd 0f 53 08 3d
       -0.009034261 0.027893864 -0.063946426 0.033282336
000390 3f 6c cb bc ff f8 2d 3d 51 1f ef 3c 3f ac 3a bd
       -0.02483189 0.04247379 0.029189738 -0.045574423
0003a0 7e 17 0a bc 16 67 e0 3c 41 68 b9 bd b8 dc 43 bd
       -0.008428453 0.027392905 -0.09053088 -0.047817916
0003b0 16 2c 6f 3d a3 92 85 bd 91 7c 83 3c 19 57 a6 3d
       0.058391653 -0.06522109 0.016050609 0.08122081
0003c0 2b 0f 60 bd 3a 15 6f bd cd 4f 89 bd 78 2a f7 bc
       -0.054701965 -0.058369853 -0.06704674 -0.030171618
0003d0 d5 31 34 3c 57 cf 43 bd 53 c2 af 3c 56 36 a1 bd
       0.010998209 -0.047805157 0.021454966 -0.07871692
0003e0 18 ce 45 bd be 54 bd bd 38 e1 da bc 29 5c 1d bd
       -0.04829225 -0.09244679 -0.02671872 -0.03841797
0003f0 4f 4e 38 3d 29 c9 c4 3c 7c 32 45 bd be 8d f6 3c
       0.044996556 0.024021702 -0.04814385 0.030096885

net.2.bias f4 [128]
000000 e3 bb 10 bd 70 d2 fb bb 84 01 f9 bc 86 ae b2 3d
       -0.035335433 -0.007684998 -0.03039623 0.08724694
000010 48 20 95 bd 65 53 b1 bc d9 f6 82 3d 11 ec 7a 3e
       -0.07281548 -0.02164621 0.06394739 0.24504115
000020 b2 4e 6d 3e 24 75 ce bd 4f 7b 55 bc 32 5f 28 3c
       0.23174551 -0.100809366 -0.013029887 0.010276603
000030 77 55 5c 3d 06 e5 e5 bc 88 be 17 3e 5a a4 1d bc
       0.053792443 -0.028063308 0.14818776 -0.009621704
000040 36 b2 1e bc 26 af 6d 3e ab ea 88 bb 63 77 1c 3e
       -0.0096860435 0.23211345 -0.004178365 0.15279917
000050 ef 9e 26 bc 09 3c 87 bd bf c2 1d bd bf a4 e3 3d
       -0.010169729 -0.06603248 -0.038515802 0.11115407
000060 49 ff 07 3c 6f 84 9f bd 6b 32 7a bd dd 92 b6 3a
       0.008300611 -0.077889316 -0.06108324 0.0013929267
000070 7a bb c6 bc bc 0b 15 bd f8 66 18 3e 9b 31 10 3d
       -0.024259318 -0.036388144 0.1488303 0.035203557
000080 26 a6 85 3e 7c d1 2e 3d 69 20 b4 3d 33 b6 23 3e
       0.26103324 0.04268025 0.08795244 0.15987472
000090 e7 60 7a 3e ce b4 4f bd 58 8b 61 3e f5 34 3b 3d
       0.24451028 -0.05070954 0.22025812 0.0457048
0000a0 81 89 12 ba e0 a6 35 bd eb 7b c2 3d 1a b5 88 3b
       -0.00055899477 -0.044348598 0.09496292 0.0041719796
0000b0 2d 02 3b bd 5b 93 29 3d d0 d0 32 bd 35 8b 3d 3e
       -0.04565637 0.041400295 -0.04365617 0.18510135
0000c0 f9 27 70 bd 52 62 83 3e 08 c8 89 3d 81 5f b2 3b
       -0.05863187 0.2566095 0.06727606 0.005443514
0000d0 82 55 9b bd 8d a9 f8 bb f0 63 c3 3c 93 0e 0a 3e
       -0.07584669 -0.0075885714 0.023851365 0.13482122
0000e0 cc ae 81 3e ae 4f 27 3d f4 2a 38 3e 96 b3 4e 3e
       0.25328672 0.040847473 0.17985135 0.20185694
0000f0 1d ec d1 bd 4e 0e 83 bd a2 d1 68 bd 6b ee 0c 3e
       -0.10250113 -0.06399213 -0.056840546 0.13762824
000100 cd bb 28 3b ef 54 81 3e 19 ff a1 bd c1 7f ae bd
       0.0025746704 0.25260112 -0.07909984 -0.08520461
000110 aa 94 07 bd 7d d8 7e 3e 14 c9 61 bd 4e fb 5d 3e
       -0.03310076 0.24887271 -0.055123404 0.21677896
000120 85 14 55 bd cc b3 04 3e 22 59 2d bd 09 b9 87 3e
       -0.052021522 0.12959212 -0.04232133 0.26508358
000130 89 b8 f8 3c 9d 5b 83 3b 66 1c 89 bd ff 53 dc 3d
       0.03036143 0.004008724 -0.0669487 0.107582085
000140 89 aa ab 3d 4b ee 86 3d fc e2 7b 3e 4c 06 7a 3e
       0.083821364 0.065884195 0.24598306 0.24416465
000150 66 e5 7f bd 35 05 8b 3d cf 10 a1 3a af 52 6c 3d
       -0.06247463 0.067881025 0.0012288335 0.05769604
000160 bf b0 e8 bc c2 b6 2e 3d 9c 3b b9 3d b6 af 80 3e
       -0.028404592 0.04265476 0.09044573 0.25134057
000170 13 88 8f 3d 2b 95 21 bd ed 7e b6 3d 77 b7 c7 bc
       0.07008376 -0.0394489 0.08910928 -0.024379475
000180 73 7b 88 bd d4 15 9b bd 48 66 c1 3d 61 fe f2 3d
       -0.06664171 -0.07572523 0.09443337 0.11864925
000190 49 81 0e 3d 27 0c a0 bc a7 54 92 bd ca 89 45 bd
       0.034791265 -0.019537045 -0.071450524 -0.04822711
0001a0 68 92 7a 3d 7c c0 d6 bc fe fc 6e 3c 3c 2f 37 3d
       0.06117478 -0.02621483 0.014586685 0.04472278
0001b0 e1 db c0 3d c7 cd 74 bd ac 84 91 3d 11 77 81 3e
       0.094169386 -0.059766557 0.07105383 0.25286153
0001c0 bf 88 97 3c 2d ec 9b 3a 56 0a 44 3d ba f3 01 3e
       0.018497823 0.0011895947 0.04786142 0.1269063
0001d0 89 05 e6 bd 3f b4 65 3e 04 12 10 bd 4c a6 3a 3c
       -0.112315245 0.2243204 -0.03517343 0.011392187
0001e0 0f 78 4e bb dc 12 01 bd 07 8a ab 3c b2 2a 0f 3c
       -0.0031504666 -0.031512126 0.02093984 0.008738207
0001f0 32 2c 14 bc 31 15 09 3e f0 17 8e bc f7 a0 df 3d
       -0.00904374 0.1338699 -0.017345399 0.109193735

net.4.weight f4 [3, 128]
000000 42 9a 5d bd b9 90 5c 3d f5 9e a1 3d 27 f3 0b be
       -0.05410219 0.053848956 0.07891647 -0.13666974
000010 40 58 82 3d cd 7f 1d 3d 8c 0b 8d 3c 4f b6 47 be
       0.063644886 0.03845196 0.01721742 -0.19503139
000020 e3 68 11 be a2 bd 14 3c 98 bb 0d 3c 78 ad 25 3d
       -0.14200167 0.009078415 0.008650683 0.040448636
000030 a0 0c c9 bc fa 4d ae 3c 1c 69 2f be da bd 90 bd
       -0.024542153 0.021277416 -0.1712994 -0.07067461
000040 d7 ca 06 bd 24 36 38 be 1f b1 91 3d 1b 55 48 be
       -0.032908287 -0.17989403 0.07113861 -0.19563715
000050 df c1 13 bd d4 14 24 3c 9c 4b 90 bc fc a7 7e bd
       -0.03607356 0.010014731 -0.017614178 -0.06217192
000060 2d 36 1d 3d b2 a5 95 bc 6d 02 a5 bc c4 44 b4 bd
       0.038381744 -0.018267486 -0.020142758 -0.088021785
000070 de 2c dd 3c 56 7b 54 bc 67 1f 68 be 1d bb c0 ba
       0.026998933 -0.012968859 -0.22668229 -0.0014704202
000080 79 e0 43 be 82 5e 89 bd 57 70 c2 bc 9c 13 52 be
       -0.19128598 -0.06707479 -0.023735208 -0.20515293
000090 b4 fd 54 be a1 e7 3e 3d 29 f4 ef bd 7d fb d1 3c
       -0.20799905 0.046607617 -0.11716492 0.025632614
0000a0 64 a3 c9 3c d9 e3 36 3d 74 04 6d be c2 82 82 3d
       0.024614044 0.044650886 -0.2314623 0.06372596
0000b0 4b b3 79 bd 2b 8e 27 bb 56 36 1e bd d4 4c 7f be
       -0.060962003 -0.0025566916 -0.038626038 -0.24931651
0000c0 e7 9c 6a 3d 5e 5e 70 be 9f 78 6d 3d 32 14 6f 3d
       0.05727854 -0.23473498 0.05797636 0.05836887
0000d0 52 7a 99 bd ab 31 b4 bd d6 b3 9a bc 74 19 41 be
       -0.07494034 -0.08798536 -0.01888458 -0.18857366
0000e0 b4 e1 41 be 0e e6 92 3d bb 9f 79 be 4f 5a a9 bd
       -0.18933755 0.07172786 -0.24377339 -0.08269178
0000f0 2a 7a 0f 3d e1 8e 74 3d c2 e8 ae 3d a7 ed 27 be
       0.035028614 0.059706572 0.08540489 -0.16399251
000100 4b fb 6d bb 5b c3 4e be 6b 9f 87 bd 74 73 36 3d
       -0.0036313112 -0.2019171 -0.066222034 0.0445437
000110 1c 7b 8d 3d 37 0c 47 be 4f d0 93 3d 71 12 78 be
       0.06908247 -0.19438253 0.07217466 -0.24225785
000120 a0 03 8f bd 58 e2 0f be 6b 25 94 bc 39 44 72 be
       -0.06983113 -0.14051187 -0.018084249 -0.23658837
000130 cc 6b 98 bd d1 58 88 bd 3e a4 b5 bc 87 f0 74 be
       -0.074424356 -0.066575654 -0.022173043 -0.23919879
000140 a4 b2 98 bd 9b ed 87 bc 1c 6f 3e be 6c 9a 64 be
       -0.07455948 -0.016592791 -0.18597072 -0.22324532
000150 1c e4 3b 3d 46 b8 1f bb ef e8 a6 bd 10 7d bd 3c
       0.04587184 -0.002437131 -0.08149897 0.023130924
000160 db 94 b3 3c 73 e4 9d 3d 24 a1 ca bd 5e d0 70 be
       0.021921566 0.07709589 -0.098940164 -0.23516986
000170 58 a6 86 bd 7f 94 8b 3c fa 26 e3 bd d3 3d 23 3d
       -0.06574696 0.017038582 -0.110914186 0.039853882
000180 40 39 30 bc 2c 80 af bd 95 d3 7d be 15 7e 26 be
       -0.010755837 -0.08569369 -0.24787743 -0.16259034
000190 c1 4b 9c bd f3 d6 0d bc dd fe 39 3c 7f f1 9d bd
       -0.076316364 -0.008657205 0.011352268 -0.07712077
0001a0 93 77 2f bd 5e b4 9c bd f5 f3 29 bc 38 49 a2 3c
       -0.042838644 -0.0765159 -0.010373105 0.019810304
0001b0 74 f9 60 be 9b 97 cf 3c 30 77 a0 bc c1 97 49 be
       -0.21970159 0.025340846 -0.019588083 -0.19686796
0001c0 17 f5 8f 3d 94 4e 2a 3d e6 8d 16 bd ab bb 1a be
       0.07029169 0.041578844 -0.03675642 -0.15110652
0001d0 31 5f 8a 3d 12 8f 72 be b5 ca 61 bc 2d ab d0 3b
       0.067564376 -0.2368739 -0.013781239 0.006368062
0001e0 ae 44 a6 bd a0 02 5e 3d 6a df 80 3c 2c b3 fb 3c
       -0.08118568 0.054201722 0.015731532 0.030725084
0001f0 7e 7d 53 3d 1b 2e 15 be ad e6 32 bd 68 e9 fb bd
       0.05163335 -0.14568369 -0.04367702 -0.12300378
000200 67 ad 4b bd d5 44 a0 3d 29 e8 fd 3c 8a df 25 be
       -0.049725916 0.07825629 0.030994492 -0.16198555
000210 37 e5 73 3d 0a 8e 5f 3d 19 36 30 3d ea 7b 3d be
       0.05954477 0.05457882 0.04302034 -0.185043
000220 3a 7d 12 be e6 e9 ba bb 57 67 78 bd 3c 95 82 bd
       -0.14305583 -0.0057041524 -0.060645428 -0.063761204
000230 62 4a b0 3c 09 cb 91 3d e2 69 79 be 62 7d b1 3d
       0.021519843 0.07118804 -0.24356797 0.08666493
000240 79 e4 a3 3d cf a7 51 be 0c 33 5d 3d bd 40 45 be
       0.08002562 -0.2047417 0.05400376 -0.19262977
000250 62 67 26 bc f8 d6 2f bd dd ee 9a 3d 84 e2 0f 3b
       -0.010156484 -0.04292962 0.07565091 0.0021955082
000260 e3 cc 82 bc 06 c7 c7 bc 4a 46 8c bd c5 a1 07 3a
       -0.015966838 -0.024386894 -0.06849344 0.0005173947
000270 77 88 0b 3d 61 aa a6 bd ee 9e 77 be a1 7c 7b 3d
       0.03406569 -0.08137966 -0.2418172 0.061398152
000280 b4 9a 37 be 72 7f 8d bc 4b 04 a4 bd c8 42 5f be
       -0.17930108 -0.017272685 -0.08008631 -0.21802819
000290 7a 66 3d be 6f af a2 3d f4 4a 25 be f5 c9 5d 3b
       -0.18496123 0.079436176 -0.16141874 0.00338423
0002a0 3f 66 2d bc 6a 18 98 bd d6 8c ff bd 40 5f d0 bb
       -0.010583459 -0.074265316 -0.12478034 -0.006359011
0002b0 9d 93 4b bd 2b b5 62 3d e5 43 4c 3d d0 cd 2f be
       -0.049701322 0.055348556 0.049869437 -0.17168355
0002c0 04 49 a5 bc a3 6f 3b be 7f 11 66 3c 05 32 39 bd
       -0.020176418 -0.18304305 0.014042257 -0.045213718
0002d0 64 e2 ab 3d 53 21 13 3c 16 d6 ab bc 79 bc 75 be
       0.0839279 0.008980113 -0.020976108 -0.23997678
0002e0 85 c8 4f be 8b 6a bd bc a5 b4 af bd df 62 4c be
       -0.20291336 -0.023122093 -0.08579377 -0.19959591
0002f0 a7 36 8f 3d 1a aa f4 3c 60 97 1c bd 2f 1a 0b be
       0.06992846 0.029866267 -0.0382303 -0.13584207
000300 2e fc a3 b9 ea f0 42 be 5d 29 42 bb 08 79 c8 3c
       -0.0003127767 -0.19037214 -0.0029626705 0.024471775
000310 40 14 48 bd fa 8c 70 be 2a 54 00 bd 44 10 06 be
       -0.048847437 -0.23491278 -0.031330265 -0.13092142
000320 fb 21 96 3d ea 62 17 be 1f af db 3c a8 33 db bd
       0.073307 -0.14783826 0.026816903 -0.10703212
000330 62 51 a5 3d 4a a5 1b bd e0 a8 8a 3d b0 30 0a be
       0.08072163 -0.03799943 0.067704916 -0.13495135
000340 ef 80 d3 3a ea c1 ed bc d5 56 75 be 93 bb 66 be
       0.0016136448 -0.02902313 -0.23958905 -0.22532491
000350 69 f7 11 3c 41 c9 38 3d 12 e3 a0 bd 5e a4 03 bd
       0.008909085 0.045113806 -0.0785581 -0.032139175
000360 e8 62 8f 3c d8 1a 10 3d 7a 95 55 be 8d 56 78 be
       0.017503217 0.03518185 -0.20857802 -0.24251767
000370 49 69 d8 3c 1f 95 57 bc eb ca 30 be 07 0a 52 bc
       0.026417391 -0.013158112 -0.17264907 -0.0128197735
000380 d0 b5 47 3c f6 58 f4 bb 8b bb 66 be bf 81 6d be
       0.012189344 -0.007456894 -0.2253248 -0.23194025
000390 11 5f 38 3d 3f 0f 90 bd 7d fe 89 3d c2 f8 20 bd
       0.045012537 -0.07034158 0.06737993 -0.039299734
0003a0 da a5 59 3d d1 ef ba 3c f4 00 89 bc cf ec b2 3d
       0.053136684 0.022819431 -0.016724087 0.08736574
0003b0 e8 26 66 be ec 06 c5 3c ff 62 98 3c cc e2 32 be
       -0.22475779 0.024051152 0.018601893 -0.17469329
0003c0 19 11 b5 3a 8c dd 93 bd 5a 2f 35 3d 54 2b 46 be
       0.00138143 -0.07219991 0.04423461 -0.19352466
0003d0 5d 88 1b 3d cb 01 f9 bd de 53 59 ba 53 29 82 bc
       0.037971843 -0.12158545 -0.000829039 -0.015888846
0003e0 0f ea 82 3c 06 e6 b3 bc 37 44 4e bc 73 40 46 3c
       0.015980748 -0.02196027 -0.012589506 0.012100327
0003f0 fb 1d 50 3b f0 ca 73 be a7 5c 78 3d bf b9 4b be
       0.003175615 -0.23807883 0.060635235 -0.19895075

net.4.bias f4 [3]
000000 34 95 07 be 60 77 e1 bd 66 a1 48 be
       -0.1324051 -0.11009097 -0.19592819

net.0.weight f4 [128, 2]
000000 ed c4 ca be 3f a6 1f 3e f1 6a 8f be 08 3e 44 bf
       -0.39603367 0.15590762 -0.28011277 -0.7665715
000010 65 25 c1 bd 8d a0 4e bd f4 bf 96 3e d5 33 34 3f
       -0.094309606 -0.050446082 0.29443324 0.7039159
000020 39 42 68 be 09 83 e1 3e 83 ab 49 bf 44 ff d5 3e
       -0.22681512 0.44045284 -0.7877733 0.41796315
000030 32 84 b0 be c4 92 4e 3e ba 47 4a be 5c d3 f9 3d
       -0.34475857 0.20173174 -0.19753924 0.12198517
000040 cd 1a 03 bf 89 62 10 bf 39 4f 8b 3e 39 b1 1b bf
       -0.5121277 -0.5640035 0.2720888 -0.60817295
000050 b7 56 76 bd 14 50 0c bf 59 04 50 3e d8 5b a3 be
       -0.06014129 -0.5480969 0.20314158 -0.3190601
000060 ce cd c7 3e 16 3e d6 3e 70 eb 10 3f 04 56 41 be
       0.39024204 0.41844243 0.5660925 -0.18880469
000070 30 fb e1 3d de 46 3d 3e cf 80 0d be 48 5b 52 3e
       0.11034238 0.18484065 -0.13818668 0.20542634
000080 99 be 82 bd f6 8a c8 3e ae 47 22 bf 64 d1 86 be
       -0.0638401 0.3916852 -0.63390625 -0.26331627
000090 4c 7c 19 bf ac 08 49 3e a3 ca fd 3e 09 97 e3 3e
       -0.59955287 0.19632214 0.49568662 0.44451168
0000a0 2f 50 0c 3f 14 c0 c4 3e 97 b6 e1 3e 15 ed 19 be
       0.5480985 0.38427794 0.44084617 -0.15031846
0000b0 d2 59 a8 3d a6 d2 77 3d 6e 2e 2c 3f 8a 4f a8 3e
       0.08220257 0.060503624 0.67258346 0.32873183
0000c0 c8 be 67 3e 69 31 46 bf c7 07 19 bf bf 77 28 bf
       0.22631371 -0.77419144 -0.5977749 -0.6580772
0000d0 03 46 93 be f7 11 c4 3e c1 1a 0f 3f 96 25 e6 be
       -0.28764352 0.38294956 0.559002 -0.4495055
0000e0 6f de 0d bf c4 19 05 bf 12 80 10 bf 9a 05 51 bf
       -0.5541753 -0.5199244 -0.5644542 -0.8164917
0000f0 54 e0 d2 3e d8 90 ba 3e f6 6a 44 bf 54 28 e2 be
       0.41186774 0.36438632 -0.7672571 -0.44171393
000100 b6 bc 3b bf 44 74 96 3d 88 2a c8 be f9 b1 74 3e
       -0.73334825 0.07346395 -0.3909495 0.23896016
000110 bd 63 20 bf 0f c6 fa be f5 b2 68 3d ee 99 22 be
       -0.6265219 -0.48979232 0.05681129 -0.15879032
000120 32 f7 5d be 07 83 18 bf 34 1d 44 be 2e af 74 bc
       -0.21676329 -0.5957493 -0.19151765 -0.014934344
000130 58 4d de be 62 bd 5d 3e 52 93 b9 3d 8d f5 fb 3e
       -0.43418384 0.21654275 0.09061302 0.49210778
000140 16 ff b1 3d 41 cf ce bd a5 0a 8a 3e eb b8 15 bd
       0.08691232 -0.10098124 0.26961246 -0.036553305
000150 e2 1a a0 be f5 1c 67 be 14 0a 13 3f 7e 5e b5 3d
       -0.3127051 -0.2256964 0.57437253 0.088559136
000160 0d 95 bb be 0c 49 81 be 63 64 91 be b7 38 aa be
       -0.36637154 -0.25251043 -0.283969 -0.33246395
000170 00 08 c8 be 87 bd bb bd cc ab bc be c9 d0 51 bf
       -0.39068604 -0.09167009 -0.3684982 -0.81959206
000180 74 09 7b bd d2 e0 72 3d 35 e7 24 be 97 f5 1e 3e
       -0.061288312 0.059296437 -0.16103823 0.15523373
000190 b8 10 b7 bd 45 12 09 be de eb 2c 3e 9f db 97 3f
       -0.08938736 -0.13385876 0.16886851 1.1863898
0001a0 67 94 3d be ce f7 34 be de 29 ac be a8 9c 8d 3c
       -0.18513642 -0.17672655 -0.33625692 0.017286614
0001b0 90 2c 2e 3e 33 78 04 3f bc 8f 19 bf 5f e9 0a bf
       0.17009187 0.5174591 -0.59984946 -0.54262346
0001c0 a1 e5 ea be 55 ce 03 bf ad a0 26 3e b5 87 65 bf
       -0.45878318 -0.5148671 0.1627223 -0.896602
0001d0 6d a9 d9 3c 98 42 fe 3c 4a 41 ac bc 73 d1 ba bd
       0.026570046 0.031037614 -0.021027226 -0.091219805
0001e0 24 1c e5 be a9 e6 65 bf f3 20 02 bf af 6a 3f bf
       -0.44748032 -0.89805084 -0.50831527 -0.7477216
0001f0 e5 6b 1f 3f 5d 25 11 3f 12 89 14 bf 86 71 31 3f
       0.6227401 0.56697637 -0.5802165 0.6931385
000200 2c 6f cc be 36 88 06 3f 13 62 de be 9d de a1 be
       -0.39928567 0.5255159 -0.434342 -0.31615153
000210 53 85 80 3e 4d 7d 81 3e f1 2a 3a 3e 23 bd 32 3e
       0.25101718 0.2529091 0.18180443 0.17454962
000220 cb 1a 3f be a4 67 00 3f 93 08 32 bf c7 1c 91 be
       -0.18662564 0.50158143 -0.69544333 -0.28342268
000230 6b 41 17 bf d0 15 cb be c1 79 85 be 63 a4 63 bf
       -0.59084195 -0.3966508 -0.26069453 -0.8892271
000240 fc f5 8e 3e 66 c4 56 bf c5 19 8e 3d 1f 12 b7 3e
       0.27922046 -0.8389343 0.06938509 0.35756013
000250 a9 8f 12 bd e2 fd 31 bf 4e 39 40 be e8 16 2e be
       -0.035781536 -0.6952802 -0.1877186 -0.17000926
000260 9b 46 f3 3e 5d 14 df 3e a0 9d 73 3e df 07 0e be
       0.47514805 0.43570223 0.23790598 -0.1387019
000270 07 c6 7e 3d f9 4b 18 bf 6d c8 00 bf de 6e 54 bf
       0.062200572 -0.59490925 -0.50305825 -0.8298167
000280 71 2c 0d 3f c1 27 03 bf 73 f8 01 3f af ef ff be
       0.5514594 -0.51232535 0.5076973 -0.49987552
000290 02 c8 c0 3e 28 d6 3b be 0d 1c 06 3f 0c 8f 83 3e
       0.37652594 -0.18343413 0.5238655 0.25695074
0002a0 2c c2 49 3e 58 8e b2 bd 7a 9e 45 3f 78 00 e5 be
       0.19702977 -0.08718556 0.7719494 -0.4472692
0002b0 d8 48 39 3e 80 91 16 bf da de 92 3d 71 d5 c7 be
       0.18094194 -0.58815765 0.07171412 -0.3903003
0002c0 59 77 84 3e 76 39 66 3e 15 46 80 3d 6a 7d 19 3e
       0.25872305 0.22482857 0.06263367 0.14989248
0002d0 1e 58 37 bf 3f 55 48 bf 02 6c 83 3e b3 5c c1 bd
       -0.7161883 -0.78255075 0.2566834 -0.09441509
0002e0 c2 0e c6 3e 99 3d 99 be b8 e1 9b 3e e4 53 14 3e
       0.38683134 -0.29929808 0.30445647 0.14485127
0002f0 51 ac 8a 3e 5e 67 74 3f 24 77 17 3f 69 1f 12 3f
       0.27084592 0.95470226 0.5916617 0.5707918
000300 a9 87 c7 bc ff 54 4e be d7 7b 3c 3e a5 40 02 bf
       -0.02435668 -0.20149611 0.18406616 -0.5087989
000310 52 a6 ef be c1 bb 20 be c2 fc 44 bf 86 01 00 bf
       -0.4680658 -0.15696622 -0.7694818 -0.50002325
000320 86 37 01 bf 72 42 9c 3e b8 6d 21 3e 3b 80 e4 3e
       -0.5047535 0.30519444 0.1576451 0.44629082
000330 15 22 f0 3e 73 d6 05 bf f9 9a e1 be 94 b5 2f bf
       0.46901003 -0.5228035 -0.44063547 -0.6863644
000340 3e c1 a4 be a2 db c8 3d e8 3a 18 bf 77 10 e0 3d
       -0.32178682 0.09807517 -0.59464884 0.109406404
000350 f7 40 a5 bc da 32 03 bf 03 49 45 be 5e 32 af 3d
       -0.02017258 -0.5124947 -0.19266133 0.08554529
000360 61 c9 11 3f fb 06 07 bf a8 2a 18 3f 1d 35 37 bf
       0.56947905 -0.52745026 0.5944009 -0.7156542
000370 41 f4 04 bf b7 7c 78 3e 46 75 0e 3e b5 e0 e7 3e
       -0.519352 0.24266325 0.13911924 0.45288625
000380 dd c4 0e 3f 10 a1 07 bf 57 92 3d 3f e2 b9 36 be
       0.5576914 -0.52980137 0.7405142 -0.17844346
000390 ed 12 32 bf 29 48 95 3e f5 64 10 3f f3 62 31 3e
       -0.6956013 0.29156616 0.5640405 0.17322902
0003a0 ef 09 0d be e7 8e 80 3e 9a 92 ea 3e 30 65 a7 3e
       -0.1377332 0.25109026 0.45814973 0.32694387
0003b0 68 9b 97 3e f3 0c 54 bf 91 0f 07 3f 82 85 4c bf
       0.29610753 -0.8283226 0.5275813 -0.79891217
0003c0 28 68 e9 3e bd f6 84 be c4 bf 2d bf a8 a2 a2 3d
       0.45587277 -0.25969496 -0.67870736 0.079411805
0003d0 b7 99 33 bf 89 5b 47 3b 6a 2f 9d 3e 24 f8 f8 3e
       -0.70156425 0.003041955 0.30700237 0.48626816
0003e0 1d 4e 02 bf b1 5d ef be 25 0a b9 bc 21 17 47 3e
       -0.5090044 -0.46751168 -0.022587845 0.19442417
0003f0 87 cb a4 bc 22 55 63 be 4c 3b 76 3d 9c dc 14 bf
       -0.02011658 -0.22200444 0.060115144 -0.58149123

net.0.bias f4 [128]
000000 e7 51 8a 3e 32 f8 10 3f b7 97 2e be e7 2d be be
       0.27015612 0.56628716 -0.17050062 -0.37144396
000010 cb 1c b5 be 41 31 2e 3f d6 0d b5 3e d2 25 2a 3f
       -0.3537353 0.68043905 0.35362118 0.6646396
000020 dc 39 23 bf 64 b5 61 3f c9 b5 27 3f d9 88 26 3f
       -0.6376016 0.88167405 0.6551176 0.6505256
000030 1a 7a 2d bf 4a 3b 2a 3f 65 b6 0a be e0 02 29 3f
       -0.6776444 0.6649672 -0.1354614 0.6602001
000040 1c 71 f2 3e 11 e5 03 bc 5d 69 e2 3d 75 73 bb be
       0.4735192 -0.008050219 0.11055253 -0.36611524
000050 f9 3f e9 be 07 0f d2 3e 41 69 b7 bd 5e d5 b3 be
       -0.4555662 0.4102709 -0.089556225 -0.35123724
000060 47 01 26 3f c0 23 37 3f 7e 3c b6 3d 83 43 32 3f
       0.648457 0.71538925 0.08898257 0.69634265
000070 58 55 07 3f 2a d6 35 3e 88 09 bb 3d 71 12 a0 3e
       0.528646 0.17757478 0.09132677 0.3126407
000080 36 36 75 3e 1c 7a 35 3f 17 0e a0 be 7b 33 51 3f
       0.23946461 0.7088945 -0.3126075 0.8171918
000090 0e 7e 2c 3f ef f9 8c be 66 56 2d 3f b0 fa d3 bd
       0.67379844 -0.27534434 0.6770996 -0.10350549
0000a0 b4 e6 33 3f 75 85 2d 3f 43 40 18 3f e4 1b 5f 3f
       0.702739 0.67781764 0.59473056 0.8715193
0000b0 38 8f 2a 3f 4f dc 22 bf c9 13 46 3e a4 fc 4c 3e
       0.66624784 -0.63617414 0.19343485 0.2001825
0000c0 17 c6 3c 3f 99 1c 54 be 90 93 24 3f 4f 43 63 3e
       0.7373976 -0.20714034 0.6428766 0.22193645
0000d0 83 4a 87 3e 71 76 0d bf 8f 0c 7b be 43 f9 03 3e
       0.26424035 -0.5525885 -0.2451651 0.12888055
0000e0 5d fb 9d 3e 4a b6 01 3f 4f 31 d7 be 29 86 dd 3e
       0.30855837 0.50668776 -0.42029807 0.4326642
0000f0 42 5a 1c bd 64 4d 06 3f 6c f8 a9 be 3f 7a 32 bf
       -0.038172014 0.5246184 -0.33197343 -0.6971778
000100 38 82 2a bf 9e c3 bb 3d 3c 1c 1c 3f 97 57 2f 3f
       -0.6660495 0.091681704 0.6098058 0.68493026
000110 f3 5c 72 be 7a d0 3b 3f 9d c7 25 3f 77 82 b5 3e
       -0.2366827 0.73364985 0.6475771 0.354511
000120 d0 84 81 3e 2a 52 c2 be 6b f4 fb 3e 55 22 24 bf
       0.2529664 -0.3795331 0.49209914 -0.64114887
000130 ba 3d a2 be 68 a1 16 bf f9 ec 21 bf df c8 97 3e
       -0.3168772 -0.58840036 -0.63252217 0.2964544
000140 c1 e0 b4 be 1d 3b f2 3e 3a 51 9c be 17 7d 74 3c
       -0.35327724 0.47310725 -0.3053072 0.014922402
000150 1f aa fd be 22 dc 15 be 39 d1 b0 bd db 04 b0 3e
       -0.49543855 -0.14634755 -0.08633656 0.34378704
000160 45 79 74 be 78 6a 3c be 4c 5c 63 be 63 c2 e1 be
       -0.23874386 -0.1839999 -0.22203177 -0.44093618
000170 03 44 c2 be 1f 73 9c 3e 06 40 cf 3d 4f 4a 90 3e
       -0.37942514 0.3055658 0.101196334 0.28181693
000180 b7 b2 13 3f 44 71 99 3e df 78 10 3e f1 73 35 3f
       0.5769457 0.29969227 0.14108609 0.7088004
000190 04 ea 21 bf 6c 18 35 3e 9f f3 15 bf 7f 12 90 3e
       -0.63247705 0.17685097 -0.5857486 0.2813911
0001a0 e2 95 d0 be 9d 1b 1c 3d 8a 8d f7 3e 4a bd b6 be
       -0.40739352 0.03811227 0.48350173 -0.3569129
0001b0 d9 42 08 3f f8 2c 0c 3f 79 28 d7 3e 94 3b a1 be
       0.53227 0.54756117 0.42023066 -0.31490767
0001c0 fa f1 33 3f 28 32 a2 3c 2a aa 09 bf 4f f8 0b 3f
       0.702911 0.019799307 -0.53775275 0.54675764
0001d0 26 3c cc be 58 64 d1 3e ff 57 39 3f bb b0 f6 3e
       -0.3988964 0.4089687 0.72399896 0.4818171
0001e0 82 86 1c bf aa 79 24 3f 07 26 dc 3d c1 30 a3 3e
       -0.6114274 0.64248145 0.10749441 0.31873134
0001f0 bb 58 59 3f fe 2c e9 be 2d ab 89 3e 5b e8 06 be
       0.84901017 -0.4554214 0.2688841 -0.13174574

net.2.weight f4 [128, 128]
000000 df bf 8f 3b b4 eb 8c bb af ea 24 bd 53 d0 58 bd
       0.0043868865 -0.004300559 -0.040262874 -0.05293305
000010 30 f4 d4 3c b7 fe 00 bd d4 0b 3c bc 0c 7b 1e 3c
       0.025995344 -0.031492915 -0.011477429 0.009672891
000020 d2 90 18 3c d2 1d 76 bc 4e 26 86 bd 3e aa 80 bd
       0.009311872 -0.015021758 -0.06550275 -0.06282471
000030 c6 ed d1 3c c5 d0 be bc b9 78 f7 bc 96 16 1b 3c
       0.025626075 -0.023292908 -0.030208932 0.009465834
000040 5f eb d8 bc 97 1a 36 bd 18 30 09 bd 62 95 40 3d
       -0.026479421 -0.04445895 -0.03349313 0.047017463
000050 77 62 90 bd b4 99 98 bd d6 dd 96 bd 95 07 9e bd
       -0.07050031 -0.074511915 -0.073665306 -0.0771629
000060 c4 08 a1 bd c1 59 03 3b 76 c3 7a 3d 36 cf 03 3d
       -0.07863 0.0020042511 0.061221562 0.032180034
000070 68 2a 41 3c 56 3d 4b 3d cd 67 6c 3d 4e 6e 97 3d
       0.011789896 0.04961904 0.05771618 0.07394086
000080 f9 e6 13 3d c0 0b a9 bd aa c9 32 bd 63 4b 6f bd
       0.036108945 -0.08254194 -0.043649353 -0.058421504
000090 60 6a 26 bd ba b6 66 bc 63 85 82 bd b3 0f a3 bd
       -0.04062879 -0.014081651 -0.06373098 -0.07961979
0000a0 08 ed a5 3d 0b e8 3d 3d c8 01 52 bd 34 df 4a bd
       0.08101851 0.04636387 -0.05127123 -0.04952927
0000b0 64 a5 77 bd 35 a2 0a bd 9d c0 4b 3c 86 de 38 3c
       -0.060460463 -0.0338461 0.012436059 0.0112835225
0000c0 26 d1 39 bc 09 43 c7 bc 57 9e 67 3d cb b9 8e 3d
       -0.011341369 -0.024323957 0.05654749 0.06969031
0000d0 0f 92 09 bd be 9b 30 3c 82 4a be bc 27 3f 86 3d
       -0.033586558 0.010779319 -0.023228887 0.06555014
0000e0 5c 5d 91 bd 0f f5 3d 3d fc 9f 63 3d f8 3f be 3c
       -0.07097885 0.046376284 0.055572495 0.023223862
0000f0 79 56 27 bd 3a f9 d8 3c 57 87 60 bc 49 34 21 bd
       -0.04085395 0.026486028 -0.0137041425 -0.039356504
000100 82 c1 1f 3d b5 9a 51 3d 77 9d 69 3d c1 9f b2 3c
       0.039002903 0.05117293 0.057034936 0.021804692
000110 3c 57 e4 bc e0 bd f5 3c 9a 1e 99 3d f9 39 69 3d
       -0.027873628 0.029997766 0.0747654 0.056940053
000120 84 4d 8b ba c0 8c 80 3b d2 a2 0d 3d 6e 3f 91 3d
       -0.001062796 0.0039230287 0.034579106 0.070921764
000130 e9 72 b8 bb cb ee 35 bd 73 84 42 3d 22 a7 8d 3d
       -0.0056289327 -0.044417184 0.047489595 0.06916644
000140 70 79 e9 bb ca 8d 9d 3c 60 7b 3c bd 55 1f 0f bd
       -0.007125072 0.01923265 -0.046016097 -0.03494199
000150 33 93 6e 3c c1 80 89 bd 7d bd 27 bd 02 4c 8e 3d
       0.014561462 -0.06714011 -0.040952194 0.06948091
000160 45 14 fb bc 92 01 39 bc 86 2f 19 bc a2 03 c4 bc
       -0.030649314 -0.011291878 -0.009349709 -0.023927514
000170 1f df 98 3d b9 8c 16 3c 5c ce cb bc e1 f8 0d 3d
       0.07464432 0.009188824 -0.024878673 0.034661178
000180 ed 63 67 3b 0b 3c 43 3d fb ca f5 bc 00 c7 5a bd
       0.0035307363 0.047664683 -0.030004015 -0.053412437
000190 7f ed 1c 3d 41 ac 4b bd 77 d6 96 bd 01 30 48 bd
       0.03831243 -0.04972482 -0.07365125 -0.048873905
0001a0 46 53 13 bd c0 74 61 bd 2e cc 94 bd 97 e7 0d bd
       -0.035968088 -0.055042982 -0.07265507 -0.03464469
0001b0 97 e2 40 bd 09 62 7a bc ae dd 78 bd fa 87 a6 3d
       -0.047091093 -0.015282162 -0.060758285 0.08131404
0001c0 47 e8 96 bd 8f 42 93 bd 2a 8c 17 3d c3 d4 89 3c
       -0.07368522 -0.071904294 0.036998905 0.016825086
0001d0 63 94 87 bd 00 c2 89 3c 43 02 2b 3c 49 17 ba 3c
       -0.066200994 0.01681614 0.010437551 0.022716181
0001e0 36 b9 9b bd 89 55 6e 3d d0 8e 48 3d 40 76 b4 bd
       -0.076036856 0.05818704 0.04896432 -0.08811617
0001f0 1a 9a 27 3d 1e 78 6a 3d 2d 6e bd 3c 7a c8 b3 bd
       0.040918447 0.05724346 0.023123825 -0.08778472
000200 31 2a 98 3d 66 a8 6c 3d 3f 34 d1 bc 65 d2 6a bd
       0.07429922 0.057777785 -0.025537608 -0.057329554
000210 29 98 89 bd a8 ef 79 bd 47 03 82 bd 92 ea 18 3d
       -0.06718475 -0.06101957 -0.06348281 0.03733308
000220 8b 83 87 bb f0 8a e3 3c 42 7d 04 bd 7b f3 bf bd
       -0.004135554 0.027776212 -0.032346018 -0.09372612
000230 73 df 1b 39 bd 94 81 3c 0c 62 26 bd 95 0a 00 3c
       0.00014865193 0.015817994 -0.04062085 0.007815023
000240 87 d5 00 bc a3 23 a1 3d d7 19 9d 3b 96 0e a6 3d
       -0.007863409 0.07868125 0.00479434 0.08108251
000250 47 69 36 bd e2 0a 8b 3d 39 c0 b9 3a 8d f9 94 3d
       -0.044533994 0.06789185 0.0014171667 0.072741605
000260 e5 74 8b 3c af d1 a3 3d 81 77 c0 bd d0 70 fc bc
       0.017023513 0.07998978 -0.093977936 -0.030815512
000270 5a 3d 1a bd 30 bf 85 bd fa e4 96 bb 20 d7 84 bd
       -0.037656166 -0.06530607 -0.004604933 -0.06486344
000280 64 eb a2 3d ca a0 99 3c 02 2f 1a 3c 95 48 96 3d
       0.079550534 0.018753428 0.009410622 0.07338063
000290 aa f8 b5 bd ee 3a e4 bc d0 94 45 bd 3d 5d 76 3c
       -0.088853195 -0.027860131 -0.04823762 0.015036878
0002a0 0a 00 62 bc ae a7 8c bc 1b de cc bb 9e f8 a3 bc
       -0.013793955 -0.0171698 -0.006252063 -0.02001601
0002b0 d6 b2 d3 3c 63 05 21 bd ca 74 de 3c 88 0d 44 bd
       0.025842112 -0.039311778 0.027155299 -0.047864467
0002c0 28 c5 73 3d 48 36 a6 bd 93 97 8b bd 6a c5 03 bc
       0.059514195 -0.08115822 -0.0681602 -0.008042673
0002d0 5d d3 ba bd 40 54 38 3d 17 b5 9e 3d 0e 2b 3a bd
       -0.091223456 0.045002222 0.07749384 -0.045451216
0002e0 c4 61 69 3d da 66 89 bd 2e 5e ad bd 25 cc 65 bd
       0.056978002 -0.067090705 -0.08465229 -0.05610289
0002f0 54 b9 4c 3d 13 c1 25 bc 7a 1d b0 3d 69 11 3c bd
       0.04998143 -0.010116833 0.08599372 -0.04591504
000300 5e 21 13 3c 73 48 6a 3d a3 03 8d bd c8 08 25 3d
       0.008980123 0.057198 -0.06885459 0.040291578
000310 a1 12 35 bd 0c 42 ba bd a8 1e 8e 3d 68 78 8e 3d
       -0.04420722 -0.09094629 0.06939441 0.069565594
000320 9b 0c 6c bd e8 85 aa bd ab 58 a6 bd 11 bf 0e bd
       -0.05762921 -0.08326322 -0.08122381 -0.034850184
000330 3a 1f 95 3d 1a 2b 5d 3d 65 65 80 3c dc c6 a0 bc
       0.072813466 0.053996183 0.015673349 -0.019626074
000340 95 52 73 bc 89 81 ab bd 19 ef ff bb c6 d2 d0 bc
       -0.014851232 -0.08374316 -0.007810485 -0.02549113
000350 4f eb 14 3c 2b e4 0c bd 8b 9f af 3d 23 9b 45 bd
       0.009089305 -0.034397285 0.08575352 -0.048243653
000360 d3 94 b3 bd 38 ad 07 bd 54 5d 8d bd 0a bd 61 3d
       -0.0876862 -0.03312418 -0.069025666 0.055111922
000370 9b aa ae bd ef 5b a3 bd f4 fd bf bc 7f 25 cf 3c
       -0.08528634 -0.07976519 -0.023436524 0.025286434
000380 70 04 14 bc ac 81 e4 3c 58 f6 82 bd 0f 53 08 3d
       -0.009034261 0.027893864 -0.063946426 0.033282336
000390 3f 6c cb bc ff f8 2d 3d 51 1f ef 3c 3f ac 3a bd
       -0.02483189 0.04247379 0.029189738 -0.045574423
0003a0 7e 17 0a bc 16 67 e0 3c 41 68 b9 bd b8 dc 43 bd
       -0.008428453 0.027392905 -0.09053088 -0.047817916
0003b0 16 2c 6f 3d a3 92 85 bd 91 7c 83 3c 19 57 a6 3d
       0.058391653 -0.06522109 0.016050609 0.08122081
0003c0 2b 0f 60 bd 3a 15 6f bd cd 4f 89 bd 78 2a f7 bc
       -0.054701965 -0.058369853 -0.06704674 -0.030171618
0003d0 d5 31 34 3c 57 cf 43 bd 53 c2 af 3c 56 36 a1 bd
       0.010998209 -0.047805157 0.021454966 -0.07871692
0003e0 18 ce 45 bd be 54 bd bd 38 e1 da bc 29 5c 1d bd
       -0.04829225 -0.09244679 -0.02671872 -0.03841797
0003f0 4f 4e 38 3d 29 c9 c4 3c 7c 32 45 bd be 8d f6 3c
       0.044996556 0.024021702 -0.04814385 0.030096885

net.2.bias f4 [128]
000000 e3 bb 10 bd 70 d2 fb bb 84 01 f9 bc cb 3c b1 3d
       -0.035335433 -0.007684998 -0.03039623 0.086541735
000010 48 20 95 bd 65 53 b1 bc d9 f6 82 3d 49 4f 7a 3e
       -0.07281548 -0.02164621 0.06394739 0.24444307
000020 18 91 6c 3e 24 75 ce bd 4f 7b 55 bc 32 5f 28 3c
       0.23102224 -0.100809366 -0.013029887 0.010276603
000030 77 55 5c 3d 06 e5 e5 bc 0b 0d 17 3e 5a a4 1d bc
       0.053792443 -0.028063308 0.14751069 -0.009621704
000040 36 b2 1e bc 22 06 6d 3e ab ea 88 bb 65 cf 1b 3e
       -0.0096860435 0.2314687 -0.004178365 0.15215833
000050 ef 9e 26 bc 09 3c 87 bd bf c2 1d bd e0 aa e2 3d
       -0.010169729 -0.06603248 -0.038515802 0.11067748
000060 49 ff 07 3c 6f 84 9f bd 6b 32 7a bd dd 92 b6 3a
       0.008300611 -0.077889316 -0.06108324 0.0013929267
000070 7a bb c6 bc bc 0b 15 bd 3e d8 17 3e 9b 31 10 3d
       -0.024259318 -0.036388144 0.14828584 0.035203557
000080 ac 4b 85 3e 7c d1 2e 3d 69 20 b4 3d da 08 23 3e
       0.26034296 0.04268025 0.08795244 0.15921345
000090 41 a9 79 3e ce b4 4f bd 83 d0 60 3e f5 34 3b 3d
       0.24380971 -0.05070954 0.21954541 0.0457048
0000a0 81 89 12 ba e0 a6 35 bd a2 11 c1 3d 1a b5 88 3b
       -0.00055899477 -0.044348598 0.09427191 0.0041719796
0000b0 2d 02 3b bd 5b 93 29 3d d0 d0 32 bd f2 f2 3c 3e
       -0.04565637 0.041400295 -0.04365617 0.18452051
0000c0 f9 27 70 bd 47 0a 83 3e 08 c8 89 3d 81 5f b2 3b
       -0.05863187 0.25593778 0.06727606 0.005443514
0000d0 82 55 9b bd 8d a9 f8 bb f0 63 c3 3c 56 7c 09 3e
       -0.07584669 -0.0075885714 0.023851365 0.13426337
0000e0 4f 54 81 3e ae 4f 27 3d f1 7b 37 3e 11 07 4e 3e
       0.25259635 0.040847473 0.17918374 0.20119883
0000f0 1d ec d1 bd 4e 0e 83 bd a2 d1 68 bd 37 32 0c 3e
       -0.10250113 -0.06399213 -0.056840546 0.1369103
000100 cd bb 28 3b 2f fe 80 3e 19 ff a1 bd c1 7f ae bd
       0.0025746704 0.25193927 -0.07909984 -0.08520461
000110 aa 94 07 bd c7 26 7e 3e 14 c9 61 bd 30 3f 5d 3e
       -0.03310076 0.2481948 -0.055123404 0.21606135
000120 85 14 55 bd 42 f6 03 3e 22 59 2d bd 81 5e 87 3e
       -0.052021522 0.12886909 -0.04232133 0.26439288
000130 89 b8 f8 3c 9d 5b 83 3b 66 1c 89 bd 6e 17 db 3d
       0.03036143 0.004008724 -0.0669487 0.10697828
000140 89 aa ab 3d 4b ee 86 3d 02 32 7b 3e 91 53 79 3e
       0.083821364 0.065884195 0.24530795 0.24348284
000150 66 e5 7f bd 35 05 8b 3d cf 10 a1 3a af 52 6c 3d
       -0.06247463 0.067881025 0.0012288335 0.05769604
000160 bf b0 e8 bc c2 b6 2e 3d e7 e4 b7 3d 5b 56 80 3e
       -0.028404592 0.04265476 0.089792065 0.25065884
000170 13 88 8f 3d 2b 95 21 bd 89 0d b5 3d 77 b7 c7 bc
       0.07008376 -0.0394489 0.08840472 -0.024379475
000180 73 7b 88 bd d4 15 9b bd ea 09 c0 3d d3 c8 f1 3d
       -0.06664171 -0.07572523 0.09376891 0.11805882
000190 49 81 0e 3d 27 0c a0 bc 9f ee 91 bd ca 89 45 bd
       0.034791265 -0.019537045 -0.071255915 -0.04822711
0001a0 68 92 7a 3d 7c c0 d6 bc fe fc 6e 3c 3c 2f 37 3d
       0.06117478 -0.02621483 0.014586685 0.04472278
0001b0 26 a6 bf 3d c7 cd 74 bd ac 84 91 3d 9d 21 81 3e
       0.09357862 -0.059766557 0.07105383 0.25220957
0001c0 bf 88 97 3c 2d ec 9b 3a 56 0a 44 3d eb 3d 01 3e
       0.018497823 0.0011895947 0.04786142 0.12621276
0001d0 89 05 e6 bd c2 0b 65 3e 04 12 10 bd 4c a6 3a 3c
       -0.112315245 0.22367766 -0.03517343 0.011392187
0001e0 0f 78 4e bb dc 12 01 bd 07 8a ab 3c b2 2a 0f 3c
       -0.0031504666 -0.031512126 0.02093984 0.008738207
0001f0 32 2c 14 bc 02 70 08 3e f0 17 8e bc a7 45 de 3d
       -0.00904374 0.13323978 -0.017345399 0.10853129
