MountCar/checkpoints/checkpoint_episode_200.pt (torch, 286266 bytes, 24 tensors)

net.0.weight f4 [128, 2]
000000 cb 58 a9 be 6b 84 17 3e 50 79 5a be aa 4c 43 bf
       -0.33075556 0.14796607 -0.2133534 -0.76288855
000010 65 25 c1 bd 8d a0 4e bd f4 bf 96 3e d5 33 34 3f
       -0.094309606 -0.050446082 0.29443324 0.7039159
000020 39 42 68 be 09 83 e1 3e 5e 7d 39 bf c2 ce eb 3e
       -0.22681512 0.44045284 -0.7245692 0.4605618
000030 ac dd 8e be cf ae 39 3e 1f 2b 01 be 8f c8 3f 3d
       -0.27903497 0.1813309 -0.12614106 0.046822127
000040 87 6b 45 bf cb 79 8d bf da 37 ab 3e 3d d9 13 bf
       -0.771172 -1.1052793 0.3344105 -0.57753354
000050 96 62 91 3b cc ed 09 bf 43 0c 80 3e 3e 80 1b be
       0.004436801 -0.53878474 0.25009355 -0.1518564
000060 ce cd c7 3e 16 3e d6 3e c4 96 08 3f cd 26 5d 3f
       0.39024204 0.41844243 0.5335505 0.8638733
000070 30 fb e1 3d de 46 3d 3e fd 95 a5 bd e8 39 89 3e
       0.11034238 0.18484065 -0.080852486 0.2680199
000080 5f a8 86 bc ad cb 0a 3f 8b 31 cc be 78 d9 73 c0
       -0.016437707 0.54217035 -0.39881548 -3.8101482
000090 04 db c5 be 72 11 d3 be a3 ca fd 3e 09 97 e3 3e
       -0.38643658 -0.41224247 0.49568662 0.44451168
0000a0 2f 50 0c 3f 14 c0 c4 3e 9e 52 b6 3e 57 46 74 3f
       0.5480985 0.38427794 0.35609907 0.9541983
0000b0 d2 59 a8 3d a6 d2 77 3d 6e 2e 2c 3f 8a 4f a8 3e
       0.08220257 0.060503624 0.67258346 0.32873183
0000c0 d3 64 93 3e d6 cd 37 bf 64 c4 05 bf 59 5c 3f bf
       0.2878786 -0.71798456 -0.52252793 -0.74750286
0000d0 2c ba 1c be 33 25 1f 3f 57 53 0f 3f 64 7d ca 3e
       -0.15305394 0.62166137 0.5598654 0.3954879
0000e0 a5 bb f2 be e0 56 2d bf f0 8c a0 be b4 41 8f bf
       -0.47408786 -0.67710686 -0.31357527 -1.1191926
0000f0 f5 b5 a1 bd 11 c2 fb 40 e2 5c 1a bf 4c 0a e5 be
       -0.07896034 7.8674397 -0.6029798 -0.44734418
000100 5f 03 07 bf 4b f9 a7 3d aa b8 a8 be 85 57 95 3e
       -0.5273952 0.08201846 -0.32953387 0.29168335
000110 a0 a6 25 bf 81 43 92 c0 a7 66 f2 3d ba 2a d7 bd
       -0.64707375 -4.57074 0.11835986 -0.10506196
000120 49 88 16 be f3 85 1c bf 34 1d 44 be 2e af 74 bc
       -0.14700426 -0.6114189 -0.19151765 -0.014934344
000130 1a 7c bf be 02 24 55 3e 52 93 b9 3d 8d f5 fb 3e
       -0.3739937 0.20814517 0.09061302 0.49210778
000140 c8 93 0d 3e 2b e1 07 3d 83 3a a5 3e 06 95 c4 3d
       0.13825905 0.03317372 0.32271203 0.095987365
000150 dd 5b 72 be eb ef 6c be 7b a9 1e 3f 98 72 8d 3e
       -0.23667856 -0.23138396 0.61977357 0.2762649
000160 5b 38 9a be 89 d2 62 be 63 64 91 be b7 38 aa be
       -0.3012112 -0.22150625 -0.283969 -0.33246395
000170 8b f1 5b be 9d fd b6 be 5b f2 4a be b3 9a 9d bf
       -0.2147886 -0.35740367 -0.19819014 -1.2312835
000180 e6 b1 2c bc e5 12 3c 3e 35 e7 24 be 97 f5 1e 3e
       -0.010540461 0.18366583 -0.16103823 0.15523373
000190 d0 d8 d3 bc 89 3a c1 bd c8 6a e5 3d 4f fa 04 40
       -0.02586022 -0.09434993 0.112020075 2.0777776
0001a0 d0 0e d4 bd 29 77 50 be de 29 ac be a8 9c 8d 3c
       -0.10354388 -0.20357956 -0.33625692 0.017286614
0001b0 90 2c 2e 3e 33 78 04 3f b2 6a 86 be d3 8d 9e bf
       0.17009187 0.5174591 -0.26253277 -1.2387031
0001c0 81 25 c0 be f2 75 2a bf ea c5 70 3e 5e fb 63 bf
       -0.37528613 -0.6658622 0.23512998 -0.8905543
0001d0 6d a9 d9 3c 98 42 fe 3c 52 b5 4d 3d f9 61 60 bd
       0.026570046 0.031037614 0.05022175 -0.054780934
0001e0 37 f3 63 3f b2 05 ad c0 d5 44 e3 be 7e 52 3f bf
       0.8904299 -5.406945 -0.44388452 -0.7473525
0001f0 3e 4a 17 3f 0b 05 09 3f 12 89 14 bf 86 71 31 3f
       0.5909766 0.5352332 -0.5802165 0.6931385
000200 2c 6f cc be 36 88 06 3f 02 ed 31 be 22 07 ba be
       -0.39928567 0.5255159 -0.17375568 -0.36333567
000210 b5 1d 9b 3e 83 c3 cd 3e 22 5b 6c 3e db c6 a4 3e
       0.30296102 0.40188226 0.2308164 0.32182965
000220 cb 1a 3f be a4 67 00 3f 2c 3c 21 bf ac 21 a0 be
       -0.18662564 0.50158143 -0.6298244 -0.3127569
000230 b4 f6 03 bf 81 c1 01 bf 60 10 2c be cf 92 8f bf
       -0.51548314 -0.5068589 -0.16803122 -1.1216677
000240 48 51 81 3f 6b 10 1f bf c5 19 8e 3d 1f 12 b7 3e
       1.010293 -0.62134427 0.06938509 0.35756013
000250 0e e5 0a 3d 92 84 2b bf 4e 39 40 be e8 16 2e be
       0.03390985 -0.6699916 -0.1877186 -0.17000926
000260 9b 46 f3 3e 5d 14 df 3e a0 9d 73 3e df 07 0e be
       0.47514805 0.43570223 0.23790598 -0.1387019
000270 07 c6 7e 3d f9 4b 18 bf de 6f bf be 4c 42 8f bf
       0.062200572 -0.59490925 -0.37390035 -1.1192107
000280 71 2c 0d 3f c1 27 03 bf 4e 76 d7 3e 1c 9e f4 3e
       0.5514594 -0.51232535 0.42082447 0.47776878
000290 02 c8 c0 3e 28 d6 3b be 2c a5 56 3e 0c 48 f8 40
       0.37652594 -0.18343413 0.20961446 7.758795
0002a0 2c c2 49 3e 58 8e b2 bd 53 11 94 3f bd 0c e9 40
       0.19702977 -0.08718556 1.1567787 7.282805
0002b0 d8 48 39 3e 80 91 16 bf 8a 09 22 3e b2 8b f4 be
       0.18094194 -0.58815765 0.15823951 -0.4776283
0002c0 59 77 84 3e 76 39 66 3e 15 46 80 3d 6a 7d 19 3e
       0.25872305 0.22482857 0.06263367 0.14989248
0002d0 13 1d 44 bf 8e 0c b1 c0 02 6c 83 3e b3 5c c1 bd
       -0.76606864 -5.5327826 0.2566834 -0.09441509
0002e0 c2 0e c6 3e 99 3d 99 be b9 0b 8f 3e 63 ac 8f 3f
       0.38683134 -0.29929808 0.2793863 1.1224483
0002f0 39 f9 b9 be 5a fc d7 40 b3 32 81 3e e2 a8 a7 40
       -0.36322954 6.7495546 0.25233993 5.2393656
000300 f2 32 f3 3c 46 53 d0 bd f5 d0 6b 3e 29 97 17 3f
       0.029687379 -0.10172133 0.2302893 0.5921503
000310 a8 3b 6c be 7b e7 c1 be 45 42 35 bf 7e 9c f9 be
       -0.23069632 -0.37871918 -0.70804244 -0.48752207
000320 86 37 01 bf 72 42 9c 3e 40 91 0a 3e 40 e8 b2 3f
       -0.5047535 0.30519444 0.13531971 1.3977127
000330 15 22 f0 3e 73 d6 05 bf db 84 ad be ca 2c 6a bf
       0.46901003 -0.5228035 -0.33890423 -0.9147459
000340 3e c1 a4 be a2 db c8 3d e6 e1 7b bd 9c b7 30 c0
       -0.32178682 0.09807517 -0.06149473 -2.7612066
000350 bd 1f 57 3d bd f7 0b bf 03 49 45 be 5e 32 af 3d
       0.052520502 -0.54674894 -0.19266133 0.08554529
000360 1c c7 f1 3e 4e 61 11 3f 56 d4 f7 3e f5 1b d8 3e
       0.4722222 0.567891 0.48404187 0.4220883
000370 b2 6f e7 be b9 77 83 3e 46 75 0e 3e b5 e0 e7 3e
       -0.45202404 0.2567728 0.13911924 0.45288625
000380 3c 87 0f 3f 0a 70 ae 3e 4a 6a 1c 3f 7a ab fa 40
       0.56065726 0.34069854 0.61099684 7.833432
000390 79 41 0e bf fc 76 d7 3e b7 9b ec 3e 24 a3 ac 3f
       -0.55568653 0.42082965 0.4621255 1.3487287
0003a0 ef 09 0d be e7 8e 80 3e 86 52 c0 3e 90 c8 a8 3f
       -0.1377332 0.25109026 0.3756296 1.3186207
0003b0 54 8c b8 3e 84 8a 4f bf 94 72 d7 3e af f4 92 3c
       0.36044562 -0.81070733 0.42079604 0.01793894
0003c0 28 68 e9 3e bd f6 84 be 84 2e 1c bf 0e 10 85 3d
       0.45587277 -0.25969496 -0.6100848 0.06497203
0003d0 52 18 24 bf 58 91 f8 3e eb e6 78 3e 15 99 cf 3f
       -0.6409961 0.48548388 0.24306838 1.6218592
0003e0 b9 44 e1 be 51 93 07 bf 25 0a b9 bc 21 17 47 3e
       -0.43997744 -0.5295916 -0.022587845 0.19442417
0003f0 97 d1 54 3d ef 7e 37 be 4c 3b 76 3d 9c dc 14 bf
       0.051957693 -0.17919515 0.060115144 -0.58149123

net.0.bias f4 [128]
000000 f2 06 36 3e 79 b6 f8 3e b7 97 2e be e7 2d be be
       0.17776087 0.48576716 -0.17050062 -0.37144396
000010 cb 1c b5 be 27 0a 18 3f c5 6a 87 3e 47 38 14 3f
       -0.3537353 0.5939049 0.26448646 0.5789837
000020 29 91 02 bf 7d dd 4e 3f 1f ef 13 3f bc 78 16 3f
       -0.51002747 0.80806714 0.57786745 0.58777976
000030 1a 7a 2d bf c5 37 22 3f 65 b6 0a be c9 1d 15 3f
       -0.6776444 0.6336635 -0.1354614 0.58248574
000040 62 7f ce 3e 03 3d b8 3d aa 7e a3 3d 75 73 bb be
       0.4033156 0.08996012 0.07983144 -0.36611524
000050 f9 3f e9 be 0a 2d da 3e 41 69 b7 bd 5e d5 b3 be
       -0.4555662 0.42612487 -0.089556225 -0.35123724
000060 14 5c 14 3f f3 1b 20 3f 29 29 8f 3d 4b 4f 2a 3f
       0.57953 0.6254265 0.069902726 0.6652724
000070 db 68 e1 3e 30 2a 38 3e 55 10 83 bd 2f c0 9e 3e
       0.4402531 0.17984843 -0.063995995 0.31006
000080 af e4 86 3e cb 2e 20 3f bb e9 e7 be a6 c4 3d 3f
       0.26346347 0.625714 -0.4529551 0.74128187
000090 b7 c4 16 3f ef f9 8c be 14 f3 17 3f b0 fa d3 bd
       0.58893913 -0.27534434 0.5935528 -0.10350549
0000a0 72 a8 22 3f e8 29 1c 3f 51 9f ff 3e 22 3b 50 3f
       0.6353828 0.61001444 0.49926236 0.8134023
0000b0 52 b1 14 3f 4f dc 22 bf e6 74 ea 3d ff 2e 03 3e
       0.5808307 -0.63617414 0.11448078 0.12810896
0000c0 58 cd 29 3f 99 1c 54 be 3b 9c 10 3f 42 50 62 3e
       0.66328955 -0.20714034 0.5648839 0.22100928
0000d0 54 2a 25 3e 71 76 0d bf 8f 0c 7b be e0 b3 5f 3d
       0.16129428 -0.5525885 -0.2451651 0.0546149
0000e0 4e 04 58 3e 95 44 dd 3e 4f 31 d7 be f3 f7 b0 3e
       0.21095392 0.43216386 -0.42029807 0.3456417
0000f0 c9 14 0f 3f d0 55 e1 3e e5 3b ba be 3f 7a 32 bf
       0.5589109 0.44010782 -0.3637382 -0.6971778
000100 38 82 2a bf aa af b0 3d 4d 38 0b 3f 27 34 1e 3f
       -0.6660495 0.08627255 0.54382783 0.6179833
000110 f3 5c 72 be bc 63 27 3f f1 47 0e 3f 9b e8 86 3e
       -0.2366827 0.6538656 0.55578524 0.2634934
000120 fc 37 0c 3e 2a 52 c2 be a0 32 d2 3e 55 22 24 bf
       0.13693231 -0.3795331 0.4105425 -0.64114887
000130 ba 3d a2 be 68 a1 16 bf f9 ec 21 bf ad 83 5c 3e
       -0.3168772 -0.58840036 -0.63252217 0.21534605
000140 c1 e0 b4 be e7 ee ff 3e 3a 51 9c be 9b 13 c7 bd
       -0.35327724 0.49986956 -0.3053072 -0.09720536
000150 1f aa fd be 25 9c 76 be 39 d1 b0 bd 2e 1e 84 3e
       -0.49543855 -0.24083002 -0.08633656 0.25804275
000160 45 79 74 be 78 6a 3c be 7d c6 7e be 63 c2 e1 be
       -0.23874386 -0.1839999 -0.24880405 -0.44093618
000170 03 44 c2 be 4b 9c ae 3e 1f 7f c6 be 69 c9 12 3f
       -0.37942514 0.34103617 -0.3876886 0.5733858
000180 9a 81 01 3f 24 1a 8d 3e f1 9c f8 3d a5 be 1e 3f
       0.5058838 0.27559006 0.12139309 0.6200965
000190 04 ea 21 bf 48 61 60 3e 9f f3 15 bf 39 f4 45 3e
       -0.63247705 0.2191211 -0.5857486 0.19331445
0001a0 e2 95 d0 be dc 2e 3d be 60 88 cf 3e 4a bd b6 be
       -0.40739352 -0.18474907 0.40533733 -0.3569129
0001b0 0e 7b 0f 3f f0 25 13 3f 14 b1 a6 3e 94 3b a1 be
       0.5604714 0.57479763 0.32556975 -0.31490767
0001c0 9c f9 2a 3f d4 e7 2a be 8f a1 2c bf b4 82 0d 3f
       0.66787124 -0.16689998 -0.6743402 0.5527756
0001d0 26 3c cc be 8d 2e e8 3e 88 3b 27 3f 0a cb 06 3f
       -0.3988964 0.45348015 0.6532521 0.52653563
0001e0 82 86 1c bf d9 b0 0d 3f af 8a d4 be d6 96 aa 3e
       -0.6114274 0.55347973 -0.41512057 0.33318204
0001f0 00 8c 44 3f fe 2c e9 be 0f ea 37 3e 5b e8 06 be
       0.76776123 -0.4554214 0.1796038 -0.13174574

net.2.weight f4 [128, 128]
000000 df bf 8f 3b b4 eb 8c bb af ea 24 bd 53 d0 58 bd
       0.0043868865 -0.004300559 -0.040262874 -0.05293305
000010 30 f4 d4 3c b7 fe 00 bd d4 0b 3c bc 0c 7b 1e 3c
       0.025995344 -0.031492915 -0.011477429 0.009672891
000020 d2 90 18 3c d2 1d 76 bc 4e 26 86 bd 3e aa 80 bd
       0.009311872 -0.015021758 -0.06550275 -0.06282471
000030 c6 ed d1 3c c5 d0 be bc b9 78 f7 bc 96 16 1b 3c
       0.025626075 -0.023292908 -0.030208932 0.009465834
000040 5f eb d8 bc 97 1a 36 bd 18 30 09 bd 62 95 40 3d
       -0.026479421 -0.04445895 -0.03349313 0.047017463
000050 77 62 90 bd b4 99 98 bd d6 dd 96 bd 95 07 9e bd
       -0.07050031 -0.074511915 -0.073665306 -0.0771629
000060 c4 08 a1 bd c1 59 03 3b 76 c3 7a 3d 36 cf 03 3d
       -0.07863 0.0020042511 0.061221562 0.032180034
000070 68 2a 41 3c 56 3d 4b 3d cd 67 6c 3d 4e 6e 97 3d
       0.011789896 0.04961904 0.05771618 0.07394086
000080 f9 e6 13 3d c0 0b a9 bd aa c9 32 bd 63 4b 6f bd
       0.036108945 -0.08254194 -0.043649353 -0.058421504
000090 60 6a 26 bd ba b6 66 bc 63 85 82 bd b3 0f a3 bd
       -0.04062879 -0.014081651 -0.06373098 -0.07961979
0000a0 08 ed a5 3d 0b e8 3d 3d c8 01 52 bd 34 df 4a bd
       0.08101851 0.04636387 -0.05127123 -0.04952927
0000b0 64 a5 77 bd 35 a2 0a bd 9d c0 4b 3c 86 de 38 3c
       -0.060460463 -0.0338461 0.012436059 0.0112835225
0000c0 26 d1 39 bc 09 43 c7 bc 57 9e 67 3d cb b9 8e 3d
       -0.011341369 -0.024323957 0.05654749 0.06969031
0000d0 0f 92 09 bd be 9b 30 3c 82 4a be bc 27 3f 86 3d
       -0.033586558 0.010779319 -0.023228887 0.06555014
0000e0 5c 5d 91 bd 0f f5 3d 3d fc 9f 63 3d f8 3f be 3c
       -0.07097885 0.046376284 0.055572495 0.023223862
0000f0 79 56 27 bd 3a f9 d8 3c 57 87 60 bc 49 34 21 bd
       -0.04085395 0.026486028 -0.0137041425 -0.039356504
000100 82 c1 1f 3d b5 9a 51 3d 77 9d 69 3d c1 9f b2 3c
       0.039002903 0.05117293 0.057034936 0.021804692
000110 3c 57 e4 bc e0 bd f5 3c 9a 1e 99 3d f9 39 69 3d
       -0.027873628 0.029997766 0.0747654 0.056940053
000120 84 4d 8b ba c0 8c 80 3b d2 a2 0d 3d 6e 3f 91 3d
       -0.001062796 0.0039230287 0.034579106 0.070921764
000130 e9 72 b8 bb cb ee 35 bd 73 84 42 3d 22 a7 8d 3d
       -0.0056289327 -0.044417184 0.047489595 0.06916644
000140 70 79 e9 bb ca 8d 9d 3c 60 7b 3c bd 55 1f 0f bd
       -0.007125072 0.01923265 -0.046016097 -0.03494199
000150 33 93 6e 3c c1 80 89 bd 7d bd 27 bd 02 4c 8e 3d
       0.014561462 -0.06714011 -0.040952194 0.06948091
000160 45 14 fb bc 92 01 39 bc 86 2f 19 bc a2 03 c4 bc
       -0.030649314 -0.011291878 -0.009349709 -0.023927514
000170 1f df 98 3d b9 8c 16 3c 5c ce cb bc e1 f8 0d 3d
       0.07464432 0.009188824 -0.024878673 0.034661178
000180 ed 63 67 3b 0b 3c 43 3d fb ca f5 bc 00 c7 5a bd
       0.0035307363 0.047664683 -0.030004015 -0.053412437
000190 7f ed 1c 3d 41 ac 4b bd 77 d6 96 bd 01 30 48 bd
       0.03831243 -0.04972482 -0.07365125 -0.048873905
0001a0 46 53 13 bd c0 74 61 bd 2e cc 94 bd 97 e7 0d bd
       -0.035968088 -0.055042982 -0.07265507 -0.03464469
0001b0 97 e2 40 bd 09 62 7a bc ae dd 78 bd fa 87 a6 3d
       -0.047091093 -0.015282162 -0.060758285 0.08131404
0001c0 47 e8 96 bd 8f 42 93 bd 2a 8c 17 3d c3 d4 89 3c
       -0.07368522 -0.071904294 0.036998905 0.016825086
0001d0 63 94 87 bd 00 c2 89 3c 43 02 2b 3c 49 17 ba 3c
       -0.066200994 0.01681614 0.010437551 0.022716181
0001e0 36 b9 9b bd 89 55 6e 3d d0 8e 48 3d 40 76 b4 bd
       -0.076036856 0.05818704 0.04896432 -0.08811617
0001f0 1a 9a 27 3d 1e 78 6a 3d 2d 6e bd 3c 7a c8 b3 bd
       0.040918447 0.05724346 0.023123825 -0.08778472
000200 31 2a 98 3d 66 a8 6c 3d 3f 34 d1 bc 65 d2 6a bd
       0.07429922 0.057777785 -0.025537608 -0.057329554
000210 29 98 89 bd a8 ef 79 bd 47 03 82 bd 92 ea 18 3d
       -0.06718475 -0.06101957 -0.06348281 0.03733308
000220 8b 83 87 bb f0 8a e3 3c 42 7d 04 bd 7b f3 bf bd
       -0.004135554 0.027776212 -0.032346018 -0.09372612
000230 73 df 1b 39 bd 94 81 3c 0c 62 26 bd 95 0a 00 3c
       0.00014865193 0.015817994 -0.04062085 0.007815023
000240 87 d5 00 bc a3 23 a1 3d d7 19 9d 3b 96 0e a6 3d
       -0.007863409 0.07868125 0.00479434 0.08108251
000250 47 69 36 bd e2 0a 8b 3d 39 c0 b9 3a 8d f9 94 3d
       -0.044533994 0.06789185 0.0014171667 0.072741605
000260 e5 74 8b 3c af d1 a3 3d 81 77 c0 bd d0 70 fc bc
       0.017023513 0.07998978 -0.093977936 -0.030815512
000270 5a 3d 1a bd 30 bf 85 bd fa e4 96 bb 20 d7 84 bd
       -0.037656166 -0.06530607 -0.004604933 -0.06486344
000280 64 eb a2 3d ca a0 99 3c 02 2f 1a 3c 95 48 96 3d
       0.079550534 0.018753428 0.009410622 0.07338063
000290 aa f8 b5 bd ee 3a e4 bc d0 94 45 bd 3d 5d 76 3c
       -0.088853195 -0.027860131 -0.04823762 0.015036878
0002a0 0a 00 62 bc ae a7 8c bc 1b de cc bb 9e f8 a3 bc
       -0.013793955 -0.0171698 -0.006252063 -0.02001601
0002b0 d6 b2 d3 3c 63 05 21 bd ca 74 de 3c 88 0d 44 bd
       0.025842112 -0.039311778 0.027155299 -0.047864467
0002c0 28 c5 73 3d 48 36 a6 bd 93 97 8b bd 6a c5 03 bc
       0.059514195 -0.08115822 -0.0681602 -0.008042673
0002d0 5d d3 ba bd 40 54 38 3d 17 b5 9e 3d 0e 2b 3a bd
       -0.091223456 0.045002222 0.07749384 -0.045451216
0002e0 c4 61 69 3d da 66 89 bd 2e 5e ad bd 25 cc 65 bd
       0.056978002 -0.067090705 -0.08465229 -0.05610289
0002f0 54 b9 4c 3d 13 c1 25 bc 7a 1d b0 3d 69 11 3c bd
       0.04998143 -0.010116833 0.08599372 -0.04591504
000300 5e 21 13 3c 73 48 6a 3d a3 03 8d bd c8 08 25 3d
       0.008980123 0.057198 -0.06885459 0.040291578
000310 a1 12 35 bd 0c 42 ba bd a8 1e 8e 3d 68 78 8e 3d
       -0.04420722 -0.09094629 0.06939441 0.069565594
000320 9b 0c 6c bd e8 85 aa bd ab 58 a6 bd 11 bf 0e bd
       -0.05762921 -0.08326322 -0.08122381 -0.034850184
000330 3a 1f 95 3d 1a 2b 5d 3d 65 65 80 3c dc c6 a0 bc
       0.072813466 0.053996183 0.015673349 -0.019626074
000340 95 52 73 bc 89 81 ab bd 19 ef ff bb c6 d2 d0 bc
       -0.014851232 -0.08374316 -0.007810485 -0.02549113
000350 4f eb 14 3c 2b e4 0c bd 8b 9f af 3d 23 9b 45 bd
       0.009089305 -0.034397285 0.08575352 -0.048243653
000360 d3 94 b3 bd 38 ad 07 bd 54 5d 8d bd 0a bd 61 3d
       -0.0876862 -0.03312418 -0.069025666 0.055111922
000370 9b aa ae bd ef 5b a3 bd f4 fd bf bc 7f 25 cf 3c
       -0.08528634 -0.07976519 -0.023436524 0.025286434
000380 70 04 14 bc ac 81 e4 3c 58 f6 82 bd 0f 53 08 3d
       -0.009034261 0.027893864 -0.063946426 0.033282336
000390 3f 6c cb bc ff f8 2d 3d 51 1f ef 3c 3f ac 3a bd
       -0.02483189 0.04247379 0.029189738 -0.045574423
0003a0 7e 17 0a bc 16 67 e0 3c 41 68 b9 bd b8 dc 43 bd
       -0.008428453 0.027392905 -0.09053088 -0.047817916
0003b0 16 2c 6f 3d a3 92 85 bd 91 7c 83 3c 19 57 a6 3d
       0.058391653 -0.06522109 0.016050609 0.08122081
0003c0 2b 0f 60 bd 3a 15 6f bd cd 4f 89 bd 78 2a f7 bc
       -0.054701965 -0.058369853 -0.06704674 -0.030171618
0003d0 d5 31 34 3c 57 cf 43 bd 53 c2 af 3c 56 36 a1 bd
       0.010998209 -0.047805157 0.021454966 -0.07871692
0003e0 18 ce 45 bd be 54 bd bd 38 e1 da bc 29 5c 1d bd
       -0.04829225 -0.09244679 -0.02671872 -0.03841797
0003f0 4f 4e 38 3d 29 c9 c4 3c 7c 32 45 bd be 8d f6 3c
       0.044996556 0.024021702 -0.04814385 0.030096885

net.2.bias f4 [128]
000000 e3 bb 10 bd 70 d2 fb bb 84 01 f9 bc b9 4a fc 3c
       -0.035335433 -0.007684998 -0.03039623 0.03079735
000010 48 20 95 bd 65 53 b1 bc 1a e3 03 3d 35 ea 86 3e
       -0.07281548 -0.02164621 0.032199003 0.2635056
000020 f2 ad 2a 3e 93 c0 56 bc 4f 7b 55 bc eb b5 05 3d
       0.16667917 -0.013107437 -0.013029887 0.032644194
000030 77 55 5c 3d 06 e5 e5 bc 28 f0 b3 3d 5a a4 1d bc
       0.053792443 -0.028063308 0.087860405 -0.009621704
000040 36 b2 1e bc 1a 9f 48 3e ab ea 88 bb e9 f0 f2 3d
       -0.0096860435 0.19591942 -0.004178365 0.11862356
000050 ef 9e 26 bc 09 3c 87 bd bf c2 1d bd 2d c8 80 3e
       -0.010169729 -0.06603248 -0.038515802 0.25152722
000060 49 ff 07 3c 6f 84 9f bd 6b 32 7a bd dd 92 b6 3a
       0.008300611 -0.077889316 -0.06108324 0.0013929267
000070 54 61 8c bd bc 0b 15 bd 1f c0 3f 3e 9b 31 10 3d
       -0.06854501 -0.036388144 0.18725632 0.035203557
000080 11 77 5a 3e 7c d1 2e 3d 69 20 b4 3d bd 3e 01 3e
       0.21334483 0.04268025 0.08795244 0.12621589
000090 a9 59 4b 3e ce b4 4f bd 3b b3 22 3e b3 48 1c 3d
       0.19858421 -0.05070954 0.15888683 0.03815527
0000a0 46 6e 00 bd e0 a6 35 bd 82 93 77 3d 1a b5 88 3b
       -0.031355165 -0.044348598 0.06044341 0.0041719796
0000b0 9d 02 72 bd 5b 93 29 3d d0 d0 32 bd 37 de 5a 3e
       -0.059084523 0.041400295 -0.04365617 0.2137383
0000c0 f9 27 70 bd 29 66 68 3e 08 c8 89 3d 81 5f b2 3b
       -0.05863187 0.22695221 0.06727606 0.005443514
0000d0 82 55 9b bd 8d a9 f8 bb f0 63 c3 3c 80 da 11 3e
       -0.07584669 -0.0075885714 0.023851365 0.14243507
0000e0 a7 e4 3d 3e ae 4f 27 3d 57 f2 1e 3e 4f 91 19 3e
       0.18544255 0.040847473 0.15522133 0.14996837
0000f0 1d ec d1 bd 4e 0e 83 bd a2 d1 68 bd 57 67 ba 3d
       -0.10250113 -0.06399213 -0.056840546 0.09101742
000100 cd bb 28 3b ea fc 5a 3e 19 ff a1 bd c1 7f ae bd
       0.0025746704 0.21385542 -0.07909984 -0.08520461
000110 aa 94 07 bd 63 53 3f 3e 14 c9 61 bd eb c0 31 3e
       -0.03310076 0.18684153 -0.055123404 0.17358749
000120 85 14 55 bd 77 d8 4a 3d 87 3e 89 bd 4f dd 7a 3e
       -0.052021522 0.049522843 -0.06701379 0.24498485
000130 89 b8 f8 3c 9d 5b 83 3b 66 1c 89 bd fa 42 fd 3d
       0.03036143 0.004008724 -0.0669487 0.123662904
000140 05 3a 55 3d 69 ea 30 3d b2 52 49 3e f0 c2 53 3e
       0.052057285 0.0431923 0.19660452 0.20679832
000150 66 e5 7f bd 35 05 8b 3d cf 10 a1 3a af 52 6c 3d
       -0.06247463 0.067881025 0.0012288335 0.05769604
000160 bf b0 e8 bc c2 b6 2e 3d 2b 7c ff 3c 14 21 5d 3e
       -0.028404592 0.04265476 0.031187138 0.2159465
000170 19 f4 1c 3d 2b 95 21 bd 30 e3 75 3c 77 b7 c7 bc
       0.038318727 -0.0394489 0.015007779 -0.024379475
000180 73 7b 88 bd d4 15 9b bd 13 f2 84 3d 69 29 ac 3d
       -0.06664171 -0.07572523 0.064914845 0.08406336
000190 49 81 0e 3d 27 0c a0 bc 86 d6 aa bd ca 89 45 bd
       0.034791265 -0.019537045 -0.08341698 -0.04822711
0001a0 68 92 7a 3d 7c c0 d6 bc f6 b1 8c bc 3c 2f 37 3d
       0.06117478 -0.02621483 -0.017174702 0.04472278
0001b0 74 50 f4 3d c7 cd 74 bd ac 84 91 3d 76 35 63 3e
       0.11929408 -0.059766557 0.07105383 0.22188362
0001c0 bf 88 97 3c 2d ec 9b 3a a8 ea 13 3d da e4 6c 3d
       0.018497823 0.0011895947 0.036112458 0.057835437
0001d0 89 05 e6 bd 2e ba 62 3e 04 12 10 bd 4d 40 11 bc
       -0.112315245 0.22141334 -0.03517343 -0.008865428
0001e0 0f 78 4e bb dc 12 01 bd 07 8a ab 3c b2 2a 0f 3c
       -0.0031504666 -0.031512126 0.02093984 0.008738207
0001f0 32 2c 14 bc 4d 27 ad 3d f0 17 8e bc b2 f6 39 3d
       -0.00904374 0.08454762 -0.017345399 0.045401283

net.4.weight f4 [3, 128]
000000 42 9a 5d bd b9 90 5c 3d f5 9e a1 3d 85 d9 0b bf
       -0.05410219 0.053848956 0.07891647 -0.54628783
000010 40 58 82 3d cd 7f 1d 3d 8c 0b 8d 3c 3c 8d d6 be
       0.063644886 0.03845196 0.01721742 -0.41904628
000020 14 4a 0f bf 55 21 0c bf 98 bb 0d 3c e7 c8 e4 bd
       -0.5597241 -0.5473836 0.008650683 -0.111711316
000030 a0 0c c9 bc fa 4d ae 3c eb 76 01 bf da bd 90 bd
       -0.024542153 0.021277416 -0.5057208 -0.07067461
000040 d7 ca 06 bd 54 bc fb be 1f b1 91 3d b6 fd 01 bf
       -0.032908287 -0.4916712 0.07113861 -0.5077776
000050 df c1 13 bd d4 14 24 3c 9c 4b 90 bc 2d 2f 88 bf
       -0.03607356 0.010014731 -0.017614178 -1.0639397
000060 2d 36 1d 3d b2 a5 95 bc 6d 02 a5 bc c4 44 b4 bd
       0.038381744 -0.018267486 -0.020142758 -0.088021785
000070 22 ea 88 3c 56 7b 54 bc 93 ec e0 be 1d bb c0 ba
       0.016713206 -0.012968859 -0.43930492 -0.0014704202
000080 14 62 08 bf 82 5e 89 bd 57 70 c2 bc e4 1f 0b bf
       -0.53274655 -0.06707479 -0.023735208 -0.54345536
000090 3e 31 08 bf a1 e7 3e 3d 72 e8 02 bf 77 51 59 3d
       -0.5320014 0.046607617 -0.51135933 0.053056207
0000a0 64 a3 c9 3c d9 e3 36 3d 52 cd 09 bf c2 82 82 3d
       0.024614044 0.044650886 -0.5382892 0.06372596
0000b0 f3 d8 c3 3b 2b 8e 27 bb 56 36 1e bd 18 c5 f3 be
       0.00597679 -0.0025566916 -0.038626038 -0.47611308
0000c0 e7 9c 6a 3d 64 43 0e bf 9f 78 6d 3d 32 14 6f 3d
       0.05727854 -0.5557158 0.05797636 0.05836887
0000d0 52 7a 99 bd ab 31 b4 bd d6 b3 9a bc f1 d7 ea be
       -0.07494034 -0.08798536 -0.01888458 -0.45867875
0000e0 48 ab 08 bf 0e e6 92 3d 18 0d 14 bf 8a 77 00 bf
       -0.53386354 0.07172786 -0.5783248 -0.501824
0000f0 2a 7a 0f 3d e1 8e 74 3d c2 e8 ae 3d 83 7d 0b bf
       0.035028614 0.059706572 0.08540489 -0.5448839
000100 4b fb 6d bb 47 b1 ff be 6b 9f 87 bd 74 73 36 3d
       -0.0036313112 -0.4993994 -0.066222034 0.0445437
000110 1c 7b 8d 3d 02 39 0c bf 4f d0 93 3d 0c 35 13 bf
       0.06908247 -0.54774487 0.07217466 -0.5750282
000120 a0 03 8f bd b7 04 02 bf 6b 25 94 bc aa 76 01 bf
       -0.06983113 -0.50788444 -0.018084249 -0.5057169
000130 cc 6b 98 bd d1 58 88 bd 3e a4 b5 bc 19 a3 00 bf
       -0.074424356 -0.066575654 -0.022173043 -0.5024887
000140 c2 ca 2f bd 9b ed 87 bc 70 f8 05 bf 1b de 0a bf
       -0.042917974 -0.016592791 -0.5233221 -0.54245156
000150 1c e4 3b 3d 46 b8 1f bb ef e8 a6 bd 10 7d bd 3c
       0.04587184 -0.002437131 -0.08149897 0.023130924
000160 db 94 b3 3c 73 e4 9d 3d 0c e4 03 bf 0e ea 10 bf
       0.021921566 0.07709589 -0.51519847 -0.5660714
000170 58 a6 86 bd 7f 94 8b 3c 81 c4 f8 be d3 3d 23 3d
       -0.06574696 0.017038582 -0.4858742 0.039853882
000180 40 39 30 bc 2c 80 af bd bd 43 0a bf 33 7a fa be
       -0.010755837 -0.08569369 -0.5400961 -0.48921356
000190 c1 4b 9c bd f3 d6 0d bc 64 93 3a 3c 7f f1 9d bd
       -0.076316364 -0.008657205 0.01138768 -0.07712077
0001a0 93 77 2f bd 5e b4 9c bd f5 f3 29 bc 38 49 a2 3c
       -0.042838644 -0.0765159 -0.010373105 0.019810304
0001b0 ab 90 e6 be 9b 97 cf 3c 30 77 a0 bc ca ed ff be
       -0.45032248 0.025340846 -0.019588083 -0.49986106
0001c0 17 f5 8f 3d 94 4e 2a 3d e6 8d 16 bd c5 0c 04 bf
       0.07029169 0.041578844 -0.03675642 -0.51581985
0001d0 31 5f 8a 3d 5c 0b 04 bf b5 ca 61 bc d6 1c 1c 3d
       0.067564376 -0.51579833 -0.013781239 0.038113438
0001e0 ae 44 a6 bd a0 02 5e 3d 6a df 80 3c 2c b3 fb 3c
       -0.08118568 0.054201722 0.015731532 0.030725084
0001f0 7e 7d 53 3d ae 61 f5 be ad e6 32 bd 7e 39 04 bf
       0.05163335 -0.47926086 -0.04367702 -0.51650226
000200 67 ad 4b bd d5 44 a0 3d 29 e8 fd 3c 88 27 15 bf
       -0.049725916 0.07825629 0.030994492 -0.58263445
000210 37 e5 73 3d 0a 8e 5f 3d ce 6c 4a 3c 5a 08 f0 be
       0.05954477 0.05457882 0.012355043 -0.46881372
000220 aa 19 0d bf b9 a9 06 be 57 67 78 bd 11 83 0b be
       -0.55117285 -0.13150682 -0.060645428 -0.13624217
000230 62 4a b0 3c 09 cb 91 3d 2f 21 16 bf 62 7d b1 3d
       0.021519843 0.07118804 -0.58644384 0.08666493
000240 79 e4 a3 3d 15 74 05 bf 0c 33 5d 3d 94 cc 02 bf
       0.08002562 -0.5213025 0.05400376 -0.5109341
000250 62 67 26 bc f8 d6 2f bd dd ee 9a 3d 01 c9 96 bf
       -0.010156484 -0.04292962 0.07565091 -1.1780092
000260 e3 cc 82 bc 06 c7 c7 bc 4a 46 8c bd c5 a1 07 3a
       -0.015966838 -0.024386894 -0.06849344 0.0005173947
000270 63 62 8a 3d 61 aa a6 bd f6 1f 01 bf a1 7c 7b 3d
       0.06757047 -0.08137966 -0.50439394 0.061398152
000280 8d 8f 07 bf 72 7f 8d bc 4b 04 a4 bd 63 4f 0e bf
       -0.52953416 -0.017272685 -0.08008631 -0.55589885
000290 d6 f6 04 bf 6f af a2 3d 71 44 13 bf 79 86 86 3d
       -0.5193914 0.079436176 -0.5752631 0.065686174
0002a0 3f 66 2d bc 6a 18 98 bd 21 5e df be 40 5f d0 bb
       -0.010583459 -0.074265316 -0.43626502 -0.006359011
0002b0 67 3c 8f bd 2b b5 62 3d e5 43 4c 3d b3 f5 e3 be
       -0.06993943 0.055348556 0.049869437 -0.4452339
0002c0 04 49 a5 bc 7f 8d 00 bf 7f 11 66 3c 05 32 39 bd
       -0.020176418 -0.50215906 0.014042257 -0.045213718
0002d0 64 e2 ab 3d 53 21 13 3c 16 d6 ab bc aa f9 05 bf
       0.0839279 0.008980113 -0.020976108 -0.5233408
0002e0 cd 6a 0d bf 8b 6a bd bc f2 29 d5 be 80 90 23 bf
       -0.5524109 -0.023122093 -0.41633564 -0.63892365
0002f0 a7 36 8f 3d 1a aa f4 3c 60 97 1c bd 6c b1 fe be
       0.06992846 0.029866267 -0.0382303 -0.49744737
000300 2e fc a3 b9 31 77 01 bf 5d 29 42 bb 08 79 c8 3c
       -0.0003127767 -0.50572497 -0.0029626705 0.024471775
000310 40 14 48 bd 88 bc 16 bf 2a 54 00 bd db 0c f0 be
       -0.048847437 -0.58881426 -0.031330265 -0.46884808
000320 fb 21 96 3d 23 7a 02 bf 1f af db 3c 64 16 d0 be
       0.073307 -0.50967616 0.026816903 -0.40642083
000330 62 51 a5 3d 4a a5 1b bd e0 a8 8a 3d db 86 df be
       0.08072163 -0.03799943 0.067704916 -0.43657574
000340 ef 80 d3 3a ea c1 ed bc 06 65 13 bf ed f7 0d bf
       0.0016136448 -0.02902313 -0.57576025 -0.5545643
000350 69 f7 11 3c 41 c9 38 3d 12 e3 a0 bd 5e a4 03 bd
       0.008909085 0.045113806 -0.0785581 -0.032139175
000360 e8 62 8f 3c d8 1a 10 3d 83 39 21 bf 97 15 11 bf
       0.017503217 0.03518185 -0.6297838 -0.5667357
000370 49 69 d8 3c 1f 95 57 bc 6b 6c 09 bf 07 0a 52 bc
       0.026417391 -0.013158112 -0.5368106 -0.0128197735
000380 d0 b5 47 3c f6 58 f4 bb 07 e4 0a bf 66 97 10 bf
       0.012189344 -0.007456894 -0.5425419 -0.56481016
000390 11 5f 38 3d 3f 0f 90 bd 0a c1 89 3d c2 f8 20 bd
       0.045012537 -0.07034158 0.067262724 -0.039299734
0003a0 da a5 59 3d d1 ef ba 3c f4 00 89 bc cf ec b2 3d
       0.053136684 0.022819431 -0.016724087 0.08736574
0003b0 c9 3d fe be ec 06 c5 3c ff 62 98 3c cf 27 f6 be
       -0.49656513 0.024051152 0.018601893 -0.48077247
0003c0 19 11 b5 3a 8c dd 93 bd 88 69 9b 3d 0b 88 0e bf
       0.00138143 -0.07219991 0.07588488 -0.55676335
0003d0 5d 88 1b 3d f1 3a db be de 53 59 ba 08 7f 80 3c
       0.037971843 -0.42818406 -0.000829039 0.015685573
0003e0 0f ea 82 3c 06 e6 b3 bc 37 44 4e bc 73 40 46 3c
       0.015980748 -0.02196027 -0.012589506 0.012100327
0003f0 fb 1d 50 3b e8 45 11 bf a7 5c 78 3d a7 ac 14 bf
       0.003175615 -0.56747293 0.060635235 -0.58075947

net.4.bias f4 [3]
000000 5d 23 29 be 92 b9 5a be 86 a3 0f be
       -0.16517396 -0.21359852 -0.14027223

net.0.weight f4 [128, 2]
000000 68 a7 a9 be 79 5e 15 3e d0 06 5b be b3 c5 43 bf
       -0.33135533 0.1458682 -0.21389318 -0.7647354
000010 65 25 c1 bd 8d a0 4e bd f4 bf 96 3e d5 33 34 3f
       -0.094309606 -0.050446082 0.29443324 0.7039159
000020 39 42 68 be 09 83 e1 3e 27 a3 39 bf 15 c5 ea 3e
       -0.22681512 0.44045284 -0.72514576 0.45853487
000030 84 27 8f be 1a a3 37 3e a5 bf 01 be 0b 1a 38 3d
       -0.27959836 0.17933312 -0.12670763 0.04494671
000040 60 f1 44 bf 0d 30 8d bf 18 f4 aa 3e f4 4f 14 bf
       -0.7693081 -1.1030289 0.33389354 -0.579345
000050 44 95 80 3b d6 65 0a bf b9 93 7f 3e 0f 69 1d be
       0.003924044 -0.5406164 0.24958695 -0.15372108
000060 ce cd c7 3e 16 3e d6 3e 8a 82 08 3f 1c a8 5c 3f
       0.39024204 0.41844243 0.53324187 0.86194015
000070 30 fb e1 3d de 46 3d 3e 28 b4 a6 bd bc 3a 88 3e
       0.11034238 0.18484065 -0.08139831 0.2660731
000080 13 45 8b bc 79 4c 0a 3f 44 e7 cb be d5 b6 73 c0
       -0.01700071 0.5402294 -0.3982488 -3.8080342
000090 b8 a1 c5 be 42 2d d2 be a3 ca fd 3e 09 97 e3 3e
       -0.38599944 -0.41050154 0.49568662 0.44451168
0000a0 2f 50 0c 3f 14 c0 c4 3e a3 27 b6 3e 82 d0 73 3f
       0.5480985 0.38427794 0.35577115 0.9524003
0000b0 d2 59 a8 3d a6 d2 77 3d 6e 2e 2c 3f 8a 4f a8 3e
       0.08220257 0.060503624 0.67258346 0.32873183
0000c0 e3 26 93 3e d1 40 38 bf e3 e8 05 bf 31 d8 3f bf
       0.28740606 -0.719739 -0.5230848 -0.74939257
0000d0 b2 99 1d be 2a 73 1e 3f f0 3f 0f 3f ce 8b c9 3e
       -0.15390661 0.61894476 0.55956936 0.39364475
0000e0 3c 02 f3 be 3b d0 2d bf 94 d7 a0 be 92 7b 8f bf
       -0.47462642 -0.6789586 -0.31414473 -1.1209586
0000f0 ed 4b a1 bd 10 cb fb 40 c1 83 1a bf 8f 12 e6 be
       -0.0787581 7.868538 -0.6035729 -0.44936034
000100 e0 2e 07 bf 3d a8 a3 3d 1d 00 a9 be 50 56 94 3e
       -0.528059 0.07991073 -0.330079 0.289721
000110 96 53 25 bf d7 2e 92 c0 9c 52 f1 3d 6b eb da bd
       -0.64580667 -4.5682178 0.117833346 -0.10689434
000120 4d 15 17 be 79 01 1d bf 34 1d 44 be 2e af 74 bc
       -0.1475422 -0.6133037 -0.19151765 -0.014934344
000130 08 c7 bf be c7 21 53 3e 52 93 b9 3d 8d f5 fb 3e
       -0.37456536 0.20618354 0.09061302 0.49210778
000140 90 0b 0d 3e c0 33 00 3d be f3 a4 3e 4a cd c0 3d
       0.13773942 0.031299353 0.3221721 0.09414156
000150 78 f5 72 be dc ed 6e be 78 87 1e 3f 54 84 8c 3e
       -0.23726451 -0.23332924 0.6192546 0.27444708
000160 d2 83 9a be 76 c9 64 be 63 64 91 be b7 38 aa be
       -0.30178696 -0.22342476 -0.283969 -0.33246395
000170 24 a5 5c be 69 02 b8 be 21 6c 4b be 4c cb 9d bf
       -0.21547371 -0.3593934 -0.19865467 -1.2327666
000180 76 c3 35 bc f8 11 3a 3e 35 e7 24 be 97 f5 1e 3e
       -0.011093965 0.18170917 -0.16103823 0.15523373
000190 d9 6a d8 bc 24 0d c5 bd c4 30 e4 3d 19 d8 04 40
       -0.026418136 -0.09621647 0.11142114 2.0756896
0001a0 90 4e d5 bd 29 7f 52 be de 29 ac be a8 9c 8d 3c
       -0.10415375 -0.2055632 -0.33625692 0.017286614
0001b0 90 2c 2e 3e 33 78 04 3f b7 1f 86 be 27 49 9e bf
       0.17009187 0.5174591 -0.26196072 -1.2366074
0001c0 41 6f c0 be 5e f6 2a bf d2 4a 70 3e 06 6a 64 bf
       -0.3758488 -0.66782176 0.23466042 -0.8922428
0001d0 6d a9 d9 3c 98 42 fe 3c d8 6e 4b 3d 8f 10 68 bd
       0.026570046 0.031037614 0.049666256 -0.056656417
0001e0 37 ac 63 3f 06 10 ad c0 2a 8c e3 be 03 d4 3f bf
       0.88934654 -5.408206 -0.44442874 -0.7493288
0001f0 3e 4a 17 3f 0b 05 09 3f 12 89 14 bf 86 71 31 3f
       0.5909766 0.5352332 -0.5802165 0.6931385
000200 2c 6f cc be 36 88 06 3f ba ca 32 be 11 4d bb be
       -0.39928567 0.5255159 -0.17460147 -0.36582235
000210 f2 dc 9a 3e fd d3 cc 3e ff cc 6b 3e 91 d1 a3 3e
       0.30246693 0.40005484 0.23027419 0.31995824
000220 cb 1a 3f be a4 67 00 3f b3 60 21 bf 79 1e a1 be
       -0.18662564 0.50158143 -0.63038176 -0.3146856
000230 cd 1b 04 bf c6 3e 02 bf ba 91 2c be 53 cb 8f bf
       -0.5160492 -0.50877035 -0.16852465 -1.1233925
000240 e0 6a 81 3f c3 da 1f bf c5 19 8e 3d 1f 12 b7 3e
       1.0110741 -0.6244318 0.06938509 0.35756013
000250 98 c6 08 3d ac fc 2b bf 4e 39 40 be e8 16 2e be
       0.03339252 -0.6718242 -0.1877186 -0.17000926
000260 9b 46 f3 3e 5d 14 df 3e a0 9d 73 3e df 07 0e be
       0.47514805 0.43570223 0.23790598 -0.1387019
000270 07 c6 7e 3d f9 4b 18 bf bd b1 bf be 7c 7d 8f bf
       0.062200572 -0.59490925 -0.3744029 -1.121017
000280 71 2c 0d 3f c1 27 03 bf bd 4f d7 3e 01 ac f3 3e
       0.5514594 -0.51232535 0.42053023 0.47592166
000290 02 c8 c0 3e 28 d6 3b be 74 27 56 3e f4 50 f8 40
       0.37652594 -0.18343413 0.20913488 7.759882
0002a0 2c c2 49 3e 58 8e b2 bd 4f 00 94 3f fd 07 e9 40
       0.19702977 -0.08718556 1.1562594 7.282225
0002b0 d8 48 39 3e 80 91 16 bf 3b 96 21 3e cf 5c f5 be
       0.18094194 -0.58815765 0.15779965 -0.4792237
0002c0 59 77 84 3e 76 39 66 3e 15 46 80 3d 6a 7d 19 3e
       0.25872305 0.22482857 0.06263367 0.14989248
0002d0 bf f3 43 bf ec 00 b1 c0 02 6c 83 3e b3 5c c1 bd
       -0.765438 -5.5313625 0.2566834 -0.09441509
0002e0 c2 0e c6 3e 99 3d 99 be 68 e3 8e 3e 91 79 8f 3f
       0.38683134 -0.29929808 0.27907872 1.1208974
0002f0 7c de b9 be aa 0a d8 40 fe 71 81 3e d0 b6 a7 40
       -0.36302555 6.751302 0.25282282 5.241066
000300 f1 02 ef 3c 92 33 d4 bd 60 68 6b 3e 44 1f 17 3f
       0.029176207 -0.10361399 0.22989035 0.5903208
000310 ef 00 6d be 43 05 c3 be b5 69 35 bf 79 a6 fa be
       -0.23144887 -0.38089952 -0.7086442 -0.48955134
000320 86 37 01 bf 72 42 9c 3e a0 f4 09 3e 75 a5 b2 3f
       -0.5047535 0.30519444 0.13472223 1.3956743
000330 15 22 f0 3e 73 d6 05 bf 82 c6 ad be 86 a4 6a bf
       0.46901003 -0.5228035 -0.33940512 -0.9165729
000340 3e c1 a4 be a2 db c8 3d 6d 9c 7b bd 64 b7 30 c0
       -0.32178682 0.09807517 -0.061428476 -2.7611933
000350 b1 14 55 3d af 6c 0c bf 03 49 45 be 5e 32 af 3d
       0.052021686 -0.5485334 -0.19266133 0.08554529
000360 fe 9e f1 3e df e2 10 3f d8 ac f7 3e 71 23 d7 3e
       0.47191614 0.5659618 0.48374057 0.42019227
000370 44 be e7 be 9a 68 82 3e 46 75 0e 3e b5 e0 e7 3e
       -0.4526235 0.2547043 0.13911924 0.45288625
000380 52 73 0f 3f 23 7a ad 3e 69 2b 1c 3f 2a b0 fa 40
       0.5603534 0.33882245 0.6100374 7.8340044
000390 79 41 0e bf fc 76 d7 3e 3a 75 ec 3e 45 68 ac 3f
       -0.55568653 0.42082965 0.46183187 1.346932
0003a0 ef 09 0d be e7 8e 80 3e 60 28 c0 3e 47 95 a8 3f
       -0.1377332 0.25109026 0.37530804 1.3170556
0003b0 b0 4a b8 3e c9 fd 4f bf de 30 d7 3e 78 72 84 3c
       0.35994482 -0.8124662 0.4202947 0.016167864
0003c0 28 68 e9 3e bd f6 84 be 2c 54 1c bf cc 01 81 3d
       0.45587277 -0.25969496 -0.61065936 0.06299171
0003d0 da ce 23 bf f8 86 f9 3e f9 61 78 3e de 5c cf 3f
       -0.63987505 0.48735785 0.24256124 1.6200216
0003e0 b1 8d e1 be 9d 0d 08 bf 25 0a b9 bc 21 17 47 3e
       -0.44053414 -0.5314577 -0.022587845 0.19442417
0003f0 e4 95 52 3d 71 5d 39 be 4c 3b 76 3d 9c dc 14 bf
       0.051412478 -0.18102051 0.060115144 -0.58149123

net.0.bias f4 [128]
000000 88 ed 35 3e 28 a6 f8 3e b7 97 2e be e7 2d be be
       0.17766392 0.48564267 -0.17050062 -0.37144396
000010 cb 1c b5 be 39 03 18 3f 7b 5c 87 3e 64 2f 14 3f
       -0.3537353 0.5937992 0.26437744 0.5788481
000020 d3 ed 02 bf 6d d3 4e 3f ee e4 13 3f b4 6f 16 3f
       -0.5114414 0.8079136 0.57771194 0.58764195
000030 1a 7a 2d bf d6 25 22 3f 65 b6 0a be d2 14 15 3f
       -0.6776444 0.63338983 -0.1354614 0.58234894
000040 46 70 ce 3e 5c 34 b8 3d 3d 75 a4 3d 75 73 bb be
       0.40320033 0.08994362 0.08030174 -0.36611524
000050 f9 3f e9 be 7d 0b da 3e 41 69 b7 bd 5e d5 b3 be
       -0.4555662 0.4258689 -0.089556225 -0.35123724
000060 3e 51 14 3f f5 12 20 3f 5a 5b 8f 3d c8 3d 2a 3f
       0.57936466 0.62528926 0.06999846 0.6650052
000070 62 56 e1 3e 2f 0a 38 3e d0 40 81 bd a6 b2 9e 3e
       0.44011217 0.17972635 -0.0631119 0.30995673
000080 1d db 86 3e f2 25 20 3f bd 76 e8 be 12 bc 3d 3f
       0.26339045 0.625579 -0.4540309 0.741151
000090 f8 ba 16 3f ef f9 8c be 82 ea 17 3f b0 fa d3 bd
       0.5887904 -0.27534434 0.59342206 -0.10350549
0000a0 f9 9f 22 3f 13 21 1c 3f 74 90 ff 3e 0a 32 50 3f
       0.6352535 0.6098797 0.49914896 0.81326354
0000b0 be a9 14 3f 4f dc 22 bf d9 53 ea 3d 80 07 03 3e
       0.58071506 -0.63617414 0.11441774 0.1279583
0000c0 63 c5 29 3f 99 1c 54 be db 93 10 3f cf 33 62 3e
       0.66316813 -0.20714034 0.5647561 0.22090076
0000d0 a6 0f 25 3e 71 76 0d bf 8f 0c 7b be 49 cd 60 3d
       0.1611925 -0.5525885 -0.2451651 0.054883275
0000e0 b0 e2 57 3e 93 2e dd 3e 4f 31 d7 be b5 e6 b0 3e
       0.21082568 0.43199596 -0.42029807 0.34551015
0000f0 2f 41 0f 3f 9b 43 e1 3e e5 3b ba be 3f 7a 32 bf
       0.5595884 0.4399689 -0.3637382 -0.6971778
000100 38 82 2a bf aa e4 b0 3d a2 2e 0b 3f a2 2b 1e 3f
       -0.6660495 0.08637364 0.5436803 0.6178533
000110 f3 5c 72 be ea 5a 27 3f 10 3f 0e 3f 37 d3 86 3e
       -0.2366827 0.653731 0.55564976 0.2633302
000120 5c 8c 0a 3e 2a 52 c2 be 90 1f d2 3e 55 22 24 bf
       0.13530105 -0.3795331 0.41039705 -0.64114887
000130 ba 3d a2 be 68 a1 16 bf f9 ec 21 bf 06 5b 5c 3e
       -0.3168772 -0.58840036 -0.63252217 0.21519098
000140 c1 e0 b4 be b9 ca ff 3e 3a 51 9c be ad 63 c3 bd
       -0.35327724 0.49959353 -0.3053072 -0.09540496
000150 1f aa fd be 58 e7 75 be 39 d1 b0 bd c5 06 84 3e
       -0.49543855 -0.24014032 -0.08633656 0.25786415
000160 45 79 74 be 78 6a 3c be cb 26 7f be 63 c2 e1 be
       -0.23874386 -0.1839999 -0.24917142 -0.44093618
000170 03 44 c2 be 4e 78 ae 3e e8 46 c6 be 7f d5 12 3f
       -0.37942514 0.3407616 -0.38725972 0.5735702
000180 d0 78 01 3f be fb 8c 3e eb 87 f8 3d 94 b7 1e 3f
       0.5057497 0.27535814 0.12135299 0.6199887
000190 04 ea 21 bf 3e 46 60 3e 9f f3 15 bf ab cb 45 3e
       -0.63247705 0.21901795 -0.5857486 0.19315974
0001a0 e2 95 d0 be fc 37 3d be 66 73 cf 3e 4a bd b6 be
       -0.40739352 -0.18478388 0.4051773 -0.3569129
0001b0 7e 69 0f 3f 43 14 13 3f 74 a5 a6 3e 94 3b a1 be
       0.56020343 0.5745279 0.32548106 -0.31490767
0001c0 4d e8 2a 3f 0d c0 29 be 8f a1 2c bf 92 70 0d 3f
       0.6676071 -0.16577168 -0.6743402 0.55249894
0001d0 26 3c cc be ca 0b e8 3e 96 30 27 3f 60 c0 06 3f
       -0.3988964 0.45321494 0.6530851 0.5263729
0001e0 82 86 1c bf 04 a9 0d 3f bc e3 d4 be de 81 aa 3e
       -0.6114274 0.5533602 -0.41579998 0.33302206
0001f0 26 83 44 3f fe 2c e9 be c3 ca 37 3e 5b e8 06 be
       0.76762617 -0.4554214 0.17948441 -0.13174574

net.2.weight f4 [128, 128]
000000 df bf 8f 3b b4 eb 8c bb af ea 24 bd 53 d0 58 bd
       0.0043868865 -0.004300559 -0.040262874 -0.05293305
000010 30 f4 d4 3c b7 fe 00 bd d4 0b 3c bc 0c 7b 1e 3c
       0.025995344 -0.031492915 -0.011477429 0.009672891
000020 d2 90 18 3c d2 1d 76 bc 4e 26 86 bd 3e aa 80 bd
       0.009311872 -0.015021758 -0.06550275 -0.06282471
000030 c6 ed d1 3c c5 d0 be bc b9 78 f7 bc 96 16 1b 3c
       0.025626075 -0.023292908 -0.030208932 0.009465834
000040 5f eb d8 bc 97 1a 36 bd 18 30 09 bd 62 95 40 3d
       -0.026479421 -0.04445895 -0.03349313 0.047017463
000050 77 62 90 bd b4 99 98 bd d6 dd 96 bd 95 07 9e bd
       -0.07050031 -0.074511915 -0.073665306 -0.0771629
000060 c4 08 a1 bd c1 59 03 3b 76 c3 7a 3d 36 cf 03 3d
       -0.07863 0.0020042511 0.061221562 0.032180034
000070 68 2a 41 3c 56 3d 4b 3d cd 67 6c 3d 4e 6e 97 3d
       0.011789896 0.04961904 0.05771618 0.07394086
000080 f9 e6 13 3d c0 0b a9 bd aa c9 32 bd 63 4b 6f bd
       0.036108945 -0.08254194 -0.043649353 -0.058421504
000090 60 6a 26 bd ba b6 66 bc 63 85 82 bd b3 0f a3 bd
       -0.04062879 -0.014081651 -0.06373098 -0.07961979
0000a0 08 ed a5 3d 0b e8 3d 3d c8 01 52 bd 34 df 4a bd
       0.08101851 0.04636387 -0.05127123 -0.04952927
0000b0 64 a5 77 bd 35 a2 0a bd 9d c0 4b 3c 86 de 38 3c
       -0.060460463 -0.0338461 0.012436059 0.0112835225
0000c0 26 d1 39 bc 09 43 c7 bc 57 9e 67 3d cb b9 8e 3d
       -0.011341369 -0.024323957 0.05654749 0.06969031
0000d0 0f 92 09 bd be 9b 30 3c 82 4a be bc 27 3f 86 3d
       -0.033586558 0.010779319 -0.023228887 0.06555014
0000e0 5c 5d 91 bd 0f f5 3d 3d fc 9f 63 3d f8 3f be 3c
       -0.07097885 0.046376284 0.055572495 0.023223862
0000f0 79 56 27 bd 3a f9 d8 3c 57 87 60 bc 49 34 21 bd
       -0.04085395 0.026486028 -0.0137041425 -0.039356504
000100 82 c1 1f 3d b5 9a 51 3d 77 9d 69 3d c1 9f b2 3c
       0.039002903 0.05117293 0.057034936 0.021804692
000110 3c 57 e4 bc e0 bd f5 3c 9a 1e 99 3d f9 39 69 3d
       -0.027873628 0.029997766 0.0747654 0.056940053
000120 84 4d 8b ba c0 8c 80 3b d2 a2 0d 3d 6e 3f 91 3d
       -0.001062796 0.0039230287 0.034579106 0.070921764
000130 e9 72 b8 bb cb ee 35 bd 73 84 42 3d 22 a7 8d 3d
       -0.0056289327 -0.044417184 0.047489595 0.06916644
000140 70 79 e9 bb ca 8d 9d 3c 60 7b 3c bd 55 1f 0f bd
       -0.007125072 0.01923265 -0.046016097 -0.03494199
000150 33 93 6e 3c c1 80 89 bd 7d bd 27 bd 02 4c 8e 3d
       0.014561462 -0.06714011 -0.040952194 0.06948091
000160 45 14 fb bc 92 01 39 bc 86 2f 19 bc a2 03 c4 bc
       -0.030649314 -0.011291878 -0.009349709 -0.023927514
000170 1f df 98 3d b9 8c 16 3c 5c ce cb bc e1 f8 0d 3d
       0.07464432 0.009188824 -0.024878673 0.034661178
000180 ed 63 67 3b 0b 3c 43 3d fb ca f5 bc 00 c7 5a bd
       0.0035307363 0.047664683 -0.030004015 -0.053412437
000190 7f ed 1c 3d 41 ac 4b bd 77 d6 96 bd 01 30 48 bd
       0.03831243 -0.04972482 -0.07365125 -0.048873905
0001a0 46 53 13 bd c0 74 61 bd 2e cc 94 bd 97 e7 0d bd
       -0.035968088 -0.055042982 -0.07265507 -0.03464469
0001b0 97 e2 40 bd 09 62 7a bc ae dd 78 bd fa 87 a6 3d
       -0.047091093 -0.015282162 -0.060758285 0.08131404
0001c0 47 e8 96 bd 8f 42 93 bd 2a 8c 17 3d c3 d4 89 3c
       -0.07368522 -0.071904294 0.036998905 0.016825086
0001d0 63 94 87 bd 00 c2 89 3c 43 02 2b 3c 49 17 ba 3c
       -0.066200994 0.01681614 0.010437551 0.022716181
0001e0 36 b9 9b bd 89 55 6e 3d d0 8e 48 3d 40 76 b4 bd
       -0.076036856 0.05818704 0.04896432 -0.08811617
0001f0 1a 9a 27 3d 1e 78 6a 3d 2d 6e bd 3c 7a c8 b3 bd
       0.040918447 0.05724346 0.023123825 -0.08778472
000200 31 2a 98 3d 66 a8 6c 3d 3f 34 d1 bc 65 d2 6a bd
       0.07429922 0.057777785 -0.025537608 -0.057329554
000210 29 98 89 bd a8 ef 79 bd 47 03 82 bd 92 ea 18 3d
       -0.06718475 -0.06101957 -0.06348281 0.03733308
000220 8b 83 87 bb f0 8a e3 3c 42 7d 04 bd 7b f3 bf bd
       -0.004135554 0.027776212 -0.032346018 -0.09372612
000230 73 df 1b 39 bd 94 81 3c 0c 62 26 bd 95 0a 00 3c
       0.00014865193 0.015817994 -0.04062085 0.007815023
000240 87 d5 00 bc a3 23 a1 3d d7 19 9d 3b 96 0e a6 3d
       -0.007863409 0.07868125 0.00479434 0.08108251
000250 47 69 36 bd e2 0a 8b 3d 39 c0 b9 3a 8d f9 94 3d
       -0.044533994 0.06789185 0.0014171667 0.072741605
000260 e5 74 8b 3c af d1 a3 3d 81 77 c0 bd d0 70 fc bc
       0.017023513 0.07998978 -0.093977936 -0.030815512
000270 5a 3d 1a bd 30 bf 85 bd fa e4 96 bb 20 d7 84 bd
       -0.037656166 -0.06530607 -0.004604933 -0.06486344
000280 64 eb a2 3d ca a0 99 3c 02 2f 1a 3c 95 48 96 3d
       0.079550534 0.018753428 0.009410622 0.07338063
000290 aa f8 b5 bd ee 3a e4 bc d0 94 45 bd 3d 5d 76 3c
       -0.088853195 -0.027860131 -0.04823762 0.015036878
0002a0 0a 00 62 bc ae a7 8c bc 1b de cc bb 9e f8 a3 bc
       -0.013793955 -0.0171698 -0.006252063 -0.02001601
0002b0 d6 b2 d3 3c 63 05 21 bd ca 74 de 3c 88 0d 44 bd
       0.025842112 -0.039311778 0.027155299 -0.047864467
0002c0 28 c5 73 3d 48 36 a6 bd 93 97 8b bd 6a c5 03 bc
       0.059514195 -0.08115822 -0.0681602 -0.008042673
0002d0 5d d3 ba bd 40 54 38 3d 17 b5 9e 3d 0e 2b 3a bd
       -0.091223456 0.045002222 0.07749384 -0.045451216
0002e0 c4 61 69 3d da 66 89 bd 2e 5e ad bd 25 cc 65 bd
       0.056978002 -0.067090705 -0.08465229 -0.05610289
0002f0 54 b9 4c 3d 13 c1 25 bc 7a 1d b0 3d 69 11 3c bd
       0.04998143 -0.010116833 0.08599372 -0.04591504
000300 5e 21 13 3c 73 48 6a 3d a3 03 8d bd c8 08 25 3d
       0.008980123 0.057198 -0.06885459 0.040291578
000310 a1 12 35 bd 0c 42 ba bd a8 1e 8e 3d 68 78 8e 3d
       -0.04420722 -0.09094629 0.06939441 0.069565594
000320 9b 0c 6c bd e8 85 aa bd ab 58 a6 bd 11 bf 0e bd
       -0.05762921 -0.08326322 -0.08122381 -0.034850184
000330 3a 1f 95 3d 1a 2b 5d 3d 65 65 80 3c dc c6 a0 bc
       0.072813466 0.053996183 0.015673349 -0.019626074
000340 95 52 73 bc 89 81 ab bd 19 ef ff bb c6 d2 d0 bc
       -0.014851232 -0.08374316 -0.007810485 -0.02549113
000350 4f eb 14 3c 2b e4 0c bd 8b 9f af 3d 23 9b 45 bd
       0.009089305 -0.034397285 0.08575352 -0.048243653
000360 d3 94 b3 bd 38 ad 07 bd 54 5d 8d bd 0a bd 61 3d
       -0.0876862 -0.03312418 -0.069025666 0.055111922
000370 9b aa ae bd ef 5b a3 bd f4 fd bf bc 7f 25 cf 3c
       -0.08528634 -0.07976519 -0.023436524 0.025286434
000380 70 04 14 bc ac 81 e4 3c 58 f6 82 bd 0f 53 08 3d
       -0.009034261 0.027893864 -0.063946426 0.033282336
000390 3f 6c cb bc ff f8 2d 3d 51 1f ef 3c 3f ac 3a bd
       -0.02483189 0.04247379 0.029189738 -0.045574423
0003a0 7e 17 0a bc 16 67 e0 3c 41 68 b9 bd b8 dc 43 bd
       -0.008428453 0.027392905 -0.09053088 -0.047817916
0003b0 16 2c 6f 3d a3 92 85 bd 91 7c 83 3c 19 57 a6 3d
       0.058391653 -0.06522109 0.016050609 0.08122081
0003c0 2b 0f 60 bd 3a 15 6f bd cd 4f 89 bd 78 2a f7 bc
       -0.054701965 -0.058369853 -0.06704674 -0.030171618
0003d0 d5 31 34 3c 57 cf 43 bd 53 c2 af 3c 56 36 a1 bd
       0.010998209 -0.047805157 0.021454966 -0.07871692
0003e0 18 ce 45 bd be 54 bd bd 38 e1 da bc 29 5c 1d bd
       -0.04829225 -0.09244679 -0.02671872 -0.03841797
0003f0 4f 4e 38 3d 29 c9 c4 3c 7c 32 45 bd be 8d f6 3c
       0.044996556 0.024021702 -0.04814385 0.030096885

net.2.bias f4 [128]
000000 e3 bb 10 bd 70 d2 fb bb 84 01 f9 bc 28 fc f9 3c
       -0.035335433 -0.007684998 -0.03039623 0.030515745
000010 48 20 95 bd 65 53 b1 bc 1a e3 03 3d 9f ef 86 3e
       -0.07281548 -0.02164621 0.032199003 0.2635469
000020 3d 6e 2a 3e 55 09 4f bc 4f 7b 55 bc 57 ab 04 3d
       0.16643615 -0.012636502 -0.013029887 0.032389965
000030 77 55 5c 3d 06 e5 e5 bc e7 20 b4 3d 5a a4 1d bc
       0.053792443 -0.028063308 0.08795338 -0.009621704
000040 36 b2 1e bc 5c 71 48 3e ab ea 88 bb 03 a7 f2 3d
       -0.0096860435 0.19574493 -0.004178365 0.11848261
000050 ef 9e 26 bc 09 3c 87 bd bf c2 1d bd ca 99 80 3e
       -0.010169729 -0.06603248 -0.038515802 0.25117332
000060 49 ff 07 3c 6f 84 9f bd 6b 32 7a bd dd 92 b6 3a
       0.008300611 -0.077889316 -0.06108324 0.0013929267
000070 54 61 8c bd bc 0b 15 bd 41 da 3f 3e 9b 31 10 3d
       -0.06854501 -0.036388144 0.18735601 0.035203557
000080 ab 38 5a 3e 7c d1 2e 3d 69 20 b4 3d 69 11 01 3e
       0.2131068 0.04268025 0.08795244 0.12604298
000090 48 24 4b 3e ce b4 4f bd 7d 69 22 3e b3 48 1c 3d
       0.19838059 -0.05070954 0.15860553 0.03815527
0000a0 46 6e 00 bd e0 a6 35 bd c5 d1 76 3d 1a b5 88 3b
       -0.031355165 -0.044348598 0.060258646 0.0041719796
0000b0 9d 02 72 bd 5b 93 29 3d d0 d0 32 bd 46 f0 5a 3e
       -0.059084523 0.041400295 -0.04365617 0.2138072
0000c0 f9 27 70 bd 3d 39 68 3e 08 c8 89 3d 81 5f b2 3b
       -0.05863187 0.22678085 0.06727606 0.005443514
0000d0 82 55 9b bd 8d a9 f8 bb f0 63 c3 3c e9 e4 11 3e
       -0.07584669 -0.0075885714 0.023851365 0.14247479
0000e0 87 e7 3d 3e ae 4f 27 3d d8 c6 1e 3e ef 40 19 3e
       0.18545352 0.040847473 0.1550554 0.14966176
0000f0 1d ec d1 bd 4e 0e 83 bd a2 d1 68 bd 46 e5 b9 3d
       -0.10250113 -0.06399213 -0.056840546 0.090769336
000100 cd bb 28 3b 73 d1 5a 3e 19 ff a1 bd c1 7f ae bd
       0.0025746704 0.21368961 -0.07909984 -0.08520461
000110 aa 94 07 bd b0 10 3f 3e 14 c9 61 bd ec 8d 31 3e
       -0.03310076 0.1865871 -0.055123404 0.17339295
000120 85 14 55 bd 06 bb 49 3d 87 3e 89 bd c3 ea 7a 3e
       -0.052021522 0.049250625 -0.06701379 0.24503617
000130 89 b8 f8 3c 9d 5b 83 3b 66 1c 89 bd d3 57 fd 3d
       0.03036143 0.004008724 -0.0669487 0.12370267
000140 05 3a 55 3d 69 ea 30 3d 93 2f 49 3e a0 89 53 3e
       0.052057285 0.0431923 0.19647054 0.20657969
000150 66 e5 7f bd 35 05 8b 3d cf 10 a1 3a af 52 6c 3d
       -0.06247463 0.067881025 0.0012288335 0.05769604
000160 bf b0 e8 bc c2 b6 2e 3d 8e 3d fd 3c 75 f1 5c 3e
       -0.028404592 0.04265476 0.03091314 0.21576484
000170 19 f4 1c 3d 2b 95 21 bd 9b 42 71 3c 77 b7 c7 bc
       0.038318727 -0.0394489 0.014725353 -0.024379475
000180 73 7b 88 bd d4 15 9b bd f3 9b 84 3d 95 d8 ab 3d
       -0.06664171 -0.07572523 0.064750575 0.08390919
000190 49 81 0e 3d 27 0c a0 bc 86 d6 aa bd ca 89 45 bd
       0.034791265 -0.019537045 -0.08341698 -0.04822711
0001a0 68 92 7a 3d 7c c0 d6 bc f6 b1 8c bc 3c 2f 37 3d
       0.06117478 -0.02621483 -0.017174702 0.04472278
0001b0 01 6b f4 3d c7 cd 74 bd ac 84 91 3d c6 0a 63 3e
       0.11934472 -0.059766557 0.07105383 0.22172078
0001c0 bf 88 97 3c 2d ec 9b 3a a8 ea 13 3d b2 e3 6b 3d
       0.018497823 0.0011895947 0.036112458 0.057590194
0001d0 89 05 e6 bd 99 c9 62 3e 04 12 10 bd 4d 40 11 bc
       -0.112315245 0.22147216 -0.03517343 -0.008865428
0001e0 0f 78 4e bb dc 12 01 bd 07 8a ab 3c b2 2a 0f 3c
       -0.0031504666 -0.031512126 0.02093984 0.008738207
0001f0 32 2c 14 bc a5 f0 ac 3d f0 17 8e bc d4 de 38 3d
       -0.00904374 0.08444337 -0.017345399 0.04513438
