MountCar/checkpoints/checkpoint_episode_250.pt (torch, 286266 bytes, 24 tensors)

net.0.weight f4 [128, 2]
0	0x3ca9dbb5	0.020734647
1	0x3f27d4b4	0.65558934
2	0x3ed8667f	0.42265698
3	0x3fe1a924	1.7629743
4	0xbde601e1	-0.11230827
5	0xbe74be07	-0.23900615
6	0xbf1733d2	-0.59063447
7	0x3cb26232	0.021775339
8	0x3edee51c	0.43534172
9	0x3db9d8aa	0.090745285
10	0xbf052301	-0.52006537
11	0xbe6f9748	-0.23397553
12	0xbec426b9	-0.38310793
13	0xc0b97289	-5.7952313
14	0x3ee8a335	0.45437017
15	0xbf249deb	-0.64303464
16	0x3dc71814	0.097213894
17	0xbe014d97	-0.12627254
18	0xbe16483e	-0.14675996
19	0xbefb7421	-0.49112037
20	0x3b06ee2a	0.0020588734
21	0x3f281774	0.65660787
22	0xbf1b8fb9	-0.6076618
23	0xbf17b6ad	-0.59263116
24	0x3da71d10	0.0815984
25	0xbf322359	-0.69585186
26	0x3f14eb6c	0.58171725
27	0x3f1b0b20	0.6056385
28	0x3d07f2d3	0.03319056
29	0x3ede9a49	0.43477085
30	0x3ea76eef	0.32701823
31	0xbdacbe93	-0.08434787
32	0x3d75e3cb	0.060031693
33	0xbef171dc	-0.4715718
34	0xbee2d34a	-0.44301826
35	0xbf4f7cde	-0.8104991
36	0xbe250563	-0.16115336
37	0xbed980a6	-0.42480963
38	0x3b61c140	0.0034447461
39	0x3f2afc77	0.6679148
40	0x3e8baaf1	0.27278855
41	0xbedaf3b0	-0.42764044
42	0xbf0f2798	-0.5591979
43	0xbf8155b3	-1.0104278
44	0xbe320b77	-0.17387186
45	0xbf0ee94e	-0.55824745
46	0x3e447af9	0.19187535
47	0xbfa2e22b	-1.2725271
48	0x3e84227b	0.25807557
49	0x3f57c2b4	0.8428147
50	0xbf11ecaf	-0.57001776
51	0xbe2f7a37	-0.17136465
52	0xbf1884d9	-0.5957771
53	0xbfc4c745	-1.5373312
54	0x3e5ea40c	0.21742266
55	0xbe3e4da3	-0.18584304
56	0xbf07bd81	-0.53023535
57	0x409e0fff	4.9394526
58	0xbf20c579	-0.6280132
59	0xbf73cbb8	-0.95232725
60	0xbf1d4108	-0.61427355
61	0xbff5167b	-1.9147485
62	0x3c905ec4	0.017623313
63	0x40b7670a	5.731328
64	0x3ebbebad	0.36703244
65	0xbf38161b	-0.7190873
66	0xbf2493b5	-0.64287883
67	0xbf67562c	-0.9036586
68	0x3eb5d47a	0.3551367
69	0x3db4eb63	0.08833959
70	0xbecc2e5f	-0.39879128
71	0xbeb08c7d	-0.34482184
72	0xbdfa19c9	-0.122119494
73	0xbf389566	-0.72102964
74	0x3e95ad9b	0.29234013
75	0xbf0a394f	-0.53993696
76	0xbee2cbf5	-0.44296232
77	0xbfc3967a	-1.5280297
78	0xbe1c5a89	-0.15268911
79	0xc0ce15f7	-6.4401813
80	0xbf2eaafc	-0.6822965
81	0xbfd1abdd	-1.6380574
82	0xbf142856	-0.5787405
83	0xbfac1ddd	-1.3446614
84	0xbe211a91	-0.1573279
85	0x40b2fce6	5.5933714
86	0x3e532670	0.20620131
87	0x3e373163	0.17889933
88	0x3dc271c1	0.09494353
89	0xbf012c12	-0.5045787
90	0x3f19c7b2	0.60070336
91	0xbf4b9814	-0.7952893
92	0x3f0c2b4d	0.5475357
93	0xbedda9f7	-0.43293735
94	0x3f213da5	0.6298469
95	0xbd15213a	-0.03640864
96	0x3e670bd0	0.225631
97	0xbf1d2530	-0.6138487
98	0x3e0277ba	0.12740985
99	0xbfe05784	-1.7526708
100	0xbe93e857	-0.288882
101	0xbe05dad6	-0.1307176
102	0xbf200f3b	-0.6252324
103	0xbf830f9d	-1.023914
104	0xbeee6995	-0.46564928
105	0xbf4b85b0	-0.79500866
106	0xbec4e1f2	-0.38453633
107	0xbf16fc4a	-0.5897871
108	0x3e7e08c4	0.24808031
109	0x3e87de32	0.2653671
110	0xbe26d33d	-0.16291519
111	0xbe17aaaa	-0.14811197
112	0x3f34d29d	0.7063387
113	0xbed3f2b0	-0.41396093
114	0xbe4b84c1	-0.1987486
115	0xbda5f66c	-0.08103642
116	0x3df70c9a	0.120629504
117	0xbe4e6d73	-0.20158939
118	0xbecd6af0	-0.4012065
119	0xbf3f10da	-0.7463509
120	0x3d2300b7	0.039795604
121	0xbf119f75	-0.5688394
122	0x3dba0cfd	0.090845086
123	0x3c822f01	0.015891554
124	0x3efe6492	0.49686104
125	0xbeba55ac	-0.36393487
126	0x3dff4aa7	0.12465411
127	0xbdb04c10	-0.08608258
128	0x3f10053e	0.56258
129	0x3d74e001	0.05978394
130	0x3efc4360	0.49270153
131	0xbf1e25c2	-0.61776364
132	0xbdf1b2f0	-0.11801708
133	0x3f0cbc07	0.54974407
134	0xbe73ff0e	-0.23827764
135	0x3e1b5042	0.15167335
136	0x3ef1fc3a	0.47262746
137	0x40e43242	7.131135
138	0x3eac5883	0.3366128
139	0xbd50ab1b	-0.05094443
140	0xbe164cd2	-0.14677742
141	0xbf2d5c0b	-0.6771857
142	0xbca6b6ab	-0.020350775
143	0x3eeb4552	0.45951325
144	0x3e945518	0.2897117
145	0x3f133177	0.5749735
146	0xbd7c1088	-0.061539203
147	0xbe7612a4	-0.24030548
148	0x3f124f6c	0.5715244
149	0xbe8d3249	-0.27577427
150	0x3ef38f1b	0.47570118
151	0x3df5bdd0	0.119990945
152	0x3eae9423	0.34097394
153	0xbf7509a1	-0.9571782
154	0x3eb938e4	0.36176217
155	0xbd88e03c	-0.06683394
156	0xbf189bf5	-0.5961297
157	0xbf79708b	-0.9743735
158	0xbf1361b8	-0.5757098
159	0xbe11606d	-0.1419694
160	0x3f0f6dbb	0.5602681
161	0xbdd9631d	-0.106146075
162	0x3f7b34fc	0.9812772
163	0xc039e22c	-2.9044294
164	0x3f2bfb1b	0.6718003
165	0x40f136e5	7.537951
166	0x3eaba9f2	0.33528095
167	0x3f0ef1a0	0.5583744
168	0x3e840ae3	0.25789556
169	0xbf86e242	-1.0537798
170	0x3f0675fa	0.5252377
171	0xbe970dba	-0.2950266
172	0xbea79b67	-0.3273575
173	0xc04bf209	-3.1866477
174	0x3eae36f5	0.34026304
175	0xbdc7d443	-0.097572826
176	0xbe652bc6	-0.2237998
177	0xbf31bbdf	-0.69427294
178	0x3e96a36d	0.2942156
179	0xbe2be982	-0.16788295
180	0x3dfc9a48	0.12334114
181	0xbfbd6aed	-1.4798256
182	0x3e475fc3	0.19470124
183	0xbf0d301b	-0.5515153
184	0xbe8573c6	-0.2606489
185	0x3de6bd97	0.1126663
186	0x3ee996d7	0.45622894
187	0x3fc81339	1.5630866
188	0x3eb3f35b	0.35146603
189	0xbf3afd5b	-0.7304284
190	0x3ea997e1	0.33123687
191	0x3fe74167	1.8066834
192	0xbe583567	-0.21114121
193	0x3efd975a	0.49529535
194	0x3e8ae8ee	0.27130836
195	0xbf0761d4	-0.5288365
196	0xbe08f5f7	-0.13375078
197	0xc02717b7	-2.6108224
198	0xbf1441f3	-0.5791313
199	0xc0a5cb27	-5.181049
200	0x3e3b9128	0.18317091
201	0xbe990efe	-0.2989425
202	0x3e88e5f3	0.26737937
203	0x3f2b3bb9	0.66888005
204	0x3d9d1527	0.0767005
205	0xbf9955b4	-1.197928
206	0x3d969f62	0.073546186
207	0x3e92f6c3	0.2870389
208	0x3e616dc4	0.22014529
209	0x40d19924	6.549944
210	0x3e5cd832	0.21566847
211	0xbe25864d	-0.16164513
212	0x3f2c639c	0.6733949
213	0x3f2974dd	0.66193944
214	0x3e65eb7b	0.2245311
215	0xbf1aeb69	-0.6051546
216	0xbead7c02	-0.33883673
217	0x40bf8f91	5.986275
218	0xbf072337	-0.5278811
219	0xbf9b8841	-1.2150956
220	0xbf010284	-0.50394464
221	0xbe770ab3	-0.24125175
222	0x3ea94440	0.33059883
223	0x409228f7	4.5675006
224	0xbeb9a1cd	-0.36256257
225	0xbe30943a	-0.17244044
226	0x3e171fc2	0.14758208
227	0x3f1f02cb	0.62113637
228	0x3eb1e386	0.347439
229	0x410109cc	8.064892
230	0x3e96abc3	0.2942792
231	0xbf40913f	-0.7522163
232	0x3eeab34a	0.45839912
233	0x3f0280be	0.50977695
234	0xbe2457a2	-0.16049054
235	0xbf5acb5d	-0.8546656
236	0x3e2d0235	0.16895373
237	0x3e155998	0.14584959
238	0x3eb0d3e2	0.34536654
239	0xbec4fba9	-0.3847325
240	0xbd518485	-0.05115177
241	0xbf0acb50	-0.5421648
242	0xbea421b7	-0.32056972
243	0xbf912f30	-1.1342525
244	0xbf10b843	-0.5653116
245	0xbf891fc7	-1.0712823
246	0xbf35d120	-0.71022224
247	0xbf73fafb	-0.9530484
248	0xbe5be454	-0.21473819
249	0x3f07c0d1	0.5302859
250	0xbe62fdd5	-0.22167142
251	0xbf665c8d	-0.8998497
252	0x3ec25f12	0.37963158
253	0x3f1ac2f9	0.60453755
254	0xbc99cce7	-0.018774463
255	0xbf27d5e3	-0.6556074

net.0.bias f4 [128]
0	0xbee47e6f	-0.4462771
1	0x3dd1ec2c	0.10250124
2	0xbe162bfe	-0.14665219
3	0x3e96f742	0.29485518
4	0xbf0445b7	-0.51668876
5	0x3ee46241	0.44606212
6	0xbe6d8b78	-0.23197734
7	0xbe8093e0	-0.2511282
8	0xbf173722	-0.590685
9	0xbe57fd6e	-0.2109277
10	0xbec2e4b9	-0.38065127
11	0x3e9c037f	0.30471417
12	0xbf303b3f	-0.688404
13	0xbeb61f40	-0.35570717
14	0xbe450165	-0.19238813
15	0x3f17daf3	0.59318465
16	0xbe8bc014	-0.2729498
17	0x3ea20b73	0.3164936
18	0xbf008674	-0.5020516
19	0xbf1cd3c8	-0.6126065
20	0x3edea8f0	0.43488264
21	0x3f3981f2	0.72463906
22	0x3eda72d9	0.42665747
23	0x3eef3a4a	0.4672416
24	0x3eab1457	0.33413956
25	0x3eaf0176	0.34180802
26	0xbeb3aeea	-0.35094386
27	0x3ef47ab2	0.4774986
28	0xbec5ccfb	-0.3863295
29	0x3ea3a3e9	0.3196099
30	0x3ea6673f	0.32500646
31	0xbe2eec5b	-0.1708235
32	0x3f1dc075	0.6162179
33	0x3ea6734b	0.32509837
34	0x3ee439f9	0.4457548
35	0xbf0e4312	-0.5557109
36	0x3edbb994	0.42915022
37	0x3f3666e4	0.7125075
38	0x3eb7c003	0.3588868
39	0xbddbbcf3	-0.107293986
40	0x3c81c833	0.015842533
41	0x3ef64e09	0.4810641
42	0xbe563dba	-0.20921984
43	0x3f328561	0.6973477
44	0xbe1857ec	-0.1487729
45	0x3f2973e7	0.6619248
46	0x3f39d454	0.7258961
47	0xbebbc95a	-0.36677057
48	0x3e93553d	0.2877597
49	0x3e2226b8	0.15835083
50	0xbeea67e6	-0.45782393
51	0x3f2ccac9	0.67496926
52	0x3e93d497	0.2887313
53	0x3eb7eae6	0.359214
54	0xbe0c6b42	-0.1371279
55	0x3ea1c109	0.31592587
56	0xbf006dbf	-0.5016746
57	0xbf03dc63	-0.5150816
58	0xbf0c48e7	-0.5479874
59	0x3e506a9c	0.20353168
60	0x3eaa4754	0.33257544
61	0xbeaa3f03	-0.332512
62	0x3f064a2b	0.5245692
63	0xbf09f458	-0.53888464
64	0x3f4a2b52	0.7897235
65	0xbf07be29	-0.53024536
66	0xbe4f4c30	-0.20243907
67	0x3f41df20	0.75731087
68	0xbe18382e	-0.14865181
69	0x3ed71e8a	0.42015487
70	0x3df7de9a	0.12103005
71	0xbf2eea86	-0.68326604
72	0xbe403a6f	-0.1877229
73	0xbe759ea1	-0.23986293
74	0x3f3f49c1	0.74721915
75	0x3f199008	0.599854
76	0x3ea5965f	0.32341287
77	0xbf25bac0	-0.6473808
78	0xbf047d9d	-0.5175417
79	0x3f3c4290	0.73539066
80	0xbf1afe9a	-0.6054474
81	0x3f16cf47	0.5891003
82	0xbe18247b	-0.14857666
83	0x3ed4ccb2	0.4156242
84	0x3f056fa3	0.5212347
85	0x3f2c61d5	0.6733678
86	0xbf0ee99e	-0.5582522
87	0x3f0b19a3	0.54335994
88	0xbeb1471b	-0.34624562
89	0xbf0bec1a	-0.5465714
90	0x3f01575e	0.50523937
91	0xbf13a452	-0.5767261
92	0x3f334884	0.70032525
93	0x3e1bf8f3	0.15231685
94	0x3ed6decf	0.41966864
95	0x3dc07281	0.0939684
96	0xbf17ffca	-0.5937468
97	0x3ead1688	0.33806252
98	0x3dc1f82e	0.09471165
99	0xbea6f8e8	-0.32611775
100	0x3e689db8	0.22716415
101	0x3eaba04e	0.3352074
102	0x3f04e319	0.51909024
103	0x3ee05812	0.43817192
104	0xbe06deaa	-0.13170877
105	0x3eaa6348	0.3327887
106	0xbf3062e9	-0.68900925
107	0x3e99be16	0.30027837
108	0xbe872b03	-0.26400003
109	0x3ece08db	0.4024113
110	0x3eac80f7	0.33692142
111	0x3ebf11c0	0.3731823
112	0x3f35c1df	0.7099895
113	0xbe88d07b	-0.26721558
114	0xbe3e95bc	-0.18611807
115	0x3f1f4030	0.6220732
116	0x3f0ee22e	0.5581387
117	0x3ee00c20	0.4375925
118	0xbeba8df2	-0.3643642
119	0x3f0d1ba5	0.5512031
120	0x3ec7a428	0.3899243
121	0x3f13f5e6	0.57797086
122	0xbefee0c3	-0.49780855
123	0x3f0d6f67	0.5524811
124	0xbf298597	-0.66219467
125	0x3ed49743	0.41521654
126	0xbf0c05ea	-0.54696524
127	0x3f3a3c20	0.72747993

net.2.weight f4 [128, 128]
0	0x3d200471	0.039066736
1	0x3d7a898c	0.06116633
2	0x3cdecb74	0.027196623
3	0x3cce39fc	0.025174133
4	0x3c21661b	0.009851004
5	0x3d93caad	0.07216392
6	0x3cb7ac53	0.022421038
7	0xbd3b7f78	-0.04577586
8	0xbd0b632c	-0.034030125
9	0xbb5044e9	-0.0031779355
10	0xbd2216ba	-0.039572455
11	0x3d7f8bd4	0.06238921
12	0x3b9dd75a	0.0048169317
13	0xbd8b0a82	-0.067891136
14	0xbc1f9fa8	-0.009742655
15	0xbda9df7e	-0.08294581
16	0x3db0d9c7	0.08635288
17	0xbcdfcb7e	-0.027318712
18	0xbb62a40e	-0.0034582647
19	0xbd5a7f59	-0.053344104
20	0xbcff13c9	-0.031137364
21	0x3d0f5949	0.03499726
22	0xbd7447c5	-0.059638757
23	0x3d86f4fc	0.06589696
24	0xbc573535	-0.013135244
25	0x3da1fb17	0.0790922
26	0xbca3c33c	-0.019990556
27	0x3d882a3a	0.06648679
28	0x3d9272a1	0.0715077
29	0x3d8c93d8	0.068641365
30	0xbd65ab8b	-0.0560718
31	0x3b75320b	0.003741386
32	0x3da0104d	0.07815609
33	0x3d4fb690	0.050711215
34	0xbc5196a5	-0.012792264
35	0x3978e9a2	0.00023738158
36	0x3d893375	0.06699268
37	0xbda09692	-0.07841219
38	0x3bb2bd3c	0.0054546874
39	0xbac508c1	-0.0015032516
40	0xbca775ce	-0.020441916
41	0xbd8fc8a6	-0.070206925
42	0xbac8ca11	-0.001531901
43	0xbcaff746	-0.021480214
44	0xbda89f2e	-0.08233486
45	0x3b614ff0	0.0034379922
46	0xbd90dedc	-0.07073757
47	0x3cab138b	0.020883342
48	0x3babf0f4	0.0052472297
49	0x3d2f1b96	0.042750917
50	0xbd2ce3bc	-0.042209372
51	0xbd8b28f3	-0.0679492
52	0xbd324e6a	-0.043531813
53	0xbd2d319b	-0.042283636
54	0xbc3bd6b5	-0.011464764
55	0xbd873cb0	-0.06603372
56	0xbd9f31ac	-0.07773146
57	0x3cd4b064	0.025963016
58	0x3cda983b	0.026683917
59	0xbd7ce1a6	-0.061738633
60	0x3cb1529f	0.021645842
61	0x3d846557	0.064646415
62	0x3d6cbc8b	0.057796996
63	0xbd85028a	-0.06494625
64	0x3c70b258	0.014690958
65	0x3dacc78d	0.08436499
66	0x3d19b8f5	0.037529904
67	0xbdb4ca92	-0.088277
68	0xbba752f0	-0.0051063225
69	0x3c7a2dee	0.01526974
70	0x3c6bf707	0.014402158
71	0x3d8e6ac7	0.0695396
72	0x3c83122f	0.015999882
73	0xbcba3847	-0.022731913
74	0x3d338b58	0.04383406
75	0xbc72afdc	-0.014812436
76	0xbd76a89a	-0.060219385
77	0x3c5d7372	0.013516294
78	0x3c13ad11	0.00901343
79	0x3d5f6953	0.054543804
80	0xbdb29f94	-0.08721843
81	0xbc5b880d	-0.013399136
82	0xbd1410fd	-0.036149014
83	0xbcff92b6	-0.031197887
84	0xbd506294	-0.05087526
85	0xbcbcb561	-0.023035707
86	0xbdaf710d	-0.085664846
87	0x3d9626ab	0.07331594
88	0xbd4ed18f	-0.05049282
89	0xbd8aca8a	-0.067769125
90	0x3c6fc8a5	0.01463524
91	0x3d28fad6	0.04125484
92	0xbd6d2972	-0.057900853
93	0x3d6a5693	0.05721147
94	0x3c8b3a9f	0.016995726
95	0xbdaa136b	-0.08304485
96	0xbc868ab5	-0.016423563
97	0x3d2a8405	0.04162981
98	0xbce192bc	-0.027535789
99	0x3cd6ee03	0.02623654
100	0xbd3a6fd1	-0.045516793
101	0x3c3e333d	0.011608896
102	0xbc55c1fa	-0.013046736
103	0x3c90a0e8	0.017654851
104	0x3b7c14dd	0.0038464584
105	0xb98d2f0e	-0.00026928674
106	0x3d32614f	0.043549832
107	0x3d6d74d2	0.057972737
108	0xbce67114	-0.028130092
109	0xbd28636b	-0.041110437
110	0x3ca49358	0.02008979
111	0xbd78856f	-0.060674127
112	0x3d0098f5	0.03139587
113	0x3d87d227	0.0663188
114	0xbcc6943a	-0.024240602
115	0x3c8d0529	0.017214375
116	0x3c6f3931	0.014601038
117	0xbd759a85	-0.059961814
118	0x3d4b8170	0.049683988
119	0xbca3ded0	-0.020003706
120	0x3d8931c0	0.06698942
121	0x3d17109f	0.036881085
122	0x3cb3b343	0.021936065
123	0x3cff944d	0.031198645
124	0x3d085ba7	0.03329053
125	0xbcae299f	-0.02126008
126	0x3cd8f7e6	0.026485395
127	0xbd4a28b4	-0.049355224
128	0xbd1c1325	-0.038104195
129	0x3d0d5ec1	0.034514192
130	0x3ccc3aae	0.024930324
131	0x3cc53d10	0.024076968
132	0xbd5ced3d	-0.053937186
133	0xbdeb701a	-0.11495991
134	0xbdc08eab	-0.09402212
135	0xbd09edb0	-0.033673942
136	0x3d3e8cc7	0.046520974
137	0x3b928f5a	0.0044726552
138	0x3d0908c5	0.03345563
139	0x3d4359cf	0.04769307
140	0xbd394070	-0.045227468
141	0x3c4f5df4	0.0126566775
142	0xbd819e6a	-0.06329043
143	0xbd8c918e	-0.068637
144	0x3d656f78	0.056014508
145	0xbdcdff55	-0.10058466
146	0x3d8ce95b	0.068804465
147	0x3d75a12c	0.05996816
148	0x3d3f14ca	0.046650685
149	0x3c4f2a2a	0.01264433
150	0x3d3e100f	0.046402033
151	0xbdc970d4	-0.098359734
152	0xbd19ad2b	-0.03751866
153	0xbc8907ec	-0.01672741
154	0xbda725ea	-0.081615284
155	0xbdbd91dc	-0.09256336
156	0xbd97fdd9	-0.074214645
157	0x3c912ffe	0.01772308
158	0xbcdf900b	-0.027290365
159	0xbdb29fdc	-0.08721897
160	0xbdbcc3c1	-0.092170246
161	0x3d5bd053	0.05366547
162	0xbdd61211	-0.10452665
163	0xbd20bbb4	-0.039241508
164	0xbdbab462	-0.091164365
165	0xbd3b3967	-0.04570904
166	0xbd3ee712	-0.046607085
167	0xbd2cc256	-0.04217752
168	0x3bb4f64d	0.0055225254
169	0xbd7a7c5a	-0.061153747
170	0xbd9226aa	-0.07136281
171	0x3d0acfa5	0.03388943
172	0x3d086cad	0.033306766
173	0x3c3f519f	0.011677175
174	0xbd7849a9	-0.060617123
175	0x3d72b666	0.05925598
176	0x3c11c3cb	0.008896778
177	0xbd8be9f6	-0.06831734
178	0xbd2736ee	-0.04082387
179	0xbdac6964	-0.08418539
180	0x3d1e5682	0.03865672
181	0xbdf5a5fd	-0.119945504
182	0x3d773bf2	0.060359903
183	0xbda47b37	-0.08031314
184	0xbb251798	-0.0025191065
185	0xbd858f9e	-0.065215334
186	0x3cf23bc8	0.029569522
187	0x3d47dc08	0.048793823
188	0x3d2a67e8	0.041603
189	0xbce58d26	-0.028021406
190	0xbd92f21c	-0.07175085
191	0xbd05d30f	-0.032671984
192	0x3cb57267	0.022149278
193	0x3c44ed5b	0.012019481
194	0x3dab40e1	0.08361984
195	0xbd33be54	-0.043882683
196	0xbd5b9056	-0.053604446
197	0xbdb0b24b	-0.08627757
198	0x3d3d592e	0.046227627
199	0x3d542c6b	0.051800173
200	0x3d67305a	0.056442596
201	0x3c5838d9	0.013197147
202	0xbc74a84c	-0.014932703
203	0x3ca6c5a3	0.020357912
204	0xbd954947	-0.07289367
205	0xbc0142c9	-0.007889458
206	0xbdc22eb0	-0.09481561
207	0xbdc5f365	-0.096655644
208	0x3d4f4038	0.050598353
209	0x3ced92fa	0.029000748
210	0xbc42bec9	-0.011886307
211	0x3d8feacc	0.07027206
212	0xbd40da37	-0.047083106
213	0xbce38d3e	-0.02777731
214	0xbd1beec4	-0.0380695
215	0x3d4a8bb8	0.049449652
216	0x3db35bf0	0.0875777
217	0x3cf4b3c8	0.029870883
218	0xbdddaec2	-0.10824348
219	0x3da348d9	0.07972879
220	0x3d60afe2	0.054855235
221	0x3d8cf5e1	0.06882835
222	0xbdb71941	-0.08940364
223	0xbcc2e0f8	-0.023788914
224	0xbd18f3ac	-0.03734176
225	0xb9881697	-0.00025956772
226	0xbd82eb08	-0.06392485
227	0x3d67f894	0.056633547
228	0x3cf357dc	0.02970498
229	0x3d994ee7	0.074857526
230	0xbda87b02	-0.08226587
231	0x3d505be7	0.050868895
232	0x3d6961e2	0.056978114
233	0xbdd453d9	-0.10367555
234	0x3d790cc2	0.060803182
235	0x3d42e0fc	0.047577843
236	0x3d8b792a	0.068102196
237	0xbd9cfb49	-0.07665116
238	0x3d2e44e5	0.04254617
239	0x3d88095f	0.066424124
240	0xbdc69f3e	-0.09698342
241	0xbd72f04b	-0.059311192
242	0xbda1d1e8	-0.079013646
243	0x3cb01654	0.021495022
244	0xbdaf3acb	-0.08556136
245	0xbd46fff1	-0.04858393
246	0xbda92d53	-0.08260598
247	0xbdeed8fc	-0.1166248
248	0xbd45992c	-0.04824178
249	0x3d206eb9	0.039168093
250	0xbd8aea5a	-0.0678298
251	0x3aaaeed2	0.0013041145
252	0xbd3cb9fa	-0.0460758
253	0xbd2634d6	-0.040577732
254	0xb992a5b6	-0.00027970754
255	0xbda54647	-0.08070045

net.2.bias f4 [128]
0	0xbcdaf1a3	-0.02672655
1	0xbd82b24e	-0.06381665
2	0x3d99cace	0.07509385
3	0xbd866bf7	-0.065635614
4	0xbd812405	-0.06305698
5	0x3d31de3b	0.043424826
6	0xbd5b17ff	-0.05348968
7	0x3e0c5752	0.13705185
8	0x3d096cf2	0.033551164
9	0xbc9d48c4	-0.019199736
10	0xbd955194	-0.072909504
11	0xbdb44a02	-0.08803178
12	0x3e39ce63	0.18145137
13	0x3c18b480	0.009320378
14	0x3d6aa201	0.057283405
15	0x3a682727	0.0008855932
16	0x3d46206d	0.048370767
17	0xbd502fac	-0.050826713
18	0x3de21936	0.11039965
19	0x3e15e8ff	0.14639662
20	0x3d3af192	0.045640536
21	0x3e9bad39	0.30405596
22	0x3d8e7cf8	0.0695743
23	0xbdb3e1ea	-0.08783324
24	0xbd512541	-0.05106092
25	0xbd5613a1	-0.052264813
26	0x3e0e13c9	0.13874735
27	0x3df4f856	0.11961429
28	0x3b392ce6	0.0028255521
29	0x3e3c6b73	0.18400364
30	0xbceb2fcb	-0.028709313
31	0x3d10bf7d	0.035338867
32	0x3e17ba10	0.14817071
33	0xbd06dbc5	-0.032924432
34	0xbcb4ebb9	-0.022085058
35	0x3ddba2cd	0.10724411
36	0x3d3c66bf	0.045996424
37	0x3e91bec7	0.28465864
38	0x3dab915d	0.08377335
39	0x3da78912	0.08180441
40	0x3d6f8c82	0.058483608
41	0x3c8b9342	0.017037991
42	0x3aaff0a3	0.0013423156
43	0x3dd46684	0.10371116
44	0xbd875468	-0.06607896
45	0x3d4a7391	0.04942662
46	0xbd32f263	-0.04368819
47	0x3e3fc55e	0.18727633
48	0x3e875728	0.26433682
49	0x3ea1af97	0.31579277
50	0x3bab7fe8	0.0052337535
51	0x3dd9ec16	0.10640733
52	0x3e2728d4	0.16324168
53	0xbdac58c5	-0.08415369
54	0xba26bb16	-0.00063602754
55	0x3e37cadc	0.17948478
56	0x3e0b3530	0.13594508
57	0x3d7ec102	0.062195785
58	0xbdb0f0f5	-0.08639709
59	0xbdd5a9be	-0.104327664
60	0x3c72c780	0.014818072
61	0x3cca2a51	0.024678381
62	0x3cc99f07	0.024611963
63	0x3bce5f42	0.0062979767
64	0x3dd52044	0.10406545
65	0xbce84414	-0.028352775
66	0x3cdd3fac	0.0270079
67	0x3e700153	0.23438005
68	0x3d25ba89	0.040461097
69	0xbd903411	-0.07041181
70	0x3e37fc18	0.1796726
71	0x3ba32e32	0.004979872
72	0xbd059787	-0.03261521
73	0x3dffc704	0.12489131
74	0x3ccca870	0.024982661
75	0xbca35f5a	-0.019942928
76	0xbdd58a9c	-0.10426828
77	0xbd802a09	-0.062580176
78	0x3cc1e1f1	0.023667308
79	0x3da98bd8	0.08278626
80	0x3e30b491	0.1725638
81	0xbd42af7a	-0.04753063
82	0xbd8d91d0	-0.06912577
83	0xba43d9a5	-0.0007471091
84	0x3d7804b7	0.06055137
85	0x3c56fd40	0.013121903
86	0x3c907532	0.017634008
87	0xbcd23018	-0.025657699
88	0x3d4b28fc	0.049599633
89	0x3e17be05	0.1481858
90	0xbda47e1a	-0.080318645
91	0x3e1a1674	0.15047628
92	0x3e722c42	0.23649696
93	0x3e1c1e82	0.15246013
94	0x3cc837bd	0.02444064
95	0x3e2bd208	0.1677934
96	0x3c55ebc9	0.013056704
97	0x3ddecc63	0.108788274
98	0xbdaff51e	-0.08591674
99	0x3dc006dc	0.09376308
100	0x3d241faa	0.04006926
101	0x3d5cb876	0.053886853
102	0x3d98cdc7	0.07461124
103	0xbdbca6d0	-0.092115045
104	0xba0160e2	-0.0004935396
105	0xbcabf516	-0.02099089
106	0x3d987635	0.07444421
107	0x3e220b01	0.1582451
108	0xbb9f9ebe	-0.0048712185
109	0x3c4da8f8	0.012552492
110	0x371620c0	8.948322e-06
111	0xbd06f007	-0.03294375
112	0x3b339c6f	0.0027406474
113	0xbd6ddeeb	-0.05807392
114	0xbdb408c3	-0.08790734
115	0xbb968a28	-0.004594106
116	0x3d89993a	0.06718679
117	0x3d716ea1	0.058943395
118	0xbda6741c	-0.08127615
119	0xbd8989a0	-0.06715703
120	0x3d3c4846	0.045967363
121	0xbc714ad0	-0.014727309
122	0xbd5d897d	-0.054086197
123	0xbcb47e83	-0.022032982
124	0x3d730a18	0.059335798
125	0x3d81686f	0.06318747
126	0xbc3a3507	-0.011365182
127	0x3c51088f	0.012758388

net.4.weight f4 [3, 128]
0	0x3d3d1a44	0.046167627
1	0x3d71e0db	0.05905233
2	0xbf0619be	-0.5238303
3	0x3da8aaa7	0.08235674
4	0xbc8cbfff	-0.017181395
5	0xbd5f7fdb	-0.05456529
6	0xbd31da8e	-0.04342132
7	0xbf0588de	-0.5216197
8	0xbf120ff5	-0.570556
9	0x3cb25f00	0.021773815
10	0x3c208ed9	0.009799683
11	0xbc7dfae9	-0.015501716
12	0xbf20a033	-0.62744445
13	0x3d38a979	0.045083497
14	0xbd9855c3	-0.07438233
15	0x3d967ca5	0.07347993
16	0xbf855896	-1.0417659
17	0xbc890b8f	-0.016729144
18	0xbf0faf5a	-0.5612694
19	0xbf01f08d	-0.50757676
20	0x3c3ec1cb	0.0116428835
21	0xbf0cf89e	-0.5506686
22	0x3d95a09a	0.07306023
23	0xbcfca756	-0.03084151
24	0x3d70fd34	0.058835223
25	0xbd249bbe	-0.04018759
26	0xbf153c9d	-0.58295614
27	0xbed93b81	-0.4242821
28	0x3c76d7bd	0.015066084
29	0xbf117a70	-0.5682745
30	0xbd32e035	-0.04367085
31	0x3c88f51e	0.016718443
32	0xbf087a48	-0.53311586
33	0x3bd104fb	0.0063787675
34	0x3d385779	0.045005295
35	0xbf0e2131	-0.55519396
36	0x3d842f62	0.0645435
37	0xbf039d69	-0.51412064
38	0x3dad781d	0.084701754
39	0xbc8361ab	-0.016037783
40	0xbbf1a64c	-0.0073745605
41	0xbc088541	-0.008332551
42	0x3d42ebff	0.047588345
43	0xbf3bb603	-0.733246
44	0x3cfc4cad	0.03079828
45	0x3cdc1ca7	0.026869131
46	0xbb556706	-0.0032562627
47	0xbee82dc5	-0.4534742
48	0xbf1be5d5	-0.6089757
49	0xbef3459e	-0.4751405
50	0xbdb4120c	-0.08792505
51	0xbf2b9bf4	-0.6703484
52	0xbf229c51	-0.6351977
53	0xbbe83de6	-0.007087457
54	0xbbf080c2	-0.007339568
55	0xbf04222f	-0.5161466
56	0xbf17d2ef	-0.59306234
57	0x3d9cf214	0.0766336
58	0x3ccf5a47	0.025311602
59	0x3c763fb8	0.01502984
60	0xbd476dec	-0.048688814
61	0x3d73881a	0.05945597
62	0xbc73e113	-0.014885205
63	0xbd55564a	-0.052084245
64	0xbf0e9353	-0.5569355
65	0xbd514cdf	-0.0510987
66	0xbd587f3a	-0.052855708
67	0xbec2ede1	-0.38072112
68	0xbf166035	-0.5874055
69	0xbce3e104	-0.027817257
70	0xbf112a76	-0.56705415
71	0xbf3c4ca0	-0.7355442
72	0x3d1cf09d	0.038315404
73	0xbf52c279	-0.8232799
74	0xbf10a43a	-0.5650059
75	0xbd01fd75	-0.031735856
76	0x3da80f22	0.08206011
77	0x3d11d1c2	0.03560043
78	0x3d893756	0.067000076
79	0xbf08b700	-0.53404236
80	0xbf218e0e	-0.63107383
81	0x3c4dfce5	0.012572502
82	0xbb57f0cb	-0.003294992
83	0xbf7924c9	-0.97321755
84	0xbf32f6d0	-0.69907856
85	0xbf0ad65d	-0.5423334
86	0xbd147f39	-0.03625414
87	0x3cdea3de	0.027177747
88	0x3d40ef1c	0.047103032
89	0xbf14ca41	-0.58121115
90	0xbab8c6b6	-0.0014097306
91	0xbed37e64	-0.41307366
92	0xbf0ccc4b	-0.54999226
93	0xbf256caf	-0.64618963
94	0x3d302959	0.043008182
95	0xbf16bbf1	-0.58880526
96	0x3ce91e43	0.028456813
97	0xbf0a1e44	-0.5395243
98	0x3d766030	0.060150325
99	0x3f697ea8	0.9120889
100	0xbc044b25	-0.0080745565
101	0xbc604ab7	-0.013689688
102	0xbf0f7c04	-0.5604861
103	0x3da784e9	0.081796475
104	0xbc31ce7f	-0.010852455
105	0xbd8e4b72	-0.06947984
106	0xbf01b31e	-0.50663936
107	0xbf14a669	-0.5806642
108	0xbd0ab299	-0.03386173
109	0xbc8ca7a9	-0.01716979
110	0xbf02f83d	-0.5116003
111	0xbba559ad	-0.0050460906
112	0xbd0b0c26	-0.033947133
113	0x3d2154d3	0.039387535
114	0xbd81c61c	-0.063366145
115	0xbcbdc785	-0.023166427
116	0xbcae8f3f	-0.02130854
117	0x3d6f5ffc	0.058441147
118	0x3d79d95f	0.060998317
119	0x3d823df6	0.06359474
120	0x3d82d339	0.06387944
121	0xbd65cd8f	-0.05610424
122	0xbd64b83e	-0.05583977
123	0x3da11742	0.07865764
124	0x3cfcf87f	0.03088021
125	0x3cbb96ef	0.02289912
126	0xbd08a750	-0.033362687
127	0x3ced2a0a	0.02895071
128	0x3d8a4e9f	0.06753277
129	0xbd8822ff	-0.066473
130	0xbf1f2422	-0.6216451
131	0xbcace778	-0.021106467
132	0x3d54e9d8	0.051980823
133	0x3d6a4a9c	0.05720006
134	0xbd1f456a	-0.038884558
135	0xbf1c80f7	-0.61134285
136	0xbf0d8a09	-0.5528875
137	0x3d3761a3	0.044770848
138	0xbd8e43da	-0.069465354
139	0x3d1fd5ac	0.039022133
140	0xbf1b58a3	-0.60682124
141	0x3d18ffd3	0.037353348
142	0xbd89c2e4	-0.067266256
143	0xbd941988	-0.07231432
144	0xbf57cb83	-0.8429491
145	0x3d32b22f	0.04362696
146	0xbf1b70a3	-0.60718745
147	0xbf2b233a	-0.66850626
148	0x3d483105	0.048874874
149	0xbeefde64	-0.46849358
150	0x3cbd74d4	0.023126997
151	0x3d29ad31	0.041424934
152	0x3d2c42cb	0.042055886
153	0x3c79b920	0.015241891
154	0xbf11eaae	-0.5699872
155	0xbf2046ff	-0.6260833
156	0xbcb6165b	-0.022227457
157	0xbf1cd077	-0.6125559
158	0x3c9de7d3	0.019275581
159	0x3d77366c	0.060354635
160	0xbf04150e	-0.51594627
161	0x3c2bc210	0.01048328
162	0x3d9b46e6	0.07581882
163	0xbf166b83	-0.587578
164	0x3cc54f9f	0.024085818
165	0xbef66ab2	-0.48128277
166	0x3d811890	0.06303513
167	0xbd625197	-0.05525359
168	0x3c86d9cb	0.016461274
169	0x3d66ee92	0.056379862
170	0xbc05b6a5	-0.008161222
171	0xbf30ac89	-0.6901327
172	0x3d51d1ef	0.0512256
173	0xbdae57f2	-0.08512868
174	0x3d9a09e1	0.075214155
175	0xbee9fd07	-0.45700857
176	0xbef4469f	-0.4771013
177	0xbec44d89	-0.38340405
178	0x3cc938ba	0.024563182
179	0xbf10de38	-0.5658908
180	0xbf24ba64	-0.6434691
181	0xbd774a10	-0.060373366
182	0xbda59416	-0.08084886
183	0xbf2a5475	-0.6653512
184	0xbf1f6953	-0.62270087
185	0x3c9dd2b6	0.019265514
186	0xbc2bd812	-0.010488527
187	0xbc137ebb	-0.009002383
188	0x3d90cfd6	0.070708916
189	0xbd416e3c	-0.04722427
190	0xb8c2674a	-9.26988e-05
191	0x3d25f26a	0.040514387
192	0xbf218a7d	-0.6310194
193	0x3ceaec01	0.028676989
194	0xbd84e695	-0.064892925
195	0xbef14c89	-0.47128704
196	0xbf116d12	-0.56807053
197	0xbd913041	-0.07089282
198	0xbf229a2f	-0.63516515
199	0xbf1957e5	-0.5989974
200	0xbd14d5ee	-0.03633683
201	0xbf22d2e9	-0.63603073
202	0xbf2732e2	-0.65312016
203	0x3d3be294	0.04587038
204	0x3d337ce2	0.04382027
205	0xbb8438d9	-0.004035097
206	0x3c8b8872	0.017032836
207	0xbf2478db	-0.6424691
208	0xbf30a46a	-0.69000876
209	0x3da51876	0.08061306
210	0xbd4f2c42	-0.050579317
211	0xbf67a84e	-0.9049119
212	0xbf1f0588	-0.62117815
213	0xbf27ce5d	-0.6554926
214	0x3d57c181	0.052674774
215	0xbd8db2ae	-0.06918846
216	0x3d877220	0.066135645
217	0xbf22d55a	-0.636068
218	0x3d810088	0.062989295
219	0xbf16a15d	-0.5883997
220	0xbef2c635	-0.47416845
221	0xbefddcb8	-0.49582458
222	0xbc917772	-0.017757151
223	0xbf2bb6d4	-0.6707585
224	0x3d5d5581	0.05403662
225	0xbf284dea	-0.6574389
226	0x3cbd864a	0.023135323
227	0x3f903e80	1.1269073
228	0xbd8afd4e	-0.06786595
229	0xbd3b3cec	-0.045712397
230	0xbf19228b	-0.59818333
231	0x3d63de6e	0.055632047
232	0xbceec764	-0.029147811
233	0xbd809f76	-0.06280415
234	0xbf1ad3df	-0.6047954
235	0xbefdd3c0	-0.49575615
236	0x3d1a4b4a	0.037669457
237	0xbd0f0e9e	-0.03492605
238	0xbf0b11ae	-0.5432385
239	0x3d5531c3	0.05204941
240	0x3d847e88	0.064694464
241	0x3d827d4f	0.06371557
242	0xbda1f059	-0.07907171
243	0x3d5d7745	0.054068822
244	0x3da43dfd	0.08019636
245	0x3d41aef0	0.047285974
246	0xbd028438	-0.031864375
247	0xbb9eec3a	-0.0048499377
248	0xbcb20324	-0.021730013
249	0x3d94c8e6	0.07264881
250	0x3d163d15	0.036679346
251	0xbcfc65f5	-0.030810336
252	0x3c7a2104	0.015266661
253	0x3d49adaa	0.049237885
254	0x3daf6202	0.085636154
255	0x3c9d03e2	0.01916689

net.4.bias f4 [3]
0	0xbeb72fb3	-0.3577858
1	0xbe52c17a	-0.20581618
2	0xbe65c74f	-0.22439311

net.0.weight f4 [128, 2]
0	0x3ca9dbb5	0.020734647
1	0x3f27d4b4	0.65558934
2	0x3ed87575	0.42277113
3	0x3fe1af90	1.7631702
4	0xbde601e1	-0.11230827
5	0xbe74be07	-0.23900615
6	0xbf172ce9	-0.590529
7	0x3cb5abde	0.02217668
8	0x3edee51c	0.43534172
9	0x3db9d8aa	0.090745285
10	0xbf051f76	-0.5200113
11	0xbe6f1b32	-0.23350218
12	0xbec43185	-0.3831903
13	0xc0b97af0	-5.796257
14	0x3ee8a335	0.45437017
15	0xbf249deb	-0.64303464
16	0x3dc71814	0.097213894
17	0xbe014d97	-0.12627254
18	0xbe16483e	-0.14675996
19	0xbefb7421	-0.49112037
20	0x3b06ee2a	0.0020588734
21	0x3f281774	0.65660787
22	0xbf1b9238	-0.6076999
23	0xbf179d32	-0.59224236
24	0x3da71d10	0.0815984
25	0xbf322359	-0.69585186
26	0x3f14eb6c	0.58171725
27	0x3f1b0b20	0.6056385
28	0x3d07f2d3	0.03319056
29	0x3ede9a49	0.43477085
30	0x3ea777b5	0.32708517
31	0xbdaba4c8	-0.08381039
32	0x3d75e3cb	0.060031693
33	0xbef171dc	-0.4715718
34	0xbee2cb1b	-0.44295582
35	0xbf4f5d2b	-0.8100154
36	0xbe250563	-0.16115336
37	0xbed980a6	-0.42480963
38	0x3b61c140	0.0034447461
39	0x3f2afc77	0.6679148
40	0x3e8bb40d	0.27285805
41	0xbedab109	-0.42713192
42	0xbf0f26a5	-0.5591834
43	0xbf81454b	-1.0099272
44	0xbe31ff54	-0.17382556
45	0xbf0ec76f	-0.5577306
46	0x3e447f06	0.1918908
47	0xbfa2d013	-1.2719749
48	0x3e8424b1	0.25809243
49	0x3f57e002	0.84326184
50	0xbf11ea75	-0.5699838
51	0xbe2f06c0	-0.17092419
52	0xbf1870d2	-0.5954715
53	0xbfc51bcd	-1.5399109
54	0x3e5eb197	0.21747433
55	0xbe3dcb0d	-0.18534489
56	0xbf0799b7	-0.52968925
57	0x409e1c9a	4.9409914
58	0xbf20ca87	-0.6280903
59	0xbf73b56f	-0.9519872
60	0xbf1d4850	-0.61438465
61	0xbff50532	-1.914221
62	0x3c84ed81	0.016226532
63	0x40b77081	5.7324834
64	0x3ebbf0e5	0.36707225
65	0xbf37f46f	-0.7185735
66	0xbf249969	-0.64296585
67	0xbf67388c	-0.9032066
68	0x3eb5d9d7	0.3551776
69	0x3db5efa9	0.08883602
70	0xbecc2e5f	-0.39879128
71	0xbeb08c7d	-0.34482184
72	0xbdfa033a	-0.12207647
73	0xbf387138	-0.7204776
74	0x3e95b15a	0.2923687
75	0xbf0a1636	-0.5394014
76	0xbee2ca34	-0.44294894
77	0xbfc38240	-1.5274124
78	0xbe1d0cd9	-0.15336932
79	0xc0ce1d9e	-6.4411154
80	0xbf2eacb8	-0.682323
81	0xbfd1bb2b	-1.6385244
82	0xbf1427a3	-0.5787298
83	0xbfac09d7	-1.3440503
84	0xbe210e54	-0.15728122
85	0x40b305ec	5.594473
86	0x3e533a28	0.20627654
87	0x3e37ac9c	0.17936939
88	0x3dc271c1	0.09494353
89	0xbf012c12	-0.5045787
90	0x3f19c1f5	0.6006158
91	0xbf4b73fb	-0.7947385
92	0x3f0c2ed4	0.54758954
93	0xbedd64ee	-0.43241066
94	0x3f213da5	0.6298469
95	0xbd15213a	-0.03640864
96	0x3e671317	0.22565876
97	0xbf1cfd82	-0.6132432
98	0x3e027c4e	0.12742731
99	0xbfe0371b	-1.7516817
100	0xbe93e857	-0.288882
101	0xbe05dad6	-0.1307176
102	0xbf200b4c	-0.6251724
103	0xbf82fe2f	-1.0233821
104	0xbeee62db	-0.46559796
105	0xbf4b61f7	-0.7944636
106	0xbec4d834	-0.384462
107	0xbf16db18	-0.5892806
108	0x3e7e08c4	0.24808031
109	0x3e87de32	0.2653671
110	0xbe26c6cb	-0.16286771
111	0xbe172bb3	-0.14762764
112	0x3f34d29d	0.7063387
113	0xbed3f2b0	-0.41396093
114	0xbe4b84c1	-0.1987486
115	0xbda5f66c	-0.08103642
116	0x3df70c9a	0.120629504
117	0xbe4e6d73	-0.20158939
118	0xbecd7878	-0.40130973
119	0xbf3efd31	-0.7460509
120	0x3d231fa8	0.03982511
121	0xbf117b67	-0.5682892
122	0x3dba0cfd	0.090845086
123	0x3c822f01	0.015891554
124	0x3efe5efb	0.4968184
125	0xbeba0814	-0.36334288
126	0x3dff4aa7	0.12465411
127	0xbdb04c10	-0.08608258
128	0x3f100923	0.5626394
129	0x3d76d3e2	0.06026066
130	0x3efc4360	0.49270153
131	0xbf1e25c2	-0.61776364
132	0xbdf1b2f0	-0.11801708
133	0x3f0cbc07	0.54974407
134	0xbe73edff	-0.23821257
135	0x3e1bd746	0.15218839
136	0x3ef210e8	0.47278523
137	0x40e42b30	7.130272
138	0x3eac6075	0.3366734
139	0xbd4e78d4	-0.0504082
140	0xbe163d3c	-0.14671797
141	0xbf2d355e	-0.67659557
142	0xbca6b6ab	-0.020350775
143	0x3eeb4552	0.45951325
144	0x3e945518	0.2897117
145	0x3f133177	0.5749735
146	0xbd7c1088	-0.061539203
147	0xbe7612a4	-0.24030548
148	0x3f1251d8	0.57156134
149	0xbe8cf263	-0.27528676
150	0x3ef39725	0.47576252
151	0x3df6c2de	0.12048887
152	0x3eaeadbe	0.3411693
153	0xbf74d928	-0.95643854
154	0x3eb938e4	0.36176217
155	0xbd88e03c	-0.06683394
156	0xbf18be0d	-0.59664994
157	0xbf79524f	-0.9739122
158	0xbf135f07	-0.57566875
159	0xbe10d19a	-0.14142457
160	0x3f0f6dbb	0.5602681
161	0xbdd9631d	-0.106146075
162	0x3f7b2acb	0.9811217
163	0xc03a01db	-2.9063632
164	0x3f2c0e27	0.67209095
165	0x40f12ef8	7.5369835
166	0x3eabad9a	0.33530885
167	0x3f0f0f28	0.558825
168	0x3e8411b6	0.25794762
169	0xbf86cf42	-1.0532
170	0x3f06791a	0.52528536
171	0xbe96c8a7	-0.2944996
172	0xbea79b67	-0.3273575
173	0xc04bf209	-3.1866477
174	0x3eae3ac1	0.340292
175	0xbdc6b858	-0.097031295
176	0xbe652bc6	-0.2237998
177	0xbf31bbdf	-0.69427294
178	0x3e96a36d	0.2942156
179	0xbe2be982	-0.16788295
180	0x3dfc9d72	0.12334718
181	0xbfbd5616	-1.4791896
182	0x3e475fc3	0.19470124
183	0xbf0d301b	-0.5515153
184	0xbe856bd1	-0.2605882
185	0x3de7a1ff	0.11310195
186	0x3ee99ae5	0.45625988
187	0x3fc82305	1.5635687
188	0x3eb3f6d7	0.3514926
189	0xbf3ad8dc	-0.7298715
190	0x3ea9a556	0.33133954
191	0x3fe74048	1.8066492
192	0xbe583567	-0.21114121
193	0x3efd975a	0.49529535
194	0x3e8aed33	0.27134094
195	0xbf073f03	-0.52830523
196	0xbe091015	-0.13385041
197	0xc026fe8f	-2.609287
198	0xbf142c87	-0.57880443
199	0xc0a5d8bc	-5.182707
200	0x3e3b98d0	0.18320012
201	0xbe98c938	-0.29841018
202	0x3e88e62f	0.26738116
203	0x3f2b5d9a	0.669397
204	0x3d9d268b	0.07673367
205	0xbf9942a7	-1.1973466
206	0x3d96d1ca	0.07364233
207	0x3e93306a	0.28747874
208	0x3e601997	0.21884762
209	0x40d19c6f	6.550346
210	0x3e5ce065	0.21569975
211	0xbe250648	-0.16115677
212	0x3f2c639c	0.6733949
213	0x3f2974dd	0.66193944
214	0x3e65f608	0.22457135
215	0xbf1ac4a3	-0.60456294
216	0xbead242a	-0.33816653
217	0x40bf97af	5.987266
218	0xbf071f52	-0.52782166
219	0xbf9b7617	-1.2145413
220	0xbf00fe7e	-0.50388324
221	0xbe768739	-0.24075021
222	0x3ea98111	0.33106282
223	0x409229e1	4.567612
224	0xbeb9993a	-0.36249715
225	0xbe3012ff	-0.17194746
226	0x3e171fc2	0.14758208
227	0x3f1f02cb	0.62113637
228	0x3eb17196	0.34656972
229	0x41010843	8.064517
230	0x3e96b432	0.29434353
231	0xbf406c00	-0.75164795
232	0x3eeab581	0.45841601
233	0x3f02a245	0.51028854
234	0xbe245015	-0.16046174
235	0xbf5aa979	-0.85414845
236	0x3e2d0235	0.16895373
237	0x3e155998	0.14584959
238	0x3eb0dbdf	0.34542748
239	0xbec4b873	-0.38421974
240	0xbd514116	-0.05108746
241	0xbf0aa9c1	-0.54165274
242	0xbea41e8e	-0.3205456
243	0xbf911c25	-1.1336714
244	0xbf10e7dc	-0.5660379
245	0xbf891ba9	-1.0711566
246	0xbf35cde1	-0.7101727
247	0xbf73dc1a	-0.95257723
248	0xbe5be454	-0.21473819
249	0x3f07c0d1	0.5302859
250	0xbe62f585	-0.22163971
251	0xbf663a67	-0.89932865
252	0x3ec25f12	0.37963158
253	0x3f1ac2f9	0.60453755
254	0xbc99707f	-0.0187304
255	0xbf27b083	-0.6550371

net.0.bias f4 [128]
0	0xbee47e6f	-0.4462771
1	0x3dd3081e	0.103042826
2	0xbe162bfe	-0.14665219
3	0x3e96f279	0.29481867
4	0xbf0445b7	-0.51668876
5	0x3ee46a54	0.44612372
6	0xbe6d837a	-0.23194686
7	0xbe8093e0	-0.2511282
8	0xbf173722	-0.590685
9	0xbe57fd6e	-0.2109277
10	0xbec2e4b9	-0.38065127
11	0x3e9bf92d	0.30463544
12	0xbf303b3f	-0.688404
13	0xbeb61f40	-0.35570717
14	0xbe450165	-0.19238813
15	0x3f17e069	0.593268
16	0xbe8bc014	-0.2729498
17	0x3ea211e0	0.31654263
18	0xbf008674	-0.5020516
19	0xbf1cd3c8	-0.6126065
20	0x3edeb5dc	0.43498123
21	0x3f3987f4	0.72473073
22	0x3eda7e31	0.426744
23	0x3eef4728	0.46733975
24	0x3eab2469	0.33426216
25	0x3eaf0a95	0.3418776
26	0xbeb3b835	-0.35101476
27	0x3ef4871b	0.47759327
28	0xbec5cdc7	-0.38633558
29	0x3ea393ce	0.31948704
30	0x3ea65c01	0.32492068
31	0xbe2ddd14	-0.16978866
32	0x3f1dc7dd	0.6163309
33	0x3ea6632d	0.3249754
34	0x3ee447e5	0.445861
35	0xbf0e4312	-0.5557109
36	0x3edbc210	0.42921495
37	0x3f366d72	0.7126075
38	0x3eb7cab7	0.35896847
39	0xbdda79ac	-0.10667738
40	0x3c8058d1	0.015667351
41	0x3ef6551e	0.48111814
42	0xbe55a6b7	-0.20864378
43	0x3f328a0b	0.69741887
44	0xbe1857ec	-0.1487729
45	0x3f297ef0	0.66209316
46	0x3f39db06	0.7259983
47	0xbebbc95a	-0.36677057
48	0x3e93639c	0.28786933
49	0x3e222046	0.15832624
50	0xbeea67e6	-0.45782393
51	0x3f2ccece	0.6750306
52	0x3e93dc0e	0.28878826
53	0x3eb7f035	0.3592545
54	0xbe0c6b42	-0.1371279
55	0x3ea1cb2a	0.31600314
56	0xbf006dbf	-0.5016746
57	0xbf03dc63	-0.5150816
58	0xbf0c48e7	-0.5479874
59	0x3e5030a7	0.2033106
60	0x3eaa541a	0.3326729
61	0xbeaa3f03	-0.332512
62	0x3f06537d	0.52471143
63	0xbf09f458	-0.53888464
64	0x3f4a313a	0.78981364
65	0xbf07be29	-0.53024536
66	0xbe4f4c30	-0.20243907
67	0x3f41e3c2	0.75738156
68	0xbe18ab3b	-0.14909069
69	0x3ed72bb3	0.42025527
70	0x3df7f225	0.12106732
71	0xbf2eea86	-0.68326604
72	0xbe403a6f	-0.1877229
73	0xbe759ea1	-0.23986293
74	0x3f3f5074	0.74732137
75	0x3f1995cb	0.5999419
76	0x3ea59744	0.3234197
77	0xbf25bac0	-0.6473808
78	0xbf0453da	-0.5169045
79	0x3f3c4839	0.73547703
80	0xbf1afe9a	-0.6054474
81	0x3f16b726	0.5887321
82	0xbe185eb2	-0.14879873
83	0x3ed4dc83	0.41574487
84	0x3f057543	0.5213205
85	0x3f2c6934	0.6734803
86	0xbf0ee99e	-0.5582522
87	0x3f0b216b	0.54347867
88	0xbeb1471b	-0.34624562
89	0xbf0bec1a	-0.5465714
90	0x3f015e1c	0.50534225
91	0xbf13a452	-0.5767261
92	0x3f334e00	0.70040894
93	0x3e1c7862	0.15280297
94	0x3ed6ed23	0.41977796
95	0x3dc23d0c	0.094843
96	0xbf17ffca	-0.5937468
97	0x3ead2472	0.33816868
98	0x3dc16257	0.09442585
99	0xbea7254e	-0.3264565
100	0x3e68b77b	0.22726242
101	0x3eabb080	0.33533096
102	0x3f04e97f	0.51918787
103	0x3ee05f2c	0.4382261
104	0xbe06c79c	-0.13162082
105	0x3eaa6f7e	0.33288187
106	0xbf3062e9	-0.68900925
107	0x3e99cc05	0.30038467
108	0xbe872187	-0.26392767
109	0x3ece101f	0.40246674
110	0x3eac88c7	0.33698103
111	0x3ebed280	0.37269974
112	0x3f35c690	0.7100611
113	0xbe88d07b	-0.26721558
114	0xbe3f4d1e	-0.18681762
115	0x3f1f46fb	0.6221768
116	0x3f0ee9f4	0.55825734
117	0x3ee0161b	0.43766865
118	0xbeba8df2	-0.3643642
119	0x3f0d21f1	0.55129915
120	0x3ec7ac1c	0.38998497
121	0x3f13fbe1	0.5780621
122	0xbefe6b3b	-0.49691185
123	0x3f0d7401	0.5525513
124	0xbf298597	-0.66219467
125	0x3ed4a2a7	0.41530344
126	0xbf0c05ea	-0.54696524
127	0x3f3a40ff	0.72755426

net.2.weight f4 [128, 128]
0	0x3d200471	0.039066736
1	0x3d7a898c	0.06116633
2	0x3cdecb74	0.027196623
3	0x3cce39fc	0.025174133
4	0x3c21661b	0.009851004
5	0x3d93caad	0.07216392
6	0x3cb7ac53	0.022421038
7	0xbd3b7f78	-0.04577586
8	0xbd0b632c	-0.034030125
9	0xbb5044e9	-0.0031779355
10	0xbd2216ba	-0.039572455
11	0x3d7f8bd4	0.06238921
12	0x3b9dd75a	0.0048169317
13	0xbd8b0a82	-0.067891136
14	0xbc1f9fa8	-0.009742655
15	0xbda9df7e	-0.08294581
16	0x3db0d9c7	0.08635288
17	0xbcdfcb7e	-0.027318712
18	0xbb62a40e	-0.0034582647
19	0xbd5a7f59	-0.053344104
20	0xbcff13c9	-0.031137364
21	0x3d0f5949	0.03499726
22	0xbd7447c5	-0.059638757
23	0x3d86f4fc	0.06589696
24	0xbc573535	-0.013135244
25	0x3da1fb17	0.0790922
26	0xbca3c33c	-0.019990556
27	0x3d882a3a	0.06648679
28	0x3d9272a1	0.0715077
29	0x3d8c93d8	0.068641365
30	0xbd65ab8b	-0.0560718
31	0x3b75320b	0.003741386
32	0x3da0104d	0.07815609
33	0x3d4fb690	0.050711215
34	0xbc5196a5	-0.012792264
35	0x3978e9a2	0.00023738158
36	0x3d893375	0.06699268
37	0xbda09692	-0.07841219
38	0x3bb2bd3c	0.0054546874
39	0xbac508c1	-0.0015032516
40	0xbca775ce	-0.020441916
41	0xbd8fc8a6	-0.070206925
42	0xbac8ca11	-0.001531901
43	0xbcaff746	-0.021480214
44	0xbda89f2e	-0.08233486
45	0x3b614ff0	0.0034379922
46	0xbd90dedc	-0.07073757
47	0x3cab138b	0.020883342
48	0x3babf0f4	0.0052472297
49	0x3d2f1b96	0.042750917
50	0xbd2ce3bc	-0.042209372
51	0xbd8b28f3	-0.0679492
52	0xbd324e6a	-0.043531813
53	0xbd2d319b	-0.042283636
54	0xbc3bd6b5	-0.011464764
55	0xbd873cb0	-0.06603372
56	0xbd9f31ac	-0.07773146
57	0x3cd4b064	0.025963016
58	0x3cda983b	0.026683917
59	0xbd7ce1a6	-0.061738633
60	0x3cb1529f	0.021645842
61	0x3d846557	0.064646415
62	0x3d6cbc8b	0.057796996
63	0xbd85028a	-0.06494625
64	0x3c70b258	0.014690958
65	0x3dacc78d	0.08436499
66	0x3d19b8f5	0.037529904
67	0xbdb4ca92	-0.088277
68	0xbba752f0	-0.0051063225
69	0x3c7a2dee	0.01526974
70	0x3c6bf707	0.014402158
71	0x3d8e6ac7	0.0695396
72	0x3c83122f	0.015999882
73	0xbcba3847	-0.022731913
74	0x3d338b58	0.04383406
75	0xbc72afdc	-0.014812436
76	0xbd76a89a	-0.060219385
77	0x3c5d7372	0.013516294
78	0x3c13ad11	0.00901343
79	0x3d5f6953	0.054543804
80	0xbdb29f94	-0.08721843
81	0xbc5b880d	-0.013399136
82	0xbd1410fd	-0.036149014
83	0xbcff92b6	-0.031197887
84	0xbd506294	-0.05087526
85	0xbcbcb561	-0.023035707
86	0xbdaf710d	-0.085664846
87	0x3d9626ab	0.07331594
88	0xbd4ed18f	-0.05049282
89	0xbd8aca8a	-0.067769125
90	0x3c6fc8a5	0.01463524
91	0x3d28fad6	0.04125484
92	0xbd6d2972	-0.057900853
93	0x3d6a5693	0.05721147
94	0x3c8b3a9f	0.016995726
95	0xbdaa136b	-0.08304485
96	0xbc868ab5	-0.016423563
97	0x3d2a8405	0.04162981
98	0xbce192bc	-0.027535789
99	0x3cd6ee03	0.02623654
100	0xbd3a6fd1	-0.045516793
101	0x3c3e333d	0.011608896
102	0xbc55c1fa	-0.013046736
103	0x3c90a0e8	0.017654851
104	0x3b7c14dd	0.0038464584
105	0xb98d2f0e	-0.00026928674
106	0x3d32614f	0.043549832
107	0x3d6d74d2	0.057972737
108	0xbce67114	-0.028130092
109	0xbd28636b	-0.041110437
110	0x3ca49358	0.02008979
111	0xbd78856f	-0.060674127
112	0x3d0098f5	0.03139587
113	0x3d87d227	0.0663188
114	0xbcc6943a	-0.024240602
115	0x3c8d0529	0.017214375
116	0x3c6f3931	0.014601038
117	0xbd759a85	-0.059961814
118	0x3d4b8170	0.049683988
119	0xbca3ded0	-0.020003706
120	0x3d8931c0	0.06698942
121	0x3d17109f	0.036881085
122	0x3cb3b343	0.021936065
123	0x3cff944d	0.031198645
124	0x3d085ba7	0.03329053
125	0xbcae299f	-0.02126008
126	0x3cd8f7e6	0.026485395
127	0xbd4a28b4	-0.049355224
128	0xbd1c1325	-0.038104195
129	0x3d0d5ec1	0.034514192
130	0x3ccc3aae	0.024930324
131	0x3cc53d10	0.024076968
132	0xbd5ced3d	-0.053937186
133	0xbdeb701a	-0.11495991
134	0xbdc08eab	-0.09402212
135	0xbd09edb0	-0.033673942
136	0x3d3e8cc7	0.046520974
137	0x3b928f5a	0.0044726552
138	0x3d0908c5	0.03345563
139	0x3d4359cf	0.04769307
140	0xbd394070	-0.045227468
141	0x3c4f5df4	0.0126566775
142	0xbd819e6a	-0.06329043
143	0xbd8c918e	-0.068637
144	0x3d656f78	0.056014508
145	0xbdcdff55	-0.10058466
146	0x3d8ce95b	0.068804465
147	0x3d75a12c	0.05996816
148	0x3d3f14ca	0.046650685
149	0x3c4f2a2a	0.01264433
150	0x3d3e100f	0.046402033
151	0xbdc970d4	-0.098359734
152	0xbd19ad2b	-0.03751866
153	0xbc8907ec	-0.01672741
154	0xbda725ea	-0.081615284
155	0xbdbd91dc	-0.09256336
156	0xbd97fdd9	-0.074214645
157	0x3c912ffe	0.01772308
158	0xbcdf900b	-0.027290365
159	0xbdb29fdc	-0.08721897
160	0xbdbcc3c1	-0.092170246
161	0x3d5bd053	0.05366547
162	0xbdd61211	-0.10452665
163	0xbd20bbb4	-0.039241508
164	0xbdbab462	-0.091164365
165	0xbd3b3967	-0.04570904
166	0xbd3ee712	-0.046607085
167	0xbd2cc256	-0.04217752
168	0x3bb4f64d	0.0055225254
169	0xbd7a7c5a	-0.061153747
170	0xbd9226aa	-0.07136281
171	0x3d0acfa5	0.03388943
172	0x3d086cad	0.033306766
173	0x3c3f519f	0.011677175
174	0xbd7849a9	-0.060617123
175	0x3d72b666	0.05925598
176	0x3c11c3cb	0.008896778
177	0xbd8be9f6	-0.06831734
178	0xbd2736ee	-0.04082387
179	0xbdac6964	-0.08418539
180	0x3d1e5682	0.03865672
181	0xbdf5a5fd	-0.119945504
182	0x3d773bf2	0.060359903
183	0xbda47b37	-0.08031314
184	0xbb251798	-0.0025191065
185	0xbd858f9e	-0.065215334
186	0x3cf23bc8	0.029569522
187	0x3d47dc08	0.048793823
188	0x3d2a67e8	0.041603
189	0xbce58d26	-0.028021406
190	0xbd92f21c	-0.07175085
191	0xbd05d30f	-0.032671984
192	0x3cb57267	0.022149278
193	0x3c44ed5b	0.012019481
194	0x3dab40e1	0.08361984
195	0xbd33be54	-0.043882683
196	0xbd5b9056	-0.053604446
197	0xbdb0b24b	-0.08627757
198	0x3d3d592e	0.046227627
199	0x3d542c6b	0.051800173
200	0x3d67305a	0.056442596
201	0x3c5838d9	0.013197147
202	0xbc74a84c	-0.014932703
203	0x3ca6c5a3	0.020357912
204	0xbd954947	-0.07289367
205	0xbc0142c9	-0.007889458
206	0xbdc22eb0	-0.09481561
207	0xbdc5f365	-0.096655644
208	0x3d4f4038	0.050598353
209	0x3ced92fa	0.029000748
210	0xbc42bec9	-0.011886307
211	0x3d8feacc	0.07027206
212	0xbd40da37	-0.047083106
213	0xbce38d3e	-0.02777731
214	0xbd1beec4	-0.0380695
215	0x3d4a8bb8	0.049449652
216	0x3db35bf0	0.0875777
217	0x3cf4b3c8	0.029870883
218	0xbdddaec2	-0.10824348
219	0x3da348d9	0.07972879
220	0x3d60afe2	0.054855235
221	0x3d8cf5e1	0.06882835
222	0xbdb71941	-0.08940364
223	0xbcc2e0f8	-0.023788914
224	0xbd18f3ac	-0.03734176
225	0xb9881697	-0.00025956772
226	0xbd82eb08	-0.06392485
227	0x3d67f894	0.056633547
228	0x3cf357dc	0.02970498
229	0x3d994ee7	0.074857526
230	0xbda87b02	-0.08226587
231	0x3d505be7	0.050868895
232	0x3d6961e2	0.056978114
233	0xbdd453d9	-0.10367555
234	0x3d790cc2	0.060803182
235	0x3d42e0fc	0.047577843
236	0x3d8b792a	0.068102196
237	0xbd9cfb49	-0.07665116
238	0x3d2e44e5	0.04254617
239	0x3d88095f	0.066424124
240	0xbdc69f3e	-0.09698342
241	0xbd72f04b	-0.059311192
242	0xbda1d1e8	-0.079013646
243	0x3cb01654	0.021495022
244	0xbdaf3acb	-0.08556136
245	0xbd46fff1	-0.04858393
246	0xbda92d53	-0.08260598
247	0xbdeed8fc	-0.1166248
248	0xbd45992c	-0.04824178
249	0x3d206eb9	0.039168093
250	0xbd8aea5a	-0.0678298
251	0x3aaaeed2	0.0013041145
252	0xbd3cb9fa	-0.0460758
253	0xbd2634d6	-0.040577732
254	0xb992a5b6	-0.00027970754
255	0xbda54647	-0.08070045

net.2.bias f4 [128]
0	0xbcdaf1a3	-0.02672655
1	0xbd82b24e	-0.06381665
2	0x3d99df48	0.07513291
3	0xbd866bf7	-0.065635614
4	0xbd812405	-0.06305698
5	0x3d31de3b	0.043424826
6	0xbd5b17ff	-0.05348968
7	0x3e0c8965	0.13724287
8	0x3d09697d	0.033547867
9	0xbc9d48c4	-0.019199736
10	0xbd955194	-0.072909504
11	0xbdb44a02	-0.08803178
12	0x3e39cd0d	0.18144627
13	0x3c18b480	0.009320378
14	0x3d6aa201	0.057283405
15	0x3a682727	0.0008855932
16	0x3d481c7c	0.04885529
17	0xbd502fac	-0.050826713
18	0x3de208c6	0.1103683
19	0x3e163e87	0.1467229
20	0x3d3af192	0.045640536
21	0x3e9bac38	0.3040483
22	0x3d8e7cf8	0.0695743
23	0xbdb3e1ea	-0.08783324
24	0xbd512541	-0.05106092
25	0xbd5613a1	-0.052264813
26	0x3e0e1cff	0.13878249
27	0x3df56a13	0.11983123
28	0x3b392ce6	0.0028255521
29	0x3e3cb8be	0.18429849
30	0xbceb2fcb	-0.028709313
31	0x3d10bf7d	0.035338867
32	0x3e17cdec	0.14824647
33	0xbd06dbc5	-0.032924432
34	0xbcb4ebb9	-0.022085058
35	0x3ddc4abc	0.10756442
36	0x3d3c66bf	0.045996424
37	0x3e91b72c	0.28460062
38	0x3dab915d	0.08377335
39	0x3da78912	0.08180441
40	0x3d6f8c82	0.058483608
41	0x3c8b9342	0.017037991
42	0x3aaff0a3	0.0013423156
43	0x3dd52aa5	0.104085244
44	0xbd875468	-0.06607896
45	0x3d4a7391	0.04942662
46	0xbd32f263	-0.04368819
47	0x3e3fb2b4	0.18720514
48	0x3e8761b6	0.26441735
49	0x3ea1a642	0.31572157
50	0x3bab7fe8	0.0052337535
51	0x3dda001d	0.10644553
52	0x3e275009	0.16339125
53	0xbdac58c5	-0.08415369
54	0xba26bb16	-0.00063602754
55	0x3e37cfcb	0.1795036
56	0x3e0b8817	0.13626133
57	0x3d7ec102	0.062195785
58	0xbdb0f0f5	-0.08639709
59	0xbdd5a9be	-0.104327664
60	0x3c72c780	0.014818072
61	0x3cca2a51	0.024678381
62	0x3cc99f07	0.024611963
63	0x3bce5f42	0.0062979767
64	0x3dd56f4c	0.10421619
65	0xbce84414	-0.028352775
66	0x3cdd3fac	0.0270079
67	0x3e6feb85	0.23429687
68	0x3d2606f2	0.040533967
69	0xbd903411	-0.07041181
70	0x3e38284d	0.17984124
71	0x3baacc13	0.005212316
72	0xbd059787	-0.03261521
73	0x3e006986	0.12540254
74	0x3cce1e7e	0.025161024
75	0xbca35f5a	-0.019942928
76	0xbdd58a9c	-0.10426828
77	0xbd802a09	-0.062580176
78	0x3cc1e1f1	0.023667308
79	0x3da99878	0.08281034
80	0x3e30f26f	0.17279981
81	0xbd42af7a	-0.04753063
82	0xbd8d91d0	-0.06912577
83	0xba48530c	-0.00076417695
84	0x3d788c2a	0.060680546
85	0x3c58f212	0.013241308
86	0x3c907532	0.017634008
87	0xbcd23018	-0.025657699
88	0x3d4b28fc	0.049599633
89	0x3e17e8aa	0.14834848
90	0xbda47e1a	-0.080318645
91	0x3e1a4c4c	0.15068167
92	0x3e722599	0.23647155
93	0x3e1c2347	0.15247832
94	0x3cc837bd	0.02444064
95	0x3e2bf775	0.16793616
96	0x3c55ebc9	0.013056704
97	0x3ddf407d	0.10900972
98	0xbdaff51e	-0.08591674
99	0x3dc06397	0.09393995
100	0x3d241faa	0.04006926
101	0x3d5cb876	0.053886853
102	0x3d98952e	0.07450329
103	0xbdbca6d0	-0.092115045
104	0xba0160e2	-0.0004935396
105	0xbcabf516	-0.02099089
106	0x3d98b6c1	0.074567325
107	0x3e221e5d	0.15831895
108	0xbb9f9ebe	-0.0048712185
109	0x3c4da8f8	0.012552492
110	0x39131549	0.00014026942
111	0xbd06f007	-0.03294375
112	0x3b339c6f	0.0027406474
113	0xbd6ddeeb	-0.05807392
114	0xbdb408c3	-0.08790734
115	0xbb968a28	-0.004594106
116	0x3d89993a	0.06718679
117	0x3d716ea1	0.058943395
118	0xbda6741c	-0.08127615
119	0xbd8989a0	-0.06715703
120	0x3d3c4846	0.045967363
121	0xbc714ad0	-0.014727309
122	0xbd5d897d	-0.054086197
123	0xbcb47e83	-0.022032982
124	0x3d730a18	0.059335798
125	0x3d81686f	0.06318747
126	0xbc3a3507	-0.011365182
127	0x3c51088f	0.012758388
