MountCar/checkpoints/checkpoint_episode_450.pt (torch, 286266 bytes, 24 tensors)

net.0.weight f4 [128, 2]
000000 b5 db a9 3c b4 d4 27 3f c8 02 18 3f 26 26 07 40
       0.020734647 0.65558934 0.59379244 2.1117034
000010 89 f3 a4 bd 97 37 54 be 92 35 20 bf 23 d8 3c be
       -0.08054263 -0.20724331 -0.6258174 -0.18441825
000020 1c e5 de 3e aa d8 b9 3d eb 80 12 bf 67 c9 62 be
       0.43534172 0.090745285 -0.57227963 -0.22147141
000030 15 ca e4 bd f6 11 df c0 35 a3 e8 3e eb 9d 24 bf
       -0.111713566 -6.9709425 0.45437017 -0.64303464
000040 14 18 c7 3d 97 4d 01 be 3e 48 16 be 21 74 fb be
       0.097213894 -0.12627254 -0.14675996 -0.49112037
000050 2a ee 06 3b 74 17 28 3f 9d 24 1e bf 57 3d 5a bf
       0.0020588734 0.65660787 -0.6177462 -0.8524985
000060 10 1d a7 3d 59 23 32 bf 6c eb 14 3f 20 0b 1b 3f
       0.0815984 -0.69585186 0.58171725 0.6056385
000070 d3 f2 07 3d 49 9a de 3e 23 b0 af 3e 8b c8 0d 3d
       0.03319056 0.43477085 0.3431407 0.03461508
000080 cb e3 75 3d dc 71 f1 be 1a d6 fc be a5 0b 4b bf
       0.060031693 -0.4715718 -0.49382097 -0.79314643
000090 63 05 25 be a6 80 d9 be 40 c1 61 3b 77 fc 2a 3f
       -0.16115336 -0.42480963 0.0034447461 0.6679148
0000a0 10 c2 93 3e 8e 4e 7a be 1f e6 14 bf 6b 01 88 bf
       0.28858995 -0.24444029 -0.58163637 -1.0625433
0000b0 60 1d 53 be 13 3a 05 bf 2e 68 5f 3e d1 ac 90 bf
       -0.20616674 -0.5204174 0.21817085 -1.1302739
0000c0 6f 3f 6e 3e 24 e4 88 3f 5f da 1a bf 11 6d 81 be
       0.23266385 1.0694623 -0.6048946 -0.25278524
0000d0 36 ea 1b bf ca 13 4a c0 5b 6b 6d 3e d6 e7 8a bb
       -0.6090425 -3.1574578 0.23185484 -0.004239063
0000e0 22 5b 39 bf de 40 18 40 84 26 26 bf df 26 8d bf
       -0.7240468 2.3789592 -0.6490252 -1.1027488
0000f0 6c f1 1b bf eb 22 ff bf d9 a2 7b be 15 c9 b4 40
       -0.60915256 -1.9932531 -0.2457384 5.649546
000100 9c 0e ca 3e 7f 58 f8 be c3 ee 23 bf 6b 5f 98 bf
       0.3946427 -0.48505017 -0.64036196 -1.1904119
000110 f6 42 be 3e f8 a7 97 3e 5f 2e cc be 7d 8c b0 be
       0.37160462 0.29620337 -0.39879128 -0.34482184
000120 4f 5c 02 be 0a fc 43 bf 76 9e a0 3e 99 d6 c9 be
       -0.12730525 -0.76556456 0.31370896 -0.39421538
000130 11 cf e6 be 60 7a d1 bf 64 9f d0 3e 4f 5c c9 c0
       -0.45079854 -1.6365471 0.40746605 -6.292518
000140 db 27 63 bf 6f 47 0b c0 4e 3c 17 bf 25 96 af bf
       -0.8873269 -2.176235 -0.5907639 -1.3717695
000150 ad 75 fa be 3f d8 94 40 5d 0e 44 3e a7 ac 69 3e
       -0.48917904 4.651397 0.19146104 0.22819768
000160 c1 71 c2 3d 12 2c 01 bf 76 b1 2e 3f 79 2f 1f bf
       0.09494353 -0.5045787 0.68239534 -0.6218181
000170 f5 79 12 3f a0 2c 62 be a5 3d 21 3f 3a 21 15 bd
       0.5721734 -0.22087336 0.6298469 -0.03640864
000180 ec 05 fc 3e 85 e2 67 bf f1 fc ec 3e b6 fd 1c c0
       0.49223268 -0.90580016 0.4628673 -2.4529853
000190 57 e8 93 be d6 da 05 be 05 2d 29 bf 87 80 89 bf
       -0.288882 -0.1307176 -0.6608432 -1.0742348
0001a0 0c 86 02 bf b0 f0 66 bf b7 3d d8 be 60 43 39 bf
       -0.5098579 -0.9021101 -0.42234585 -0.7236843
0001b0 c4 08 7e 3e 32 de 87 3e ff 36 47 be 2c fc 9f bd
       0.24808031 0.2653671 -0.19454573 -0.0781177
0001c0 9d d2 34 3f b0 f2 d3 be c1 84 4b be 6c f6 a5 bd
       0.7063387 -0.41396093 -0.1987486 -0.08103642
0001d0 9a 0c f7 3d 73 6d 4e be e4 e5 d2 be 8e de 91 bf
       0.120629504 -0.20158939 -0.41191018 -1.1396043
0001e0 b2 6a 43 3d 3e a6 07 bf fd 0c ba 3d 01 2f 82 3c
       0.047709174 -0.5298804 0.090845086 0.015891554
0001f0 55 ae fc 3e 67 56 52 be a7 4a ff 3d 10 4c b0 bd
       0.49351755 -0.20540772 0.12465411 -0.08608258
000200 91 3a 13 3f 54 75 76 3e 60 43 fc 3e c2 25 1e bf
       0.5751124 0.24068195 0.49270153 -0.61776364
000210 f0 b2 f1 bd 07 bc 0c 3f d9 29 85 be 1b 83 86 3e
       -0.11801708 0.54974407 -0.2600849 0.262719
000220 aa 8e 9b 3e aa da 01 41 c2 0c ba 3e bc cd 2b 3e
       0.30382282 8.115885 0.36337858 0.167777
000230 a5 59 11 be 8a 2c 9e bf ab b6 a6 bc 52 45 eb 3e
       -0.14194353 -1.2357342 -0.020350775 0.45951325
000240 18 55 94 3e 77 31 13 3f 88 10 7c bd a4 12 76 be
       0.2897117 0.5749735 -0.061539203 -0.24030548
000250 4b 66 1a 3f 79 f9 ac bd a5 38 fd 3e 83 a3 af 3e
       0.60312337 -0.08446021 0.4945728 0.34304437
000260 77 82 10 3f 36 e4 91 bf e4 38 b9 3e 3c e0 88 bd
       0.56449074 -1.139777 0.36176217 -0.06683394
000270 96 7a 23 bf 45 be 20 c0 54 35 1b bf 08 af e0 bd
       -0.63858926 -2.5116131 -0.6062825 -0.109708846
000280 bb 6d 0f 3f 1d 63 d9 bd ba af 6b 3f ce 7a 81 3f
       0.5602681 -0.106146075 0.9206501 1.0115602
000290 89 c3 03 3f 99 9a 11 41 d7 f5 a0 3e 0c db 41 3f
       0.5147024 9.100244 0.3143756 0.75724864
0002a0 a4 5c 98 3e 52 e7 7b bf f5 ee 10 3f e9 ad 4d bd
       0.2975818 -0.9839984 0.5661462 -0.05021468
0002b0 63 d1 9c be 8f 40 4a c0 ba ff c2 3e 16 9e fe 3d
       -0.306285 -3.1601903 0.3808573 0.12432496
0002c0 c6 2b 65 be df bb 31 bf 6d a3 96 3e 82 e9 2b be
       -0.2237998 -0.69427294 0.2942156 -0.16788295
0002d0 d9 7a 1f 3e 66 43 b8 bf c3 5f 47 3e 1b 30 0d bf
       0.15574206 -1.4395568 0.19470124 -0.5515153
0002e0 d2 fd 9b be 76 00 7c 3e 21 b0 12 3f 6a c4 f9 3f
       -0.30467087 0.24609551 0.573 1.9513066
0002f0 32 08 25 3f 2e 92 2e bf e6 6f 9d bd 06 e6 1b 40
       0.6446563 -0.681918 -0.076873586 2.4359145
000300 67 35 58 be 5a 97 fd 3e 17 73 9c 3e a6 9b 9a be
       -0.21114121 0.49529535 0.30556557 -0.30196875
000310 bd c3 ae 3c d7 f3 ac c0 1d ba d5 be cb c3 c2 c0
       0.02133357 -5.4047656 -0.41743556 -6.0864005
000320 4f f1 f8 3e 4d c5 0e 3f c9 0b 7e 3e e6 8c 61 3f
       0.48621604 0.5576981 0.24809183 0.8810562
000330 81 8e af 3d 1c 2d 99 bf af 11 78 3d 38 7d ad 3e
       0.08572102 -1.1966891 0.06056374 0.33884597
000340 25 84 e3 be 9c c1 bf 40 ce a2 88 3e 07 80 d7 3d
       -0.44436756 5.992384 0.2668671 0.10522466
000350 9c 63 2c 3f dd 74 29 3f 24 5c f9 3e 45 f5 5b bf
       0.6733949 0.66193944 0.4870311 -0.85921127
000360 26 7b 25 bf fb 9b 89 40 84 f6 10 bf c8 b7 a0 bf
       -0.64641035 4.3002906 -0.56626153 -1.2556086
000370 7c 92 0c bf e6 65 70 be 51 c7 cb 3e ee de 9c 40
       -0.5491102 -0.23476371 0.39800504 4.902213
000380 ae e0 cc be 8c 76 19 be c2 1f 17 3e cb 02 1f 3f
       -0.40015167 -0.14986628 0.14758208 0.62113637
000390 b7 f3 59 be 18 4b 03 41 89 a0 9e 3e e6 16 2d bf
       -0.21284376 8.205833 0.30981854 -0.67613065
0003a0 3c 89 e2 3e e1 2b 3b 3f 08 c6 2a be 4c 2d 65 bf
       0.44245327 0.7311383 -0.16677105 -0.8952224
0003b0 35 02 2d 3e 98 59 15 3e a0 3f b8 3e 49 eb 49 be
       0.16895373 0.14584959 0.35986042 -0.1971866
0003c0 4c e1 91 bd f0 b5 09 bf ea 77 ad be 00 c3 90 bf
       -0.0712305 -0.5379324 -0.3388055 -1.1309509
0003d0 5a ee 08 bf ce 8e 3f c0 99 29 43 bf 72 18 80 bf
       -0.53488696 -2.993091 -0.7623535 -1.000746
0003e0 54 e4 5b be d1 c0 07 3f ce 67 7b be 7e d9 71 bf
       -0.21473819 0.5302859 -0.24551317 -0.9447249
0003f0 12 5f c2 3e f9 c2 1a 3f 15 d1 4f bc de d7 33 bf
       0.37963158 0.60453755 -0.012684126 -0.7025126

net.0.bias f4 [128]
000000 6f 7e e4 be 40 e1 27 3e 2d b3 36 be f8 d1 a0 3e
       -0.4462771 0.1639452 -0.17841788 0.31410193
000010 b7 45 04 bf 5a dc d9 3e 27 db 80 bd e0 93 80 be
       -0.51668876 0.42550927 -0.062918 -0.2511282
000020 22 37 17 bf 6e fd 57 be b9 e4 c2 be 40 8b a5 3e
       -0.590685 -0.2109277 -0.38065127 0.32332802
000030 3f 3b 30 bf 40 1f b6 be 65 01 45 be 32 d4 17 3f
       -0.688404 -0.35570717 -0.19238813 0.5930816
000040 14 c0 8b be 3a ec 96 3e 74 86 00 bf c8 d3 1c bf
       -0.2729498 0.29477102 -0.5020516 -0.6126065
000050 57 6b da 3e d8 06 32 3f 79 ee cf 3e b1 6b e6 3e
       0.4266002 0.6954169 0.40611628 0.45004037
000060 cd 63 ad 3e 1e 69 a0 3e c0 9a cc be 59 34 f0 3e
       0.33865204 0.31330198 -0.39961815 0.46914938
000070 1a f7 ee be 53 60 b0 3e f7 9b b3 3e 0f 4d a4 be
       -0.466729 0.3444849 0.3507993 -0.3209004
000080 42 97 1a 3f f9 78 af 3e 5d 23 eb 3e 12 43 0e bf
       0.6038705 0.34271982 0.45925418 -0.5557109
000090 6f b4 ce 3e 6e 42 33 3f a3 96 a4 3e 1a b0 71 3e
       0.40372035 0.7002324 0.32146177 0.23602334
0000a0 f9 26 6f 3d 41 d0 e6 3e 70 3a c8 be ed 6b 30 3f
       0.058386777 0.4508076 -0.39107084 0.6891468
0000b0 ec 57 18 be e7 26 26 3f 86 9d 39 3f 5a c9 bb be
       -0.1487729 0.6490311 0.72505987 -0.36677057
0000c0 d2 85 90 3e 5d 46 89 3e e6 67 ea be a7 65 27 3f
       0.28227097 0.26811495 -0.45782393 0.65389484
0000d0 1e 29 8b 3e 20 13 ad 3e 42 6b 0c be 56 64 97 3e
       0.27179807 0.33803654 -0.1371279 0.29568738
0000e0 bf 6d 00 bf 63 dc 03 bf e7 48 0c bf 1f 1b 6b 3e
       -0.5016746 -0.5150816 -0.5479874 0.22959565
0000f0 35 03 9e 3e 03 3f aa be d7 2c 08 3f 58 f4 09 bf
       0.30861822 -0.332512 0.5319342 -0.53888464
000100 7e fc 4b 3f 29 be 07 bf 30 4c 4f be ea c1 3e 3f
       0.7968215 -0.53024536 -0.20243907 0.7451464
000110 c8 27 21 be 4f 04 e0 3e 8f a0 bb 3d 86 ea 2e bf
       -0.15737832 0.43753287 0.091614835 -0.68326604
000120 6f 3a 40 be a1 9e 75 be 36 16 3f 3f 3b 49 1c 3f
       -0.1877229 -0.23986293 0.74643266 0.6104924
000130 00 06 a6 3e c0 ba 25 bf f8 c7 f1 be 0e a7 38 3f
       0.32426453 -0.6473808 -0.47222877 0.72129905
000140 9a fe 1a bf 03 27 19 3f b6 a2 42 be 20 15 d6 3e
       -0.6054474 0.5982515 -0.19007382 0.41812992
000150 3f 19 01 3f bd 04 2d 3f ca ef 13 bf d2 27 0a 3f
       0.5042915 0.67585355 -0.57787764 0.5396701
000160 1b 47 b1 be 1a ec 0b bf de 66 f6 3e 52 a4 13 bf
       -0.34624562 -0.5465714 0.48125356 -0.5767261
000170 00 69 31 3f 6b 6b 6f 3e c0 2d c9 3e f2 a8 5a 3c
       0.6930084 0.2338082 0.39292717 0.013345944
000180 ca ff 17 bf b3 4b ae 3e fe 86 18 3d b8 99 78 be
       -0.5937468 0.3404213 0.037238114 -0.24277389
000190 46 91 a9 3e 18 ef ae 3e e9 a0 ff 3e 53 ae de 3e
       0.33118647 0.3416679 0.49927452 0.43492374
0001a0 2f 73 ca be e7 df a6 3e e9 62 30 bf e0 63 8e 3e
       -0.39541003 0.325927 -0.68900925 0.27810574
0001b0 6f cc f4 be 48 04 ba 3e 77 7e a0 3e e2 76 99 3e
       -0.4781222 0.3633139 0.31346485 0.29973513
0001c0 9b 14 33 3f 7b d0 88 be d6 3c bc be 35 10 1c 3f
       0.69953316 -0.26721558 -0.36765164 0.6096223
0001d0 4f 58 11 3f 16 74 d0 3e f2 8d ba be 8d 2d 0b 3f
       0.56775373 0.40713567 -0.3643642 0.5436638
0001e0 a4 9a bc 3e 29 45 0e 3f ea c8 d2 be 1f 03 07 3f
       0.3683673 0.5557428 -0.4116891 0.5273914
0001f0 97 85 29 bf 97 34 c7 3e ea 05 0c bf 68 22 35 3f
       -0.66219467 0.3890731 -0.54696524 0.70755625

net.2.weight f4 [128, 128]
000000 71 04 20 3d 8c 89 7a 3d 74 cb de 3c fc 39 ce 3c
       0.039066736 0.06116633 0.027196623 0.025174133
000010 1b 66 21 3c ad ca 93 3d 53 ac b7 3c 78 7f 3b bd
       0.009851004 0.07216392 0.022421038 -0.04577586
000020 2c 63 0b bd e9 44 50 bb ba 16 22 bd d4 8b 7f 3d
       -0.034030125 -0.0031779355 -0.039572455 0.06238921
000030 5a d7 9d 3b 82 0a 8b bd a8 9f 1f bc 7e df a9 bd
       0.0048169317 -0.067891136 -0.009742655 -0.08294581
000040 c7 d9 b0 3d 7e cb df bc 0e a4 62 bb 59 7f 5a bd
       0.08635288 -0.027318712 -0.0034582647 -0.053344104
000050 c9 13 ff bc 49 59 0f 3d c5 47 74 bd fc f4 86 3d
       -0.031137364 0.03499726 -0.059638757 0.06589696
000060 35 35 57 bc 17 fb a1 3d 3c c3 a3 bc 3a 2a 88 3d
       -0.013135244 0.0790922 -0.019990556 0.06648679
000070 a1 72 92 3d d8 93 8c 3d 8b ab 65 bd 0b 32 75 3b
       0.0715077 0.068641365 -0.0560718 0.003741386
000080 4d 10 a0 3d 90 b6 4f 3d a5 96 51 bc a2 e9 78 39
       0.07815609 0.050711215 -0.012792264 0.00023738158
000090 75 33 89 3d 92 96 a0 bd 3c bd b2 3b c1 08 c5 ba
       0.06699268 -0.07841219 0.0054546874 -0.0015032516
0000a0 ce 75 a7 bc a6 c8 8f bd 11 ca c8 ba 46 f7 af bc
       -0.020441916 -0.070206925 -0.001531901 -0.021480214
0000b0 2e 9f a8 bd f0 4f 61 3b dc de 90 bd 8b 13 ab 3c
       -0.08233486 0.0034379922 -0.07073757 0.020883342
0000c0 f4 f0 ab 3b 96 1b 2f 3d bc e3 2c bd f3 28 8b bd
       0.0052472297 0.042750917 -0.042209372 -0.0679492
0000d0 6a 4e 32 bd 9b 31 2d bd b5 d6 3b bc b0 3c 87 bd
       -0.043531813 -0.042283636 -0.011464764 -0.06603372
0000e0 ac 31 9f bd 64 b0 d4 3c 3b 98 da 3c a6 e1 7c bd
       -0.07773146 0.025963016 0.026683917 -0.061738633
0000f0 9f 52 b1 3c 57 65 84 3d 8b bc 6c 3d 8a 02 85 bd
       0.021645842 0.064646415 0.057796996 -0.06494625
000100 58 b2 70 3c 8d c7 ac 3d f5 b8 19 3d 92 ca b4 bd
       0.014690958 0.08436499 0.037529904 -0.088277
000110 f0 52 a7 bb ee 2d 7a 3c 07 f7 6b 3c c7 6a 8e 3d
       -0.0051063225 0.01526974 0.014402158 0.0695396
000120 2f 12 83 3c 47 38 ba bc 58 8b 33 3d dc af 72 bc
       0.015999882 -0.022731913 0.04383406 -0.014812436
000130 9a a8 76 bd 72 73 5d 3c 11 ad 13 3c 53 69 5f 3d
       -0.060219385 0.013516294 0.00901343 0.054543804
000140 94 9f b2 bd 0d 88 5b bc fd 10 14 bd b6 92 ff bc
       -0.08721843 -0.013399136 -0.036149014 -0.031197887
000150 94 62 50 bd 61 b5 bc bc 0d 71 af bd ab 26 96 3d
       -0.05087526 -0.023035707 -0.085664846 0.07331594
000160 8f d1 4e bd 8a ca 8a bd a5 c8 6f 3c d6 fa 28 3d
       -0.05049282 -0.067769125 0.01463524 0.04125484
000170 72 29 6d bd 93 56 6a 3d 9f 3a 8b 3c 6b 13 aa bd
       -0.057900853 0.05721147 0.016995726 -0.08304485
000180 b5 8a 86 bc 05 84 2a 3d bc 92 e1 bc 03 ee d6 3c
       -0.016423563 0.04162981 -0.027535789 0.02623654
000190 d1 6f 3a bd 3d 33 3e 3c fa c1 55 bc e8 a0 90 3c
       -0.045516793 0.011608896 -0.013046736 0.017654851
0001a0 dd 14 7c 3b 0e 2f 8d b9 4f 61 32 3d d2 74 6d 3d
       0.0038464584 -0.00026928674 0.043549832 0.057972737
0001b0 14 71 e6 bc 6b 63 28 bd 58 93 a4 3c 6f 85 78 bd
       -0.028130092 -0.041110437 0.02008979 -0.060674127
0001c0 f5 98 00 3d 27 d2 87 3d 3a 94 c6 bc 29 05 8d 3c
       0.03139587 0.0663188 -0.024240602 0.017214375
0001d0 31 39 6f 3c 85 9a 75 bd 70 81 4b 3d d0 de a3 bc
       0.014601038 -0.059961814 0.049683988 -0.020003706
0001e0 c0 31 89 3d 9f 10 17 3d 43 b3 b3 3c 4d 94 ff 3c
       0.06698942 0.036881085 0.021936065 0.031198645
0001f0 a7 5b 08 3d 9f 29 ae bc e6 f7 d8 3c b4 28 4a bd
       0.03329053 -0.02126008 0.026485395 -0.049355224
000200 25 13 1c bd c1 5e 0d 3d ae 3a cc 3c 10 3d c5 3c
       -0.038104195 0.034514192 0.024930324 0.024076968
000210 3d ed 5c bd 1a 70 eb bd ab 8e c0 bd b0 ed 09 bd
       -0.053937186 -0.11495991 -0.09402212 -0.033673942
000220 c7 8c 3e 3d 5a 8f 92 3b c5 08 09 3d cf 59 43 3d
       0.046520974 0.0044726552 0.03345563 0.04769307
000230 70 40 39 bd f4 5d 4f 3c 6a 9e 81 bd 8e 91 8c bd
       -0.045227468 0.0126566775 -0.06329043 -0.068637
000240 78 6f 65 3d 55 ff cd bd 5b e9 8c 3d 2c a1 75 3d
       0.056014508 -0.10058466 0.068804465 0.05996816
000250 ca 14 3f 3d 2a 2a 4f 3c 0f 10 3e 3d d4 70 c9 bd
       0.046650685 0.01264433 0.046402033 -0.098359734
000260 2b ad 19 bd ec 07 89 bc ea 25 a7 bd dc 91 bd bd
       -0.03751866 -0.01672741 -0.081615284 -0.09256336
000270 d9 fd 97 bd fe 2f 91 3c 0b 90 df bc dc 9f b2 bd
       -0.074214645 0.01772308 -0.027290365 -0.08721897
000280 c1 c3 bc bd 53 d0 5b 3d 11 12 d6 bd b4 bb 20 bd
       -0.092170246 0.05366547 -0.10452665 -0.039241508
000290 62 b4 ba bd 67 39 3b bd 12 e7 3e bd 56 c2 2c bd
       -0.091164365 -0.04570904 -0.046607085 -0.04217752
0002a0 4d f6 b4 3b 5a 7c 7a bd aa 26 92 bd a5 cf 0a 3d
       0.0055225254 -0.061153747 -0.07136281 0.03388943
0002b0 ad 6c 08 3d 9f 51 3f 3c a9 49 78 bd 66 b6 72 3d
       0.033306766 0.011677175 -0.060617123 0.05925598
0002c0 cb c3 11 3c f6 e9 8b bd ee 36 27 bd 64 69 ac bd
       0.008896778 -0.06831734 -0.04082387 -0.08418539
0002d0 82 56 1e 3d fd a5 f5 bd f2 3b 77 3d 37 7b a4 bd
       0.03865672 -0.119945504 0.060359903 -0.08031314
0002e0 98 17 25 bb 9e 8f 85 bd c8 3b f2 3c 08 dc 47 3d
       -0.0025191065 -0.065215334 0.029569522 0.048793823
0002f0 e8 67 2a 3d 26 8d e5 bc 1c f2 92 bd 0f d3 05 bd
       0.041603 -0.028021406 -0.07175085 -0.032671984
000300 67 72 b5 3c 5b ed 44 3c e1 40 ab 3d 54 be 33 bd
       0.022149278 0.012019481 0.08361984 -0.043882683
000310 56 90 5b bd 4b b2 b0 bd 2e 59 3d 3d 6b 2c 54 3d
       -0.053604446 -0.08627757 0.046227627 0.051800173
000320 5a 30 67 3d d9 38 58 3c 4c a8 74 bc a3 c5 a6 3c
       0.056442596 0.013197147 -0.014932703 0.020357912
000330 47 49 95 bd c9 42 01 bc b0 2e c2 bd 65 f3 c5 bd
       -0.07289367 -0.007889458 -0.09481561 -0.096655644
000340 38 40 4f 3d fa 92 ed 3c c9 be 42 bc cc ea 8f 3d
       0.050598353 0.029000748 -0.011886307 0.07027206
000350 37 da 40 bd 3e 8d e3 bc c4 ee 1b bd b8 8b 4a 3d
       -0.047083106 -0.02777731 -0.0380695 0.049449652
000360 f0 5b b3 3d c8 b3 f4 3c c2 ae dd bd d9 48 a3 3d
       0.0875777 0.029870883 -0.10824348 0.07972879
000370 e2 af 60 3d e1 f5 8c 3d 41 19 b7 bd f8 e0 c2 bc
       0.054855235 0.06882835 -0.08940364 -0.023788914
000380 ac f3 18 bd 97 16 88 b9 08 eb 82 bd 94 f8 67 3d
       -0.03734176 -0.00025956772 -0.06392485 0.056633547
000390 dc 57 f3 3c e7 4e 99 3d 02 7b a8 bd e7 5b 50 3d
       0.02970498 0.074857526 -0.08226587 0.050868895
0003a0 e2 61 69 3d d9 53 d4 bd c2 0c 79 3d fc e0 42 3d
       0.056978114 -0.10367555 0.060803182 0.047577843
0003b0 2a 79 8b 3d 49 fb 9c bd e5 44 2e 3d 5f 09 88 3d
       0.068102196 -0.07665116 0.04254617 0.066424124
0003c0 3e 9f c6 bd 4b f0 72 bd e8 d1 a1 bd 54 16 b0 3c
       -0.09698342 -0.059311192 -0.079013646 0.021495022
0003d0 cb 3a af bd f1 ff 46 bd 53 2d a9 bd fc d8 ee bd
       -0.08556136 -0.04858393 -0.08260598 -0.1166248
0003e0 2c 99 45 bd b9 6e 20 3d 5a ea 8a bd d2 ee aa 3a
       -0.04824178 0.039168093 -0.0678298 0.0013041145
0003f0 fa b9 3c bd d6 34 26 bd b6 a5 92 b9 47 46 a5 bd
       -0.0460758 -0.040577732 -0.00027970754 -0.08070045

net.2.bias f4 [128]
000000 a3 f1 da bc 4e b2 82 bd 45 ba bb 3d f7 6b 86 bd
       -0.02672655 -0.06381665 0.091663875 -0.065635614
000010 05 24 81 bd 3b de 31 3d ff 17 5b bd 98 d4 ea 3d
       -0.06305698 0.043424826 -0.05348968 0.1146633
000020 ce 3b a3 bc c4 48 9d bc 94 51 95 bd 02 4a b4 bd
       -0.019925978 -0.019199736 -0.072909504 -0.08803178
000030 8e 3c 40 3e 80 b4 18 3c 01 a2 6a 3d 27 27 68 3a
       0.187731 0.009320378 0.057283405 0.0008855932
000040 5e 98 46 3d ac 2f 50 bd 76 f7 d1 3d c2 7c 8d 3d
       0.048485152 -0.050826713 0.102522776 0.06908561
000050 92 f1 3a 3d 65 00 bc 3e f8 7c 8e 3d ea e1 b3 bd
       0.045640536 0.3671905 0.0695743 -0.08783324
000060 41 25 51 bd a1 13 56 bd 5c 2d e5 3d f5 bc d0 3d
       -0.05106092 -0.052264813 0.11190292 0.10192291
000070 e6 2c 39 3b cf 7c 1d 3e cb 2f eb bc 7d bf 10 3d
       0.0028255521 0.15379642 -0.028709313 0.035338867
000080 31 55 03 3e c5 db 06 bd b9 eb b4 bc 4d f1 b8 3c
       0.12825467 -0.032924432 -0.022085058 0.022575999
000090 bf 66 3c 3d 5b 12 ae 3e 5d 91 ab 3d 12 89 a7 3d
       0.045996424 0.3399838 0.08377335 0.08180441
0000a0 82 8c 6f 3d 42 93 8b 3c a3 f0 af 3a f1 3b 87 3d
       0.058483608 0.017037991 0.0013423156 0.0660323
0000b0 68 54 87 bd 91 73 4a 3d 63 f2 32 bd 07 b1 74 3e
       -0.06607896 0.04942662 -0.04368819 0.23895656
0000c0 0a 09 9a 3e be fd bd 3e e8 7f ab 3b 12 3a a3 3d
       0.3008502 0.37107652 0.0052337535 0.079700604
0000d0 62 ab 43 3e c5 58 ac bd 16 bb 26 ba 4f 0a 16 3e
       0.19108346 -0.08415369 -0.00063602754 0.1465237
0000e0 53 90 8d 3d 02 c1 7e 3d f5 f0 b0 bd be a9 d5 bd
       0.06912293 0.062195785 -0.08639709 -0.104327664
0000f0 80 c7 72 3c 51 2a ca 3c 07 9f c9 3c 5f 1a 1e bc
       0.014818072 0.024678381 0.024611963 -0.009649842
000100 93 4e a5 3d 14 44 e8 bc ac 3f dd 3c c5 57 8f 3e
       0.080716275 -0.028352775 0.0270079 0.2799665
000110 72 c8 9f 3a 11 34 90 bd a5 10 1e 3e a4 37 87 3c
       0.0012190475 -0.07041181 0.15436037 0.016506024
000120 87 97 05 bd df ee ee 3d a9 61 2f 3d 5a 5f a3 bc
       -0.03261521 0.11666655 0.042817745 -0.019942928
000130 9c 8a d5 bd 09 2a 80 bd f1 e1 c1 3c 13 ac 09 3c
       -0.10426828 -0.062580176 0.023667308 0.008402842
000140 de 10 4b 3e 7a af 42 bd d0 91 8d bd 01 e1 05 bd
       0.19830653 -0.04753063 -0.06912577 -0.032685284
000150 e9 b4 c2 3c 4e de 00 3d 32 75 90 3c 18 30 d2 bc
       0.023767905 0.031462006 0.017634008 -0.025657699
000160 fc 28 4b 3d f4 92 29 3e 1a 7e a4 bd c2 c6 1e 3e
       0.049599633 0.16559964 -0.080318645 0.15505508
000170 b8 47 98 3e b8 56 62 3e bd 37 c8 3c 7a 6b 42 3e
       0.29742217 0.22103393 0.02444064 0.18986312
000180 c9 eb 55 3c 60 d1 d8 3d 1e f5 af bd d7 ea 2b 3e
       0.013056704 0.1058681 -0.08591674 0.16788803
000190 aa 1f 24 3d 76 b8 5c 3d 2a 48 02 3d d0 a6 bc bd
       0.04006926 0.053886853 0.031807102 -0.092115045
0001a0 e2 60 01 ba 16 f5 ab bc 61 b4 b4 3d 4c 25 4a 3e
       -0.0004935396 -0.02099089 0.08823467 0.1974079
0001b0 be 9e 9f bb f8 a8 4d 3c ef a1 a3 3b 07 f0 06 bd
       -0.0048712185 0.012552492 0.004993669 -0.03294375
0001c0 6f 9c 33 3b eb de 6d bd c3 08 b4 bd 28 8a 96 bb
       0.0027406474 -0.05807392 -0.08790734 -0.004594106
0001d0 3a 99 89 3d a1 6e 71 3d 1c 74 a6 bd a0 89 89 bd
       0.06718679 0.058943395 -0.08127615 -0.06715703
0001e0 46 48 3c 3d d0 4a 71 bc 7d 89 5d bd 83 7e b4 bc
       0.045967363 -0.014727309 -0.054086197 -0.022032982
0001f0 18 0a 73 3d 6f 68 81 3d 07 35 3a bc 8f 08 51 3c
       0.059335798 0.06318747 -0.011365182 0.012758388

net.4.weight f4 [3, 128]
000000 44 1a 3d 3d db e0 71 3d e1 07 59 bf a7 aa a8 3d
       0.046167627 0.05905233 -0.8477765 0.08235674
000010 ff bf 8c bc db 7f 5f bd 8e da 31 bd b1 a8 6b bf
       -0.017181395 -0.05456529 -0.04342132 -0.9205428
000020 05 c2 37 bf 00 5f b2 3c d9 8e 20 3c e9 fa 7d bc
       -0.71780425 0.021773815 0.009799683 -0.015501716
000030 e7 6e 34 bf 79 a9 38 3d c3 55 98 bd a5 7c 96 3d
       -0.70481724 0.045083497 -0.07438233 0.07347993
000040 69 2e e4 bf 8f 0b 89 bc 77 e4 09 bf 07 c0 49 bf
       -1.7826663 -0.016729144 -0.53864235 -0.78808635
000050 cb c1 3e 3c 67 0d 0d bf 9a a0 95 3d 56 a7 fc bc
       0.0116428835 -0.55098575 0.07306023 -0.03084151
000060 34 fd 70 3d be 9b 24 bd 8c b5 19 bf 71 47 24 bf
       0.058835223 -0.04018759 -0.60042644 -0.6417151
000070 bd d7 76 3c 92 ec 2b bf 35 e0 32 bd 1e f5 88 3c
       0.015066084 -0.6715785 -0.04367085 0.016718443
000080 77 57 90 bf fb 04 d1 3b 79 57 38 3d 56 f5 cb be
       -1.1276692 0.0063787675 0.045005295 -0.39835614
000090 62 2f 84 3d 37 8c e8 be 1d 78 ad 3d ab 61 83 bc
       0.0645435 -0.45419475 0.084701754 -0.016037783
0000a0 4c a6 f1 bb 41 85 08 bc ff eb 42 3d 8d 7e c3 bf
       -0.0073745605 -0.008332551 0.047588345 -1.5272995
0000b0 ad 4c fc 3c a7 1c dc 3c 06 67 55 bb a1 d3 c7 be
       0.03079828 0.026869131 -0.0032562627 -0.39028648
0000c0 a4 d7 ef be 52 1a db be 0c 12 b4 bd aa db 6a bf
       -0.46844208 -0.42793518 -0.08792505 -0.9174143
0000d0 bc 67 ab bf e6 3d e8 bb c2 80 f0 bb 6f 7c 1a bf
       -1.3391032 -0.007087457 -0.007339568 -0.6034612
0000e0 bf af 91 bf 14 f2 9c 3d 47 5a cf 3c b8 3f 76 3c
       -1.1381758 0.0766336 0.025311602 0.01502984
0000f0 ec 6d 47 bd 1a 88 73 3d 13 e1 73 bc ab 9d 4a bd
       -0.048688814 0.05945597 -0.014885205 -0.04946677
000100 37 74 a7 bf df 4c 51 bd 3a 7f 58 bd 20 91 9c be
       -1.3082341 -0.0510987 -0.052855708 -0.30579472
000110 5e 28 b3 bf 04 e1 e3 bc 50 e9 2a bf 41 29 ba bf
       -1.3996694 -0.027817257 -0.66762257 -1.454384
000120 9d f0 1c 3d f2 17 e0 bf dc 20 7d bf 75 fd 01 bd
       0.038315404 -1.7507308 -0.98878264 -0.031735856
000130 22 0f a8 3d c2 d1 11 3d 56 37 89 3d 5b 5b 24 bf
       0.08206011 0.03560043 0.067000076 -0.642019
000140 a1 e9 aa bf e5 fc 4d 3c cb f0 57 bb a6 6c ca bf
       -1.3352548 0.012572502 -0.003294992 -1.5814407
000150 0b 0a 95 bf 64 3a 49 bf 39 7f 14 bd de a3 de 3c
       -1.164369 -0.7860472 -0.03625414 0.027177747
000160 1c ef 40 3d c6 d6 77 bf b6 c6 b8 ba 22 80 2d bf
       0.047103032 -0.96812093 -0.0014097306 -0.6777364
000170 09 00 06 bf b7 9f 2a bf 59 29 30 3d 33 a6 8b bf
       -0.52343804 -0.66649956 0.043008182 -1.0910095
000180 43 1e e9 3c 71 2a 54 bf 30 60 76 3d 96 2f c3 3f
       0.028456813 -0.8287726 0.060150325 1.5248897
000190 25 4b 04 bc b7 4a 60 bc 9d 0e 0d bf e9 84 a7 3d
       -0.0080745565 -0.013689688 -0.55100423 0.081796475
0001a0 7f ce 31 bc 72 4b 8e bd 07 d3 6d bf 19 82 f5 be
       -0.010852455 -0.06947984 -0.9290013 -0.4795082
0001b0 99 b2 0a bd a9 a7 8c bc 68 54 44 bf ad 59 a5 bb
       -0.03386173 -0.01716979 -0.76691294 -0.0050460906
0001c0 26 0c 0b bd d3 54 21 3d 1c c6 81 bd 85 c7 bd bc
       -0.033947133 0.039387535 -0.063366145 -0.023166427
0001d0 3f 8f ae bc fc 5f 6f 3d 5f d9 79 3d f6 3d 82 3d
       -0.02130854 0.058441147 0.060998317 0.06359474
0001e0 39 d3 82 3d 8f cd 65 bd 3e b8 64 bd 42 17 a1 3d
       0.06387944 -0.05610424 -0.05583977 0.07865764
0001f0 7f f8 fc 3c ef 96 bb 3c 50 a7 08 bd 0a 2a ed 3c
       0.03088021 0.02289912 -0.033362687 0.02895071
000200 9f 4e 8a 3d ff 22 88 bd 40 ab 5b bf 78 e7 ac bc
       0.06753277 -0.066473 -0.8580818 -0.021106467
000210 d8 e9 54 3d 9c 4a 6a 3d 6a 45 1f bd 3c f5 76 bf
       0.051980823 0.05720006 -0.038884558 -0.9646795
000220 47 fe 54 bf a3 61 37 3d da 43 8e bd ac d5 1f 3d
       -0.83200496 0.044770848 -0.069465354 0.039022133
000230 5a eb 31 bf d3 ff 18 3d e4 c2 89 bd 88 19 94 bd
       -0.69499743 0.037353348 -0.067266256 -0.07231432
000240 19 98 6e bf 2f b2 32 3d ce ad 28 bf 54 08 b3 bf
       -0.9320083 0.04362696 -0.65890205 -1.3986917
000250 05 31 48 3d 03 a0 c7 be d4 74 bd 3c 31 ad 29 3d
       0.048874874 -0.38989267 0.023126997 0.041424934
000260 cb 42 2c 3d 20 b9 79 3c 41 0c 1a bf 8e 59 6a bf
       0.042055886 0.015241891 -0.6017495 -0.915429
000270 5b 16 b6 bc d1 ff 5a bf d3 e7 9d 3c 6c 36 77 3d
       -0.022227457 -0.85546595 0.019275581 0.060354635
000280 d9 1d 78 bf 10 c2 2b 3c e6 46 9b 3d bc 83 73 bf
       -0.96920544 0.01048328 0.07581882 -0.95122886
000290 9f 4f c5 3c ef fc ea be 90 18 81 3d 97 51 62 bd
       0.024085818 -0.45896098 0.06303513 -0.05525359
0002a0 cb d9 86 3c 92 ee 66 3d a5 b6 05 bc 57 ec 09 c0
       0.016461274 0.056379862 -0.008161222 -2.15505
0002b0 ef d1 51 3d f2 57 ae bd e1 09 9a 3d 6d b9 e1 be
       0.0512256 -0.08512868 0.075214155 -0.4408678
0002c0 d7 07 10 bf 7c 2b ba be ba 38 c9 3c 4b 33 65 bf
       -0.5626196 -0.363613 0.024563182 -0.8953139
0002d0 84 bf 95 bf 10 4a 77 bd 16 94 a5 bd d3 0f 58 bf
       -1.1699071 -0.060373366 -0.08084886 -0.84399146
0002e0 2c 32 93 bf b6 d2 9d 3c 12 d8 2b bc bb 7e 13 bc
       -1.1499686 0.019265514 -0.010488527 -0.009002383
0002f0 d6 cf 90 3d 3c 6e 41 bd 4a 67 c2 b8 f8 11 b1 ba
       0.070708916 -0.04722427 -9.26988e-05 -0.0013509383
000300 19 5a bd bf 01 ec ea 3c 95 e6 84 bd 1b e1 ef be
       -1.4793121 0.028676989 -0.064892925 -0.4685143
000310 f0 f2 b5 bf 41 30 91 bd 04 96 6c bf db 59 9f bf
       -1.4214764 -0.07089282 -0.92416406 -1.2449297
000320 ee d5 14 bd cf 32 aa bf 46 d3 83 bf 94 e2 3b 3d
       -0.03633683 -1.3296756 -1.029885 0.04587038
000330 e2 7c 33 3d d9 38 84 bb 72 88 8b 3c 26 f0 41 bf
       0.04382027 -0.004035097 0.017032836 -0.7575706
000340 58 68 a0 bf 76 18 a5 3d 42 2c 4f bd 89 15 09 c0
       -1.2531843 0.08061306 -0.050579317 -2.1419394
000350 f5 e1 a7 bf 8e 69 75 bf 81 c1 57 3d ae b2 8d bd
       -1.3115832 -0.9586419 0.052674774 -0.06918846
000360 20 72 87 3d 77 bc 79 bf 88 00 81 3d 3a fd 54 bf
       0.066135645 -0.975532 0.062989295 -0.83198893
000370 27 80 d6 be 55 cb c5 be 72 77 91 bc e9 90 8b bf
       -0.41894647 -0.38631693 -0.017757151 -1.0903598
000380 81 55 5d 3d fa 1c 7a bf 4a 86 bd 3c 2e 7a a1 3f
       0.05403662 -0.97700465 0.023135323 1.2615411
000390 4e fd 8a bd ec 3c 3b bd ea a0 f3 be 6e de 63 3d
       -0.06786595 -0.045712397 -0.47583705 0.055632047
0003a0 64 c7 ee bc 76 9f 80 bd dc 3e 81 bf 7a e1 11 bf
       -0.029147811 -0.06280415 -1.0097308 -0.56984675
0003b0 4a 4b 1a 3d 9e 0e 0f bd f7 cf 45 bf c3 31 55 3d
       0.037669457 -0.03492605 -0.77270454 0.05204941
0003c0 88 7e 84 3d 4f 7d 82 3d 59 f0 a1 bd 45 77 5d 3d
       0.064694464 0.06371557 -0.07907171 0.054068822
0003d0 fd 3d a4 3d f0 ae 41 3d 38 84 02 bd 3a ec 9e bb
       0.08019636 0.047285974 -0.031864375 -0.0048499377
0003e0 24 03 b2 bc e6 c8 94 3d 15 3d 16 3d f5 65 fc bc
       -0.021730013 0.07264881 0.036679346 -0.030810336
0003f0 04 21 7a 3c aa ad 49 3d 02 62 af 3d e2 03 9d 3c
       0.015266661 0.049237885 0.085636154 0.01916689

net.4.bias f4 [3]
000000 20 2f ed be d9 c8 12 be a9 2e 85 be
       -0.46325016 -0.1433443 -0.2601216

net.0.weight f4 [128, 2]
000000 b5 db a9 3c b4 d4 27 3f 4f c3 17 3f bf 37 07 40
       0.020734647 0.65558934 0.5928239 2.1127775
000010 89 f3 a4 bd 97 37 54 be bd 61 20 bf ff 25 3d be
       -0.08054263 -0.20724331 -0.62649137 -0.18471526
000020 1c e5 de 3e aa d8 b9 3d 07 9e 12 bf 18 c7 62 be
       0.43534172 0.090745285 -0.5727238 -0.2214626
000030 fc 5b e4 bd 77 14 df c0 35 a3 e8 3e eb 9d 24 bf
       -0.11150357 -6.971248 0.45437017 -0.64303464
000040 14 18 c7 3d 97 4d 01 be 3e 48 16 be 21 74 fb be
       0.097213894 -0.12627254 -0.14675996 -0.49112037
000050 2a ee 06 3b 74 17 28 3f ef 4a 1e bf 72 48 5a bf
       0.0020588734 0.65660787 -0.6183309 -0.8526679
000060 10 1d a7 3d 59 23 32 bf 6c eb 14 3f 20 0b 1b 3f
       0.0815984 -0.69585186 0.58171725 0.6056385
000070 d3 f2 07 3d 49 9a de 3e f9 90 af 3e 29 59 0f 3d
       0.03319056 0.43477085 0.34290293 0.03499714
000080 cb e3 75 3d dc 71 f1 be 7c 0f fd be af 07 4b bf
       0.060031693 -0.4715718 -0.49425876 -0.793086
000090 63 05 25 be a6 80 d9 be 40 c1 61 3b 77 fc 2a 3f
       -0.16115336 -0.42480963 0.0034447461 0.6679148
0000a0 f4 a7 93 3e 54 e3 79 be 14 08 15 bf 3f ff 87 bf
       0.28839076 -0.24403125 -0.5821545 -1.062477
0000b0 89 84 53 be d6 31 05 bf ab 22 5f 3e ec 9f 90 bf
       -0.20656027 -0.5202917 0.21790569 -1.1298804
0000c0 59 00 6e 3e 0a f2 88 3f 08 fc 1a bf 61 81 81 be
       0.2324232 1.0698864 -0.6054082 -0.2529402
0000d0 81 db 1b bf fd 20 4a c0 40 23 6d 3e f0 43 7b bb
       -0.6088181 -3.1582634 0.23157978 -0.0038340054
0000e0 9e 39 39 bf 05 57 18 40 53 47 26 bf c7 27 8d bf
       -0.7235354 2.3803113 -0.6495258 -1.1027764
0000f0 0c 0b 1c bf 1b 1e ff bf 22 6d 7c be 9c d8 b4 40
       -0.60954356 -1.9931062 -0.24651006 5.6514416
000100 97 fb c9 3e f1 13 f8 be 40 12 24 bf 7e 62 98 bf
       0.3944976 -0.48452714 -0.6409035 -1.1905057
000110 43 3d be 3e 83 f9 97 3e 5f 2e cc be 7d 8c b0 be
       0.37156114 0.2968255 -0.39879128 -0.34482184
000120 f0 d5 02 be de ef 43 bf 1d 7d a0 3e 00 9a c9 be
       -0.12776923 -0.76537883 0.31345454 -0.39375305
000130 18 07 e7 be ae 78 d1 bf eb 9a d0 3e 23 64 c9 c0
       -0.451226 -1.6364954 0.40743193 -6.2934737
000140 52 1b 63 bf 4f 51 0b c0 5e 58 17 bf 7b 91 af bf
       -0.8871356 -2.1768377 -0.5911921 -1.3716272
000150 48 24 fa be 91 e5 94 40 6b a4 43 3e 37 c8 69 3e
       -0.48855805 4.6530232 0.19105689 0.22830282
000160 c1 71 c2 3d 12 2c 01 bf e8 b9 2e 3f 9c f8 1e bf
       0.09494353 -0.5045787 0.6825242 -0.620981
000170 d3 72 12 3f 0c 94 61 be a5 3d 21 3f 3a 21 15 bd
       0.5720646 -0.22029132 0.6298469 -0.03640864
000180 4b f1 fb 3e 25 9f 67 bf fc ed ec 3e 79 d6 1c c0
       0.4920753 -0.9047721 0.46275318 -2.4505904
000190 57 e8 93 be d6 da 05 be f1 49 29 bf 75 7d 89 bf
       -0.288882 -0.1307176 -0.6612845 -1.0741411
0001a0 98 a6 02 bf 13 ef 66 bf 5d 7f d8 be 3c 45 39 bf
       -0.5103545 -0.9020855 -0.4228467 -0.7237127
0001b0 c4 08 7e 3e 32 de 87 3e 8c 9f 47 be f1 b8 9f bd
       0.24808031 0.2653671 -0.19494456 -0.07798947
0001c0 9d d2 34 3f b0 f2 d3 be c1 84 4b be 6c f6 a5 bd
       0.7063387 -0.41396093 -0.1987486 -0.08103642
0001d0 9a 0c f7 3d 73 6d 4e be e8 3d d3 be 4c e7 91 bf
       0.120629504 -0.20158939 -0.41258168 -1.1398711
0001e0 10 29 42 3d 7f 96 07 bf fd 0c ba 3d 01 2f 82 3c
       0.04740244 -0.52964014 0.090845086 0.015891554
0001f0 84 a9 fc 3e 7c 8d 51 be a7 4a ff 3d 10 4c b0 bd
       0.4934808 -0.20464128 0.12465411 -0.08608258
000200 31 2e 13 3f 25 ee 76 3e 60 43 fc 3e c2 25 1e bf
       0.5749236 0.24114282 0.49270153 -0.61776364
000210 f0 b2 f1 bd 07 bc 0c 3f be 5e 85 be 66 98 86 3e
       -0.11801708 0.54974407 -0.26048845 0.26288146
000220 d1 b6 9b 3e f7 d7 01 41 7a 0b ba 3e 48 8c 2c 3e
       0.30412915 8.115226 0.3633688 0.16850388
000230 d3 f0 11 be 5b 39 9e bf ab b6 a6 bc 52 45 eb 3e
       -0.14252023 -1.2361253 -0.020350775 0.45951325
000240 18 55 94 3e 77 31 13 3f 88 10 7c bd a4 12 76 be
       0.2897117 0.5749735 -0.061539203 -0.24030548
000250 20 58 1a 3f 23 0b ac bd f0 20 fd 3e 6f e5 af 3e
       0.6029072 -0.08400562 0.49439192 0.3435473
000260 33 77 10 3f 4b bd 91 bf e4 38 b9 3e 3c e0 88 bd
       0.56431884 -1.1385893 0.36176217 -0.06683394
000270 03 da 23 bf 26 c9 20 c0 09 51 1b bf 93 4d e0 bd
       -0.64004534 -2.5122771 -0.60670525 -0.10952296
000280 bb 6d 0f 3f 1d 63 d9 bd b9 b0 6b 3f 5d 6a 81 3f
       0.5602681 -0.106146075 0.9206653 1.0110584
000290 b9 16 04 3f e9 93 11 41 a5 d3 a0 3e 46 f3 41 3f
       0.5159717 9.098611 0.31411472 0.7576183
0002a0 b9 3e 98 3e 06 cc 7b bf 04 e7 10 3f 5b 5c 4b bd
       0.29735354 -0.9835819 0.566025 -0.049648624
0002b0 63 d1 9c be 8f 40 4a c0 6d e9 c2 3e 18 c0 ff 3d
       -0.306285 -3.1601903 0.38068715 0.12487811
0002c0 c6 2b 65 be df bb 31 bf 6d a3 96 3e 82 e9 2b be
       -0.2237998 -0.69427294 0.2942156 -0.16788295
0002d0 d6 32 1f 3e d0 33 b8 bf c3 5f 47 3e 1b 30 0d bf
       0.15546736 -1.4390812 0.19470124 -0.5515153
0002e0 1f 35 9c be d9 23 7c 3e c6 86 12 3f 50 dc f9 3f
       -0.30509278 0.2462305 0.572369 1.9520359
0002f0 65 fb 24 3f fe 54 2e bf 36 08 9e bd b7 ec 1b 40
       0.644461 -0.6809844 -0.0771641 2.436323
000300 67 35 58 be 5a 97 fd 3e d7 7b 9c 3e e8 36 9a be
       -0.21114121 0.49529535 0.30563232 -0.30120015
000310 e5 d3 ac 3c 9c ee ac c0 46 a1 d5 be 0a c5 c2 c0
       0.021097133 -5.404127 -0.41724604 -6.0865526
000320 57 ee f8 3e e9 e2 0e 3f eb de 7d 3e 39 b2 61 3f
       0.4861934 0.5581499 0.24792068 0.8816257
000330 00 d9 ae 3d 7c 24 99 bf 1a 6d 76 3d 5e 8d ad 3e
       0.08537483 -1.1964259 0.06016264 0.33896917
000340 fe 9b e3 be 84 ce bf 40 f5 95 88 3e 12 a4 d8 3d
       -0.4445495 5.9939594 0.26676908 0.10578169
000350 9c 63 2c 3f dd 74 29 3f 05 41 f9 3e b5 b3 5b bf
       0.6733949 0.66193944 0.48682418 -0.85821086
000360 f3 21 25 bf 97 ac 89 40 d0 17 11 bf d9 b7 a0 bf
       -0.6450493 4.302318 -0.5667696 -1.2556106
000370 84 ae 0c bf 88 6c 70 be d5 de cb 3e bf db 9c 40
       -0.5495379 -0.23478901 0.39818445 4.9018245
000380 e8 1c cd be 5a 63 19 be c2 1f 17 3e cb 02 1f 3f
       -0.40061116 -0.14979306 0.14758208 0.62113637
000390 e9 e2 59 be b1 4a 03 41 08 80 9e 3e 44 fb 2c bf
       -0.21277966 8.205735 0.30957055 -0.675709
0003a0 0f 74 e2 3e 43 50 3b 3f 1b 41 2b be 42 26 65 bf
       0.4422917 0.73169345 -0.16724055 -0.895115
0003b0 35 02 2d 3e 98 59 15 3e cd 2f b8 3e e0 69 49 be
       0.16895373 0.14584959 0.3597397 -0.19669294
0003c0 c6 b7 92 bd fc af 09 bf 5c ad ad be 14 bc 90 bf
       -0.07163958 -0.53784156 -0.33921325 -1.1307397
0003d0 f8 53 09 bf 91 98 3f c0 f4 4a 43 bf 7c 19 80 bf
       -0.5364375 -2.993687 -0.76286244 -1.0007777
0003e0 54 e4 5b be d1 c0 07 3f 4a da 7b be 78 d5 71 bf
       -0.21473819 0.5302859 -0.2459499 -0.9446635
0003f0 12 5f c2 3e f9 c2 1a 3f 3c be 56 bc 75 c9 33 bf
       0.37963158 0.60453755 -0.013106879 -0.70229274

net.0.bias f4 [128]
000000 6f 7e e4 be 74 20 28 3e 2d b3 36 be 1a d9 a0 3e
       -0.4462771 0.1641863 -0.17841788 0.31415635
000010 b7 45 04 bf 5d e3 d9 3e 9a a4 80 bd e0 93 80 be
       -0.51668876 0.42556277 -0.06281395 -0.2511282
000020 22 37 17 bf 6e fd 57 be b9 e4 c2 be 22 8f a5 3e
       -0.590685 -0.2109277 -0.38065127 0.32335764
000030 3f 3b 30 bf 40 1f b6 be 65 01 45 be 6b d6 17 3f
       -0.688404 -0.35570717 -0.19238813 0.5931155
000040 14 c0 8b be 24 f2 96 3e 74 86 00 bf c8 d3 1c bf
       -0.2729498 0.29481614 -0.5020516 -0.6126065
000050 5c 6a da 3e 54 0e 32 3f f9 f9 cf 3e 7f 74 e6 3e
       0.4265927 0.69553113 0.40620402 0.45010754
000060 0e 6d ad 3e 36 75 a0 3e 14 8a cc be e8 3d f0 3e
       0.33872265 0.31339425 -0.39949095 0.4692223
000070 c0 0a ef be 4b 61 b0 3e a9 9c b3 3e 08 95 a3 be
       -0.4668789 0.3444923 0.3508046 -0.3194964
000080 78 98 1a 3f fd 7c af 3e cc 22 eb 3e 12 43 0e bf
       0.603889 0.34275046 0.45924985 -0.5557109
000090 cc bb ce 3e f7 46 33 3f e3 99 a4 3e d3 b9 71 3e
       0.40377653 0.7003016 0.32148656 0.23606043
0000a0 a5 24 6e 3d b1 d6 e6 3e 62 46 c8 be 18 70 30 3f
       0.058140416 0.45085672 -0.39116198 0.6892104
0000b0 ec 57 18 be a9 22 26 3f b8 9e 39 3f 5a c9 bb be
       -0.1487729 0.6489664 0.7250781 -0.36677057
0000c0 4a 97 90 3e 52 61 89 3e e6 67 ea be ec 6a 27 3f
       0.28240424 0.26832062 -0.45782393 0.65397525
0000d0 ee 31 8b 3e 7b 1e ad 3e 42 6b 0c be 32 6d 97 3e
       0.2718653 0.33812317 -0.1371279 0.29575497
0000e0 bf 6d 00 bf 63 dc 03 bf e7 48 0c bf 09 1c 6b 3e
       -0.5016746 -0.5150816 -0.5479874 0.22959913
0000f0 d1 05 9e 3e 03 3f aa be d4 2b 08 3f 58 f4 09 bf
       0.30863813 -0.332512 0.53191876 -0.53888464
000100 02 ff 4b 3f 29 be 07 bf 30 4c 4f be 2e c6 3e 3f
       0.79685986 -0.53024536 -0.20243907 0.7452115
000110 ee 7a 21 be d9 03 e0 3e db a5 bb 3d 86 ea 2e bf
       -0.1576955 0.43752936 0.09162494 -0.68326604
000120 6f 3a 40 be a1 9e 75 be e1 18 3f 3f 01 4c 1c 3f
       -0.1877229 -0.23986293 0.7464734 0.6105347
000130 22 19 a6 3e c0 ba 25 bf 0e 4b f1 be 7b ac 38 3f
       0.3244105 -0.6473808 -0.47127575 0.72138184
000140 9a fe 1a bf 2f 25 19 3f 01 7e 43 be 2b 1d d6 3e
       -0.6054474 0.5982236 -0.19091035 0.41819128
000150 65 19 01 3f 0e 05 2d 3f ca ef 13 bf 50 2a 0a 3f
       0.50429374 0.6758584 -0.57787764 0.53970814
000160 1b 47 b1 be 1a ec 0b bf b7 6d f6 3e 52 a4 13 bf
       -0.34624562 -0.5465714 0.4813058 -0.5767261
000170 26 6f 31 3f d1 c1 6f 3e db 40 c9 3e 2b a4 5c 3c
       0.69310224 0.23413779 0.39307293 0.013466875
000180 ca ff 17 bf 52 43 ae 3e 72 83 18 3d a6 81 78 be
       -0.5937468 0.34035736 0.03723473 -0.24268207
000190 e6 9e a9 3e 62 f5 ae 3e 15 aa ff 3e 49 b7 de 3e
       0.33129042 0.34171587 0.4993445 0.4349921
0001a0 24 1b ca be 44 df a6 3e e9 62 30 bf 68 78 8e 3e
       -0.39473832 0.32592213 -0.68900925 0.27826238
0001b0 26 45 f5 be ef 0b ba 3e 7e 82 a0 3e 39 6b 99 3e
       -0.4790432 0.3633723 0.31349558 0.29964617
0001c0 1c 1b 33 3f 7b d0 88 be 37 5f bc be ad 10 1c 3f
       0.6996324 -0.26721558 -0.36791393 0.60962945
0001d0 cb 5a 11 3f 9f 7f d0 3e f2 8d ba be ca 2d 0b 3f
       0.56779164 0.40722367 -0.3643642 0.54366744
0001e0 3b a2 bc 3e 80 49 0e 3f 50 47 d2 be a7 07 07 3f
       0.36842522 0.555809 -0.41070032 0.5274605
0001f0 97 85 29 bf 1b 3a c7 3e ea 05 0c bf f7 27 35 3f
       -0.66219467 0.38911518 -0.54696524 0.70764107

net.2.weight f4 [128, 128]
000000 71 04 20 3d 8c 89 7a 3d 74 cb de 3c fc 39 ce 3c
       0.039066736 0.06116633 0.027196623 0.025174133
000010 1b 66 21 3c ad ca 93 3d 53 ac b7 3c 78 7f 3b bd
       0.009851004 0.07216392 0.022421038 -0.04577586
000020 2c 63 0b bd e9 44 50 bb ba 16 22 bd d4 8b 7f 3d
       -0.034030125 -0.0031779355 -0.039572455 0.06238921
000030 5a d7 9d 3b 82 0a 8b bd a8 9f 1f bc 7e df a9 bd
       0.0048169317 -0.067891136 -0.009742655 -0.08294581
000040 c7 d9 b0 3d 7e cb df bc 0e a4 62 bb 59 7f 5a bd
       0.08635288 -0.027318712 -0.0034582647 -0.053344104
000050 c9 13 ff bc 49 59 0f 3d c5 47 74 bd fc f4 86 3d
       -0.031137364 0.03499726 -0.059638757 0.06589696
000060 35 35 57 bc 17 fb a1 3d 3c c3 a3 bc 3a 2a 88 3d
       -0.013135244 0.0790922 -0.019990556 0.06648679
000070 a1 72 92 3d d8 93 8c 3d 8b ab 65 bd 0b 32 75 3b
       0.0715077 0.068641365 -0.0560718 0.003741386
000080 4d 10 a0 3d 90 b6 4f 3d a5 96 51 bc a2 e9 78 39
       0.07815609 0.050711215 -0.012792264 0.00023738158
000090 75 33 89 3d 92 96 a0 bd 3c bd b2 3b c1 08 c5 ba
       0.06699268 -0.07841219 0.0054546874 -0.0015032516
0000a0 ce 75 a7 bc a6 c8 8f bd 11 ca c8 ba 46 f7 af bc
       -0.020441916 -0.070206925 -0.001531901 -0.021480214
0000b0 2e 9f a8 bd f0 4f 61 3b dc de 90 bd 8b 13 ab 3c
       -0.08233486 0.0034379922 -0.07073757 0.020883342
0000c0 f4 f0 ab 3b 96 1b 2f 3d bc e3 2c bd f3 28 8b bd
       0.0052472297 0.042750917 -0.042209372 -0.0679492
0000d0 6a 4e 32 bd 9b 31 2d bd b5 d6 3b bc b0 3c 87 bd
       -0.043531813 -0.042283636 -0.011464764 -0.06603372
0000e0 ac 31 9f bd 64 b0 d4 3c 3b 98 da 3c a6 e1 7c bd
       -0.07773146 0.025963016 0.026683917 -0.061738633
0000f0 9f 52 b1 3c 57 65 84 3d 8b bc 6c 3d 8a 02 85 bd
       0.021645842 0.064646415 0.057796996 -0.06494625
000100 58 b2 70 3c 8d c7 ac 3d f5 b8 19 3d 92 ca b4 bd
       0.014690958 0.08436499 0.037529904 -0.088277
000110 f0 52 a7 bb ee 2d 7a 3c 07 f7 6b 3c c7 6a 8e 3d
       -0.0051063225 0.01526974 0.014402158 0.0695396
000120 2f 12 83 3c 47 38 ba bc 58 8b 33 3d dc af 72 bc
       0.015999882 -0.022731913 0.04383406 -0.014812436
000130 9a a8 76 bd 72 73 5d 3c 11 ad 13 3c 53 69 5f 3d
       -0.060219385 0.013516294 0.00901343 0.054543804
000140 94 9f b2 bd 0d 88 5b bc fd 10 14 bd b6 92 ff bc
       -0.08721843 -0.013399136 -0.036149014 -0.031197887
000150 94 62 50 bd 61 b5 bc bc 0d 71 af bd ab 26 96 3d
       -0.05087526 -0.023035707 -0.085664846 0.07331594
000160 8f d1 4e bd 8a ca 8a bd a5 c8 6f 3c d6 fa 28 3d
       -0.05049282 -0.067769125 0.01463524 0.04125484
000170 72 29 6d bd 93 56 6a 3d 9f 3a 8b 3c 6b 13 aa bd
       -0.057900853 0.05721147 0.016995726 -0.08304485
000180 b5 8a 86 bc 05 84 2a 3d bc 92 e1 bc 03 ee d6 3c
       -0.016423563 0.04162981 -0.027535789 0.02623654
000190 d1 6f 3a bd 3d 33 3e 3c fa c1 55 bc e8 a0 90 3c
       -0.045516793 0.011608896 -0.013046736 0.017654851
0001a0 dd 14 7c 3b 0e 2f 8d b9 4f 61 32 3d d2 74 6d 3d
       0.0038464584 -0.00026928674 0.043549832 0.057972737
0001b0 14 71 e6 bc 6b 63 28 bd 58 93 a4 3c 6f 85 78 bd
       -0.028130092 -0.041110437 0.02008979 -0.060674127
0001c0 f5 98 00 3d 27 d2 87 3d 3a 94 c6 bc 29 05 8d 3c
       0.03139587 0.0663188 -0.024240602 0.017214375
0001d0 31 39 6f 3c 85 9a 75 bd 70 81 4b 3d d0 de a3 bc
       0.014601038 -0.059961814 0.049683988 -0.020003706
0001e0 c0 31 89 3d 9f 10 17 3d 43 b3 b3 3c 4d 94 ff 3c
       0.06698942 0.036881085 0.021936065 0.031198645
0001f0 a7 5b 08 3d 9f 29 ae bc e6 f7 d8 3c b4 28 4a bd
       0.03329053 -0.02126008 0.026485395 -0.049355224
000200 25 13 1c bd c1 5e 0d 3d ae 3a cc 3c 10 3d c5 3c
       -0.038104195 0.034514192 0.024930324 0.024076968
000210 3d ed 5c bd 1a 70 eb bd ab 8e c0 bd b0 ed 09 bd
       -0.053937186 -0.11495991 -0.09402212 -0.033673942
000220 c7 8c 3e 3d 5a 8f 92 3b c5 08 09 3d cf 59 43 3d
       0.046520974 0.0044726552 0.03345563 0.04769307
000230 70 40 39 bd f4 5d 4f 3c 6a 9e 81 bd 8e 91 8c bd
       -0.045227468 0.0126566775 -0.06329043 -0.068637
000240 78 6f 65 3d 55 ff cd bd 5b e9 8c 3d 2c a1 75 3d
       0.056014508 -0.10058466 0.068804465 0.05996816
000250 ca 14 3f 3d 2a 2a 4f 3c 0f 10 3e 3d d4 70 c9 bd
       0.046650685 0.01264433 0.046402033 -0.098359734
000260 2b ad 19 bd ec 07 89 bc ea 25 a7 bd dc 91 bd bd
       -0.03751866 -0.01672741 -0.081615284 -0.09256336
000270 d9 fd 97 bd fe 2f 91 3c 0b 90 df bc dc 9f b2 bd
       -0.074214645 0.01772308 -0.027290365 -0.08721897
000280 c1 c3 bc bd 53 d0 5b 3d 11 12 d6 bd b4 bb 20 bd
       -0.092170246 0.05366547 -0.10452665 -0.039241508
000290 62 b4 ba bd 67 39 3b bd 12 e7 3e bd 56 c2 2c bd
       -0.091164365 -0.04570904 -0.046607085 -0.04217752
0002a0 4d f6 b4 3b 5a 7c 7a bd aa 26 92 bd a5 cf 0a 3d
       0.0055225254 -0.061153747 -0.07136281 0.03388943
0002b0 ad 6c 08 3d 9f 51 3f 3c a9 49 78 bd 66 b6 72 3d
       0.033306766 0.011677175 -0.060617123 0.05925598
0002c0 cb c3 11 3c f6 e9 8b bd ee 36 27 bd 64 69 ac bd
       0.008896778 -0.06831734 -0.04082387 -0.08418539
0002d0 82 56 1e 3d fd a5 f5 bd f2 3b 77 3d 37 7b a4 bd
       0.03865672 -0.119945504 0.060359903 -0.08031314
0002e0 98 17 25 bb 9e 8f 85 bd c8 3b f2 3c 08 dc 47 3d
       -0.0025191065 -0.065215334 0.029569522 0.048793823
0002f0 e8 67 2a 3d 26 8d e5 bc 1c f2 92 bd 0f d3 05 bd
       0.041603 -0.028021406 -0.07175085 -0.032671984
000300 67 72 b5 3c 5b ed 44 3c e1 40 ab 3d 54 be 33 bd
       0.022149278 0.012019481 0.08361984 -0.043882683
000310 56 90 5b bd 4b b2 b0 bd 2e 59 3d 3d 6b 2c 54 3d
       -0.053604446 -0.08627757 0.046227627 0.051800173
000320 5a 30 67 3d d9 38 58 3c 4c a8 74 bc a3 c5 a6 3c
       0.056442596 0.013197147 -0.014932703 0.020357912
000330 47 49 95 bd c9 42 01 bc b0 2e c2 bd 65 f3 c5 bd
       -0.07289367 -0.007889458 -0.09481561 -0.096655644
000340 38 40 4f 3d fa 92 ed 3c c9 be 42 bc cc ea 8f 3d
       0.050598353 0.029000748 -0.011886307 0.07027206
000350 37 da 40 bd 3e 8d e3 bc c4 ee 1b bd b8 8b 4a 3d
       -0.047083106 -0.02777731 -0.0380695 0.049449652
000360 f0 5b b3 3d c8 b3 f4 3c c2 ae dd bd d9 48 a3 3d
       0.0875777 0.029870883 -0.10824348 0.07972879
000370 e2 af 60 3d e1 f5 8c 3d 41 19 b7 bd f8 e0 c2 bc
       0.054855235 0.06882835 -0.08940364 -0.023788914
000380 ac f3 18 bd 97 16 88 b9 08 eb 82 bd 94 f8 67 3d
       -0.03734176 -0.00025956772 -0.06392485 0.056633547
000390 dc 57 f3 3c e7 4e 99 3d 02 7b a8 bd e7 5b 50 3d
       0.02970498 0.074857526 -0.08226587 0.050868895
0003a0 e2 61 69 3d d9 53 d4 bd c2 0c 79 3d fc e0 42 3d
       0.056978114 -0.10367555 0.060803182 0.047577843
0003b0 2a 79 8b 3d 49 fb 9c bd e5 44 2e 3d 5f 09 88 3d
       0.068102196 -0.07665116 0.04254617 0.066424124
0003c0 3e 9f c6 bd 4b f0 72 bd e8 d1 a1 bd 54 16 b0 3c
       -0.09698342 -0.059311192 -0.079013646 0.021495022
0003d0 cb 3a af bd f1 ff 46 bd 53 2d a9 bd fc d8 ee bd
       -0.08556136 -0.04858393 -0.08260598 -0.1166248
0003e0 2c 99 45 bd b9 6e 20 3d 5a ea 8a bd d2 ee aa 3a
       -0.04824178 0.039168093 -0.0678298 0.0013041145
0003f0 fa b9 3c bd d6 34 26 bd b6 a5 92 b9 47 46 a5 bd
       -0.0460758 -0.040577732 -0.00027970754 -0.08070045

net.2.bias f4 [128]
000000 a3 f1 da bc 4e b2 82 bd 03 b3 bb 3d f7 6b 86 bd
       -0.02672655 -0.06381665 0.09165003 -0.065635614
000010 05 24 81 bd 3b de 31 3d ff 17 5b bd c2 fc ea 3d
       -0.06305698 0.043424826 -0.05348968 0.11473991
000020 5e fe a4 bc c4 48 9d bc 94 51 95 bd 02 4a b4 bd
       -0.020140823 -0.019199736 -0.072909504 -0.08803178
000030 9f 61 40 3e 80 b4 18 3c 01 a2 6a 3d 27 27 68 3a
       0.1878724 0.009320378 0.057283405 0.0008855932
000040 c5 e5 46 3d ac 2f 50 bd 03 54 d2 3d c2 7c 8d 3d
       0.04855897 -0.050826713 0.1026993 0.06908561
000050 92 f1 3a 3d 5d 00 bc 3e f8 7c 8e 3d ea e1 b3 bd
       0.045640536 0.36719027 0.0695743 -0.08783324
000060 41 25 51 bd a1 13 56 bd 39 94 e5 3d 54 b8 d0 3d
       -0.05106092 -0.052264813 0.11209912 0.10191408
000070 e6 2c 39 3b a4 99 1d 3e cb 2f eb bc 7d bf 10 3d
       0.0028255521 0.1539064 -0.028709313 0.035338867
000080 5a 32 03 3e c5 db 06 bd b9 eb b4 bc 4d f1 b8 3c
       0.12812176 -0.032924432 -0.022085058 0.022575999
000090 bf 66 3c 3d 88 12 ae 3e 5d 91 ab 3d 12 89 a7 3d
       0.045996424 0.33998513 0.08377335 0.08180441
0000a0 82 8c 6f 3d 42 93 8b 3c a3 f0 af 3a ec 3c 87 3d
       0.058483608 0.017037991 0.0013423156 0.06603417
0000b0 68 54 87 bd 91 73 4a 3d 63 f2 32 bd a1 b1 74 3e
       -0.06607896 0.04942662 -0.04368819 0.23895885
0000c0 b7 11 9a 3e 66 fd bd 3e e8 7f ab 3b f1 4f a4 3d
       0.3009164 0.3710739 0.0052337535 0.0802306
0000d0 0e 94 43 3e c5 58 ac bd 16 bb 26 ba b4 5c 16 3e
       0.19099447 -0.08415369 -0.00063602754 0.14683801
0000e0 47 da 8e 3d 02 c1 7e 3d f5 f0 b0 bd be a9 d5 bd
       0.06975227 0.062195785 -0.08639709 -0.104327664
0000f0 80 c7 72 3c 51 2a ca 3c 07 9f c9 3c 5f 1a 1e bc
       0.014818072 0.024678381 0.024611963 -0.009649842
000100 78 99 a5 3d 14 44 e8 bc ac 3f dd 3c a1 58 8f 3e
       0.080859125 -0.028352775 0.0270079 0.27997306
000110 72 c8 9f 3a 11 34 90 bd 06 53 1e 3e f7 70 8b 3c
       0.0012190475 -0.07041181 0.15461358 0.01702164
000120 87 97 05 bd 02 34 ef 3d ce 7f 2f 3d 5a 5f a3 bc
       -0.03261521 0.116798416 0.042846493 -0.019942928
000130 9c 8a d5 bd 09 2a 80 bd f1 e1 c1 3c 4c 40 0a 3c
       -0.10426828 -0.062580176 0.023667308 0.008438181
000140 64 38 4b 3e 7a af 42 bd d0 91 8d bd 73 e1 05 bd
       0.1984573 -0.04753063 -0.06912577 -0.03268571
000150 35 8a c7 3c 7b ab 00 3d 32 75 90 3c 18 30 d2 bc
       0.024357894 0.031413537 0.017634008 -0.025657699
000160 fc 28 4b 3d ce 6e 29 3e 1a 7e a4 bd 83 06 1f 3e
       0.049599633 0.16546175 -0.080318645 0.15529828
000170 c2 47 98 3e f8 55 62 3e bd 37 c8 3c db 6c 42 3e
       0.29742247 0.22103107 0.02444064 0.18986838
000180 c9 eb 55 3c 98 c7 d8 3d 1e f5 af bd 86 17 2c 3e
       0.013056704 0.105849445 -0.08591674 0.16805848
000190 aa 1f 24 3d 76 b8 5c 3d d5 88 03 3d d0 a6 bc bd
       0.04006926 0.053886853 0.032112915 -0.092115045
0001a0 e2 60 01 ba 16 f5 ab bc 8b 84 b3 3d 41 34 4a 3e
       -0.0004935396 -0.02099089 0.08765515 0.19746496
0001b0 be 9e 9f bb f8 a8 4d 3c 8c 2d a5 3b 07 f0 06 bd
       -0.0048712185 0.012552492 0.00504083 -0.03294375
0001c0 6f 9c 33 3b eb de 6d bd c3 08 b4 bd 28 8a 96 bb
       0.0027406474 -0.05807392 -0.08790734 -0.004594106
0001d0 3a 99 89 3d a1 6e 71 3d 1c 74 a6 bd a0 89 89 bd
       0.06718679 0.058943395 -0.08127615 -0.06715703
0001e0 46 48 3c 3d d0 4a 71 bc 7d 89 5d bd 83 7e b4 bc
       0.045967363 -0.014727309 -0.054086197 -0.022032982
0001f0 18 0a 73 3d 6f 68 81 3d 07 35 3a bc 8f 08 51 3c
       0.059335798 0.06318747 -0.011365182 0.012758388
