MountCar/checkpoints/checkpoint_episode_600.pt (torch, 288314 bytes, 24 tensors)

net.0.weight f4 [128, 4]
-0.2667696 0.6916148 1.2789149 -0.10408862 0.7368539 0.034734804 0.5372283 0.3731391
-0.5916383 -0.50217575 -1.8129759 -0.1953764 0.38720912 0.3977876 0.7880211 0.37985608
-0.17612137 0.31578565 -0.48950887 0.06549347 0.2626805 0.5732186 1.3241351 0.551001
0.22503443 0.040344838 0.3481754 0.3484832 0.19369176 -0.27961516 -0.2712324 0.20232119
0.3600875 0.18889906 1.3477297 0.3791732 -0.32975686 -0.5157164 -1.1533618 -0.4416498
0.21310751 0.23981428 -0.513129 0.062259108 0.03369785 0.25154874 -0.5775995 0.08283051
-0.03972568 -0.27963784 -0.38494045 -0.25962353 -0.17480817 -0.10505268 0.1570169 -0.0017544595
-0.7030804 -0.87720203 -1.1064997 -0.7950194 0.57500386 0.42546216 0.7859846 0.33377096
0.17040008 0.16408427 -0.4790649 -0.15326263 0.42133355 -0.27661112 -0.7004086 -0.028018374
0.15961964 0.16994548 -0.044439185 0.060622368 -0.086614825 -0.031945065 -0.056814402 0.14013454
-0.16886517 -0.1074517 0.20825215 0.28516737 0.27332044 -0.3017126 1.0037533 -0.025749883
-0.85024023 -0.12856516 -0.20288202 -0.16090539 -0.24759796 0.13530983 0.12277056 0.1569912
0.11063041 -0.03390024 -0.33921543 0.4190243 -0.050719816 0.2138097 1.3590623 0.6200838
0.664741 0.024073604 0.7818412 0.43279397 -0.2230397 -0.24309541 -1.4217727 -0.18938495
-0.096603945 -0.26521778 -0.6856125 -0.30506292 -0.13726917 0.35976332 -0.17987853 0.0003271111
-0.29847485 -0.37902427 -0.2853301 -0.1729383 0.7264296 0.48319232 -0.0626719 -0.39828768
-0.07958044 -0.02611277 -0.09827704 -0.20477867 -0.26083678 0.04458267 -0.5683313 -0.14067592
0.4706187 0.31220856 -0.5981856 -0.20748691 -0.15142085 -0.7753293 -0.49871925 -0.56354254
0.07282819 0.2605274 0.31841543 0.29693127 -0.9090311 -0.5495445 -0.5972354 -0.40605682
0.31409004 -0.11714392 -0.2773346 -0.22000143 0.14941928 0.38255835 1.2114425 0.47526693
-0.28236455 -0.3107542 -0.6200773 -0.2660577 -0.1251137 -0.055115283 -0.23124292 -0.23243009
0.26338288 -0.6739554 -0.32816392 -0.35682455 0.45238006 -0.5151264 -0.4110165 0.03824303
0.27968606 0.35121027 0.09682367 0.24581642 0.16395137 0.112886176 0.4627358 0.23365694
0.48360303 -0.53519183 -0.6459151 0.08573128 -0.5953084 0.6442454 0.41656363 0.4790925
-0.87413555 -0.30658552 -1.9968765 -0.104661055 0.8166062 -0.27731702 -0.46483147 -0.29890028
0.5720696 0.2439587 1.0087309 0.48850226 0.317505 -0.106487714 -0.07070713 0.01866808
-0.25024575 -0.13721177 0.28072596 -0.03813359 0.28376347 -0.31204623 -0.3407667 -0.12754196
-0.2881394 0.63217473 0.12193989 0.40980867 0.11920843 0.10992614 -0.12734605 0.036285292
0.7667343 -0.45435655 0.1309689 -0.30617723 0.08721096 -0.4040774 -0.39114675 -0.14261112
0.33386177 -0.16363288 0.35064813 0.13217156 0.011198246 0.334707 -0.028248314 -0.21682034
-0.27171326 -0.7038418 -1.6880293 -0.57031035 -0.886103 -0.5969647 0.34331614 -0.19765994
-0.43214658 -0.33312857 -0.77424073 -0.53747046 0.29970768 0.69511765 0.5091596 0.51817
00000000: 0696 88be ab0d 313f 7cb3 a33f 6a2c d5bd
00000010: 75a2 3c3f 1546 0e3d cb87 093f 170c bf3e
00000020: 9c75 17bf 978e 00bf 980f e8bf c010 48be
00000030: 4640 c63e d1aa cb3e c0bb 493f 7f7c c23e
00000040: 2959 34be a8ae a13e e8a0 fabe 7121 863d
00000050: 0f7e 863e 74be 123f 427d a93f 670e 0d3f
00000060: 6d6f 663e a140 253d 0c44 b23e 646c b23e
00000070: 2257 463e b829 8fbe f9de 8abe 492d 4f3e
00000080: 645d b83e c16e 413e 6882 ac3f fd22 c23e
00000090: e4d5 a8be fd05 04bf 5ca1 93bf ec1f e2be
000000a0: db38 5a3e e091 753e 6c5c 03bf 6803 7f3d
000000b0: c206 0a3d ffca 803e 90dd 13bf 0ba3 a93d
000000c0: 65b7 22bd b12c 8fbe ea16 c5be 60ed 84be
000000d0: ea00 33be dc25 d7bd 0ac9 203e e4f5 e5ba
000000e0: 14fd 33bf 5090 60bf c8a1 8dbf 6486 4bbf
000000f0: 7433 133f 2dd6 d93e 4936 493f 07e4 aa3e
00000100: 5c7d 2e3e b505 283e ff47 f5be e1f0 1cbe
00000110: 08b9 d73e f99f 8dbe fa4d 33bf ca86 e5bc
00000120: 5573 233e 3006 2e3e dd05 36bd 294f 783d
00000130: 1d63 b1bd d4d8 02bd 38b6 68bd 6e7f 0f3e
00000140: feea 2cbe a30f dcbd 0d40 553e 7501 923e
00000150: a8f0 8b3e 137a 9abe fd7a 803f 6bf1 d2bc
00000160: 58a9 59bf 96a6 03be 4ec0 4fbe 62c4 24be
00000170: 528a 7dbe a98e 0a3e 226f fb3d 4dc2 203e
00000180: 3292 e23d fada 0abd a5ad adbe 5a8a d63e
00000190: 95bf 4fbd eef0 5a3e c1f5 ad3f d0bd 1e3f
000001a0: 772c 2a3f 0236 c53c bf26 483f 2c97 dd3e
000001b0: 8564 64be 01ee 78be a6fc b5bf 21ee 41be
000001c0: 4ad8 c5bd a0ca 87be 4d84 2fbf 3531 9cbe
000001d0: 4a90 0cbe e632 b83e 1432 38be 1c80 ab39
000001e0: b2d1 98be 780f c2be c916 92be bd16 31be
000001f0: 4af7 393f fc64 f73e 205a 80bd 5dec cbbe
00000200: 12fb a2bd 73ea d5bc 7945 c9bd 80b1 51be
00000210: 668c 85be 519c 363d 297e 11bf 590d 10be
00000220: eff4 f03e cdd9 9f3e b122 19bf 7377 54be
00000230: 110e 1bbe fb7b 46bf 2158 ffbe 5344 10bf
00000240: f226 953d d963 853e 5907 a33e 6007 983e
00000250: 43b6 68bf f3ae 0cbf 6be4 18bf aee6 cfbe
00000260: 69d0 a03e 27e9 efbd cdfe 8dbe 0e48 61be
00000270: 5e01 193e b0de c33e 8c10 9b3f 3056 f33e
00000280: 1692 90be 2d1b 9fbe 63bd 1ebf b738 88be
00000290: ce1d 00be 90c0 61bd f2ca 6cbe 2702 6ebe
000002a0: 1fda 863e 5788 2cbf 1a05 a8be b5b1 b6be
000002b0: 5c9e e73e 53df 03bf c170 d2be b9a4 1c3d
000002c0: 0333 8f3e d5d1 b33e 7d4b c63d 4db7 7b3e
000002d0: dee2 273e de30 e73d b5eb ec3e c443 6f3e
000002e0: d19a f73e 5502 09bf b15a 25bf e293 af3d
000002f0: 2266 18bf 44ed 243f d447 d53e 9d4b f53e
00000300: 59c7 5fbf c7f8 9cbe a699 ffbf 8958 d6bd
00000310: 1b0d 513f 7ffc 8dbe 64fe edbe 7509 99be
00000320: 2773 123f 4fd0 793e 181e 813f f81c fa3e
00000330: 0490 a23e 3b16 dabd e6ce 90bd cded 983c
00000340: 3620 80be 3e81 0cbe 50bb 8f3e f831 1cbd
00000350: 7249 913e 86c4 9fbe f978 aebe 5c9a 02be
00000360: 0287 93be 34d6 213f 9fbb f93d 71d2 d13e
00000370: 8d23 f43d f520 e13d 0167 02be e39f 143d
00000380: b348 443f 6ca1 e8be b61c 063e 43c3 9cbe
00000390: a99b b23d 3ce3 cebe 6344 c8be a608 12be
000003a0: eeef aa3e 618f 27be 2788 b33e fb57 073e
000003b0: d978 373c b75e ab3e 0269 e7bc 2706 5ebe
000003c0: 001e 8bbe fa2e 34bf 5811 d8bf dcff 11bf
000003d0: a5d7 62bf aed2 18bf 22c7 af3e 5e67 4abe
000003e0: 5142 ddbe d48f aabe a434 46bf aa97 09bf
000003f0: 4973 993e 3bf3 313f 4958 023f caa6 043f

net.0.bias f4 [128]
0.33151227 -0.20019907 0.10573675 -0.030281516 0.6188027 0.008127132 0.7989142 0.72971666
-0.060258284 -0.08395686 -0.026254633 0.7490262 0.5453378 0.49198106 0.10845092 0.0040116166
0.8482386 0.0402169 0.6318096 0.6042116 0.8859617 -0.31348696 1.05531 0.5902466
0.8738926 -0.09811824 -0.33191904 0.34060943 0.8438856 0.73137623 0.8989715 0.124250196
0.57150006 0.8024502 -0.6117183 0.3077943 0.5900376 -0.10989402 0.7647542 -0.280306
0.4886784 0.6603731 0.48875177 0.55492544 0.7392461 0.7748241 0.6603906 0.47367975
0.2967374 -0.20709866 0.12526706 0.7951251 -0.2823612 -0.0019722227 0.6146815 0.64037555
-0.041897167 0.48091754 0.7813303 0.817373 -0.12935291 -0.311185 -0.19481958 0.34477687
0.5817417 0.72002274 0.8614545 0.84491044 -0.074782975 0.6170804 0.25328285 0.20755225
0.68768877 0.68333673 -0.41676947 -0.27815247 0.82729644 0.782094 0.48146388 -0.2911843
-0.39705533 -0.11481079 0.2700693 -0.14632027 0.22685628 0.5303729 0.09189713 -0.15274444
0.4149249 -0.01603818 0.7301632 0.4204643 0.8175832 -0.04624326 0.55934304 0.00862792
-0.2649928 -0.09627835 0.68957824 0.01859175 0.48567918 0.792918 -0.28627995 0.76953447
-0.012408236 -0.4802411 0.72485983 0.036432162 -0.49559563 0.3710133 0.771915 0.08939005
-0.23141225 -0.24222404 0.36136824 0.59454453 -0.1209421 0.3503334 0.08406358 0.784551
0.7588805 -0.06353103 0.8582005 0.54426104 -0.38870555 0.20273255 0.64147174 0.5909759
00000000: fabb a93e fc00 4dbe 828c d83d f110 f8bc
00000010: db69 1e3f aa27 053c a485 4c3f b6ce 3a3f
00000020: 64d1 76bd 93f1 abbd f513 d7bc 2ec0 3f3f
00000030: 429b 0b3f f1e4 fb3e 841b de3d e173 833b
00000040: 2a26 593f 7aba 243d 46be 213f 9dad 1a3f
00000050: 63ce 623f 5d81 a0be 6614 873f 671a 173f
00000060: 6db7 5f3f 37f2 c8bd 4bf1 a9be 5c64 ae3e
00000070: e308 583f 793b 3b3f ff22 663f e376 fe3d
00000080: d44d 123f 606d 4d3f 9299 1cbf 3797 9d3e
00000090: b40c 173f 1e10 e1bd eec6 433f 4584 8fbe
000000a0: 0e34 fa3e 360e 293f ac3d fa3e 980f 0e3f
000000b0: 3b3f 3d3f df5a 463f 5c0f 293f 2786 f23e
000000c0: f7ed 973e ac11 54be 0246 003e 528d 4b3f
000000d0: a691 90be 6840 01bb c45b 1d3f a7ef 233f
000000e0: 5d9c 2bbd d33a f63e 4305 483f 5b3f 513f
000000f0: 1775 04be a453 9fbe c97e 47be 9886 b03e
00000100: 06ed 143f 6953 383f 4888 5c3f 0d4c 583f
00000110: d127 99bd fbf8 1d3f 4aae 813e 9488 543e
00000120: 5f0c 303f 28ef 2e3f cf62 d5be 006a 8ebe
00000130: b3c9 533f 5037 483f 6f82 f63e 1c16 95be
00000140: d64a cbbe eb21 ebbd 8646 8a3e fbd4 15be
00000150: 034d 683e 85c6 073f 9034 bc3d 0a69 1cbe
00000160: 0971 d43e 8062 83bc faeb 3a3f 1947 d73e
00000170: 224d 513f 9369 3dbd 1b31 0f3f 1f5c 0d3c
00000180: 23ad 87be 952d c5bd 3388 303f ba4d 983c
00000190: f1aa f83e adfc 4a3f 4993 92be 3600 453f
000001a0: ea4b 4bbc 29e2 f5be 6a90 393f e439 153d
000001b0: b6be fdbe 75f5 bd3e 399c 453f 2112 b73d
000001c0: 55f7 6cbe 9409 78be 4205 b93e 1234 183f
000001d0: 7eb0 f7bd e65e b33e 8729 ac3d 56d8 483f
000001e0: fe45 423f 8f1c 82bd 07b3 5b3f b154 0b3f
000001f0: 6a04 c7be 1f99 4f3e 7e37 243f 324a 173f

net.2.weight f4 [128, 128]
0.18635339 -0.20751464 -0.78414047 -0.25151196 0.07500391 -0.36771154 -0.046531677 -0.10316746
-0.35013726 -0.7323725 -0.19415796 0.14106485 -0.23385388 -0.15164292 -0.67614865 -0.18603325
-0.010483569 0.33320707 0.1222421 0.06860732 -0.09773987 -0.15606162 -0.49530876 0.00812374
-0.024729807 -0.5204391 -0.14721832 -0.88007087 -0.027010841 0.16595314 -0.20016773 0.028431173
-0.08719565 0.0753132 -0.1497834 -0.70598704 0.109978855 -0.60424155 0.18015328 -0.41306564
-0.6609121 -0.15560003 -0.16614413 -0.118599206 0.15830636 0.06777752 -0.103893384 0.017278315
-0.5703063 -0.40443748 -0.13066216 0.14693187 -0.1426779 -0.12198063 0.123230144 0.1323188
-0.33757356 -0.19282664 0.039158847 0.06514097 -0.87068796 -0.35948712 -0.44074622 0.007175122
0.15790926 0.087252855 0.06390917 -0.19774261 -0.6835769 0.2105697 -0.04285977 -0.14968424
0.18832424 0.049672134 -0.29658288 -0.3979079 -0.028136674 0.0504224 0.096804336 -0.25435367
0.050215755 -0.17853643 -0.6685877 -0.39650008 -0.02440654 -0.16829738 -0.16246644 -0.5913085
-0.22306767 -0.20566784 0.2160672 0.05269786 -0.18542571 -0.120808594 0.02646183 -0.14935961
-0.18254904 0.20940112 -0.1548546 -0.013906968 0.0071477117 -0.30778205 -0.0734126 -0.10018414
-0.37707642 -0.011440488 -0.16167206 -0.39816278 0.043100536 0.06333833 0.11271592 -0.14662513
-0.38237286 -0.43384615 -0.1695339 0.08254694 -0.17735034 0.029822856 -0.28076592 -0.13731745
-0.338326 0.10104503 -0.39644656 0.07101651 -0.06442279 -0.4325043 0.012087878 0.040955298
0.2423937 -0.18185079 -0.12651217 -0.2080034 0.3519684 -0.36686468 0.2858116 0.43531585
-0.5151899 -0.24913397 -0.26869473 0.41927364 0.3617159 0.27712247 0.4203891 -0.14925557
0.23230085 0.20796406 0.30865288 0.41713622 0.37961343 -0.46480513 -0.11181766 0.3797959
0.44517833 -0.6260945 -0.1547373 -0.38246372 0.38046 0.47991347 0.47877127 -0.111411005
0.34435186 0.5481766 -0.20427573 -0.3876007 0.28450978 -0.043823782 0.4147092 -0.69983405
-0.05385716 0.4077265 0.24500486 0.452409 0.23424454 0.2869187 0.34296665 -0.13059115
0.14016767 -0.37393463 -0.22136997 0.48063686 -0.31258357 0.38353738 0.28052172 0.42258945
-0.39392412 0.38444003 0.38811827 0.36487916 -0.4054283 -0.11608656 -0.22693385 0.08813721
0.16848241 0.2875951 0.29920062 0.3915212 0.011929679 0.39454654 0.049616996 0.35816333
0.26941487 0.4566867 -0.47705677 -0.4440916 0.42813766 0.26383108 0.41477743 -0.38148102
0.010742167 -0.07598637 0.31706375 -0.01000929 -0.05229944 -0.121098444 0.31994456 -0.19257651
0.38128796 -0.16426295 0.30190122 0.19477388 -0.057213664 -0.22752877 0.056141287 -0.009847624
-0.1559348 0.4004932 0.4832242 0.15864974 0.32317647 0.2873898 -0.10201975 0.36127678
-0.8386523 -0.23900898 0.4042959 -0.28080535 0.039424676 0.1692308 0.3555308 -0.08874053
-0.05201219 -0.610645 0.47547492 0.24483965 -0.085332 0.2358955 0.011012982 0.47640345
-0.11274836 0.001017974 -0.233532 0.4137689 -0.046047475 -0.046779376 0.2895836 0.4087593
00000000: 6cd3 3e3e b87e 54be 6ebd 48bf 2dc6 80be
00000010: a69b 993d b044 bcbe 0098 3ebd 7649 d3bd
00000020: 3145 b3be c47c 3bbf 58d1 46be 4e73 103e
00000030: 6477 6fbe 4848 1bbe 1418 2dbf 807f 3ebe
00000040: 47c3 2bbc 1e9a aa3e 115a fa3d ff81 8c3d
00000050: d72b c8bd 9ece 1fbe 1c99 fdbe 6f19 053c
00000060: 2a96 cabc 7f3b 05bf 66c0 16be 534c 61bf
00000070: d745 ddbc 9fef 293e c5f8 4cbe 7ee8 e83c
00000080: a293 b2bd cf3d 9a3d d260 19be 91bb 34bf
00000090: 983c e13d 93af 1abf 1a7a 383e 577d d3be
000000a0: 8931 29bf 9d55 1fbe b021 2abe 24e4 f2bd
000000b0: 101b 223e f1ce 8a3d 0ec6 d4bd 418b 8d3c
000000c0: 98ff 11bf 6e12 cfbe 4dcc 05be 4f75 163e
000000d0: 281a 12be fbd0 f9bd 1660 fc3d 947e 073e
000000e0: 71d6 acbe 5974 45be 0765 203d a168 853d
000000f0: 68e5 5ebf b20e b8be 7da9 e1be 491d eb3b
00000100: f7b2 213e a0b1 b23d d0e2 823d 0a7d 4abe
00000110: e5fe 2ebf 959f 573e ba8d 2fbd d346 19be
00000120: 12d8 403e 0275 4b3d b6d9 97be 96ba cbbe
00000130: e27e e6bc b887 4e3d 5a41 c63d a53a 82be
00000140: 09af 4d3d 41d2 36be 9028 2bbf 0f02 cbbe
00000150: 39f0 c7bc 2656 2cbe 9a5d 26be fe5f 17bf
00000160: da6b 64be 979a 52be b840 5d3e b6d9 573d
00000170: 3de0 3dbe 7f6a f7bd 7bc6 d83c baf1 18be
00000180: 23ee 3abe 3f6d 563e 3492 1ebe 0dda 63bc
00000190: 5a37 ea3b 9c95 9dbe 5859 96bd 582d cdbd
000001a0: 2910 c1be e270 3bbc 5c8d 25be fedb cbbe
000001b0: 308a 303d 87b7 813d 9bd7 e63d e624 16be
000001c0: 60c6 c3be 1521 debe 4b9a 2dbe 5f0e a93d
000001d0: 549b 35be 104f f43c 8dc0 8fbe f29c 0cbe
000001e0: 1139 adbe b2f0 ce3d 0bfb cabe 1b71 913d
000001f0: 19f0 83bd 3471 ddbe 3c0c 463c bec0 273d
00000200: 0e36 783e 1837 3abe 688c 01be d8fe 54be
00000210: 3435 b43e b0d5 bbbe e655 923e b8e1 de3e
00000220: 7ce3 03bf fa1c 7fbe 5b92 89be 09ab d63e
00000230: d432 b93e ffe2 8d3e 3d3d d73e 74d6 18be
00000240: 46e0 6d3e 88f4 543e c007 9e3e e192 d53e
00000250: b15c c23e f0fa edbe a800 e5bd 9c74 c23e
00000260: 6aee e33e bb47 20bf 7473 1ebe 49d2 c3be
00000270: a7cb c23e 38b7 f53e 8221 f53e 742b e4bd
00000280: e34e b03e 4d55 0c3f a82d 51be 9973 c6be
00000290: 44ab 913e 9180 33bd c454 d43e 5328 33bf
000002a0: 5399 5cbd 87c1 d03e 8ee2 7a3e 27a2 e73e
000002b0: cddd 6f3e 02e7 923e 5399 af3e b0b9 05be
000002c0: 1d88 0f3e 5c74 bfbe cfae 62be 0916 f63e
000002d0: f40a a0be 035f c43e 8ba0 8f3e a55d d83e
000002e0: 6cb0 c9be 53d5 c43e 70b7 c63e 71d1 ba3e
000002f0: 4c94 cfbe cabe edbd 5961 68be 4881 b43d
00000300: a786 2c3e aa3f 933e d330 993e 7775 c83e
00000310: b374 433c 0102 ca3e 313b 4b3d 2f61 b73e
00000320: bff0 893e d7d2 e93e c940 f4be f95f e3be
00000330: dc34 db3e de14 873e b55d d43e 7b51 c3be
00000340: eaff 2f3c be9e 9bbd 2e56 a23e 01fe 23bc
00000350: f037 56bd 7602 f8bd c6cf a33e c732 45be
00000360: 2d38 c33e 8c34 28be cc92 9a3e ce72 473e
00000370: e058 6abd 4dfd 68be 68f4 653d ee57 21bc
00000380: 5fad 1fbe 720d cd3e 2a69 f73e 1475 223e
00000390: 6377 a53e c224 933e bbef d0bd 45f9 b83e
000003a0: ebb1 56bf c5be 74be dfff ce3e b8c5 8fbe
000003b0: c57b 213d d74a 2d3e 2208 b63e 98bd b5bd
000003c0: bc0a 55bd 3b53 1cbf 7371 f33e 3fb7 7a3e
000003d0: 8bc2 aebd 978e 713e cb6f 343c 27eb f33e
000003e0: 9de8 e6bd 8a6d 853a 0323 6fbe 84d9 d33e
000003f0: 479c 3cbd bb9b 3fbd 4d44 943e e648 d13e

net.2.bias f4 [128]
0.030468846 0.34800974 0.07084759 0.13190314 0.47767738 0.025111444 0.12999478 0.04779493
0.004804664 0.11317979 0.09147277 0.13132508 0.36513802 0.035534594 -0.13236807 0.19221607
0.39571652 0.22502513 0.42741564 -0.027956625 0.054225907 0.16710077 -0.08083565 0.11692967
0.07621251 0.05730081 0.28445387 0.055770364 -0.013238311 -0.11408193 0.06660771 0.040522553
0.3604931 0.13486926 0.07193331 0.013739008 0.0920675 0.18484259 0.05550356 -0.014998599
0.3477081 0.06837434 0.113179825 0.10454878 0.40910882 0.25965837 -0.036889013 0.08984121
0.029889947 0.06110873 0.46940207 0.032144155 0.06770808 -0.08190897 0.37020794 0.4695679
0.4102626 0.029342748 0.13997999 0.05359818 0.3685771 -0.041348018 0.13215983 -0.010543253
-0.06968112 0.057178542 -0.08496564 0.39032832 0.41030973 0.10633225 0.025537862 0.28225654
0.19212118 0.119774275 -0.06682681 0.0037913225 -0.0082342215 -0.045568366 -0.022485312 0.06318622
0.3602518 -0.11157496 0.115280524 -0.06382051 -0.030343007 -0.031188374 -0.06542147 0.4571962
0.3260101 0.18813752 0.013205285 0.12498833 0.016288646 -0.017469555 0.008702431 0.017362323
-0.04683706 0.14483854 0.12935731 0.122755945 0.0515644 0.12652342 0.03925688 -0.01444193
0.018783193 0.40491056 0.16661721 0.2699075 0.0858332 0.43933207 0.06644877 0.038133148
-0.06755632 0.2818149 0.052590605 -0.039968338 0.059685603 0.07991807 -0.054892827 -0.008093291
0.08316097 0.15450619 0.09607458 0.23091769 0.09810232 0.4407515 0.015316729 0.0648638
00000000: cd99 f93c 552e b23e 8b18 913d 9e11 073e
00000010: 2192 f43e 84b6 cd3c 5a1d 053e 9ec4 433d
00000020: 7170 9d3b ceca e73d 1356 bb3d 157a 063e
00000030: 5ff3 ba3e b98c 113d 7f8b 07be 4ad4 443e
00000040: 5b9b ca3e fd6c 663e 39d6 da3e 4b05 e5bc
00000050: fc1b 5e3d 771c 2b3e 298d a5bd d378 ef3d
00000060: 4e15 9c3d 41b4 6a3d f0a3 913e 776f 643d
00000070: 80e5 58bc c9a3 e9bd a069 883d fafa 253d
00000080: 8d92 b83e 2b1b 0a3e c551 933d 9419 613c
00000090: e38d bc3d 6047 3d3e b357 633d afbc 75bc
000000a0: cc06 b23e d907 8c3d d3ca e73d ac1d d63d
000000b0: b676 d13e f1f1 843e ef18 17bd abfe b73d
000000c0: c3db f43c 264d 7a3d 7855 f03e 97a9 033d
000000d0: 89aa 8a3d e4bf a7bd e58b bd3e 346b f03e
000000e0: f10d d23e 3460 f03c ea56 0f3e c489 5b3d
000000f0: 23b6 bc3e 8a5c 29bd e854 073e 9cbd 2cbc
00000100: fab4 8ebd 0c34 6a3d 7702 aebd 1dd9 c73e
00000110: 1e14 d23e b9c4 d93d c734 d13c ee83 903e
00000120: 6abb 443e 374c f53d 7fdc 88bd d677 783b
00000130: d4e8 06bc e5a5 3abd 1e33 b8bc c767 813d
00000140: ed72 b83e 6a81 e4bd 3218 ec3d 54b4 82bd
00000150: e691 f8bc c37e ffbc b1fb 85bd 9f15 ea3e
00000160: ccea a63e 1fa7 403e fb5a 583c e2f9 ff3d
00000170: c46f 853c 501c 8fbc a494 0e3c 6e3b 8e3c
00000180: 38d8 3fbd 8e50 143e 3e76 043e 7867 fb3d
00000190: 3135 533d 5b8f 013e d2cb 203d d89d 6cbc
000001a0: 36df 993c 7050 cf3e b49d 2a3e 5131 8a3e
000001b0: 51c9 af3d 22f0 e03e 4b16 883d 8131 1c3d
000001c0: f85a 8abd 0b4a 903e 3f69 573d d7b5 23bd
000001d0: e478 743d 16ac a33d 4dd7 60bd b999 04bc
000001e0: 4c50 aa3d df36 1e3e c0c2 c43d b075 6c3e
000001f0: dfe9 c83d 2eaa e13e 05f3 7a3c 50d7 843d

net.4.weight f4 [2, 128]
0.3878637 0.45020834 0.63271946 0.58297867 0.43384635 0.05776453 0.53147674 -0.40407532
-0.4602643 0.3879881 0.104673736 0.41609406 0.47960106 -0.21837723 -0.57169086 -0.16928506
0.5494988 -0.044256248 0.47705445 0.062554434 0.32741705 0.079405054 0.014450243 0.5675526
0.53747416 -0.199665 0.08882295 0.30596513 0.21154164 -0.50531447 -0.44123477 0.3279665
0.4596094 0.35104346 0.2912506 -0.07242252 0.29109326 0.47702605 0.33792135 0.34451362
0.40904078 0.35327914 0.33566687 0.46080497 0.46656492 0.41263646 -0.14789104 0.4578318
0.41237694 0.33157235 0.4055947 -0.32305366 -0.51214206 0.0066753426 0.41947037 0.45172116
0.429977 -0.8290626 0.3996059 0.558794 0.52556074 -0.32997066 0.3189213 0.3715943
-0.25976536 0.499902 -0.6782427 0.4981852 0.41143402 0.3124696 0.39142552 0.4055379
-0.44983017 -0.45959362 -0.054261286 -0.5436527 -0.022902995 -0.082771815 0.04097555 -0.28317288
0.40164408 -0.70385474 -0.5702754 -0.32902592 -0.08017892 0.012861463 -0.4989309 0.45177424
0.52822095 0.4093866 -0.4569412 0.80907214 -0.5662305 -0.048588842 0.05502842 0.3363326
-0.070914246 -0.5839851 0.29597163 0.425083 -0.20381045 0.372298 0.43077996 -0.3034031
-0.029074129 0.4250141 0.49176756 0.49541306 0.24402006 0.46128166 -0.4105004 -0.559807
-0.047166057 0.38894922 0.55516374 -0.05871587 -0.48956835 0.44846526 -0.32080457 -0.0714019
-0.076231346 0.17032404 0.636181 0.44932264 0.26880783 0.38789567 0.50163275 0.5881059
0.3528342 0.42890185 0.4458982 0.60175306 0.41792193 0.5225912 0.40100235 -0.25120595
-0.46716502 0.41635996 0.24037786 0.2841002 0.39135197 -0.3554514 -0.7393768 -0.4256825
0.5186705 -0.35718238 0.4921307 0.060116302 0.36583462 -0.09210159 0.0844763 0.46643326
0.62085956 -0.355027 -0.4275684 0.36560652 0.31079087 -0.5107906 -0.18670212 0.19012284
0.48076677 0.25938815 0.24247658 -0.08713119 0.30479994 0.49168426 0.38142762 0.40487742
0.438619 0.3912149 0.33824658 -0.23788342 0.52365077 0.4773459 -0.37654173 0.19940545
0.37710166 0.30624595 0.46652228 -0.37792116 -0.25320843 -0.024471859 0.47907975 0.4100538
0.42498463 -0.77760535 0.3467642 -0.18318766 0.54289794 -0.33877748 0.2492349 0.34392792
-0.5438922 0.42945096 -0.64863783 0.50543416 0.48901302 0.23896107 0.47128 0.46777958
-0.35656795 -0.24168873 -0.0548725 -0.49004433 -0.058722958 -0.054851484 0.043878067 -0.3025716
0.4941354 -0.48423252 -0.4484656 -0.33591455 -0.0021205205 -0.083553694 -0.38304967 0.47829378
0.52770513 0.42058966 -0.23627244 0.6472703 -0.7754684 -0.080400795 -0.03152507 0.25726652
0.2347585 -0.61731046 0.26245004 0.4342561 -0.25778505 0.37117544 0.37426803 -0.18079993
-0.046523407 0.4467602 0.48651287 0.5365923 0.30800644 0.41729286 -0.07223061 -0.49123052
-0.34529433 0.5487794 0.7748402 0.024358869 -0.3656656 0.31345248 -0.27618352 -0.07030012
-0.29126504 0.14827158 0.5710362 0.444757 0.38549745 0.46620512 0.43338588 0.58098584
00000000: 1296 c63e b581 e63e e7f9 213f 173e 153f
00000010: 1c21 de3e 809a 6c3d dc0e 083f f6e2 cebe
00000020: c3a7 ebbe 60a6 c63e 2f5f d63d 480a d53e
00000030: 458e f53e 489e 5fbe 555a 12bf 1059 2dbe
00000040: f4ab 0c3f 0a46 35bd 7b40 f43e 8a1c 803d
00000050: 35a3 a73e 1e9f a23d b6c0 6c3c 214b 113f
00000060: e897 093f fb74 4cbe cfe8 b53d 76a7 9c3e
00000070: 5f9e 583e 4a5c 01bf 86e9 e1be 3aeb a73e
00000080: ec51 eb3e f8bb b33e cc1e 953e 4252 94bd
00000090: 2d0a 953e c23c f43e 0704 ad3e 1764 b03e
000000a0: cb6d d13e 01e1 b43e 87dc ab3e a1ee eb3e
000000b0: 99e1 ee3e 1645 d33e c070 17be ee68 ea3e
000000c0: 1223 d33e dac3 a93e 1caa cf3e 4a67 a5be
000000d0: be1b 03bf d5bc da3b d2c4 d63e ff47 e73e
000000e0: f225 dc3e 723d 54bf 2599 cc3e 200d 0f3f
000000f0: 268b 063f eaf1 a8be a749 a33e 9c41 be3e
00000100: f7ff 84be 28f3 ff3e 50a1 2dbf 2112 ff3e
00000110: 7ba7 d23e 04fc 9f3e ed68 c83e aaa2 cf3e
00000120: 2450 e6be db4f ebbe 1541 5ebd d32c 0bbf
00000130: 109f bbbc 4584 a9bd fad5 273d 09fc 90be
00000140: 4ba4 cd3e d32f 34bf 92fd 11bf 1676 a8be
00000150: d834 a4bd e3b8 523c df73 ffbe f44e e73e
00000160: 7d39 073f 1f9b d13e 32f4 e9be 5a1f 4f3f
00000170: 7bf4 10bf 1805 47bd 7b65 613d c933 ac3e
00000180: 7d3b 91bd 0c80 15bf 9889 973e 7ba4 d93e
00000190: b0b3 50be d89d be3e 318f dc3e a757 9bbe
000001a0: de2c eebc 739b d93e f5c8 fb3e c8a6 fd3e
000001b0: 65e0 793e 1c2d ec3e 1c2d d2be 834f 0fbf
000001c0: 3231 41bd 5a24 c73e 361f 0e3f 0d80 70bd
000001d0: b4a8 fabe 3d9d e53e 7f40 a4be 293b 92bd
000001e0: 2e1f 9cbd 6d69 2e3e c2dc 223f 9e0d e63e
000001f0: 2ea1 893e 439a c63e 016b 003f 1c8e 163f
00000200: afa6 b43e 0699 db3e c54c e43e 7d0c 1a3f
00000210: ddf9 d53e 89c8 053f 2e50 cd3e 119e 80be
00000220: 4130 efbe 222d d53e 9d25 763e 9575 913e
00000230: 495f c83e bafd b5be cc47 3dbf 0ef3 d9be
00000240: 97c7 043f 9ce0 b6be 8ef8 fb3e 833c 763d
00000250: ad4e bb3e c29f bcbd e901 ad3d 57d0 ee3e
00000260: a7f0 1e3f 19c6 b5be 3fea dabe c730 bb3e
00000270: fb1f 9f3e 2cc3 02bf d72e 3fbe 90af 423e
00000280: 1027 f63e 86ce 843e c84b 783e d671 b2bd
00000290: bd0e 9c3e 0abe fb3e 7b4a c33e 184c cf3e
000002a0: ab92 e03e 524d c83e a82e ad3e b697 73be
000002b0: fa0d 063f af66 f43e 14ca c0be f130 4c3e
000002c0: 7813 c13e 45cc 9c3e 02dc ee3e e27e c1be
000002d0: 89a4 81be 3579 c8bc f149 f53e 92f2 d13e
000002e0: 9697 d93e 2511 47bf 148b b13e 8c95 3bbe
000002f0: 5cfb 0a3f 3e74 adbe 6f37 7f3e 5217 b03e
00000300: 853c 0bbf ffe0 db3e 210d 26bf 2264 013f
00000310: ea5f fa3e 36b2 743e 9d4b f13e ce80 ef3e
00000320: 1390 b6be 407d 77be fdc1 60bd 17e7 fabe
00000330: 7c87 70bd f3ab 60bd 7db9 333d aaea 9abe
00000340: 51ff fc3e 53ed f7be 489d e5be fefc abbe
00000350: 6ef8 0abb 331e abbd 161f c4be ece2 f43e
00000360: af17 073f 8757 d73e 67f1 71be 82b3 253f
00000370: 1985 46bf 2ca9 a4bd 6f20 01bd 70b8 833e
00000380: 8864 703e 0f08 1ebf da5f 863e d156 de3e
00000390: 67fc 83be b50a be3e 0fa0 bf3e 9e23 39be
000003a0: 548f 3ebd c1bd e43e 3718 f93e 1d5e 093f
000003b0: 05b3 9d3e 69a7 d53e a4ed 93bd 9182 fbbe
000003c0: 6bca b0be cf7c 0c3f ed5b 463f 408c c73c
000003d0: 8638 bbbe d87c a03e ed67 8dbe 82f9 8fbd
000003e0: b120 95be 81d4 173e 6e2f 123f 31b7 e33e
000003f0: ec5f c53e 70b2 ee3e c1e4 dd3e 7dbb 143f

net.4.bias f4 [2]
0.27531344 0.21362142
00000000: e2f5 8c3e 93bf 5a3e

net.0.weight f4 [128, 4]
-0.26679322 0.6915959 1.2789152 -0.104069576 0.7368718 0.03476659 0.537208 0.37311846
-0.5916432 -0.5021751 -1.8129774 -0.19537856 0.38722733 0.39781684 0.78798956 0.3798321
-0.17613864 0.31575558 -0.48947906 0.06551947 0.2626997 0.5732546 1.3241003 0.5509696
0.22501892 0.04031965 0.3482009 0.34850562 0.19367425 -0.27964675 -0.27120048 0.20234857
0.3601059 0.18893117 1.3477 0.37914798 -0.32975686 -0.5157164 -1.1533618 -0.4416498
0.2131241 0.23984206 -0.5131511 0.062233206 0.033680093 0.25151664 -0.5775676 0.08285835
-0.039744414 -0.27967212 -0.38490766 -0.25959346 -0.17482264 -0.10507238 0.15707251 -0.0017362837
-0.7030904 -0.87723607 -1.1064804 -0.79500085 0.5750224 0.42549405 0.78595227 0.3337437
0.170382 0.16404963 -0.47903147 -0.15323335 0.4213152 -0.2766505 -0.7003851 -0.027984373
0.15960298 0.16991529 -0.04440945 0.06064787 -0.08663168 -0.031973578 -0.056785535 0.14015956
-0.16888177 -0.10747915 0.20827983 0.2851919 0.2733303 -0.30172247 1.0037518 -0.025751162
-0.8502391 -0.1285419 -0.20295481 -0.16096567 -0.24761526 0.13528542 0.12279383 0.15701388
0.110613495 -0.03392949 -0.33918542 0.41904992 -0.05075838 0.2137806 1.3590248 0.6200772
0.66475827 0.024101973 0.78182274 0.43277732 -0.22304453 -0.24311756 -1.4218249 -0.18940328
-0.09662228 -0.2652506 -0.6855809 -0.30503437 -0.13728629 0.35973334 -0.17984869 0.00035300877
-0.29848668 -0.37903234 -0.28531036 -0.17292029 0.7264478 0.48321506 -0.06269534 -0.39831161
-0.07959837 -0.026144778 -0.098246165 -0.20475096 -0.26085445 0.04455224 -0.56830186 -0.14064942
0.47063598 0.31223336 -0.59820354 -0.20750493 -0.15139866 -0.7753179 -0.49874473 -0.56357205
0.072813995 0.26050785 0.31843567 0.29694924 -0.9090311 -0.5495445 -0.5972354 -0.40605682
0.31407157 -0.117179394 -0.2773006 -0.21997085 0.14941263 0.38257763 1.2114199 0.47528553
-0.28235358 -0.31075045 -0.62013763 -0.2660972 -0.12513205 -0.055148587 -0.23121141 -0.23240122
0.26336408 -0.67398596 -0.32812625 -0.3567927 0.45236146 -0.51516205 -0.4109815 0.038273975
0.2796709 0.35118437 0.09685026 0.24583848 0.16393483 0.11285758 0.4627653 0.23368238
0.4835844 -0.53522795 -0.64588034 0.085762404 -0.59520024 0.6443647 0.4164537 0.47896302
-0.8741671 -0.30663317 -1.9969383 -0.10467184 0.8166228 -0.27728793 -0.46484917 -0.29892188
0.57208943 0.24399647 1.0086956 0.4884697 0.31748745 -0.106519006 -0.070675075 0.018695438
-0.25024575 -0.13721177 0.28072596 -0.03813359 0.28374714 -0.31207454 -0.34074473 -0.12751333
-0.28814974 0.6321589 0.12195722 0.40982267 0.119191095 0.10989588 -0.12731521 0.03631197
0.7667506 -0.45433113 0.13095076 -0.30619937 0.087193474 -0.40410456 -0.39111254 -0.14258301
0.33384478 -0.1636629 0.35067886 0.132198 0.011180649 0.33467457 -0.028216321 -0.21679246
-0.27171326 -0.7038418 -1.6880293 -0.57031035 -0.8861031 -0.5969684 0.3433163 -0.19765934
-0.43214658 -0.33312857 -0.77424073 -0.53747046 0.29973125 0.69515634 0.509118 0.5181267
00000000: 1f99 88be 6e0c 313f 7eb3 a33f 6e22 d5bd
00000010: a1a3 3c3f 6967 0e3d 7786 093f 6209 bf3e
00000020: ee75 17bf 8c8e 00bf a50f e8bf 5111 48be
00000030: a942 c63e a6ae cb3e afb9 493f 5a79 c23e
00000040: b05d 34be b7aa a13e 009d fabe 122f 863d
00000050: 9380 863e d0c0 123f 1e7c a93f 580c 0d3f
00000060: 5c6b 663e 3826 253d 6347 b23e 546f b23e
00000070: 8b52 463e dc2d 8fbe cada 8abe 7734 4f3e
00000080: cd5f b83e 2c77 413e 6f81 ac3f af1f c23e
00000090: e4d5 a8be fd05 04bf 5ca1 93bf ec1f e2be
000000a0: 343d 5a3e 2899 753e df5d 03bf 3fe8 7e3d
000000b0: 23f4 093d cac6 803e 78db 13bf a3b1 a93d
000000c0: 0acb 22bd 2f31 8fbe 9e12 c5be 6fe9 84be
000000d0: b504 33be 3030 d7bd 9ed7 203e 0394 e3ba
000000e0: bcfd 33bf 8b92 60bf 26a1 8dbf 2d85 4bbf
000000f0: ab34 133f 5bda d93e 2b34 493f 74e0 aa3e
00000100: 9e78 2e3e a0fc 273e 9d43 f5be 34e9 1cbe
00000110: a0b6 d73e 22a5 8dbe 704c 33bf 7c3f e5bc
00000120: f76e 233e 46fe 2d3e afe6 35bd e769 783d
00000130: f36b b1bd baf6 02bd f397 68bd fd85 0f3e
00000140: 58ef 2cbe 071e dcbd 4f47 553e ac04 923e
00000150: f3f1 8b3e 5e7b 9abe f07a 803f 1af4 d2bc
00000160: 45a9 59bf 7da0 03be 63d3 4fbe 2fd4 24be
00000170: db8e 7dbe 4388 0a3e 557b fb3d 3fc8 203e
00000180: 5489 e23d a6f9 0abd b6a9 adbe b68d d63e
00000190: 05e8 4fbd 4de9 5a3e 86f4 ad3f 61bd 1e3f
000001a0: 992d 2a3f 8071 c53c 8925 483f fd94 dd3e
000001b0: c965 64be cff3 78be 5cfe b5bf eff2 41be
000001c0: e7e1 c5bd edce 87be 3b82 2fbf 772d 9cbe
000001d0: c794 0cbe f82e b83e 412a 38be 0914 b939
000001e0: 3fd3 98be 8710 c2be 3314 92be 0412 31be
000001f0: 7cf8 393f f767 f73e 6a66 80bd 80ef cbbe
00000200: 7804 a3bd 932d d6bc 4935 c9bd 3caa 51be
00000210: b78e 85be 697c 363d 3b7c 11bf 6706 10be
00000220: 33f7 f03e 0ddd 9f3e de23 19bf 2c7c 54be
00000230: 4008 1bbe 3c7b 46bf 785b ffbe 4246 10bf
00000240: 811f 953d 4961 853e 000a a33e bb09 983e
00000250: 43b6 68bf f3ae 0cbf 6be4 18bf aee6 cfbe
00000260: fdcd a03e c0fb efbd 58fa 8dbe 0a40 61be
00000270: a0ff 183e 37e1 c33e cf0f 9b3f a058 f33e
00000280: a690 90be af1a 9fbe 57c1 1ebf e43d 88be
00000290: 9e22 00be 7ce3 61bd afc2 6cbe 96fa 6dbe
000002a0: a8d7 863e 588a 2cbf 2a00 a8be 88ad b6be
000002b0: ec9b e73e a9e1 03bf 2b6c d2be 2cc5 1c3d
000002c0: 0631 8f3e 70ce b33e 6e59 c63d 15bd 7b3e
000002d0: 88de 273e e021 e73d 93ef ec3e 6f4a 6f3e
000002e0: 6098 f73e b304 09bf 6a58 25bf 33a4 af3d
000002f0: 0b5f 18bf 16f5 243f 6b39 d53e a43a f53e
00000300: 6ac9 5fbf 06ff 9cbe ad9b ffbf 315e d6bd
00000310: 310e 513f aff8 8dbe b600 eebe 4a0c 99be
00000320: 7474 123f 36da 793e f01c 813f b318 fa3e
00000330: b78d a23e a326 dabd 18be 90bd 2d27 993c
00000340: 3620 80be 3e81 0cbe 50bb 8f3e f831 1cbd
00000350: 4e47 913e 3cc8 9fbe 1876 aebe db92 02be
00000360: 5d88 93be 2ad5 213f b5c4 f93d 47d4 d13e
00000370: 761a f43d 1711 e13d eb5e 02be dcbb 143d
00000380: c449 443f 179e e8be f517 063e 2ac6 9cbe
00000390: 7e92 b23d cbe6 cebe e73f c8be 4801 12be
000003a0: b4ed aa3e 3f97 27be 2e8c b33e ea5e 073e
000003b0: 0a2f 373c 775a ab3e ea25 e7bc d8fe 5dbe
000003c0: 001e 8bbe fa2e 34bf 5811 d8bf dcff 11bf
000003d0: a7d7 62bf ecd2 18bf 27c7 af3e 3667 4abe
000003e0: 5142 ddbe d48f aabe a434 46bf aa97 09bf
000003f0: 6076 993e c4f5 313f 8f55 023f f4a3 043f

net.0.bias f4 [128]
0.33147848 -0.20017391 0.10569527 -0.030269891 0.6187904 0.008138588 0.79890287 0.72970647
-0.060240887 -0.08395686 -0.026235959 0.749015 0.5453245 0.49196726 0.10849807 0.004025165
0.84822726 0.040201504 0.6317981 0.60420007 0.8859497 -0.31346947 1.0552579 0.5902303
0.8738818 -0.09820818 -0.33189297 0.34056193 0.8438724 0.73136437 0.89896315 0.12426824
0.57148725 0.80243677 -0.6116924 0.30779806 0.59002423 -0.10989402 0.7647433 -0.28030398
0.48865157 0.6603596 0.48874217 0.5549168 0.7392349 0.7748146 0.6603809 0.47362122
0.29663035 -0.2070747 0.12528014 0.7951151 -0.2823612 -0.0019865134 0.6146676 0.64036494
-0.04187616 0.4809088 0.78132075 0.8173617 -0.12935291 -0.31118438 -0.19481958 0.34477788
0.5817289 0.72001165 0.86144215 0.84489954 -0.074782535 0.6170672 0.2532929 0.20763297
0.6876769 0.6833145 -0.41676658 -0.2781301 0.82728374 0.78207827 0.48145446 -0.2911843
-0.39705533 -0.11474209 0.27016917 -0.14632037 0.22686923 0.5303723 0.091890424 -0.15274444
0.41492578 -0.01602366 0.730153 0.42045012 0.8175343 -0.046229985 0.55935115 0.008640805
-0.26497573 -0.09628116 0.6895652 0.018592881 0.4856693 0.7929069 -0.28625396 0.7695238
-0.012437827 -0.4802411 0.7248496 0.0364473 -0.49559563 0.37100196 0.77190495 0.0894062
-0.23141225 -0.2422217 0.36135396 0.59453416 -0.12092027 0.35032192 0.0840612 0.7845362
0.758844 -0.06353241 0.8582072 0.54424894 -0.38870555 0.20265141 0.64146143 0.5909613
00000000: 8cb7 a93e 64fa 4cbe c376 d83d 90f8 f7bc
00000010: 0c69 1e3f b657 053c e684 4c3f 0bce 3a3f
00000020: 26bf 76bd 93f1 abbd cbec d6bc 72bf 3f3f
00000030: 639a 0b3f 22e3 fb3e 3c34 de3d 88e5 833b
00000040: 6c25 593f 55aa 243d 85bd 213f dbac 1a3f
00000050: 99cd 623f 127f a0be b112 873f 5519 173f
00000060: b8b6 5f3f 5f21 c9bd e0ed a9be 225e ae3e
00000070: 0608 583f b23a 3b3f 7322 663f 5980 fe3d
00000080: fd4c 123f 7f6c 4d3f e097 1cbf b597 9d3e
00000090: d40b 173f 1e10 e1bd 38c6 433f 0184 8fbe
000000a0: 8a30 fa3e 540d 293f 6a3c fa3e 070f 0e3f
000000b0: 803e 3d3f 405a 463f b90e 293f 7b7e f23e
000000c0: efdf 973e 640b 54be 7049 003e aa8c 4b3f
000000d0: a691 90be 2a30 02bb db5a 1d3f f5ee 233f
000000e0: 5686 2bbd ae39 f63e a304 483f 9e3e 513f
000000f0: 1775 04be 8f53 9fbe c97e 47be ba86 b03e
00000100: 2fec 143f af52 383f 7987 5c3f 564b 583f
00000110: 9627 99bd 1ef8 1d3f 9baf 813e bd9d 543e
00000120: 980b 303f b3ed 2e3f 6e62 d5be 1267 8ebe
00000130: dec8 533f 4836 483f 3381 f63e 1c16 95be
00000140: d64a cbbe e7fd eabd 9d53 8a3e 02d5 15be
00000150: 6850 683e 7bc6 073f 0c31 bc3d 0a69 1cbe
00000160: 2771 d43e 0d44 83bc 4feb 3a3f 3d45 d73e
00000170: ee49 513f a75b 3dbd a331 0f3f 2a92 0d3c
00000180: e6aa 87be 0f2f c5bd 5887 303f 1950 983c
00000190: a6a9 f83e f2fb 4a3f e18f 92be 83ff 443f
000001a0: 07c8 4bbc 29e2 f5be be8f 393f c449 153d
000001b0: b6be fdbe f8f3 bd3e 909b 453f 991a b73d
000001c0: 55f7 6cbe f708 78be 6303 b93e 6433 183f
000001d0: 0ca5 f7bd 655d b33e 4728 ac3d 5dd7 483f
000001e0: 9a43 423f 481d 82bd 78b3 5b3f e653 0b3f
000001f0: 6a04 c7be da83 4f3e d136 243f 3d49 173f

net.2.weight f4 [128, 128]
0.18635339 -0.20751464 -0.78414047 -0.25151196 0.07500391 -0.36771154 -0.046531677 -0.10316746
-0.35013726 -0.7323725 -0.19415796 0.14106485 -0.23385388 -0.15164292 -0.67614865 -0.18603325
-0.010483569 0.33320707 0.1222421 0.06860732 -0.09773987 -0.15606162 -0.49530876 0.00812374
-0.024729807 -0.5204391 -0.14721832 -0.88007087 -0.027010841 0.16595314 -0.20016773 0.028431173
-0.08719565 0.0753132 -0.1497834 -0.70598704 0.109978855 -0.60424155 0.18015328 -0.41306564
-0.6609121 -0.15560003 -0.16614413 -0.118599206 0.15830636 0.06777752 -0.103893384 0.017278315
-0.5703063 -0.40443748 -0.13066216 0.14693187 -0.1426779 -0.12198063 0.123230144 0.1323188
-0.33757356 -0.19282664 0.039158847 0.06514097 -0.87068796 -0.35948712 -0.44074622 0.007175122
0.15790926 0.087252855 0.06390917 -0.19774261 -0.6835769 0.2105697 -0.04285977 -0.14968424
0.18832424 0.049672134 -0.29658288 -0.3979079 -0.028136674 0.0504224 0.096804336 -0.25435367
0.050215755 -0.17853643 -0.6685877 -0.39650008 -0.02440654 -0.16829738 -0.16246644 -0.5913085
-0.22306767 -0.20566784 0.2160672 0.05269786 -0.18542571 -0.120808594 0.02646183 -0.14935961
-0.18254904 0.20940112 -0.1548546 -0.013906968 0.0071477117 -0.30778205 -0.0734126 -0.10018414
-0.37707642 -0.011440488 -0.16167206 -0.39816278 0.043100536 0.06333833 0.11271592 -0.14662513
-0.38237286 -0.43384615 -0.1695339 0.08254694 -0.17735034 0.029822856 -0.28076592 -0.13731745
-0.338326 0.10104503 -0.39644656 0.07101651 -0.06442279 -0.4325043 0.012087878 0.040955298
0.24236883 -0.18186675 -0.12650402 -0.20802182 0.3519569 -0.36688238 0.28579995 0.43530557
-0.51520544 -0.24913397 -0.2687168 0.41925964 0.36170822 0.27713728 0.42039222 -0.14927387
0.23228607 0.20794852 0.30863872 0.4171311 0.37961343 -0.46481046 -0.111733206 0.3798082
0.44516808 -0.6261107 -0.15475114 -0.3824117 0.38045144 0.47990078 0.4787817 -0.1114313
0.34434208 0.54817194 -0.20428969 -0.3875787 0.2844975 -0.043823782 0.41469505 -0.69984335
-0.053789772 0.40771806 0.24499379 0.45239663 0.23422974 0.2869068 0.3429542 -0.13053133
0.14019263 -0.37395087 -0.22138585 0.4806237 -0.31258357 0.38352272 0.2805182 0.42257595
-0.3939398 0.3844312 0.3881061 0.36486438 -0.4054283 -0.11608657 -0.22693385 0.08811945
0.16846651 0.28758287 0.29918823 0.3915255 0.011929684 0.39454156 0.04959932 0.35821876
0.26940197 0.45669988 -0.47709018 -0.4441063 0.4281378 0.26382086 0.41480124 -0.38148102
0.010742167 -0.0760032 0.31708673 -0.01000929 -0.052317753 -0.121062495 0.31993183 -0.19257651
0.38128388 -0.16428377 0.30188745 0.19475695 -0.057133526 -0.22755057 0.056123905 -0.009903827
-0.15595925 0.40049356 0.4832253 0.15863599 0.3231633 0.28739986 -0.102038704 0.36126742
-0.83868533 -0.23900898 0.40428817 -0.28082335 0.039424676 0.16921374 0.35551775 -0.08876108
-0.05201219 -0.6106538 0.4754788 0.24482578 -0.08535148 0.23587671 0.011003518 0.4764177
-0.11266864 0.0009501311 -0.23347577 0.4137594 -0.046047475 -0.046758935 0.2895724 0.40877998
00000000: 6cd3 3e3e b87e 54be 6ebd 48bf 2dc6 80be
00000010: a69b 993d b044 bcbe 0098 3ebd 7649 d3bd
00000020: 3145 b3be c47c 3bbf 58d1 46be 4e73 103e
00000030: 6477 6fbe 4848 1bbe 1418 2dbf 807f 3ebe
00000040: 47c3 2bbc 1e9a aa3e 115a fa3d ff81 8c3d
00000050: d72b c8bd 9ece 1fbe 1c99 fdbe 6f19 053c
00000060: 2a96 cabc 7f3b 05bf 66c0 16be 534c 61bf
00000070: d745 ddbc 9fef 293e c5f8 4cbe 7ee8 e83c
00000080: a293 b2bd cf3d 9a3d d260 19be 91bb 34bf
00000090: 983c e13d 93af 1abf 1a7a 383e 577d d3be
000000a0: 8931 29bf 9d55 1fbe b021 2abe 24e4 f2bd
000000b0: 101b 223e f1ce 8a3d 0ec6 d4bd 418b 8d3c
000000c0: 98ff 11bf 6e12 cfbe 4dcc 05be 4f75 163e
000000d0: 281a 12be fbd0 f9bd 1660 fc3d 947e 073e
000000e0: 71d6 acbe 5974 45be 0765 203d a168 853d
000000f0: 68e5 5ebf b20e b8be 7da9 e1be 491d eb3b
00000100: f7b2 213e a0b1 b23d d0e2 823d 0a7d 4abe
00000110: e5fe 2ebf 959f 573e ba8d 2fbd d346 19be
00000120: 12d8 403e 0275 4b3d b6d9 97be 96ba cbbe
00000130: e27e e6bc b887 4e3d 5a41 c63d a53a 82be
00000140: 09af 4d3d 41d2 36be 9028 2bbf 0f02 cbbe
00000150: 39f0 c7bc 2656 2cbe 9a5d 26be fe5f 17bf
00000160: da6b 64be 979a 52be b840 5d3e b6d9 573d
00000170: 3de0 3dbe 7f6a f7bd 7bc6 d83c baf1 18be
00000180: 23ee 3abe 3f6d 563e 3492 1ebe 0dda 63bc
00000190: 5a37 ea3b 9c95 9dbe 5859 96bd 582d cdbd
000001a0: 2910 c1be e270 3bbc 5c8d 25be fedb cbbe
000001b0: 308a 303d 87b7 813d 9bd7 e63d e624 16be
000001c0: 60c6 c3be 1521 debe 4b9a 2dbe 5f0e a93d
000001d0: 549b 35be 104f f43c 8dc0 8fbe f29c 0cbe
000001e0: 1139 adbe b2f0 ce3d 0bfb cabe 1b71 913d
000001f0: 19f0 83bd 3471 ddbe 3c0c 463c bec0 273d
00000200: 892f 783e 473b 3abe 458a 01be ac03 55be
00000210: b233 b43e 02d8 bbbe 5f54 923e 5fe0 de3e
00000220: 81e4 03bf fa1c 7fbe 4095 89be 33a9 d63e
00000230: d231 b93e f0e4 8d3e a63d d73e 40db 18be
00000240: 66dc 6d3e 75f0 543e e505 9e3e 3592 d53e
00000250: b15c c23e a3fb edbe 61d4 e4bd 3876 c23e
00000260: 12ed e33e ca48 20bf 1577 1ebe 77cb c3be
00000270: 88ca c23e 8eb5 f53e e022 f53e 1836 e4bd
00000280: 9b4d b03e ff54 0c3f 5131 51be b770 c6be
00000290: a8a9 913e 9180 33bd e952 d43e ef28 33bf
000002a0: aa52 5cbd 6cc0 d03e a7df 7a3e 88a0 e73e
000002b0: ecd9 6f3e 73e5 923e b197 af3e 01aa 05be
000002c0: a88e 0f3e 7d76 bfbe f9b2 62be 4f14 f63e
000002d0: f40a a0be 175d c43e 15a0 8f3e e05b d83e
000002e0: 7ab2 c9be 2bd4 c43e d8b5 c63e 81cf ba3e
000002f0: 4c94 cfbe ccbe edbd 5961 68be f877 b43d
00000300: 7c82 2c3e 103e 933e 332f 993e 0876 c83e
00000310: b974 433c 5a01 ca3e a828 4b3d 7368 b73e
00000320: 0eef 893e 91d4 e93e 2a45 f4be e761 e3be
00000330: e134 db3e 8713 873e d460 d43e 7b51 c3be
00000340: eaff 2f3c 91a7 9bbd 3159 a23e 01fe 23bc
00000350: 244b 56bd 9def f7bd 1bce a33e c732 45be
00000360: a437 c33e 013a 28be fe90 9a3e 5e6e 473e
00000370: d804 6abd 0403 69be 2ee2 653d a943 22bc
00000380: c8b3 1fbe 7e0d cd3e 4e69 f73e 7971 223e
00000390: a975 a53e 1326 933e abf9 d0bd 0bf8 b83e
000003a0: 15b4 56bf c5be 74be dcfe ce3e 14c8 8fbe
000003b0: c57b 213d 5e46 2d3e 6c06 b63e 5ec8 b5bd
000003c0: bc0a 55bd cf53 1cbf f571 f33e 9cb3 7a3e
000003d0: c2cc aebd aa89 713e 1948 343c 05ed f33e
000003e0: d1be e6bd 3812 793a 4614 6fbe 46d8 d33e
000003f0: 479c 3cbd 4c86 3fbd d542 943e 9c4b d13e

net.2.bias f4 [128]
0.030468846 0.34799916 0.07084759 0.13196672 0.4776669 0.025224164 0.12999478 0.047814917
0.0048200046 0.11317979 0.091471024 0.13132508 0.36512634 0.035549264 -0.13234755 0.19217461
0.39570588 0.22501673 0.42740571 -0.027956625 0.054225907 0.16707817 -0.08083565 0.11692967
0.07621251 0.057319704 0.2844246 0.055770364 -0.013238311 -0.114058 0.06662327 0.040522553
0.3604833 0.13486926 0.07193331 0.013739008 0.0920675 0.18483262 0.05550356 -0.014998599
0.34769854 0.06837434 0.113179825 0.104527846 0.40909964 0.25964946 -0.036889013 0.08984121
0.029889947 0.06110873 0.4693931 0.032144472 0.06772308 -0.08190897 0.3701989 0.469557
0.41025236 0.029369716 0.13997999 0.053583454 0.36856717 -0.041348018 0.13215983 -0.010543253
-0.069677636 0.057178542 -0.084939376 0.39031827 0.41030106 0.10633225 0.025537862 0.2822476
0.19208455 0.119774275 -0.06682681 0.0038033566 -0.0082342215 -0.045568366 -0.022485312 0.0632085
0.36024347 -0.11155478 0.11523932 -0.06380518 -0.030343007 -0.031188374 -0.065408364 0.4571865
0.32599992 0.1881275 0.013220094 0.12496225 0.016282486 -0.017469555 0.008702431 0.017362323
-0.04683706 0.14477775 0.12935731 0.122755945 0.051585726 0.12652342 0.03925688 -0.0144279525
0.018783193 0.40490082 0.16660687 0.269898 0.0858332 0.4393211 0.06646743 0.03814518
-0.06755632 0.28180787 0.052583456 -0.039968338 0.05969901 0.07991807 -0.054868508 -0.008093291
0.08317437 0.15449505 0.09612857 0.23090743 0.09810232 0.44074294 0.015316729 0.064853236
00000000: cd99 f93c f22c b23e 8b18 913d 4922 073e
00000010: c290 f43e e8a2 ce3c 5a1d 053e 93d9 433d
00000020: 21f1 9d3b ceca e73d 2955 bb3d 157a 063e
00000030: d7f1 ba3e 1b9c 113d 1e86 07be 6cc9 443e
00000040: f699 ca3e c96a 663e ecd4 da3e 4b05 e5bc
00000050: fc1b 5e3d 8a16 2b3e 298d a5bd d378 ef3d
00000060: 4e15 9c3d 11c8 6a3d 1aa0 913e 776f 643d
00000070: 80e5 58bc 3e97 e9bd c871 883d fafa 253d
00000080: 4491 b83e 2b1b 0a3e c551 933d 9419 613c
00000090: e38d bc3d c344 3d3e b357 633d afbc 75bc
000000a0: 8b05 b23e d907 8c3d d3ca e73d b212 d63d
000000b0: 8275 d13e c6f0 843e ef18 17bd abfe b73d
000000c0: c3db f43c 264d 7a3d 4b54 f03e eca9 033d
000000d0: 66b2 8a3d e4bf a7bd b68a bd3e c669 f03e
000000e0: 990c d23e c298 f03c ea56 0f3e 537a 5b3d
000000f0: d6b4 bc3e 8a5c 29bd e854 073e 9cbd 2cbc
00000100: 26b3 8ebd 0c34 6a3d b2f4 adbd ccd7 c73e
00000110: fb12 d23e b9c4 d93d c734 d13c c282 903e
00000120: d0b1 443e 374c f53d 7fdc 88bd bc41 793b
00000130: d4e8 06bc e5a5 3abd 1e33 b8bc 7573 813d
00000140: d571 b83e d576 e4bd 9802 ec3d 4aac 82bd
00000150: e691 f8bc c37e ffbc d2f4 85bd 5914 ea3e
00000160: 76e9 a63e 7fa4 403e 1899 583c 35ec ff3d
00000170: d962 853c 501c 8fbc a494 0e3c 6e3b 8e3c
00000180: 38d8 3fbd 9e40 143e 3e76 043e 7867 fb3d
00000190: 8e4b 533d 5b8f 013e d2cb 203d 3863 6cbc
000001a0: 36df 993c 294f cf3e fe9a 2a3e 1230 8a3e
000001b0: 51c9 af3d b2ee e03e 1320 883d 1f3e 1c3d
000001c0: f85a 8abd 1f49 903e c061 573d d7b5 23bd
000001d0: f386 743d 16ac a33d cdbd 60bd b999 04bc
000001e0: 5357 aa3d f333 1e3e 0edf c43d ff72 6c3e
000001f0: dfe9 c83d 0fa9 e13e 05f3 7a3c c6d1 843d

net.4.weight f4 [2, 128]
0.3878637 0.45019123 0.63271946 0.58301485 0.43382916 0.057808165 0.53147674 -0.40408704
-0.46024737 0.3879881 0.10465306 0.41609406 0.47958383 -0.21839659 -0.5716694 -0.16925505
0.5494828 -0.044278003 0.4770364 0.062554434 0.32741705 0.07938279 0.014450243 0.5675526
0.53747416 -0.19968325 0.08879339 0.30596513 0.21154164 -0.5052992 -0.44125953 0.3279665
0.45959264 0.35104346 0.2912506 -0.07242252 0.29109326 0.4769982 0.33792135 0.34451362
0.4090238 0.35327914 0.33566687 0.46077773 0.46654958 0.41261724 -0.14789104 0.4578318
0.41237694 0.33157235 0.40557775 -0.32305214 -0.5121676 0.0066753426 0.4194535 0.4517037
0.4299599 -0.82904315 0.3996059 0.55879354 0.5255425 -0.32997066 0.3189213 0.3715943
-0.25980487 0.499902 -0.6782269 0.49816978 0.41141883 0.3124696 0.39142552 0.4055185
-0.44977897 -0.45959362 -0.054261286 -0.54367447 -0.022902995 -0.082771815 0.04097555 -0.28319034
0.40162733 -0.7038413 -0.57024634 -0.32904303 -0.08017892 0.012861463 -0.49895754 0.4517565
0.5282056 0.4093611 -0.4569654 0.80903715 -0.566261 -0.048588842 0.05502842 0.3363326
-0.070914246 -0.5839606 0.29597163 0.425083 -0.20382631 0.372298 0.43077996 -0.30342036
-0.029074129 0.42499694 0.4917411 0.49539435 0.24402006 0.46126452 -0.4105255 -0.55983007
-0.047166057 0.38893032 0.55514425 -0.05871587 -0.48959562 0.44846526 -0.32081977 -0.0714019
-0.07624735 0.17030682 0.63620365 0.4493041 0.26880783 0.38787892 0.50163275 0.5880771
0.3528342 0.4289185 0.4458982 0.6017813 0.41793922 0.5226103 0.40100235 -0.2512106
-0.46716377 0.41635996 0.24038497 0.2841002 0.39136964 -0.35545412 -0.7393754 -0.42558357
0.5186919 -0.35717642 0.4921467 0.060116302 0.36583462 -0.0920757 0.0844763 0.46643326
0.62085956 -0.35503 -0.42749003 0.36560652 0.31079087 -0.5107893 -0.18669054 0.19012284
0.4807849 0.25938815 0.24247658 -0.08713119 0.30479994 0.49170026 0.38142762 0.40487742
0.43863526 0.3912149 0.33824658 -0.23785578 0.5236718 0.47736627 -0.37654173 0.19940545
0.37710166 0.30624595 0.4665392 -0.37792122 -0.25319493 -0.024471859 0.47909713 0.4100714
0.4250017 -0.7776046 0.3467642 -0.18320361 0.54291415 -0.33877748 0.2492349 0.34392792
-0.54386276 0.42945096 -0.6486365 0.5054563 0.48903346 0.23896107 0.47128 0.46780092
-0.35645935 -0.24168873 -0.0548725 -0.49002507 -0.058722958 -0.054851484 0.043878067 -0.30257463
0.49415296 -0.4842306 -0.44836625 -0.33591056 -0.0021205205 -0.083553694 -0.38303122 0.47831097
0.52772623 0.4206055 -0.23626016 0.64726925 -0.77541655 -0.080400795 -0.03152507 0.25726652
0.2347585 -0.61721987 0.26245004 0.4342561 -0.25778875 0.37117544 0.37426803 -0.18079321
-0.046523407 0.44677764 0.48652664 0.5366126 0.30800644 0.41730922 -0.07220981 -0.4912156
-0.34529433 0.5488075 0.77486897 0.024358869 -0.36564964 0.31345248 -0.2761865 -0.07030012
-0.29126987 0.14828536 0.5710423 0.44477585 0.38549745 0.4662223 0.43338588 0.58099174
00000000: 1296 c63e 777f e63e e7f9 213f 7640 153f
00000010: db1e de3e 41c8 6c3d dc0e 083f 7fe4 cebe
00000020: 8ba5 ebbe 60a6 c63e 5854 d63d 480a d53e
00000030: 038c f53e 5ba3 5fbe ed58 12bf 3251 2dbe
00000040: e8aa 0c3f da5c 35bd 1d3e f43e 8a1c 803d
00000050: 35a3 a73e 7293 a23d b6c0 6c3c 214b 113f
00000060: e897 093f c479 4cbe 4fd9 b53d 76a7 9c3e
00000070: 5f9e 583e 4a5b 01bf c5ec e1be 3aeb a73e
00000080: ba4f eb3e f8bb b33e cc1e 953e 4252 94bd
00000090: 2d0a 953e 1c39 f43e 0704 ad3e 1764 b03e
000000a0: 916b d13e 01e1 b43e 87dc ab3e 0feb eb3e
000000b0: 96df ee3e 9142 d33e c070 17be ee68 ea3e
000000c0: 1223 d33e dac3 a93e e3a7 cf3e 1767 a5be
000000d0: 6a1d 03bf d5bc da3b 9cc2 d63e b545 e73e
000000e0: b423 dc3e 2c3c 54bf 2599 cc3e 180d 0f3f
000000f0: f489 063f eaf1 a8be a749 a33e 9c41 be3e
00000100: 2505 85be 28f3 ff3e 47a0 2dbf 1c10 ff3e
00000110: 7da5 d23e 04fc 9f3e ed68 c83e 1fa0 cf3e
00000120: 6e49 e6be db4f ebbe 1541 5ebd 402e 0bbf
00000130: 109f bbbc 4584 a9bd fad5 273d 53fe 90be
00000140: 19a2 cd3e f22e 34bf aafb 11bf 5478 a8be
00000150: d834 a4bd e3b8 523c 5d77 ffbe a14c e73e
00000160: 7b38 073f c797 d13e 5ef7 e9be 0f1d 4f3f
00000170: 7bf6 10bf 1805 47bd 7b65 613d c933 ac3e
00000180: 7d3b 91bd 717e 15bf 9889 973e 7ba4 d93e
00000190: d8b7 50be d89d be3e 318f dc3e ea59 9bbe
000001a0: de2c eebc 3399 d93e 7dc5 fb3e 54a4 fd3e
000001b0: 65e0 793e dd2a ec3e 6630 d2be 0651 0fbf
000001c0: 3231 41bd e021 c73e ef1d 0e3f 0d80 70bd
000001d0: 47ac fabe 3d9d e53e 7d42 a4be 293b 92bd
000001e0: 9227 9cbd e964 2e3e 3ede 223f 300b e63e
000001f0: 2ea1 893e 1198 c63e 016b 003f 398c 163f
00000200: afa6 b43e 359b db3e c54c e43e 570e 1a3f
00000210: 21fc d53e cac9 053f 2e50 cd3e ad9e 80be
00000220: 1730 efbe 222d d53e 7a27 763e 9575 913e
00000230: 9a61 c83e 15fe b5be b547 3dbf 17e6 d9be
00000240: fec8 043f d4df b6be a7fa fb3e 833c 763d
00000250: ad4e bb3e 2f92 bcbd e901 ad3d 57d0 ee3e
00000260: a7f0 1e3f 7ec6 b5be f9df dabe c730 bb3e
00000270: fb1f 9f3e 16c3 02bf ce2b 3fbe 90af 423e
00000280: 7029 f63e 86ce 843e c84b 783e d671 b2bd
00000290: bd0e 9c3e 23c0 fb3e 7b4a c33e 184c cf3e
000002a0: cd94 e03e 524d c83e a82e ad3e 7790 73be
000002b0: 5b0f 063f 5a69 f43e 14ca c0be f130 4c3e
000002c0: 7813 c13e 45cc 9c3e 3ade ee3e e47e c1be
000002d0: c4a2 81be 3579 c8bc 384c f53e e1f4 d13e
000002e0: d399 d93e 1811 47bf 148b b13e ba99 3bbe
000002f0: 6cfc 0a3f 3e74 adbe 6f37 7f3e 5217 b03e
00000300: 973a 0bbf ffe0 db3e 0b0d 26bf 9665 013f
00000310: 9862 fa3e 36b2 743e 9d4b f13e 9a83 ef3e
00000320: d781 b6be 407d 77be fdc1 60bd 91e4 fabe
00000330: 7c87 70bd f3ab 60bd 7db9 333d 10eb 9abe
00000340: 9e01 fd3e 13ed f7be 4390 e5be 78fc abbe
00000350: 6ef8 0abb 331e abbd ab1c c4be 2de5 f43e
00000360: 1119 073f 9b59 d73e 2fee 71be 70b3 253f
00000370: b381 46bf 2ca9 a4bd 6f20 01bd 70b8 833e
00000380: 8864 703e 1f02 1ebf da5f 863e d156 de3e
00000390: e3fc 83be b50a be3e 0fa0 bf3e db21 39be
000003a0: 548f 3ebd 0ac0 e43e 051a f93e 715f 093f
000003b0: 05b3 9d3e 8ea9 d53e bde2 93bd 9c80 fbbe
000003c0: 6bca b0be a67e 0c3f d05d 463f 408c c73c
000003d0: 6e36 bbbe d87c a03e 5168 8dbe 82f9 8fbd
000003e0: 5321 95be 1ed8 173e d42f 123f a9b9 e33e
000003f0: ec5f c53e b0b4 ee3e c1e4 dd3e e0bb 143f

net.4.bias f4 [2]
0.27529508 0.2136344
00000000: 7af3 8c3e fac2 5a3e
