MountCar/checkpoints/final_model.pt (torch, 285828 bytes, 24 tensors)

net.0.weight f4 [128, 2]
0	0x3ca9dbb5	0.020734647
1	0x3f27d4b4	0.65558934
2	0x3f0cbbca	0.54974043
3	0x4012f709	2.2963278
4	0xbda4f389	-0.08054263
5	0xbe543797	-0.20724331
6	0xbf2299f9	-0.63516194
7	0xbe8ca912	-0.2747274
8	0x3edee51c	0.43534172
9	0x3db9d8aa	0.090745285
10	0xbf154d6c	-0.5832126
11	0xbe8540c3	-0.26025972
12	0xbcb032d0	-0.021508604
13	0xc0e95b07	-7.2923617
14	0x3ee8a335	0.45437017
15	0xbf249deb	-0.64303464
16	0x3dc71814	0.097213894
17	0xbe014d97	-0.12627254
18	0xbe16483e	-0.14675996
19	0xbefb7421	-0.49112037
20	0x3b06ee2a	0.0020588734
21	0x3f281774	0.65660787
22	0xbf206062	-0.6264707
23	0xbf786fb2	-0.97045434
24	0x3da71d10	0.0815984
25	0xbf322359	-0.69585186
26	0x3f14eb6c	0.58171725
27	0x3f1b0b20	0.6056385
28	0x3d07f2d3	0.03319056
29	0x3ede9a49	0.43477085
30	0x3ea8c568	0.3296311
31	0x3daf76e6	0.085676
32	0x3d75e3cb	0.060031693
33	0xbef171dc	-0.4715718
34	0xbf00cf3e	-0.50316226
35	0xbf5713ca	-0.8401457
36	0xbe250563	-0.16115336
37	0xbed980a6	-0.42480963
38	0x3b61c140	0.0034447461
39	0x3f2afc77	0.6679148
40	0x3e8e2733	0.27764282
41	0xbe4af615	-0.19820435
42	0xbf167882	-0.5877763
43	0xbf8cf335	-1.1011721
44	0xbe572df5	-0.21013625
45	0xbf100fb3	-0.56273955
46	0x3e55201e	0.20813033
47	0xbf8a5f2d	-1.0810295
48	0x3e6277fe	0.22116086
49	0x3f8ba99a	1.0911133
50	0xbf1a7298	-0.60331106
51	0xbea71a4f	-0.3263726
52	0xbf1e7243	-0.618931
53	0xc065dedc	-3.5917273
54	0x3e5f2314	0.21790725
55	0x3c3a8da6	0.011386311
56	0xbf38f60e	-0.7225045
57	0x3fe5cc8d	1.7953049
58	0xbf292b32	-0.66081536
59	0xbf9bdeed	-1.2177407
60	0xbf203f47	-0.62596554
61	0xc005824f	-2.0860784
62	0xbeb1c659	-0.3472164
63	0x40afe451	5.4966207
64	0x3ec77ddc	0.3896321
65	0xbee50880	-0.44733047
66	0xbf268c2e	-0.6505765
67	0xbfa712ea	-1.3052647
68	0x3eb61b86	0.35567874
69	0x3eb5b393	0.35488567
70	0xbecc2e5f	-0.39879128
71	0xbeb08c7d	-0.34482184
72	0xbe0d7f9f	-0.13818215
73	0xbf46d4a0	-0.7766819
74	0x3e9aec1b	0.3025826
75	0xbeb10bd3	-0.34579334
76	0xbee9ac69	-0.4563935
77	0xbfd53185	-1.6655737
78	0x3f0c01b3	0.5469009
79	0xc0b3eaf0	-5.622429
80	0xbf71b9b1	-0.9442397
81	0xc0310a79	-2.7662642
82	0xbf19dbc5	-0.60100967
83	0xbfb26b7a	-1.3939049
84	0xbf051b85	-0.51995116
85	0x408ba330	4.3636703
86	0x3e378ce5	0.17924841
87	0x3e855e4e	0.2604851
88	0x3dc271c1	0.09494353
89	0xbf012c12	-0.5045787
90	0x3f2bc3a9	0.6709543
91	0xbf0e4f02	-0.55589306
92	0x3f0fd248	0.5618024
93	0xbe2c5db3	-0.16832618
94	0x3f213da5	0.6298469
95	0xbd15213a	-0.03640864
96	0x3f02ddf2	0.5111991
97	0xbf71794f	-0.9432573
98	0x3ef6d4e4	0.48209298
99	0xc019cacc	-2.4030027
100	0xbe93e857	-0.288882
101	0xbe05dad6	-0.1307176
102	0xbf2bf42a	-0.6716944
103	0xbf8cb6e8	-1.0993319
104	0xbf040c02	-0.5158082
105	0xbf7a9fd8	-0.9790015
106	0xbede36d6	-0.43401212
107	0xbf44d45d	-0.7688654
108	0x3e7e08c4	0.24808031
109	0x3e87de32	0.2653671
110	0xbe53a014	-0.20666534
111	0xbdf05623	-0.11735179
112	0x3f34d29d	0.7063387
113	0xbed3f2b0	-0.41396093
114	0xbe4b84c1	-0.1987486
115	0xbda5f66c	-0.08103642
116	0x3df70c9a	0.120629504
117	0xbe4e6d73	-0.20158939
118	0xbeddb5f9	-0.43302897
119	0xbfa84623	-1.3146404
120	0x3d092926	0.033486508
121	0xbf04c5af	-0.5186414
122	0x3dba0cfd	0.090845086
123	0x3c822f01	0.015891554
124	0x3ef58c3e	0.4795856
125	0xbe3aa532	-0.1822708
126	0x3dff4aa7	0.12465411
127	0xbdb04c10	-0.08608258
128	0x3f0e8954	0.55678296
129	0x3e957957	0.29194137
130	0x3efc4360	0.49270153
131	0xbf1e25c2	-0.61776364
132	0xbdf1b2f0	-0.11801708
133	0x3f0cbc07	0.54974407
134	0xbe8b4b51	-0.272059
135	0x3e85b1ff	0.26112363
136	0xbd3f7039	-0.046737883
137	0x41019887	8.099738
138	0x3eaf1b2b	0.34200415
139	0x3e73de17	0.2381519
140	0xbe236841	-0.15957738
141	0xbfb872d2	-1.441004
142	0xbca6b6ab	-0.020350775
143	0x3eeb4552	0.45951325
144	0x3e945518	0.2897117
145	0x3f133177	0.5749735
146	0xbd7c1088	-0.061539203
147	0xbe7612a4	-0.24030548
148	0x3f1891eb	0.59597653
149	0xbc8edea0	-0.01744014
150	0x3ef44355	0.4770762
151	0x3ec6a2fd	0.38796225
152	0x3f169038	0.5881381
153	0xbf93179d	-1.1491581
154	0x3eb938e4	0.36176217
155	0xbd88e03c	-0.06683394
156	0xbf176d4a	-0.59151137
157	0xc037dce1	-2.8728564
158	0xbf1cc34d	-0.61235505
159	0xbe053f7a	-0.13012496
160	0x3f0f6dbb	0.5602681
161	0xbdd9631d	-0.106146075
162	0x3f6940fa	0.9111477
163	0x3fd34bf5	1.6507555
164	0x3edbcfd9	0.42932013
165	0x41178c26	9.471716
166	0x3e9b89b9	0.30378512
167	0x3f484baa	0.78240454
168	0x3e92bf1d	0.28661433
169	0xbf6b4ef4	-0.9191735
170	0x3f0dc6a8	0.5538125
171	0x3c98333c	0.018579118
172	0xbe9cd163	-0.306285
173	0xc04a408f	-3.1601903
174	0x3ebc9527	0.36832544
175	0x3e46f1d1	0.19428183
176	0xbe652bc6	-0.2237998
177	0xbf31bbdf	-0.69427294
178	0x3e96a36d	0.2942156
179	0xbe2be982	-0.16788295
180	0x3e1abd90	0.15111375
181	0xbfb22da3	-1.3920177
182	0x3e475fc3	0.19470124
183	0xbf0d301b	-0.5515153
184	0xbea1940c	-0.31558263
185	0x3e5f66af	0.21816514
186	0x3f1bddd2	0.60885346
187	0x40033b19	2.050482
188	0x3f2d0fc6	0.67602193
189	0xbf569603	-0.8382265
190	0xbda86177	-0.08221715
191	0x40211443	2.5168617
192	0xbe583567	-0.21114121
193	0x3efd975a	0.49529535
194	0x3e957ebb	0.2919825
195	0xbe7e5e41	-0.24840643
196	0x3e182fb5	0.14861949
197	0xc0ae5b63	-5.4486556
198	0xbebab278	-0.36464286
199	0xc0cbc54c	-6.367834
200	0x3ef6d94a	0.48212653
201	0x3f5af972	0.85536873
202	0x3e71f47e	0.23628423
203	0x3f6b7972	0.91982186
204	0x3d9cfec5	0.07665781
205	0xbf97de09	-1.1864635
206	0x3d2e0aec	0.042490885
207	0x3eb0e29f	0.34547898
208	0xbefb19c9	-0.4904311
209	0x40b85519	5.760388
210	0x3e7ad899	0.24496688
211	0x3e511407	0.20417796
212	0x3f2c639c	0.6733949
213	0x3f2974dd	0.66193944
214	0x3f01ab62	0.50652134
215	0xbf66dee5	-0.9018386
216	0xbf3037c5	-0.688351
217	0x406f60a8	3.7402744
218	0xbf133321	-0.5749989
219	0xbfaa22f0	-1.3291912
220	0xbf0eaa38	-0.55728483
221	0xbe8ff107	-0.28113577
222	0x3ec94205	0.3930818
223	0x409ffe1f	4.9997706
224	0xbed3a0e1	-0.41333678
225	0xbe3c2222	-0.18372396
226	0x3e171fc2	0.14758208
227	0x3f1f02cb	0.62113637
228	0xbeaa63d8	-0.332793
229	0x41012bed	8.073224
230	0x3e990300	0.298851
231	0xbf231f84	-0.63719964
232	0x3edc6324	0.43044388
233	0x3f462623	0.7740194
234	0xbe2c856b	-0.1684777
235	0xbf6f0ef8	-0.93382215
236	0x3e2d0235	0.16895373
237	0x3e155998	0.14584959
238	0x3eaf2aa5	0.34212223
239	0xbe2914c6	-0.1651183
240	0xbdabf4d4	-0.08396307
241	0xbf0bcf18	-0.54612875
242	0xbeb3e88a	-0.3513835
243	0xbf908145	-1.128945
244	0xbefcfe9d	-0.49413005
245	0xc056b341	-3.3546908
246	0xbf45bc0a	-0.7724005
247	0xbf87241b	-1.0557894
248	0xbe5be454	-0.21473819
249	0x3f07c0d1	0.5302859
250	0xbe8375bb	-0.2567576
251	0xbf7596f6	-0.95933473
252	0x3ec25f12	0.37963158
253	0x3f1ac2f9	0.60453755
254	0xbccbb5ae	-0.024866905
255	0xbf30805f	-0.6894588

net.0.bias f4 [128]
0	0xbee47e6f	-0.4462771
1	0x3e2cf4fb	0.16890328
2	0xbe36b32d	-0.17841788
3	0x3ea0524a	0.31312782
4	0xbf0445b7	-0.51668876
5	0x3ed2a037	0.4113786
6	0xbca6bd64	-0.02035398
7	0xbe8093e0	-0.2511282
8	0xbf173722	-0.590685
9	0xbe57fd6e	-0.2109277
10	0xbec2e4b9	-0.38065127
11	0x3ea25559	0.3170574
12	0xbf303b3f	-0.688404
13	0xbeb61f40	-0.35570717
14	0xbe450165	-0.19238813
15	0x3f139a13	0.57656974
16	0xbe8bc014	-0.2729498
17	0x3e91d39c	0.28481758
18	0xbf008674	-0.5020516
19	0xbf1cd3c8	-0.6126065
20	0x3ed059c5	0.4069349
21	0x3f2e049e	0.67975795
22	0x3ec72803	0.38897714
23	0x3edf71fb	0.43641648
24	0x3ea8c97f	0.3296623
25	0x3e99e202	0.30055243
26	0xbecf523d	-0.4049243
27	0x3ee71496	0.45132893
28	0xbeee913a	-0.46595174
29	0x3eade522	0.33963877
30	0x3eafbada	0.34322244
31	0xbec315c0	-0.3810253
32	0x3f15c6cb	0.5850646
33	0x3eac75ce	0.33683628
34	0x3ee49bf4	0.44650233
35	0xbf0e4312	-0.5557109
36	0x3ec5391d	0.38520136
37	0x3f2f98da	0.6859261
38	0x3e9ddd85	0.30833068
39	0x3e9a9d17	0.30197975
40	0xbc4aaf54	-0.012370903
41	0x3ee195b6	0.44059533
42	0xbedb50cb	-0.42835078
43	0x3f2c3d3c	0.67280936
44	0xbe1857ec	-0.1487729
45	0x3f22ed32	0.6364318
46	0x3f359ad1	0.70939356
47	0xbebbc95a	-0.36677057
48	0x3e9396af	0.288259
49	0x3e916246	0.2839529
50	0xbeea67e6	-0.45782393
51	0x3f23f660	0.64047813
52	0x3e87176d	0.2638506
53	0x3ea6053f	0.32425877
54	0xbe0c6b42	-0.1371279
55	0x3e90f62a	0.28312808
56	0xbf006dbf	-0.5016746
57	0xbf03dc63	-0.5150816
58	0xbf0c48e7	-0.5479874
59	0x3e5d9c2f	0.2164161
60	0x3e95e4f8	0.29276252
61	0xbeaa3f03	-0.332512
62	0x3f066281	0.52494055
63	0xbf09f458	-0.53888464
64	0x3f48bfeb	0.78417844
65	0xbf07be29	-0.53024536
66	0xbe4f4c30	-0.20243907
67	0x3f3b0fa6	0.7307075
68	0xbe8f9629	-0.2804425
69	0x3ed80352	0.42190033
70	0x3d711c42	0.05886484
71	0xbf2eea86	-0.68326604
72	0xbe403a6f	-0.1877229
73	0xbe759ea1	-0.23986293
74	0x3f3a7a39	0.72842747
75	0x3f18c106	0.5966953
76	0x3ea84b95	0.32870165
77	0xbf25bac0	-0.6473808
78	0xbefe84b7	-0.49710628
79	0x3f347bfd	0.7050169
80	0xbf1afe9a	-0.6054474
81	0x3f168a7f	0.5880508
82	0xbe2b3c90	-0.16722322
83	0x3ed135ca	0.4086135
84	0x3ef8e0e1	0.4860907
85	0x3f294b07	0.6613011
86	0xbf13efca	-0.57787764
87	0x3f05ebfc	0.5231321
88	0xbeb1471b	-0.34624562
89	0xbf0bec1a	-0.5465714
90	0x3eedd2e0	0.46449947
91	0xbf13a452	-0.5767261
92	0x3f2d19f5	0.6761773
93	0x3e52f258	0.2060026
94	0x3ec3b468	0.38223577
95	0x3c843a7a	0.016141165
96	0xbf17ffca	-0.5937468
97	0x3ea6828e	0.3252148
98	0x3e52b0fb	0.20575325
99	0xbe7e5d3a	-0.2484025
100	0x3e9a109c	0.30090797
101	0x3eab0f7f	0.3341026
102	0x3ef84680	0.48491287
103	0x3ed507dd	0.41607562
104	0xbee21938	-0.44159865
105	0x3e9d12da	0.30678445
106	0xbf3062e9	-0.68900925
107	0x3e9084e2	0.28226382
108	0xbf0447aa	-0.5167185
109	0x3eb3f8b4	0.35150683
110	0x3e9a5555	0.30143228
111	0x3e97f9e3	0.29682836
112	0x3f2f90e7	0.6858048
113	0xbe88d07b	-0.26721558
114	0xbedece37	-0.43516704
115	0x3f176a28	0.59146357
116	0x3f0ee61a	0.5581986
117	0x3ec6ea44	0.38850605
118	0xbeba8df2	-0.3643642
119	0x3f07c188	0.5302968
120	0x3eb516c0	0.3536892
121	0x3f0af064	0.54273057
122	0xbed06aff	-0.40706632
123	0x3f03fb91	0.51555735
124	0xbf298597	-0.66219467
125	0x3ec00c21	0.37509254
126	0xbf0c05ea	-0.54696524
127	0x3f30ee99	0.6911407

net.2.weight f4 [128, 128]
0	0x3d200471	0.039066736
1	0x3d7a898c	0.06116633
2	0x3cdecb74	0.027196623
3	0x3cce39fc	0.025174133
4	0x3c21661b	0.009851004
5	0x3d93caad	0.07216392
6	0x3cb7ac53	0.022421038
7	0xbd3b7f78	-0.04577586
8	0xbd0b632c	-0.034030125
9	0xbb5044e9	-0.0031779355
10	0xbd2216ba	-0.039572455
11	0x3d7f8bd4	0.06238921
12	0x3b9dd75a	0.0048169317
13	0xbd8b0a82	-0.067891136
14	0xbc1f9fa8	-0.009742655
15	0xbda9df7e	-0.08294581
16	0x3db0d9c7	0.08635288
17	0xbcdfcb7e	-0.027318712
18	0xbb62a40e	-0.0034582647
19	0xbd5a7f59	-0.053344104
20	0xbcff13c9	-0.031137364
21	0x3d0f5949	0.03499726
22	0xbd7447c5	-0.059638757
23	0x3d86f4fc	0.06589696
24	0xbc573535	-0.013135244
25	0x3da1fb17	0.0790922
26	0xbca3c33c	-0.019990556
27	0x3d882a3a	0.06648679
28	0x3d9272a1	0.0715077
29	0x3d8c93d8	0.068641365
30	0xbd65ab8b	-0.0560718
31	0x3b75320b	0.003741386
32	0x3da0104d	0.07815609
33	0x3d4fb690	0.050711215
34	0xbc5196a5	-0.012792264
35	0x3978e9a2	0.00023738158
36	0x3d893375	0.06699268
37	0xbda09692	-0.07841219
38	0x3bb2bd3c	0.0054546874
39	0xbac508c1	-0.0015032516
40	0xbca775ce	-0.020441916
41	0xbd8fc8a6	-0.070206925
42	0xbac8ca11	-0.001531901
43	0xbcaff746	-0.021480214
44	0xbda89f2e	-0.08233486
45	0x3b614ff0	0.0034379922
46	0xbd90dedc	-0.07073757
47	0x3cab138b	0.020883342
48	0x3babf0f4	0.0052472297
49	0x3d2f1b96	0.042750917
50	0xbd2ce3bc	-0.042209372
51	0xbd8b28f3	-0.0679492
52	0xbd324e6a	-0.043531813
53	0xbd2d319b	-0.042283636
54	0xbc3bd6b5	-0.011464764
55	0xbd873cb0	-0.06603372
56	0xbd9f31ac	-0.07773146
57	0x3cd4b064	0.025963016
58	0x3cda983b	0.026683917
59	0xbd7ce1a6	-0.061738633
60	0x3cb1529f	0.021645842
61	0x3d846557	0.064646415
62	0x3d6cbc8b	0.057796996
63	0xbd85028a	-0.06494625
64	0x3c70b258	0.014690958
65	0x3dacc78d	0.08436499
66	0x3d19b8f5	0.037529904
67	0xbdb4ca92	-0.088277
68	0xbba752f0	-0.0051063225
69	0x3c7a2dee	0.01526974
70	0x3c6bf707	0.014402158
71	0x3d8e6ac7	0.0695396
72	0x3c83122f	0.015999882
73	0xbcba3847	-0.022731913
74	0x3d338b58	0.04383406
75	0xbc72afdc	-0.014812436
76	0xbd76a89a	-0.060219385
77	0x3c5d7372	0.013516294
78	0x3c13ad11	0.00901343
79	0x3d5f6953	0.054543804
80	0xbdb29f94	-0.08721843
81	0xbc5b880d	-0.013399136
82	0xbd1410fd	-0.036149014
83	0xbcff92b6	-0.031197887
84	0xbd506294	-0.05087526
85	0xbcbcb561	-0.023035707
86	0xbdaf710d	-0.085664846
87	0x3d9626ab	0.07331594
88	0xbd4ed18f	-0.05049282
89	0xbd8aca8a	-0.067769125
90	0x3c6fc8a5	0.01463524
91	0x3d28fad6	0.04125484
92	0xbd6d2972	-0.057900853
93	0x3d6a5693	0.05721147
94	0x3c8b3a9f	0.016995726
95	0xbdaa136b	-0.08304485
96	0xbc868ab5	-0.016423563
97	0x3d2a8405	0.04162981
98	0xbce192bc	-0.027535789
99	0x3cd6ee03	0.02623654
100	0xbd3a6fd1	-0.045516793
101	0x3c3e333d	0.011608896
102	0xbc55c1fa	-0.013046736
103	0x3c90a0e8	0.017654851
104	0x3b7c14dd	0.0038464584
105	0xb98d2f0e	-0.00026928674
106	0x3d32614f	0.043549832
107	0x3d6d74d2	0.057972737
108	0xbce67114	-0.028130092
109	0xbd28636b	-0.041110437
110	0x3ca49358	0.02008979
111	0xbd78856f	-0.060674127
112	0x3d0098f5	0.03139587
113	0x3d87d227	0.0663188
114	0xbcc6943a	-0.024240602
115	0x3c8d0529	0.017214375
116	0x3c6f3931	0.014601038
117	0xbd759a85	-0.059961814
118	0x3d4b8170	0.049683988
119	0xbca3ded0	-0.020003706
120	0x3d8931c0	0.06698942
121	0x3d17109f	0.036881085
122	0x3cb3b343	0.021936065
123	0x3cff944d	0.031198645
124	0x3d085ba7	0.03329053
125	0xbcae299f	-0.02126008
126	0x3cd8f7e6	0.026485395
127	0xbd4a28b4	-0.049355224
128	0xbd1c1325	-0.038104195
129	0x3d0d5ec1	0.034514192
130	0x3ccc3aae	0.024930324
131	0x3cc53d10	0.024076968
132	0xbd5ced3d	-0.053937186
133	0xbdeb701a	-0.11495991
134	0xbdc08eab	-0.09402212
135	0xbd09edb0	-0.033673942
136	0x3d3e8cc7	0.046520974
137	0x3b928f5a	0.0044726552
138	0x3d0908c5	0.03345563
139	0x3d4359cf	0.04769307
140	0xbd394070	-0.045227468
141	0x3c4f5df4	0.0126566775
142	0xbd819e6a	-0.06329043
143	0xbd8c918e	-0.068637
144	0x3d656f78	0.056014508
145	0xbdcdff55	-0.10058466
146	0x3d8ce95b	0.068804465
147	0x3d75a12c	0.05996816
148	0x3d3f14ca	0.046650685
149	0x3c4f2a2a	0.01264433
150	0x3d3e100f	0.046402033
151	0xbdc970d4	-0.098359734
152	0xbd19ad2b	-0.03751866
153	0xbc8907ec	-0.01672741
154	0xbda725ea	-0.081615284
155	0xbdbd91dc	-0.09256336
156	0xbd97fdd9	-0.074214645
157	0x3c912ffe	0.01772308
158	0xbcdf900b	-0.027290365
159	0xbdb29fdc	-0.08721897
160	0xbdbcc3c1	-0.092170246
161	0x3d5bd053	0.05366547
162	0xbdd61211	-0.10452665
163	0xbd20bbb4	-0.039241508
164	0xbdbab462	-0.091164365
165	0xbd3b3967	-0.04570904
166	0xbd3ee712	-0.046607085
167	0xbd2cc256	-0.04217752
168	0x3bb4f64d	0.0055225254
169	0xbd7a7c5a	-0.061153747
170	0xbd9226aa	-0.07136281
171	0x3d0acfa5	0.03388943
172	0x3d086cad	0.033306766
173	0x3c3f519f	0.011677175
174	0xbd7849a9	-0.060617123
175	0x3d72b666	0.05925598
176	0x3c11c3cb	0.008896778
177	0xbd8be9f6	-0.06831734
178	0xbd2736ee	-0.04082387
179	0xbdac6964	-0.08418539
180	0x3d1e5682	0.03865672
181	0xbdf5a5fd	-0.119945504
182	0x3d773bf2	0.060359903
183	0xbda47b37	-0.08031314
184	0xbb251798	-0.0025191065
185	0xbd858f9e	-0.065215334
186	0x3cf23bc8	0.029569522
187	0x3d47dc08	0.048793823
188	0x3d2a67e8	0.041603
189	0xbce58d26	-0.028021406
190	0xbd92f21c	-0.07175085
191	0xbd05d30f	-0.032671984
192	0x3cb57267	0.022149278
193	0x3c44ed5b	0.012019481
194	0x3dab40e1	0.08361984
195	0xbd33be54	-0.043882683
196	0xbd5b9056	-0.053604446
197	0xbdb0b24b	-0.08627757
198	0x3d3d592e	0.046227627
199	0x3d542c6b	0.051800173
200	0x3d67305a	0.056442596
201	0x3c5838d9	0.013197147
202	0xbc74a84c	-0.014932703
203	0x3ca6c5a3	0.020357912
204	0xbd954947	-0.07289367
205	0xbc0142c9	-0.007889458
206	0xbdc22eb0	-0.09481561
207	0xbdc5f365	-0.096655644
208	0x3d4f4038	0.050598353
209	0x3ced92fa	0.029000748
210	0xbc42bec9	-0.011886307
211	0x3d8feacc	0.07027206
212	0xbd40da37	-0.047083106
213	0xbce38d3e	-0.02777731
214	0xbd1beec4	-0.0380695
215	0x3d4a8bb8	0.049449652
216	0x3db35bf0	0.0875777
217	0x3cf4b3c8	0.029870883
218	0xbdddaec2	-0.10824348
219	0x3da348d9	0.07972879
220	0x3d60afe2	0.054855235
221	0x3d8cf5e1	0.06882835
222	0xbdb71941	-0.08940364
223	0xbcc2e0f8	-0.023788914
224	0xbd18f3ac	-0.03734176
225	0xb9881697	-0.00025956772
226	0xbd82eb08	-0.06392485
227	0x3d67f894	0.056633547
228	0x3cf357dc	0.02970498
229	0x3d994ee7	0.074857526
230	0xbda87b02	-0.08226587
231	0x3d505be7	0.050868895
232	0x3d6961e2	0.056978114
233	0xbdd453d9	-0.10367555
234	0x3d790cc2	0.060803182
235	0x3d42e0fc	0.047577843
236	0x3d8b792a	0.068102196
237	0xbd9cfb49	-0.07665116
238	0x3d2e44e5	0.04254617
239	0x3d88095f	0.066424124
240	0xbdc69f3e	-0.09698342
241	0xbd72f04b	-0.059311192
242	0xbda1d1e8	-0.079013646
243	0x3cb01654	0.021495022
244	0xbdaf3acb	-0.08556136
245	0xbd46fff1	-0.04858393
246	0xbda92d53	-0.08260598
247	0xbdeed8fc	-0.1166248
248	0xbd45992c	-0.04824178
249	0x3d206eb9	0.039168093
250	0xbd8aea5a	-0.0678298
251	0x3aaaeed2	0.0013041145
252	0xbd3cb9fa	-0.0460758
253	0xbd2634d6	-0.040577732
254	0xb992a5b6	-0.00027970754
255	0xbda54647	-0.08070045

net.2.bias f4 [128]
0	0xbcdaf1a3	-0.02672655
1	0xbd82b24e	-0.06381665
2	0x3dbf0551	0.09327186
3	0xbd866bf7	-0.065635614
4	0xbd812405	-0.06305698
5	0x3d31de3b	0.043424826
6	0xbd5b17ff	-0.05348968
7	0x3dd1e1c5	0.1024814
8	0xbccb3e50	-0.024809986
9	0xbc9d48c4	-0.019199736
10	0xbd955194	-0.072909504
11	0xbdb44a02	-0.08803178
12	0x3e19c5c1	0.15016843
13	0x3c18b480	0.009320378
14	0x3d6aa201	0.057283405
15	0x3a682727	0.0008855932
16	0x3d5e4527	0.054265168
17	0xbd502fac	-0.050826713
18	0x3db870d2	0.09005894
19	0x3d97ec81	0.074181564
20	0x3d3af192	0.045640536
21	0x3ebd93e8	0.37026906
22	0x3d8e7cf8	0.0695743
23	0xbdb3e1ea	-0.08783324
24	0xbd512541	-0.05106092
25	0xbd5613a1	-0.052264813
26	0x3d96e0e0	0.0736711
27	0x3dd53659	0.104107566
28	0x3b392ce6	0.0028255521
29	0x3e1c735c	0.15278381
30	0xbceb2fcb	-0.028709313
31	0x3d10bf7d	0.035338867
32	0x3def2410	0.116768
33	0xbd06dbc5	-0.032924432
34	0xbcb4ebb9	-0.022085058
35	0x3cc376aa	0.023860294
36	0x3d3c66bf	0.045996424
37	0x3ead057a	0.3379324
38	0x3dab915d	0.08377335
39	0x3da78912	0.08180441
40	0x3d6f8c82	0.058483608
41	0x3c8b9342	0.017037991
42	0x3aaff0a3	0.0013423156
43	0x3d870de2	0.06594445
44	0xbd875468	-0.06607896
45	0x3d4a7391	0.04942662
46	0xbd32f263	-0.04368819
47	0x3e716e95	0.2357734
48	0x3e946411	0.28982595
49	0x3ebcbaa0	0.36861134
50	0xbc5d4ee0	-0.013507575
51	0x3d99ce1c	0.07510015
52	0x3e4d46f9	0.20046605
53	0xbdac58c5	-0.08415369
54	0xba26bb16	-0.00063602754
55	0x3e1975aa	0.14986292
56	0x3d67e45e	0.056614272
57	0x3d7ec102	0.062195785
58	0xbdb0f0f5	-0.08639709
59	0xbdd5a9be	-0.104327664
60	0x3c72c780	0.014818072
61	0x3cca2a51	0.024678381
62	0x3cc99f07	0.024611963
63	0xbc1e1a5f	-0.009649842
64	0x3d9d8a40	0.07692385
65	0xbce84414	-0.028352775
66	0x3cdd3fac	0.0270079
67	0x3e8ce74c	0.27520216
68	0xbcd31f00	-0.025771618
69	0xbd903411	-0.07041181
70	0x3e1e207e	0.15442082
71	0xbcc17138	-0.023613557
72	0xbd059787	-0.03261521
73	0x3e02274c	0.12710303
74	0x3d34403a	0.044006564
75	0xbca35f5a	-0.019942928
76	0xbdd58a9c	-0.10426828
77	0xbd802a09	-0.062580176
78	0x3cc1e1f1	0.023667308
79	0x3c3e864c	0.011628699
80	0x3e570c85	0.2100087
81	0xbd42af7a	-0.04753063
82	0xbd8d91d0	-0.06912577
83	0xbcfab146	-0.030602109
84	0x3c399a4b	0.01132829
85	0x3cf6888a	0.030094404
86	0x3c907532	0.017634008
87	0xbcd23018	-0.025657699
88	0x3d4b28fc	0.049599633
89	0x3e280142	0.1640673
90	0xbda47e1a	-0.080318645
91	0x3e200719	0.15627708
92	0x3e98c7dd	0.29839984
93	0x3e688f07	0.2271081
94	0x3cc837bd	0.02444064
95	0x3e463324	0.19355446
96	0x3c55ebc9	0.013056704
97	0x3dd62fdc	0.10458347
98	0xbdaff51e	-0.08591674
99	0x3e0c0bfa	0.13676444
100	0x3d241faa	0.04006926
101	0x3d5cb876	0.053886853
102	0x3d0354c0	0.032063246
103	0xbdbca6d0	-0.092115045
104	0xba0160e2	-0.0004935396
105	0xbcabf516	-0.02099089
106	0x3d53ffdc	0.05175768
107	0x3e3e52b6	0.18586239
108	0xbb9f9ebe	-0.0048712185
109	0x3c4da8f8	0.012552492
110	0x3b56c757	0.0032772624
111	0xbd06f007	-0.03294375
112	0x3b339c6f	0.0027406474
113	0xbd6ddeeb	-0.05807392
114	0xbdb408c3	-0.08790734
115	0xbb968a28	-0.004594106
116	0x3d89993a	0.06718679
117	0x3d716ea1	0.058943395
118	0xbda6741c	-0.08127615
119	0xbd8989a0	-0.06715703
120	0x3d3c4846	0.045967363
121	0xbc714ad0	-0.014727309
122	0xbd5d897d	-0.054086197
123	0xbcb47e83	-0.022032982
124	0x3d730a18	0.059335798
125	0x3d81686f	0.06318747
126	0xbc3a3507	-0.011365182
127	0x3c51088f	0.012758388

net.4.weight f4 [3, 128]
0	0x3d3d1a44	0.046167627
1	0x3d71e0db	0.05905233
2	0xbf751afd	-0.95744306
3	0x3da8aaa7	0.08235674
4	0xbc8cbfff	-0.017181395
5	0xbd5f7fdb	-0.05456529
6	0xbd31da8e	-0.04342132
7	0xbfa73c0c	-1.30652
8	0xbf969e89	-1.1767131
9	0x3cb25f00	0.021773815
10	0x3c208ed9	0.009799683
11	0xbc7dfae9	-0.015501716
12	0xbf32027c	-0.6953504
13	0x3d38a979	0.045083497
14	0xbd9855c3	-0.07438233
15	0x3d967ca5	0.07347993
16	0xc0028767	-2.0395143
17	0xbc890b8f	-0.016729144
18	0xbf08894f	-0.53334516
19	0xbf473cb0	-0.77826977
20	0x3c3ec1cb	0.0116428835
21	0xbf100fca	-0.5627409
22	0x3d95a09a	0.07306023
23	0xbcfca756	-0.03084151
24	0x3d70fd34	0.058835223
25	0xbd249bbe	-0.04018759
26	0xbf18c6d9	-0.5967842
27	0xbf4243af	-0.75884527
28	0x3c76d7bd	0.015066084
29	0xbf8bd412	-1.0924094
30	0xbd32e035	-0.04367085
31	0x3c88f51e	0.016718443
32	0xbfb61453	-1.4224952
33	0x3bd104fb	0.0063787675
34	0x3d385779	0.045005295
35	0xbecb863e	-0.39750856
36	0x3d842f62	0.0645435
37	0xbee74b69	-0.4517472
38	0x3dad781d	0.084701754
39	0xbc8361ab	-0.016037783
40	0xbbf1a64c	-0.0073745605
41	0xbc088541	-0.008332551
42	0x3d42ebff	0.047588345
43	0xbfddc76e	-1.7326486
44	0x3cfc4cad	0.03079828
45	0x3cdc1ca7	0.026869131
46	0xbb556706	-0.0032562627
47	0xbec52414	-0.38504088
48	0xbef195a3	-0.47184476
49	0xbed9b2e0	-0.42519283
50	0xbcec0731	-0.028812023
51	0xbfab9a2c	-1.3406425
52	0xbfd228cf	-1.6418704
53	0xbbe83de6	-0.007087457
54	0xbbf080c2	-0.007339568
55	0xbf365a07	-0.7123112
56	0xbfac5cd3	-1.3465828
57	0x3d9cf214	0.0766336
58	0x3ccf5a47	0.025311602
59	0x3c763fb8	0.01502984
60	0xbd476dec	-0.048688814
61	0x3d73881a	0.05945597
62	0xbc73e113	-0.014885205
63	0xbd4a9dab	-0.04946677
64	0xbff50632	-1.9142516
65	0xbd514cdf	-0.0510987
66	0xbd587f3a	-0.052855708
67	0xbe97c806	-0.29644793
68	0xbfb2a8e2	-1.3957789
69	0xbce3e104	-0.027817257
70	0xbf42c774	-0.7608559
71	0xbfcb2e3b	-1.5873483
72	0x3d1cf09d	0.038315404
73	0xbfb7d768	-1.4362612
74	0xbfa46a53	-1.2844948
75	0xbd01fd75	-0.031735856
76	0x3da80f22	0.08206011
77	0x3d11d1c2	0.03560043
78	0x3d893756	0.067000076
79	0xbf749fd1	-0.9555636
80	0xbfd18c68	-1.6370974
81	0x3c4dfce5	0.012572502
82	0xbb57f0cb	-0.003294992
83	0xbfe253ba	-1.7681801
84	0xbfade302	-1.3584902
85	0xbf653831	-0.89538866
86	0xbd147f39	-0.03625414
87	0x3cdea3de	0.027177747
88	0x3d40ef1c	0.047103032
89	0xbfa1c0ef	-1.2637004
90	0xbab8c6b6	-0.0014097306
91	0xbf425b67	-0.7592072
92	0xbf07a564	-0.5298674
93	0xbf2fdd14	-0.68696713
94	0x3d302959	0.043008182
95	0xbfafaf5e	-1.3725393
96	0x3ce91e43	0.028456813
97	0xbf71e688	-0.9449239
98	0x3d766030	0.060150325
99	0x3fbe12d3	1.4849495
100	0xbc044b25	-0.0080745565
101	0xbc604ab7	-0.013689688
102	0xbf155b2f	-0.5834226
103	0x3da784e9	0.081796475
104	0xbc31ce7f	-0.010852455
105	0xbd8e4b72	-0.06947984
106	0xbf894dbd	-1.0726849
107	0xbef72475	-0.48270002
108	0xbd0ab299	-0.03386173
109	0xbc8ca7a9	-0.01716979
110	0xbf615622	-0.88022053
111	0xbba559ad	-0.0050460906
112	0xbd0b0c26	-0.033947133
113	0x3d2154d3	0.039387535
114	0xbd81c61c	-0.063366145
115	0xbcbdc785	-0.023166427
116	0xbcae8f3f	-0.02130854
117	0x3d6f5ffc	0.058441147
118	0x3d79d95f	0.060998317
119	0x3d823df6	0.06359474
120	0x3d82d339	0.06387944
121	0xbd65cd8f	-0.05610424
122	0xbd64b83e	-0.05583977
123	0x3da11742	0.07865764
124	0x3cfcf87f	0.03088021
125	0x3cbb96ef	0.02289912
126	0xbd08a750	-0.033362687
127	0x3ced2a0a	0.02895071
128	0x3d8a4e9f	0.06753277
129	0xbd8822ff	-0.066473
130	0xbf871fe8	-1.0556612
131	0xbcace778	-0.021106467
132	0x3d54e9d8	0.051980823
133	0x3d6a4a9c	0.05720006
134	0xbd1f456a	-0.038884558
135	0xbfbc1df9	-1.4696647
136	0xbfad811f	-1.355503
137	0x3d3761a3	0.044770848
138	0xbd8e43da	-0.069465354
139	0x3d1fd5ac	0.039022133
140	0xbf2e211c	-0.6801927
141	0x3d18ffd3	0.037353348
142	0xbd89c2e4	-0.067266256
143	0xbd941988	-0.07231432
144	0xbf8f402a	-1.1191456
145	0x3d32b22f	0.04362696
146	0xbf26cfb0	-0.65160656
147	0xbfb944a8	-1.4474077
148	0x3d483105	0.048874874
149	0xbec98b90	-0.3936429
150	0x3cbd74d4	0.023126997
151	0x3d29ad31	0.041424934
152	0x3d2c42cb	0.042055886
153	0x3c79b920	0.015241891
154	0xbf1aae98	-0.6042266
155	0xbf897759	-1.0739547
156	0xbcb6165b	-0.022227457
157	0xbfad8fd1	-1.3559514
158	0x3c9de7d3	0.019275581
159	0x3d77366c	0.060354635
160	0xbfb233bf	-1.3922042
161	0x3c2bc210	0.01048328
162	0x3d9b46e6	0.07581882
163	0xbf661558	-0.8987632
164	0x3cc54f9f	0.024085818
165	0xbeeff3a9	-0.46865585
166	0x3d811890	0.06303513
167	0xbd625197	-0.05525359
168	0x3c86d9cb	0.016461274
169	0x3d66ee92	0.056379862
170	0xbc05b6a5	-0.008161222
171	0xc01f51e3	-2.489373
172	0x3d51d1ef	0.0512256
173	0xbdae57f2	-0.08512868
174	0x3d9a09e1	0.075214155
175	0xbee65f00	-0.44994354
176	0xbf158b52	-0.5841571
177	0xbebe2f40	-0.37145424
178	0x3bf938a3	0.0076056286
179	0xbfacd12e	-1.3501337
180	0xbfb0559f	-1.377613
181	0xbd774a10	-0.060373366
182	0xbda59416	-0.08084886
183	0xbf741c49	-0.9535566
184	0xbfa21af3	-1.2664474
185	0x3c9dd2b6	0.019265514
186	0xbc2bd812	-0.010488527
187	0xbc137ebb	-0.009002383
188	0x3d90cfd6	0.070708916
189	0xbd416e3c	-0.04722427
190	0xb8c2674a	-9.26988e-05
191	0xbab111f8	-0.0013509383
192	0xc001361e	-2.018928
193	0x3ceaec01	0.028676989
194	0xbd84e695	-0.064892925
195	0xbef5580a	-0.4791873
196	0xbfb5f2f0	-1.4214764
197	0xbd913041	-0.07089282
198	0xbf8b37e2	-1.0876429
199	0xbfb0ff2b	-1.3827871
200	0xbd14d5ee	-0.03633683
201	0xbf757715	-0.9588483
202	0xbfa291e0	-1.2700768
203	0x3d3be294	0.04587038
204	0x3d337ce2	0.04382027
205	0xbb8438d9	-0.004035097
206	0x3c8b8872	0.017032836
207	0xbf9055a2	-1.1276133
208	0xbfb97da5	-1.4491469
209	0x3da51876	0.08061306
210	0xbd4f2c42	-0.050579317
211	0xc0252782	-2.5805364
212	0xbfac0175	-1.3437945
213	0xbf94dd6b	-1.1630071
214	0x3d57c181	0.052674774
215	0xbd8db2ae	-0.06918846
216	0x3d877220	0.066135645
217	0xbf994b5f	-1.1976126
218	0x3d810088	0.062989295
219	0xbf6d2af4	-0.92643666
220	0xbed950ac	-0.4244436
221	0xbec6ca35	-0.38826147
222	0xbc917772	-0.017757151
223	0xbfa91180	-1.3208466
224	0x3d5d5581	0.05403662
225	0xbf93755a	-1.1520188
226	0x3cbd864a	0.023135323
227	0x3fb1e622	1.3898356
228	0xbd8afd4e	-0.06786595
229	0xbd3b3cec	-0.045712397
230	0xbf0c90c2	-0.5490838
231	0x3d63de6e	0.055632047
232	0xbceec764	-0.029147811
233	0xbd809f76	-0.06280415
234	0xbf980db0	-1.1879177
235	0xbf16b4aa	-0.5886942
236	0x3d1a4b4a	0.037669457
237	0xbd0f0e9e	-0.03492605
238	0xbf73a537	-0.9517397
239	0x3d5531c3	0.05204941
240	0x3d847e88	0.064694464
241	0x3d827d4f	0.06371557
242	0xbda1f059	-0.07907171
243	0x3d5d7745	0.054068822
244	0x3da43dfd	0.08019636
245	0x3d41aef0	0.047285974
246	0xbd028438	-0.031864375
247	0xbb9eec3a	-0.0048499377
248	0xbcb20324	-0.021730013
249	0x3d94c8e6	0.07264881
250	0x3d163d15	0.036679346
251	0xbcfc65f5	-0.030810336
252	0x3c7a2104	0.015266661
253	0x3d49adaa	0.049237885
254	0x3daf6202	0.085636154
255	0x3c9d03e2	0.01916689

net.4.bias f4 [3]
0	0xbef4892e	-0.4776091
1	0xbe122c95	-0.14274819
2	0xbe80d3bb	-0.25161538

net.0.weight f4 [128, 2]
0	0x3ca9dbb5	0.020734647
1	0x3f27d4b4	0.65558934
2	0x3f0cff8b	0.5507743
3	0x4012e961	2.2954943
4	0xbda4f389	-0.08054263
5	0xbe543797	-0.20724331
6	0xbf22bd74	-0.6357033
7	0xbe8cf296	-0.27528828
8	0x3edee51c	0.43534172
9	0x3db9d8aa	0.090745285
10	0xbf15606e	-0.58350265
11	0xbe8570dd	-0.2606267
12	0xbcaff41c	-0.021478705
13	0xc0e9504f	-7.2910533
14	0x3ee8a335	0.45437017
15	0xbf249deb	-0.64303464
16	0x3dc71814	0.097213894
17	0xbe014d97	-0.12627254
18	0xbe16483e	-0.14675996
19	0xbefb7421	-0.49112037
20	0x3b06ee2a	0.0020588734
21	0x3f281774	0.65660787
22	0xbf2083e6	-0.6270126
23	0xbf7881d4	-0.970731
24	0x3da71d10	0.0815984
25	0xbf322359	-0.69585186
26	0x3f14eb6c	0.58171725
27	0x3f1b0b20	0.6056385
28	0x3d07f2d3	0.03319056
29	0x3ede9a49	0.43477085
30	0x3ea8d4be	0.3297481
31	0x3dafa80e	0.08576976
32	0x3d75e3cb	0.060031693
33	0xbef171dc	-0.4715718
34	0xbf00e710	-0.50352573
35	0xbf573075	-0.84058315
36	0xbe250563	-0.16115336
37	0xbed980a6	-0.42480963
38	0x3b61c140	0.0034447461
39	0x3f2afc77	0.6679148
40	0x3e8e459b	0.2778748
41	0xbe4ac3de	-0.1980128
42	0xbf168980	-0.5880356
43	0xbf8cffee	-1.1015604
44	0xbe5784f1	-0.21046807
45	0xbf101b19	-0.5629135
46	0x3e552971	0.2081659
47	0xbf8a5da3	-1.0809826
48	0x3e62642a	0.22108522
49	0x3f8bacac	1.091207
50	0xbf1a93e7	-0.6038193
51	0xbea75d09	-0.32688168
52	0xbf1e6165	-0.6186736
53	0xc0659eca	-3.5878167
54	0x3e5f1abf	0.21787547
55	0x3c3b478c	0.011430632
56	0xbf390874	-0.72278523
57	0x3fe659d8	1.7996168
58	0xbf2951f5	-0.6614068
59	0xbf9be3dc	-1.2178912
60	0xbf205258	-0.62625647
61	0xc0057ffb	-2.0859363
62	0xbeb0969f	-0.34489915
63	0x40afd480	5.49469
64	0x3ec792e5	0.3897926
65	0xbee4e2a2	-0.44704157
66	0xbf26b2e2	-0.65116704
67	0xbfa7217a	-1.3057091
68	0x3eb6350b	0.35587344
69	0x3eb5eccc	0.35532224
70	0xbecc2e5f	-0.39879128
71	0xbeb08c7d	-0.34482184
72	0xbe0da6b3	-0.13833122
73	0xbf46f566	-0.777182
74	0x3e9aea39	0.30256823
75	0xbeb10b7b	-0.3457907
76	0xbee9dcb7	-0.45676205
77	0xbfd544cc	-1.666162
78	0x3f0bda58	0.5463004
79	0xc0b3f8b7	-5.6241107
80	0xbf71974c	-0.94371486
81	0xc03105ee	-2.765987
82	0xbf19ef3b	-0.6013066
83	0xbfb27899	-1.3943053
84	0xbf05ca49	-0.5226179
85	0x408b9a6c	4.3626003
86	0x3e378514	0.17921859
87	0x3e853890	0.26019716
88	0x3dc271c1	0.09494353
89	0xbf012c12	-0.5045787
90	0x3f2bdd3a	0.6713444
91	0xbf0e283d	-0.5553015
92	0x3f0fdbcc	0.5619476
93	0xbe2bf480	-0.16792488
94	0x3f213da5	0.6298469
95	0xbd15213a	-0.03640864
96	0x3f030073	0.5117256
97	0xbf7148f9	-0.9425197
98	0x3ef76c2d	0.4832472
99	0xc019d9f2	-2.4039273
100	0xbe93e857	-0.288882
101	0xbe05dad6	-0.1307176
102	0xbf2c08f4	-0.6720116
103	0xbf8cc535	-1.0997683
104	0xbf04279e	-0.5162295
105	0xbf7ab1cd	-0.9792755
106	0xbede5c13	-0.43429622
107	0xbf44f0a4	-0.7692969
108	0x3e7e08c4	0.24808031
109	0x3e87de32	0.2653671
110	0xbe53fa2a	-0.20700899
111	0xbdf0d1fa	-0.117588
112	0x3f34d29d	0.7063387
113	0xbed3f2b0	-0.41396093
114	0xbe4b84c1	-0.1987486
115	0xbda5f66c	-0.08103642
116	0x3df70c9a	0.120629504
117	0xbe4e6d73	-0.20158939
118	0xbeddf6f6	-0.4335248
119	0xbfa84513	-1.314608
120	0x3d086c29	0.033306275
121	0xbf04c2ef	-0.51859945
122	0x3dba0cfd	0.090845086
123	0x3c822f01	0.015891554
124	0x3ef59e48	0.47972322
125	0xbe3a5630	-0.1819694
126	0x3dff4aa7	0.12465411
127	0xbdb04c10	-0.08608258
128	0x3f0e8d28	0.5568414
129	0x3e95a0a0	0.2922411
130	0x3efc4360	0.49270153
131	0xbf1e25c2	-0.61776364
132	0xbdf1b2f0	-0.11801708
133	0x3f0cbc07	0.54974407
134	0xbe8b65e0	-0.27226162
135	0x3e857bb7	0.2607095
136	0xbd37a3c5	-0.044833917
137	0x41019856	8.099691
138	0x3eaf52bd	0.34242812
139	0x3e7469e1	0.23868515
140	0xbe234db3	-0.15947609
141	0xbfb86bc0	-1.4407883
142	0xbca6b6ab	-0.020350775
143	0x3eeb4552	0.45951325
144	0x3e945518	0.2897117
145	0x3f133177	0.5749735
146	0xbd7c1088	-0.061539203
147	0xbe7612a4	-0.24030548
148	0x3f18a58a	0.5962759
149	0xbc8cded5	-0.017196098
150	0x3ef45fde	0.4772939
151	0x3ec6b7e3	0.3881217
152	0x3f16c2ae	0.5889081
153	0xbf92febf	-1.1483992
154	0x3eb938e4	0.36176217
155	0xbd88e03c	-0.06683394
156	0xbf175358	-0.5911155
157	0xc03803f5	-2.8752415
158	0xbf1cd33f	-0.61259836
159	0xbe05a5f6	-0.1305159
160	0x3f0f6dbb	0.5602681
161	0xbdd9631d	-0.106146075
162	0x3f692a76	0.91080415
163	0x3fd30421	1.6485635
164	0x3edb371f	0.42815492
165	0x41178bc6	9.471624
166	0x3e9b86fe	0.30376428
167	0x3f485012	0.7824718
168	0x3e92d6b4	0.2867943
169	0xbf6b4d88	-0.9191518
170	0x3f0dd309	0.5540014
171	0x3c9ba08d	0.018997455
172	0xbe9cd163	-0.306285
173	0xc04a408f	-3.1601903
174	0x3ebcb2e7	0.36855242
175	0x3e4738c2	0.19455245
176	0xbe652bc6	-0.2237998
177	0xbf31bbdf	-0.69427294
178	0x3e96a36d	0.2942156
179	0xbe2be982	-0.16788295
180	0x3e1ab983	0.1510983
181	0xbfb22f4d	-1.3920685
182	0x3e475fc3	0.19470124
183	0xbf0d301b	-0.5515153
184	0xbea1aff7	-0.31579563
185	0x3e5f2255	0.2179044
186	0x3f1bf642	0.60922635
187	0x40033194	2.049901
188	0x3f2d3dcc	0.6767242
189	0xbf563fe7	-0.8369126
190	0xbda81817	-0.0820772
191	0x402117ad	2.51707
192	0xbe583567	-0.21114121
193	0x3efd975a	0.49529535
194	0x3e95d369	0.29262856
195	0xbe7ddc00	-0.24790955
196	0x3e184b19	0.14872397
197	0xc0ae71b3	-5.4513793
198	0xbebad773	-0.364925
199	0xc0cbb760	-6.3661346
200	0x3ef74ab0	0.4829917
201	0x3f5b3628	0.8562951
202	0x3e71f98e	0.23630354
203	0x3f6b7ee5	0.919905
204	0x3d9cb368	0.076514065
205	0xbf97df21	-1.1864969
206	0x3d2dd78a	0.042441882
207	0x3eb0c4de	0.34525198
208	0xbefb0857	-0.490298
209	0x40b84aab	5.7591147
210	0x3e7b6118	0.24548757
211	0x3e519b5e	0.20469424
212	0x3f2c639c	0.6733949
213	0x3f2974dd	0.66193944
214	0x3f01e109	0.50734
215	0xbf66a160	-0.9008999
216	0xbf30b9db	-0.6903359
217	0x406f7a37	3.7418344
218	0xbf134d87	-0.5754017
219	0xbfaa3157	-1.3296307
220	0xbf0ec1c1	-0.55764395
221	0xbe9023a6	-0.28152198
222	0x3ec926fd	0.39287558
223	0x409ff51e	4.9986715
224	0xbed3c638	-0.41362166
225	0xbe3c5bba	-0.18394366
226	0x3e171fc2	0.14758208
227	0x3f1f02cb	0.62113637
228	0xbea8ccb9	-0.3296869
229	0x410122a8	8.070961
230	0x3e990b48	0.2989142
231	0xbf231c27	-0.6371483
232	0x3edc6a17	0.4304969
233	0x3f462aae	0.77408874
234	0xbe2cc592	-0.16872242
235	0xbf6f2966	-0.93422544
236	0x3e2d0235	0.16895373
237	0x3e155998	0.14584959
238	0x3eaf2a5a	0.34212
239	0xbe28b96b	-0.16476981
240	0xbdac79e0	-0.08421683
241	0xbf0bd954	-0.5462849
242	0xbeb3fee9	-0.3515542
243	0xbf908c5a	-1.1292832
244	0xbefca4b9	-0.49344423
245	0xc056c6d3	-3.3558853
246	0xbf45d60f	-0.7727975
247	0xbf8734d9	-1.0563003
248	0xbe5be454	-0.21473819
249	0x3f07c0d1	0.5302859
250	0xbe8396da	-0.25701028
251	0xbf75b9bc	-0.95986533
252	0x3ec25f12	0.37963158
253	0x3f1ac2f9	0.60453755
254	0xbccc2ff0	-0.024925202
255	0xbf3094af	-0.68976873

net.0.bias f4 [128]
0	0xbee47e6f	-0.4462771
1	0x3e2ccc2c	0.1687476
2	0xbe36b32d	-0.17841788
3	0x3ea02be2	0.3128348
4	0xbf0445b7	-0.51668876
5	0x3ed2a34f	0.4114022
6	0xbca6b8f0	-0.020351857
7	0xbe8093e0	-0.2511282
8	0xbf173722	-0.590685
9	0xbe57fd6e	-0.2109277
10	0xbec2e4b9	-0.38065127
11	0x3ea22f3e	0.31676668
12	0xbf303b3f	-0.688404
13	0xbeb61f40	-0.35570717
14	0xbe450165	-0.19238813
15	0x3f13a8ab	0.5767924
16	0xbe8bc014	-0.2729498
17	0x3e91d081	0.28479388
18	0xbf008674	-0.5020516
19	0xbf1cd3c8	-0.6126065
20	0x3ed07566	0.40714568
21	0x3f2e0b8a	0.6798636
22	0x3ec730e7	0.38904497
23	0x3edf9514	0.43668425
24	0x3ea8ed71	0.32993653
25	0x3e99ceaf	0.300405
26	0xbecf808f	-0.4052777
27	0x3ee72e69	0.45152596
28	0xbeee65e0	-0.465621
29	0x3eadcaa0	0.33943653
30	0x3eafcd8f	0.34336516
31	0xbec42e5f	-0.38316628
32	0x3f15d862	0.585333
33	0x3eac588b	0.33661303
34	0x3ee4c567	0.44681856
35	0xbf0e4312	-0.5557109
36	0x3ec53ac3	0.38521394
37	0x3f2fac4a	0.6862227
38	0x3e9de346	0.30837458
39	0x3e9a908a	0.301884
40	0xbc52abb8	-0.012858324
41	0x3ee19e70	0.4406619
42	0xbeda46cc	-0.4263214
43	0x3f2c48c3	0.67298526
44	0xbe1857ec	-0.1487729
45	0x3f2301cf	0.63674635
46	0x3f35af55	0.7097066
47	0xbebbc95a	-0.36677057
48	0x3e93a358	0.2883556
49	0x3e915cc3	0.28391084
50	0xbeea67e6	-0.45782393
51	0x3f23fc1d	0.6405657
52	0x3e870e86	0.26378268
53	0x3ea606a3	0.32426938
54	0xbe0c6b42	-0.1371279
55	0x3e9102b5	0.28322378
56	0xbf006dbf	-0.5016746
57	0xbf03dc63	-0.5150816
58	0xbf0c48e7	-0.5479874
59	0x3e5d8108	0.21631253
60	0x3e95fd23	0.2929469
61	0xbeaa3f03	-0.332512
62	0x3f067582	0.5252305
63	0xbf09f458	-0.53888464
64	0x3f48d282	0.7844621
65	0xbf07be29	-0.53024536
66	0xbe4f4c30	-0.20243907
67	0x3f3b144a	0.73077834
68	0xbe8f9695	-0.28044572
69	0x3ed82fb4	0.42223895
70	0x3d733222	0.059373982
71	0xbf2eea86	-0.68326604
72	0xbe403a6f	-0.1877229
73	0xbe759ea1	-0.23986293
74	0x3f3a8e64	0.7287352
75	0x3f18d165	0.5969451
76	0x3ea84df7	0.32871982
77	0xbf25bac0	-0.6473808
78	0xbefeacc1	-0.49741176
79	0x3f347fa1	0.70507246
80	0xbf1afe9a	-0.6054474
81	0x3f168a8c	0.58805156
82	0xbe2b1a77	-0.16709314
83	0x3ed15ace	0.4088959
84	0x3ef90937	0.48639843
85	0x3f296341	0.66167074
86	0xbf13efca	-0.57787764
87	0x3f0600fb	0.52345246
88	0xbeb1471b	-0.34624562
89	0xbf0bec1a	-0.5465714
90	0x3eedf715	0.4647757
91	0xbf13a452	-0.5767261
92	0x3f2d1d8a	0.676232
93	0x3e53234b	0.20618932
94	0x3ec3c697	0.3823745
95	0x3c853d71	0.01626465
96	0xbf17ffca	-0.5937468
97	0x3ea6a891	0.3255048
98	0x3e526cee	0.20549366
99	0xbe7dc4e0	-0.24782133
100	0x3e9a744d	0.30166855
101	0x3eab36cf	0.33440253
102	0x3ef86540	0.48514748
103	0x3ed5154d	0.41617814
104	0xbee263c2	-0.44216734
105	0x3e9d3d98	0.30711055
106	0xbf3062e9	-0.68900925
107	0x3e908c14	0.2823187
108	0xbf03c735	-0.5147584
109	0x3eb3f66f	0.3514895
110	0x3e9a540f	0.30142257
111	0x3e97da62	0.296588
112	0x3f2f9197	0.6858153
113	0xbe88d07b	-0.26721558
114	0xbee02a60	-0.4378233
115	0x3f177f0a	0.5917822
116	0x3f0ef7e4	0.55847
117	0x3ec6f87f	0.38861462
118	0xbeba8df2	-0.3643642
119	0x3f07d34b	0.5305678
120	0x3eb5284f	0.35382316
121	0x3f0af8ec	0.54286075
122	0xbed0d6df	-0.40788934
123	0x3f03fcfb	0.5155789
124	0xbf298597	-0.66219467
125	0x3ec01661	0.37517074
126	0xbf0c05ea	-0.54696524
127	0x3f30fa2d	0.6913174

net.2.weight f4 [128, 128]
0	0x3d200471	0.039066736
1	0x3d7a898c	0.06116633
2	0x3cdecb74	0.027196623
3	0x3cce39fc	0.025174133
4	0x3c21661b	0.009851004
5	0x3d93caad	0.07216392
6	0x3cb7ac53	0.022421038
7	0xbd3b7f78	-0.04577586
8	0xbd0b632c	-0.034030125
9	0xbb5044e9	-0.0031779355
10	0xbd2216ba	-0.039572455
11	0x3d7f8bd4	0.06238921
12	0x3b9dd75a	0.0048169317
13	0xbd8b0a82	-0.067891136
14	0xbc1f9fa8	-0.009742655
15	0xbda9df7e	-0.08294581
16	0x3db0d9c7	0.08635288
17	0xbcdfcb7e	-0.027318712
18	0xbb62a40e	-0.0034582647
19	0xbd5a7f59	-0.053344104
20	0xbcff13c9	-0.031137364
21	0x3d0f5949	0.03499726
22	0xbd7447c5	-0.059638757
23	0x3d86f4fc	0.06589696
24	0xbc573535	-0.013135244
25	0x3da1fb17	0.0790922
26	0xbca3c33c	-0.019990556
27	0x3d882a3a	0.06648679
28	0x3d9272a1	0.0715077
29	0x3d8c93d8	0.068641365
30	0xbd65ab8b	-0.0560718
31	0x3b75320b	0.003741386
32	0x3da0104d	0.07815609
33	0x3d4fb690	0.050711215
34	0xbc5196a5	-0.012792264
35	0x3978e9a2	0.00023738158
36	0x3d893375	0.06699268
37	0xbda09692	-0.07841219
38	0x3bb2bd3c	0.0054546874
39	0xbac508c1	-0.0015032516
40	0xbca775ce	-0.020441916
41	0xbd8fc8a6	-0.070206925
42	0xbac8ca11	-0.001531901
43	0xbcaff746	-0.021480214
44	0xbda89f2e	-0.08233486
45	0x3b614ff0	0.0034379922
46	0xbd90dedc	-0.07073757
47	0x3cab138b	0.020883342
48	0x3babf0f4	0.0052472297
49	0x3d2f1b96	0.042750917
50	0xbd2ce3bc	-0.042209372
51	0xbd8b28f3	-0.0679492
52	0xbd324e6a	-0.043531813
53	0xbd2d319b	-0.042283636
54	0xbc3bd6b5	-0.011464764
55	0xbd873cb0	-0.06603372
56	0xbd9f31ac	-0.07773146
57	0x3cd4b064	0.025963016
58	0x3cda983b	0.026683917
59	0xbd7ce1a6	-0.061738633
60	0x3cb1529f	0.021645842
61	0x3d846557	0.064646415
62	0x3d6cbc8b	0.057796996
63	0xbd85028a	-0.06494625
64	0x3c70b258	0.014690958
65	0x3dacc78d	0.08436499
66	0x3d19b8f5	0.037529904
67	0xbdb4ca92	-0.088277
68	0xbba752f0	-0.0051063225
69	0x3c7a2dee	0.01526974
70	0x3c6bf707	0.014402158
71	0x3d8e6ac7	0.0695396
72	0x3c83122f	0.015999882
73	0xbcba3847	-0.022731913
74	0x3d338b58	0.04383406
75	0xbc72afdc	-0.014812436
76	0xbd76a89a	-0.060219385
77	0x3c5d7372	0.013516294
78	0x3c13ad11	0.00901343
79	0x3d5f6953	0.054543804
80	0xbdb29f94	-0.08721843
81	0xbc5b880d	-0.013399136
82	0xbd1410fd	-0.036149014
83	0xbcff92b6	-0.031197887
84	0xbd506294	-0.05087526
85	0xbcbcb561	-0.023035707
86	0xbdaf710d	-0.085664846
87	0x3d9626ab	0.07331594
88	0xbd4ed18f	-0.05049282
89	0xbd8aca8a	-0.067769125
90	0x3c6fc8a5	0.01463524
91	0x3d28fad6	0.04125484
92	0xbd6d2972	-0.057900853
93	0x3d6a5693	0.05721147
94	0x3c8b3a9f	0.016995726
95	0xbdaa136b	-0.08304485
96	0xbc868ab5	-0.016423563
97	0x3d2a8405	0.04162981
98	0xbce192bc	-0.027535789
99	0x3cd6ee03	0.02623654
100	0xbd3a6fd1	-0.045516793
101	0x3c3e333d	0.011608896
102	0xbc55c1fa	-0.013046736
103	0x3c90a0e8	0.017654851
104	0x3b7c14dd	0.0038464584
105	0xb98d2f0e	-0.00026928674
106	0x3d32614f	0.043549832
107	0x3d6d74d2	0.057972737
108	0xbce67114	-0.028130092
109	0xbd28636b	-0.041110437
110	0x3ca49358	0.02008979
111	0xbd78856f	-0.060674127
112	0x3d0098f5	0.03139587
113	0x3d87d227	0.0663188
114	0xbcc6943a	-0.024240602
115	0x3c8d0529	0.017214375
116	0x3c6f3931	0.014601038
117	0xbd759a85	-0.059961814
118	0x3d4b8170	0.049683988
119	0xbca3ded0	-0.020003706
120	0x3d8931c0	0.06698942
121	0x3d17109f	0.036881085
122	0x3cb3b343	0.021936065
123	0x3cff944d	0.031198645
124	0x3d085ba7	0.03329053
125	0xbcae299f	-0.02126008
126	0x3cd8f7e6	0.026485395
127	0xbd4a28b4	-0.049355224
128	0xbd1c1325	-0.038104195
129	0x3d0d5ec1	0.034514192
130	0x3ccc3aae	0.024930324
131	0x3cc53d10	0.024076968
132	0xbd5ced3d	-0.053937186
133	0xbdeb701a	-0.11495991
134	0xbdc08eab	-0.09402212
135	0xbd09edb0	-0.033673942
136	0x3d3e8cc7	0.046520974
137	0x3b928f5a	0.0044726552
138	0x3d0908c5	0.03345563
139	0x3d4359cf	0.04769307
140	0xbd394070	-0.045227468
141	0x3c4f5df4	0.0126566775
142	0xbd819e6a	-0.06329043
143	0xbd8c918e	-0.068637
144	0x3d656f78	0.056014508
145	0xbdcdff55	-0.10058466
146	0x3d8ce95b	0.068804465
147	0x3d75a12c	0.05996816
148	0x3d3f14ca	0.046650685
149	0x3c4f2a2a	0.01264433
150	0x3d3e100f	0.046402033
151	0xbdc970d4	-0.098359734
152	0xbd19ad2b	-0.03751866
153	0xbc8907ec	-0.01672741
154	0xbda725ea	-0.081615284
155	0xbdbd91dc	-0.09256336
156	0xbd97fdd9	-0.074214645
157	0x3c912ffe	0.01772308
158	0xbcdf900b	-0.027290365
159	0xbdb29fdc	-0.08721897
160	0xbdbcc3c1	-0.092170246
161	0x3d5bd053	0.05366547
162	0xbdd61211	-0.10452665
163	0xbd20bbb4	-0.039241508
164	0xbdbab462	-0.091164365
165	0xbd3b3967	-0.04570904
166	0xbd3ee712	-0.046607085
167	0xbd2cc256	-0.04217752
168	0x3bb4f64d	0.0055225254
169	0xbd7a7c5a	-0.061153747
170	0xbd9226aa	-0.07136281
171	0x3d0acfa5	0.03388943
172	0x3d086cad	0.033306766
173	0x3c3f519f	0.011677175
174	0xbd7849a9	-0.060617123
175	0x3d72b666	0.05925598
176	0x3c11c3cb	0.008896778
177	0xbd8be9f6	-0.06831734
178	0xbd2736ee	-0.04082387
179	0xbdac6964	-0.08418539
180	0x3d1e5682	0.03865672
181	0xbdf5a5fd	-0.119945504
182	0x3d773bf2	0.060359903
183	0xbda47b37	-0.08031314
184	0xbb251798	-0.0025191065
185	0xbd858f9e	-0.065215334
186	0x3cf23bc8	0.029569522
187	0x3d47dc08	0.048793823
188	0x3d2a67e8	0.041603
189	0xbce58d26	-0.028021406
190	0xbd92f21c	-0.07175085
191	0xbd05d30f	-0.032671984
192	0x3cb57267	0.022149278
193	0x3c44ed5b	0.012019481
194	0x3dab40e1	0.08361984
195	0xbd33be54	-0.043882683
196	0xbd5b9056	-0.053604446
197	0xbdb0b24b	-0.08627757
198	0x3d3d592e	0.046227627
199	0x3d542c6b	0.051800173
200	0x3d67305a	0.056442596
201	0x3c5838d9	0.013197147
202	0xbc74a84c	-0.014932703
203	0x3ca6c5a3	0.020357912
204	0xbd954947	-0.07289367
205	0xbc0142c9	-0.007889458
206	0xbdc22eb0	-0.09481561
207	0xbdc5f365	-0.096655644
208	0x3d4f4038	0.050598353
209	0x3ced92fa	0.029000748
210	0xbc42bec9	-0.011886307
211	0x3d8feacc	0.07027206
212	0xbd40da37	-0.047083106
213	0xbce38d3e	-0.02777731
214	0xbd1beec4	-0.0380695
215	0x3d4a8bb8	0.049449652
216	0x3db35bf0	0.0875777
217	0x3cf4b3c8	0.029870883
218	0xbdddaec2	-0.10824348
219	0x3da348d9	0.07972879
220	0x3d60afe2	0.054855235
221	0x3d8cf5e1	0.06882835
222	0xbdb71941	-0.08940364
223	0xbcc2e0f8	-0.023788914
224	0xbd18f3ac	-0.03734176
225	0xb9881697	-0.00025956772
226	0xbd82eb08	-0.06392485
227	0x3d67f894	0.056633547
228	0x3cf357dc	0.02970498
229	0x3d994ee7	0.074857526
230	0xbda87b02	-0.08226587
231	0x3d505be7	0.050868895
232	0x3d6961e2	0.056978114
233	0xbdd453d9	-0.10367555
234	0x3d790cc2	0.060803182
235	0x3d42e0fc	0.047577843
236	0x3d8b792a	0.068102196
237	0xbd9cfb49	-0.07665116
238	0x3d2e44e5	0.04254617
239	0x3d88095f	0.066424124
240	0xbdc69f3e	-0.09698342
241	0xbd72f04b	-0.059311192
242	0xbda1d1e8	-0.079013646
243	0x3cb01654	0.021495022
244	0xbdaf3acb	-0.08556136
245	0xbd46fff1	-0.04858393
246	0xbda92d53	-0.08260598
247	0xbdeed8fc	-0.1166248
248	0xbd45992c	-0.04824178
249	0x3d206eb9	0.039168093
250	0xbd8aea5a	-0.0678298
251	0x3aaaeed2	0.0013041145
252	0xbd3cb9fa	-0.0460758
253	0xbd2634d6	-0.040577732
254	0xb992a5b6	-0.00027970754
255	0xbda54647	-0.08070045

net.2.bias f4 [128]
0	0xbcdaf1a3	-0.02672655
1	0xbd82b24e	-0.06381665
2	0x3dbf8411	0.093513615
3	0xbd866bf7	-0.065635614
4	0xbd812405	-0.06305698
5	0x3d31de3b	0.043424826
6	0xbd5b17ff	-0.05348968
7	0x3dd41ab8	0.10356659
8	0xbcc47684	-0.023982294
9	0xbc9d48c4	-0.019199736
10	0xbd955194	-0.072909504
11	0xbdb44a02	-0.08803178
12	0x3e19d277	0.15021692
13	0x3c18b480	0.009320378
14	0x3d6aa201	0.057283405
15	0x3a682727	0.0008855932
16	0x3d605021	0.054763917
17	0xbd502fac	-0.050826713
18	0x3db88185	0.09009079
19	0x3d9997ca	0.074996546
20	0x3d3af192	0.045640536
21	0x3ebda0bd	0.37036696
22	0x3d8e7cf8	0.0695743
23	0xbdb3e1ea	-0.08783324
24	0xbd512541	-0.05106092
25	0xbd5613a1	-0.052264813
26	0x3d976add	0.073934294
27	0x3dd6a2b9	0.10480256
28	0x3b392ce6	0.0028255521
29	0x3e1ccd00	0.15312576
30	0xbceb2fcb	-0.028709313
31	0x3d10bf7d	0.035338867
32	0x3def25a8	0.11677104
33	0xbd06dbc5	-0.032924432
34	0xbcb4ebb9	-0.022085058
35	0x3ccebcf3	0.025236582
36	0x3d3c66bf	0.045996424
37	0x3eace253	0.33766422
38	0x3dab915d	0.08377335
39	0x3da78912	0.08180441
40	0x3d6f8c82	0.058483608
41	0x3c8b9342	0.017037991
42	0x3aaff0a3	0.0013423156
43	0x3d88c9a7	0.06679087
44	0xbd875468	-0.06607896
45	0x3d4a7391	0.04942662
46	0xbd32f263	-0.04368819
47	0x3e711908	0.23544705
48	0x3e945676	0.28972214
49	0x3ebc92b1	0.36830667
50	0xbc5d4ee0	-0.013507575
51	0x3d99d807	0.07511907
52	0x3e4d7673	0.20064716
53	0xbdac58c5	-0.08415369
54	0xba26bb16	-0.00063602754
55	0x3e19bade	0.1501269
56	0x3d6bf131	0.057603065
57	0x3d7ec102	0.062195785
58	0xbdb0f0f5	-0.08639709
59	0xbdd5a9be	-0.104327664
60	0x3c72c780	0.014818072
61	0x3cca2a51	0.024678381
62	0x3cc99f07	0.024611963
63	0xbc1e1a5f	-0.009649842
64	0x3d9f84c2	0.077889934
65	0xbce84414	-0.028352775
66	0x3cdd3fac	0.0270079
67	0x3e8cb362	0.27480608
68	0xbcd31f00	-0.025771618
69	0xbd903411	-0.07041181
70	0x3e1e5ea4	0.1546579
71	0xbcc17138	-0.023613557
72	0xbd059787	-0.03261521
73	0x3e00907f	0.12555121
74	0x3d358424	0.044315472
75	0xbca35f5a	-0.019942928
76	0xbdd58a9c	-0.10426828
77	0xbd802a09	-0.062580176
78	0x3cc1e1f1	0.023667308
79	0x3c4ead8a	0.012614617
80	0x3e5728ac	0.21011609
81	0xbd42af7a	-0.04753063
82	0xbd8d91d0	-0.06912577
83	0xbcf3f687	-0.02978064
84	0x3c34a701	0.011026145
85	0x3cfb17ac	0.030650936
86	0x3c907532	0.017634008
87	0xbcd23018	-0.025657699
88	0x3d4b28fc	0.049599633
89	0x3e27f3b3	0.16401558
90	0xbda47e1a	-0.080318645
91	0x3e20507a	0.156557
92	0x3e98c076	0.29834336
93	0x3e68d70a	0.22738281
94	0x3cc837bd	0.02444064
95	0x3e468cdd	0.19389673
96	0x3c55ebc9	0.013056704
97	0x3dd71a0d	0.10503016
98	0xbdaff51e	-0.08591674
99	0x3e0c6abb	0.1371259
100	0x3d241faa	0.04006926
101	0x3d5cb876	0.053886853
102	0x3d0585ab	0.03259818
103	0xbdbca6d0	-0.092115045
104	0xba0160e2	-0.0004935396
105	0xbcabf516	-0.02099089
106	0x3d554bda	0.05207429
107	0x3e3e3d49	0.18578066
108	0xbb9f9ebe	-0.0048712185
109	0x3c4da8f8	0.012552492
110	0x3b6ea0bd	0.0036411725
111	0xbd06f007	-0.03294375
112	0x3b339c6f	0.0027406474
113	0xbd6ddeeb	-0.05807392
114	0xbdb408c3	-0.08790734
115	0xbb968a28	-0.004594106
116	0x3d89993a	0.06718679
117	0x3d716ea1	0.058943395
118	0xbda6741c	-0.08127615
119	0xbd8989a0	-0.06715703
120	0x3d3c4846	0.045967363
121	0xbc714ad0	-0.014727309
122	0xbd5d897d	-0.054086197
123	0xbcb47e83	-0.022032982
124	0x3d730a18	0.059335798
125	0x3d81686f	0.06318747
126	0xbc3a3507	-0.011365182
127	0x3c51088f	0.012758388
